backend/api/ml/models/model_8a9887e4-28da-4a47-bbb6-f677aa590c98.pth (torch, 23353 bytes, 6 tensors)

lstm.weight_ih_l0 f4 [128, 4]
00000000: 8bc2 1f3e ac20 f2bd 89ce f9bd 7a08 f43d
00000010: d600 a3bd 3885 a3bd 67d1 92bd 18c2 59bd
00000020: c67f 08bb f13d e6bd 112e 1bbe 5ce8 313e
00000030: 20ea 9a3d 13cd 683d 1780 8e3c 310e e2bd
00000040: c421 273e c77a a2bd 1eb8 11be 6d28 7d3c
00000050: 7e66 183d 5864 b7bd 854b ac3d 8790 bcbc
00000060: ede4 14be 56ef 043e 61c1 2abe 11d4 28be
00000070: 9684 03be b06d d53d af48 283d eae0 9a3b
00000080: 1d45 633d cb7f 853d c917 233e fea3 4d3d
00000090: ffce 9c3d be0d 0b3e b45c 363d 1e94 013e
000000a0: 124d f8bd c740 833d ceee 113e 6456 b8bd
000000b0: 33ae b0bb 7a84 6fbd 069f 5f3e 5fbf 2ebe
000000c0: e6c9 2b3e aa28 b33d a7d3 053d b501 a63d
000000d0: 3d4b e2bd 602a 0dbe 9915 d03d fb39 3d3b
000000e0: 57fd fb3d e82d 4a3d 5d05 8bbc 8ef5 9abc
000000f0: ecc3 153e 4918 ed3d d507 c4bd c7bd 193e
00000100: f334 a73d fea8 643d ddc4 84bd 4c28 f7bd
00000110: 842b 4b3d 6cb8 423d 1165 09bb 9236 f53d
00000120: 2063 38be 876d 00be bf46 1cbe 4cc1 d03c
00000130: 407e 30bd 70f8 203e c111 4b3d 4bae cbbd
00000140: 97a0 7f3d 087c 373c 4c6c 15be ab0c dbbd
00000150: 84fa 063e 8715 f2bd ca8a 763c 2bf3 fa3d
00000160: 4621 1abe 4aed efba 0c98 d73d 37f2 d0bd
00000170: 33b2 4fbc dd4d 003e a0c5 3cbd 6d78 ce3d
00000180: 13d3 76bd aac7 bc3c 2be1 b7bd 2f5d 1a3d
00000190: 0c1b e73b 0dd5 f53d 627e 0bbc 36e7 1d3c
000001a0: c5f5 2dbd 9211 92bd 312b 0c3d 1e03 c9bd
000001b0: b129 ba3d dc01 92bd e2c4 033e 6dd5 c8bd
000001c0: e5b4 8f3d e97d 6f3c 6865 213e 098f df3c
000001d0: 1924 03be 5219 e03c fe7e c83d 05b2 203e
000001e0: 8846 2fbe 1de5 8abd b1b4 44b9 a402 863c
000001f0: 22f3 43be 5399 febd f277 76bd 7493 2abe
00000200: 4526 97ba d8d8 9fbc 5fc2 4b3d 8bf0 31bc
00000210: 32f5 edbd efe3 873d 4df9 8f3d 8d17 333e
00000220: 1717 153e 27e6 16bd 8198 b9bd 0c1d 403e
00000230: a05b b4bd 36de 0d3d fabd 2bbe a879 efbc
00000240: 1598 fd3d 6021 10be 916a 443d 5172 ad3d
00000250: 119b 38bc ac2c be3d 9071 9ebd f1fc f3bd
00000260: d750 debd f76d 033e 06e6 1cbc fce1 e5bd
00000270: 2e8c 1ebe bf86 2fbe fbc1 01bc 46af 95bd
00000280: 6b7a 0dbd b28d c4bd 1eed 9abd fe16 0e3e
00000290: 8b3d 81bd e89f 4bbe cf03 85bd 38b4 75bd
000002a0: 6d7e 923d 834f 30bd ccbb 91bc 776e 9cbd
000002b0: 9cf5 f7bc 4f0a efbd 0477 a3bc 678d b43d
000002c0: 9b3d debd e86b 943c 64e3 f73d e786 efbd
000002d0: 80ec 1a3e 28ee fe3d 3f0d cf3d f74f 233d
000002e0: 2bb9 e13c 59cc b53d c35f ff3d 1851 10b9
000002f0: 6be7 26be 8e52 d6b9 dea8 d6bb f5ed 883c
00000300: 4aec eabd fff0 1cbe deb6 d23b 7050 313e
00000310: b211 9d3c cdce dfbd 8363 283e 42e7 8c3d
00000320: 5673 0cbc 7363 9fbd eef5 97bc 6e01 b13d
00000330: 98f6 6abd 8a72 b53d df37 37be 2fbb bdbc
00000340: c719 023e 3afb 093d 3a60 c43d 414a da3d
00000350: 862e 05be 872d 41be 87c6 253d 2eb5 673d
00000360: 33d8 e93b 98a6 ad3d d1da 123e ad54 14be
00000370: 2ae0 063e 5826 06be 5a54 39be 2394 573c
00000380: 0005 a33d 658c 443d 9b40 a3bd a32a 133d
00000390: 72fd 2bbd a20a 72bd 78b0 dfbd b608 d23d
000003a0: 0538 fdbd d1c0 c23c 4db1 64bc 8156 e93d
000003b0: d65d 8bbd cc54 733d 4e45 5abd 36a1 293e
000003c0: 6198 203e 7096 053e 1486 08be e5a2 08be
000003d0: abfc 19be 9842 953d 7ec5 e83d 628d d7bb
000003e0: 4634 0dbc 30d9 1c3e 34e2 5ebd 6912 083e
000003f0: 5666 cfbd 60c3 10be ff6f b43d 1836 ec3d
0.15601556 -0.11822638 -0.121975966 0.11915679 -0.07959144 -0.07984394 -0.071688466 -0.053163618
-0.0020828112 -0.11242283 -0.15154292 0.17373794 0.07564187 0.0568362 0.017395062 -0.11037863
0.16321474 -0.07933574 -0.14230391 0.015451533 0.03720712 -0.08954686 0.08412842 -0.023018135
-0.14540453 0.12981924 -0.1667533 -0.16487147 -0.12843546 0.10421312 0.04108494 0.004726519
0.055485833 0.06518515 0.15927042 0.050205223 0.07656669 0.13579461 0.044522002 0.12654158
-0.12124075 0.0640884 0.14251253 -0.09000853 -0.00539186 -0.05847595 0.21838006 -0.1706519
0.16776237 0.087479904 0.03267255 0.08105794 -0.11049507 -0.13785696 0.101603694 0.002887367
0.1230418 0.049360186 -0.01697033 -0.018915918 0.1462552 0.11576898 -0.09571806 0.150138
0.08164396 0.055825226 -0.06482861 -0.12068233 0.049602047 0.04753916 -0.0020964781 0.11973299
-0.18006563 -0.12541781 -0.15261362 0.025482796 -0.04308915 0.15719771 0.04957748 -0.09945353
0.06240901 0.011199005 -0.14592093 -0.106957756 0.13181502 -0.11820512 0.015047738 0.12253412
-0.15051755 -0.001830497 0.105270475 -0.10202449 -0.012676763 0.12529702 -0.046086907 0.10081563
-0.06025989 0.023044426 -0.08978494 0.037686523 0.007052785 0.12003527 -0.008514019 0.0096376445
-0.042470712 -0.071322575 0.034220878 -0.09815048 0.09089983 -0.07129261 0.12868074 -0.09806333
0.07016925 0.014617422 0.1576134 0.027289884 -0.12806739 0.027355824 0.09789847 0.15692909
-0.1711675 -0.06781981 -0.0001875933 0.016358681 -0.19135717 -0.12431588 -0.060172983 -0.16657811
-0.0011531791 -0.019512579 0.049745914 -0.010860573 -0.11619033 0.06635272 0.07029972 0.17489453
0.1455959 -0.036840584 -0.09062291 0.1876108 -0.088065386 0.034635745 -0.16771689 -0.029232815
0.12382523 -0.14075232 0.047953192 0.0846907 -0.011267439 0.09285864 -0.07736504 -0.11913479
-0.10855263 0.12834917 -0.009576326 -0.11224744 -0.15483162 -0.17141245 -0.007919784 -0.073088214
-0.034540575 -0.09597339 -0.07564758 0.13875958 -0.063105665 -0.19885218 -0.06494867 -0.059986323
0.0715302 -0.04304458 -0.017789744 -0.07638257 -0.030268483 -0.11671888 -0.019954212 0.08816033
-0.10851594 0.01811786 0.12103918 -0.116956525 0.1512928 0.124477684 0.10109948 0.039871182
0.027554115 0.08876867 0.12469437 -0.0001376312 -0.16299216 -0.0004087877 -0.0065508923 0.01671503
-0.1147085 -0.15326308 0.006430491 0.1731584 0.019173477 -0.10928116 0.1644421 0.068800464
-0.00857242 -0.0778264 -0.018549886 0.08642851 -0.057364076 0.08859737 -0.17892407 -0.023160545
0.12705146 0.033686854 0.09588666 0.10658694 -0.13006029 -0.18865024 0.040472534 0.05656927
0.0071363687 0.08479041 0.14341284 -0.14485426 0.1317145 -0.13100564 -0.18098584 0.013157877
0.07959938 0.047985453 -0.07971307 0.035929333 -0.04198975 -0.05909217 -0.109223306 0.10255568
-0.123642005 0.023773583 -0.013958287 0.113934524 -0.06805007 0.05940704 -0.05328875 0.16565403
0.15683128 0.13045669 -0.13332397 -0.1334339 -0.15037791 0.072880924 0.11365794 -0.0065781334
-0.00861842 0.15317225 -0.054414943 0.13288273 -0.10126941 -0.1413703 0.08810424 0.11533755

lstm.weight_hh_l0 f4 [128, 32]
00000000: 5d02 c7bb d8f3 29be f698 12be 7933 32be
00000010: 9574 883d d69e 3f3e 6100 dfbd 8771 b03c
00000020: bcd2 913d fcfe 553d 3709 453e 9c70 543d
00000030: 047f 06be 1227 3f3e 9a15 873d 9641 dabd
00000040: f4bd 523e ecd2 c1bd 17b6 8cbd 1793 68bd
00000050: 88cd 053e aa91 58bd f222 35be 795c 153c
00000060: 6a51 31be 8ddd 10be d845 e0bd a8a3 a63c
00000070: 84c4 0b3e 6a02 9d3d d952 233d 9e59 ae3d
00000080: 2d9e a5bd b730 3e3e f1cf 183e 3e25 cabd
00000090: 772e e53d 3701 f23d 1aee a4bd 2125 373d
000000a0: 8dd7 7cbc 8a20 13be 78cb 28be a379 15be
000000b0: f5eb e8bd 947d adbc 8751 d0bb 6b62 673c
000000c0: 99d2 28bd 8e69 263e da41 4a3d 6d63 223e
000000d0: 7779 b23d b913 9d3c 49c9 313e ed9a 19be
000000e0: 377e 633c 289c 0bbe c7c1 d1bc 8830 483e
000000f0: 73bf 05be 650c a2bd a9fe 923d f05a 1a3e
00000100: 2b49 ebbd 7451 94bd abcf c6bd a858 8f3d
00000110: 20c5 a8bc 440c fb3b ea66 223e 21d9 f5bd
00000120: 6798 9b3d c423 d13c dada 13be bb5a 0abd
00000130: 0776 76bd c32e 763d 2fa8 60bd 37cd 0ebe
00000140: ef70 2ebc 4ebd bfbc c63d c9bd 4a68 1cbe
00000150: 370e 153e 21de 95bd d0ae aebc 87b5 81bd
00000160: e4a2 a33d 6cc2 22be 2dc9 e23d c0c9 203e
00000170: eae0 9d3d 5ab9 2ebe e03a 213d 0bf4 eb3d
00000180: 04d5 21be eeff 483c 7af5 f43b 368d 033e
00000190: 24d6 f1bd fdb7 3abe d661 e4bd db37 c7bd
000001a0: 3915 f03c 6334 a03d a25b 03bd fb5b a53d
000001b0: 0eb2 e2bd b4b7 e0ba 8ad3 d3bd 37af 93bd
000001c0: 5bdf 3f3e 9654 4dbb b67c 1dbe 17cc 193e
000001d0: 5b50 f3bd e3a6 c23d 4c87 77bd 1f2d 88bd
000001e0: 2575 b6bd 7a12 283e da0e 223e 8d7c 73bd
000001f0: e87a a5bc 2a01 02be b969 02be 5219 8ebd
00000200: 52eb e43d 9de7 5e3c c158 233e 037c 193e
00000210: 8447 403d 527a 17be d66c 863d f925 22be
00000220: 555a c03c 85aa b8ba d9bd 193e 2c8e 1dbe
00000230: 456d 563b 5126 42be 5cd3 a63d 340d 023e
00000240: 60c5 79bc 7e0b 94bd 622f 9bbd be22 143e
00000250: d326 963d 2b2b 233e 103e d63d 3a9b be3c
00000260: 04c6 303e 0d52 35bc db39 9fbc 83f8 cbbd
00000270: 5049 6cbc 16a0 843c 9f0e 9cbd e958 d83d
00000280: f200 ca3d 9651 1c3c 3ac2 cbbb 526d f2bd
00000290: 4b40 a53d 703b 10bc 39bc a6bb f9be 233e
000002a0: 6371 bb3d 6499 ff3d c8a7 85bd 4cf1 57bd
000002b0: 39e3 dbbd ff85 353d ed29 bc3d 6d72 043e
000002c0: 6d67 0b3c 31c7 043d 0460 36bc 8531 86bd
000002d0: 6048 ac3d 5dc4 4ebe 007f 87bd d56a 62bd
000002e0: c810 52bd a88b fc3d a42d c23d f046 8f3c
000002f0: 34c9 8a3d 2fb9 13be 817e 72bd cd77 5dbd
00000300: b42c d6bd 41b4 b43d 0918 48bd 3a2d b83d
00000310: a8b6 38bd b6db e4bc 7161 59bc 8710 953c
00000320: 0a56 493d 1f4f 153e e5ec e6bc 001e 20be
00000330: 7bb8 29be fc00 2ebe 4e02 f0bc 1cd6 313d
00000340: b519 373d a584 e1bd f589 10bc 3b81 a0bc
00000350: 1770 00be c839 acbd 19ea 8f3d ae72 e23d
00000360: af6a 7ebd d009 4f3d 61af 2fbe d36b a3bc
00000370: 6572 893d 0a4e 84bc af7d e63d 7ed0 2b3d
00000380: e566 263c 66fe 24be 03ce f1bd f6fe cb3c
00000390: 1979 c9bc d39c 253e eff3 10be 6e76 193e
000003a0: 2ca3 3a3e a1ba 773c 25b4 e43d 6285 ac3c
000003b0: 8dd3 683d 7a5a a8bd 3fef 943d 5018 333d
000003c0: 3de8 093e caf0 9d3d dcc3 433e 0113 b73d
000003d0: 0595 1d3e 3b71 3e3e 5fdb 2bbe ddf5 063e
000003e0: f8f1 97bd 4961 1fbe 76f7 ee3d 50d4 11be
000003f0: cf2e 4abc 8dc8 46bd fcdc 72bd b53d d63d
-0.00607328 -0.16596925 -0.14316162 -0.17402448 0.06662861 0.18712935 -0.10888744 0.021538509
0.071202725 0.052245125 0.19241796 0.051865205 -0.1313439 0.18667248 0.06595917 -0.10657041
0.20580274 -0.09464058 -0.068706684 -0.0567809 0.13066685 -0.05287329 -0.17689112 0.0091162855
-0.17316213 -0.14147015 -0.10950822 0.02034171 0.13649184 0.07666476 0.03987393 0.08513187
-0.0808681 0.1857327 0.14923073 -0.09870385 0.11190503 0.11816638 -0.08053227 0.044713143
-0.015432251 -0.14367881 -0.16483867 -0.14597182 -0.1137313 -0.021178044 -0.006357375 0.014122586
-0.041216467 0.16251203 0.049379207 0.1585824 0.08714574 0.019174444 0.1736194 -0.15000506
0.013885072 -0.13633788 -0.025605096 0.19549763 -0.13061313 -0.0791252 0.07177479 0.15073752
-0.11488565 -0.072420985 -0.09707578 0.06999332 -0.020601809 0.0076613743 0.15859571 -0.12004305
0.07597428 0.02552975 -0.14438954 -0.033777934 -0.060171153 0.06010319 -0.054847892 -0.13945471
-0.010647043 -0.023405697 -0.098262355 -0.15274158 0.14556204 -0.07317758 -0.021323591 -0.06333452
0.07990053 -0.15894479 0.110735275 0.15701962 0.077089146 -0.17062894 0.03936279 0.11521157
-0.15803915 0.01226805 0.007475552 0.12846836 -0.11808422 -0.18234248 -0.11151473 -0.097274505
0.029306995 0.07822492 -0.03206981 0.080741845 -0.110691175 -0.0017144592 -0.10343082 -0.07211154
0.18737547 -0.0031330935 -0.15379605 0.1501926 -0.11880561 0.09504487 -0.060431764 -0.06649231
-0.08909062 0.16413298 0.15825978 -0.059444953 -0.020200208 -0.12695757 -0.12735642 -0.06938423
0.11177696 0.013605026 0.15951826 0.14988713 0.046943203 -0.14792755 0.065637276 -0.15834798
0.023480574 -0.0014088905 0.15013827 -0.15386266 0.0032718938 -0.18959929 0.08145782 0.12700349
-0.015244812 -0.072287545 -0.07577397 0.14466378 0.07331624 0.15934436 0.10461056 0.023267377
0.17263037 -0.011066926 -0.019436767 -0.09959509 -0.014421776 0.016189616 -0.07619976 0.10563833
0.098634616 0.009540936 -0.006218222 -0.118372574 0.080689035 -0.0088032335 -0.005088356 0.15990819
0.09152486 0.12480429 -0.06526142 -0.052720353 -0.10736699 0.04431724 0.09187684 0.12934275
0.008508545 0.032416526 -0.01113129 -0.06552414 0.08412242 -0.20192094 -0.0661602 -0.055277664
-0.051285535 0.12331325 0.094813615 0.01748988 0.06776658 -0.1442611 -0.059202675 -0.05406933
-0.10457745 0.08823443 -0.048851047 0.08993001 -0.04509607 -0.027936798 -0.013267861 0.018196357
0.04915432 0.14580964 -0.028189132 -0.15636444 -0.1657428 -0.16992563 -0.029297974 0.04341708
0.04470225 -0.11011628 -0.008821954 -0.019592872 -0.12542759 -0.084094584 0.070270725 0.1105703
-0.06211346 0.050546467 -0.17156745 -0.019948876 0.06711272 -0.016150493 0.11254441 0.04194688
0.010156368 -0.1611267 -0.11806872 0.024901848 -0.024593877 0.16173105 -0.14155553 0.14986584
0.18226308 0.015120179 0.11167172 0.021059696 0.056842376 -0.08220382 0.07272195 0.043724358
0.13467498 0.077119425 0.19117683 0.089391716 0.15388878 0.18597881 -0.16782902 0.13179727
-0.07419199 -0.15564455 0.11668293 -0.14241147 -0.012340262 -0.048531104 -0.05929278 0.104609884

lstm.bias_ih_l0 f4 [128]
00000000: ada9 09be 56a1 23be 73e8 7eba 2de6 bf3d
00000010: 480b 2abd c120 523e e30c b63d af49 10be
00000020: 59e3 143e 2437 0c3e d224 1cbe 5db4 4abd
00000030: 22de 403d b3e4 50bd e093 0ebe ab5b b8bd
00000040: 54a5 953d ebce 213e bcab 6ebd 433f 20be
00000050: 0cf8 f8bd 5892 ad3d cc36 08be b45d f5bd
00000060: aff9 20be a080 15be 521f 153e 9e74 233e
00000070: c173 6e3d 7f36 86bb e499 0e3e 7212 89bd
00000080: cbf8 f33d dc03 363e 40fa 1c3e 7ae7 ab3d
00000090: 05e1 e0bc 5ecd 913d 844d 1cbe affd 90bd
000000a0: 48e4 df3d fa3c 163e d653 903c fedb 14be
000000b0: 4609 033e c58d 41be 96fd 39be 0296 b63d
000000c0: 5d77 c8bd b054 3a3e 1989 c53d 2114 1cbe
000000d0: 1c48 13be 071a 15ba f6d6 9f3d 8aa5 bc3c
000000e0: 6553 a33c 2085 073d d2d8 76bd af35 e0bd
000000f0: b282 9c3c 11c2 9dbd 5a61 c53d 8fcb 2ebd
00000100: 0e91 753d 3d17 e83c 7aeb febd 7b66 40bd
00000110: fed3 873c ba17 2ebe 3c67 093c 687a 89bd
00000120: ed62 cfbd 249e d7ba 8ffb 11be f82d 233c
00000130: e4f1 d3bc 8438 ef3d fc01 3e3d 0a93 36be
00000140: c91a 9abd afee f63d 961d 20bd 7680 19bd
00000150: 9e2e 233c 95aa 00bd 1704 bd3d e7a4 893a
00000160: 9d38 1cbd b116 38be 9d26 8d3d 476a 38bd
00000170: 9b02 813d 7c1e cfbd 8721 08be 5a3e 10be
00000180: 950e 093e 663e 853c c39e fe3d 10e9 d73d
00000190: f1de db3d da7f 3f3e ed30 1ebe 139c 1f3d
000001a0: b981 e4bd 32f4 2fbe f290 003e 983b 4e3d
000001b0: 3546 d43c 94fe f3bd c90d 32bc d4a2 d2bd
000001c0: bcd8 453e 0b25 e3bd afc7 383b deb6 823d
000001d0: c9f9 963d f45d fa3d 3c3a 613d 5b8a 563d
000001e0: e04b edbc 6aba cb3c ae5c 91bd 5b06 0f3e
000001f0: a7e0 2f3e f667 4d3d eea0 f3bd b576 1c3e
-0.13443632 -0.15979514 -0.00097239687 0.093700744 -0.041514665 0.20520307 0.08889177 -0.14090608
0.14539851 0.1369291 -0.15248421 -0.049488414 0.047086842 -0.050999355 -0.13923597 -0.09001859
0.073069245 0.15801589 -0.058269247 -0.15649132 -0.12156686 0.084751785 -0.13302153 -0.11980763
-0.15720247 -0.14599848 0.14562729 0.15962455 0.05821586 -0.004095852 0.13925892 -0.06692971
0.11912688 0.1777491 0.15329838 0.0839376 -0.027451048 0.07119249 -0.15263945 -0.07079636
0.10932213 0.14671698 0.017618101 -0.14537045 0.12796506 -0.18901737 -0.18163142 0.089153305
-0.09788392 0.18196368 0.0964529 -0.15242054 -0.14382976 -0.00056877773 0.078046724 0.023028154
0.019937227 0.033085942 -0.06026537 -0.10947739 0.01910529 -0.07703031 0.09637709 -0.042674597
0.059952788 0.028331393 -0.12447257 -0.046972733 0.016580578 -0.17001238 0.008386429 -0.067128
-0.101262905 -0.0016450328 -0.14256118 0.00995969 -0.025872178 0.116807014 0.04638861 -0.17829528
-0.0752464 0.12057244 -0.039090715 -0.037476026 0.009959845 -0.03141268 0.09229296 0.0010501415
-0.038139928 -0.17977406 0.068921305 -0.04502323 0.06299325 -0.10113236 -0.1329404 -0.14086285
0.13384469 0.016265105 0.12432625 0.105425 0.10735882 0.18701115 -0.15448351 0.038967203
-0.11157555 -0.17182997 0.12555292 0.0503498 0.025912384 -0.11913791 -0.010867544 -0.10284963
0.19320959 -0.1109105 0.0028195193 0.063825354 0.073718615 0.122249514 0.054987177 0.05237804
-0.028966844 0.024869163 -0.07097755 0.13967268 0.17175542 0.050147973 -0.11895929 0.15279658

lstm.bias_hh_l0 f4 [128]
00000000: 9e84 0f3d af50 043e 6534 25be d86e ebbd
00000010: 806e 72bd 70a4 1d3e a233 34bd 780f bcbc
00000020: 76c4 39ba 7652 8b3a 394a 293e fbbf 383d
00000030: 83ba f6bd a79d ee3d a891 d3bd d966 5aba
00000040: 8c36 913b 267d 323e 1609 32be 84c8 333d
00000050: a85c 91bd 95b5 c33d 4229 1bbe b48b 1abd
00000060: 60a2 0a3e 01a4 8e3d dd85 d63d cc45 e63d
00000070: 4ac4 d2bd feca 65bd d660 24bd 2bfa 1e3d
00000080: 7689 a4bd 1890 be3d 90bb d03c 480e 5a3d
00000090: 6af6 073e c593 303e 683d 05be 1be5 46be
000000a0: fe99 123e 1c61 7e3d a996 87bd 2ac6 993d
000000b0: 3d17 a13d 9d06 063e fa2b ac3d d91e 163e
000000c0: 91ea d9bd 4613 0ebe f787 853d d03d 4fbc
000000d0: 694e 1fbe fe4f 643d 2c8b dabc a607 813d
000000e0: 8075 dcbd 7637 ee3d de59 213e aece 8c3d
000000f0: 5190 893d b851 c4bd c619 2fbe 0dcb 5c3d
00000100: ce01 ac3d 1955 173e 24f1 78bd 9c8a a5ba
00000110: ac17 473c ec4f 633d 3cbf 28be 080a 9d3d
00000120: afdc 9abd f480 8d3d 8e64 b53a f92d c73c
00000130: 0f55 1bbe dc6b 0cbe af60 ae3d fbaf 5e3c
00000140: 0c32 03bd 8782 bfbd 27f6 02be d298 f73d
00000150: d516 c13d 3c26 b43b d8d4 8b3d ede5 02be
00000160: bb9d 643d 0615 f9bc db21 af3c 6bad 033e
00000170: 4a00 3abe 2cf5 cdbc 47ff 36bd a8fe 3b3d
00000180: 12cb 32be 8c7e cdbd a4f5 073e 3964 d1bd
00000190: 8766 2d3e 0b0f e6bb 4482 163d 4c0d ce39
000001a0: 01fa 1bbe b70e 37be 9c1b 21be f30a 21be
000001b0: 5567 83bc 8403 893c ee9f 22be 3760 23be
000001c0: 2686 333e 73d2 063e 68d8 3bbe 8528 493d
000001d0: 42be f23d 3a69 5dbd ce39 1f3d ddfc 053e
000001e0: e817 3b3d df7d 20bd 30b8 ebbd 1de6 153a
000001f0: 572f 4fbd 4f0a c53d 8b5f febc 9dec b8bd
0.035038583 0.12921403 -0.16133268 -0.11495751 -0.059187412 0.15394759 -0.043994553 -0.022956595
-0.0007086465 0.0010629434 0.1653222 0.04510496 -0.12047293 0.116511635 -0.10330516 -0.00083313655
0.0044315513 0.17430553 -0.17386279 0.0438924 -0.07097751 0.095561184 -0.15152457 -0.037730888
0.13538504 0.06964875 0.10474751 0.112437814 -0.102913454 -0.05610179 -0.040131412 0.038812798
-0.08034031 0.093048275 0.025480062 0.053236276 0.13277593 0.1724387 -0.13011706 -0.19423334
0.14316556 0.06210433 -0.06620533 0.075085 0.078657605 0.1308846 0.08406825 0.14660205
-0.10640443 -0.1387454 0.06520074 -0.012649015 -0.15557255 0.05574035 -0.02667769 0.06300287
-0.10764599 0.11631672 0.15756938 0.068753585 0.06716979 -0.09585899 -0.17099676 0.05390458
0.08398782 0.14778556 -0.060776845 -0.001262981 0.01215164 0.05549614 -0.164792 0.07667929
-0.07561623 0.069093615 0.0013839172 0.024313914 -0.15169166 -0.1371302 0.08514535 0.013591762
-0.03203015 -0.09351068 -0.12789212 0.12089695 0.09428183 0.005497722 0.06827706 -0.12783022
0.055814486 -0.030405533 0.021378448 0.12859122 -0.18164173 -0.025141321 -0.044677045 0.045897156
-0.17460278 -0.100339025 0.13277298 -0.10224194 0.16933642 -0.007020836 0.036745325 0.0003930129
-0.15232088 -0.17876707 -0.15733188 -0.15726833 -0.016040483 0.01672531 -0.15881321 -0.15954672
0.17531642 0.13166218 -0.18344271 0.049110908 0.11852695 -0.05405543 0.038873486 0.13084741
0.045677096 -0.03918254 -0.1150974 0.00057181885 -0.050582256 0.09621107 -0.031051418 -0.090295054

fc.weight f4 [3, 32]
00000000: c3a8 013e ac7a 253e 6527 90bd b82e b03c
00000010: 75d3 a23d bb2d ca3d ebb2 dbbd d121 ba3d
00000020: 904a 28be ff4d cd3d 87a8 a13c a2f1 d63b
00000030: d0de 16bd e4ac fa3d bccf dbbb d589 80bd
00000040: bac9 2c3e e181 bd3d 3780 7bbd 5ee3 d7bd
00000050: 539e 233e 1742 19be accd e5bd 8dba 873d
00000060: 18ce 27be 9ced ce3a d411 ad3d 51b7 b33d
00000070: ce5b 863d 1bd5 f63d 114e cfbd 61b4 3d3d
00000080: 5f8a a93d 5cbb 43be aa41 113d d53f 54bd
00000090: a553 023d a266 153e 3084 953d 9753 703d
000000a0: ffe4 28ba 53a0 813d 73ee a4bb 0654 403e
000000b0: 3ee7 99bd f5f9 3fbe b08a 0a3e 8cd5 6f3d
000000c0: 0634 593b 3227 403c 9fa5 073e 73c0 91bd
000000d0: 42a1 9bbc fc13 edbc 1fcc 4a3c 3de1 04bd
000000e0: cac4 b6bd 795c 1ebe 2549 4fbd 00e5 32bc
000000f0: 7f0a cdbd f9f6 67bd eac4 0a3e 9b80 87bc
00000100: 00b0 c23a 00b9 d7bd df1c 0a3e 8841 093e
00000110: 84f0 0dbe fb5d 2d3d 5767 913d 7efc 5a3d
00000120: 2302 1dbd 0f9e 80bb 48e2 9e3d b767 efbc
00000130: 7115 803d 40fc f0bd c40a 09bd eb70 3a3d
00000140: 2470 1c3e 3fa0 a4bd 8901 e5bd 1ce1 63bd
00000150: 1cc3 dbbd 88a2 51bd 4dd8 19be 8b8b 1abe
00000160: 3604 133e c54a 0a3d 2efd 173e 0a71 22be
00000170: 9a8a 033d afd2 1fbe 62e4 5fbc 9338 a2bd
0.12662034 0.16160077 -0.07038764 0.021506652 0.079504885 0.09872004 -0.10727485 0.09088481
-0.16434693 0.10024642 0.01973368 0.0065595666 -0.036833584 0.122400075 -0.0067081135 -0.062762894
0.16873828 0.09253288 -0.061401572 -0.10541414 0.15978365 -0.14966618 -0.112208694 0.066273786
-0.16387212 0.0015787366 0.08450666 0.08775199 0.06560479 0.120523654 -0.10122312 0.0463146
0.08278345 -0.1911444 0.035463013 -0.051818687 0.03181805 0.14589933 0.073006034 0.058673467
-0.00064428145 0.063294075 -0.005033308 0.18782052 -0.07514809 -0.18747695 0.13529468 0.058553264
0.003314258 0.011728095 0.13246773 -0.07116785 -0.018997792 -0.028940193 0.012377768 -0.032441366
-0.08924253 -0.15464963 -0.050606865 -0.010918856 -0.100117676 -0.056632016 0.13551679 -0.016540816
0.0014853477 -0.10533333 0.13487576 0.13403904 -0.1386128 0.042325955 0.07099789 0.05346345
-0.038332116 -0.003925092 0.077580035 -0.02922426 0.062540896 -0.11766863 -0.033457533 0.045517843
0.15277153 -0.08038377 -0.111819334 -0.055634603 -0.107305735 -0.051180393 -0.15023918 -0.15092294
0.14357075 0.033762712 0.14842674 -0.15863433 0.032114603 -0.15607713 -0.013665291 -0.07920947

fc.bias f4 [3]
00000000: 2615 63bd bdd2 7e3c 2099 163e
-0.05544009 0.015553174 0.1470685
