backend/api/ml/models/model_e8df13c8-1fb6-4d19-85a6-6c4ee9b7eefc.pth (torch, 949173 bytes, 26 tensors)

lstm.weight_ih_l0 f4 [256, 4]
0	0x3e26f415	0.16304047
1	0x3c9fe14c	0.01951661
2	0xbe0a1397	-0.13484035
3	0x3d15d52e	0.036580257
4	0xbd3ea492	-0.046543665
5	0x3d014894	0.031563357
6	0x3d9baad8	0.07600945
7	0x3e1f2fe4	0.15545613
8	0x3dac1da2	0.084040895
9	0xbd890d38	-0.066919744
10	0x3dc3928f	0.09549438
11	0x3d4703b9	0.048587535
12	0xbd9e08b1	-0.077165015
13	0x3d252235	0.040315825
14	0x3dc9d27a	0.09854598
15	0x3da5f5bb	0.0810351
16	0xbdd034df	-0.10166334
17	0xbd99ea14	-0.0751535
18	0xbdf6859f	-0.12037205
19	0xbde42ced	-0.111413814
20	0x3dceb193	0.10092463
21	0x3d6c4885	0.057686348
22	0x3d53f5e5	0.051748175
23	0x3da8d609	0.08243949
24	0xbd15c789	-0.036567245
25	0x3c44053d	0.0119641395
26	0x3db7db70	0.08977401
27	0x3d14e2c9	0.03634909
28	0x3dcb047d	0.099129654
29	0x3e0d0efd	0.13775249
30	0x3d994cfe	0.07485388
31	0x3da01764	0.078169614
32	0xbc90eac2	-0.017690066
33	0x3d8cd9f5	0.068775095
34	0xbd8f5313	-0.06998267
35	0x3d7711a1	0.060319547
36	0x3dd49c08	0.10381323
37	0x3dc59dc4	0.09649232
38	0x3da56d2f	0.08077466
39	0xbdc8f31c	-0.098119944
40	0x3d1f3b91	0.038875166
41	0xbc85d4e9	-0.016336875
42	0xbcadb269	-0.021203237
43	0xbd224fbb	-0.03962682
44	0x3e0d0b7a	0.13773909
45	0x3dda9a96	0.10674016
46	0x3e40cb95	0.1882766
47	0x3dd01187	0.10159593
48	0x3d53ecf0	0.051739633
49	0xbd77ec45	-0.06052806
50	0xbd4a6f3e	-0.049422495
51	0x3d1e82cf	0.038698968
52	0x3c977e9c	0.01849299
53	0xbdb95c95	-0.09050862
54	0x3c10dd2b	0.008841793
55	0x3d0cd73f	0.034384962
56	0x3dacef60	0.08444095
57	0xbd47c816	-0.0487748
58	0x3d28561b	0.04109774
59	0xbd70eb2a	-0.05881802
60	0x3c88272b	0.01662024
61	0x3b836cee	0.004010788
62	0x3debb390	0.11508858
63	0xbdfd7c06	-0.12377171
64	0x3e061e76	0.13097557
65	0x3e002e4d	0.12517662
66	0x3daeff24	0.08544758
67	0x3df0c4f5	0.117563166
68	0xbccfda13	-0.02537254
69	0xbcf1f8af	-0.029537527
70	0xbd047feb	-0.032348555
71	0x3c4f9cf3	0.012671697
72	0x3ad2144e	0.001602778
73	0xbb81d6bd	-0.0039623664
74	0xbdf82ac3	-0.12117531
75	0xbda00ed9	-0.07815332
76	0x3c5d6c0c	0.01351453
77	0x3d26e90b	0.04074959
78	0x3dfbf83c	0.12303206
79	0xbdd11cc2	-0.10210563
80	0xbd4b37f4	-0.049613908
81	0x3d80c7ae	0.06288086
82	0xbd9dd50c	-0.07706651
83	0x3dd76285	0.10516838
84	0x3d8b78d8	0.068101585
85	0x3e2693b4	0.16267282
86	0x3e047743	0.1293612
87	0xbcf3572c	-0.029704653
88	0xbd61ddd7	-0.055143204
89	0x3df0aad0	0.1175133
90	0xbd3517d6	-0.044212185
91	0x3cf4a463	0.029863542
92	0xbd14a822	-0.036293156
93	0xbc5eb7f5	-0.013593663
94	0xbd2424b0	-0.04007405
95	0xbdbc8d89	-0.09206683
96	0xbd1931d8	-0.03740105
97	0x3ddc14fd	0.10746191
98	0xbd8116bd	-0.06303165
99	0xbde8fccc	-0.11376342
100	0xbc693684	-0.014234189
101	0x3d82ef18	0.0639326
102	0xbc671949	-0.01410515
103	0x3df0d4f1	0.11759365
104	0xbd84d8d2	-0.06486668
105	0x3e11926d	0.14216013
106	0xbc2019fd	-0.009771821
107	0x3d3c41b5	0.0459611
108	0x3dc8bedb	0.09802028
109	0x3d54b487	0.051929977
110	0x3deec158	0.11657971
111	0xbdd73a5a	-0.105091766
112	0xbd8d2e6f	-0.06893622
113	0xbd71bfe2	-0.059020884
114	0xbd4f620c	-0.050630614
115	0x3cac6327	0.021043373
116	0x3dc91caf	0.09819924
117	0x3cbf5931	0.02335796
118	0xbd9eff25	-0.07763509
119	0x3c76142d	0.015019459
120	0x3e0d7107	0.13812648
121	0xbd6f1a6d	-0.05837481
122	0xbd559b86	-0.05215027
123	0xbce71176	-0.028206568
124	0x3dabd479	0.08390135
125	0xbd90785b	-0.07054206
126	0xbc8c0792	-0.017093454
127	0xbd956fa7	-0.072966866
128	0x3debfbab	0.11522611
129	0xbd9fdcd2	-0.0780579
130	0x3da91a0f	0.082569234
131	0xbdd3e596	-0.103465244
132	0xbc8bb5b7	-0.017054422
133	0xbd664f88	-0.05622819
134	0xbd7c7e22	-0.061643727
135	0xbca10fef	-0.019660918
136	0x3e2765aa	0.16347376
137	0x3d9d900c	0.076934904
138	0x3d793b05	0.0608473
139	0x3d419732	0.04726333
140	0x3da71100	0.08157539
141	0x3d5ca0fe	0.05386447
142	0x3c1456ae	0.009053869
143	0x3d819f53	0.06329217
144	0xbdaa56c3	-0.0831733
145	0x3ddfca0c	0.10927209
146	0xbd6c4898	-0.05768642
147	0xbd6a6cf3	-0.05723281
148	0xbd1d7da4	-0.0384499
149	0x3c215de6	0.009849047
150	0x3c74bb9b	0.014937307
151	0x3dd21265	0.10257415
152	0xbd298a20	-0.041391492
153	0xbc99d6f9	-0.018779265
154	0xbdbc32d5	-0.09189383
155	0xbd13e2b6	-0.03610488
156	0x3d7bb7f6	0.061454736
157	0x3cd17365	0.02556772
158	0xbd1c1402	-0.03810502
159	0xbd6cd32c	-0.057818577
160	0x3e0537ae	0.13009521
161	0xbd70260d	-0.058630038
162	0x3e084d57	0.13310753
163	0x3d3c8ebf	0.04603457
164	0xbb319d63	-0.0027101866
165	0x3d8518a7	0.06498843
166	0xbdfe7aa7	-0.12425738
167	0xbd8805e9	-0.06641752
168	0x3d0bb527	0.034108307
169	0x3e1db32a	0.15400377
170	0x3dee329b	0.11630746
171	0x3dc6ae48	0.0970121
172	0x3c6b8b6a	0.014376501
173	0xbbc9eb63	-0.0061620935
174	0xbba62732	-0.0050705904
175	0x3b386a74	0.0028139623
176	0x3bff0fe3	0.0077838763
177	0x3d8eca0b	0.069721304
178	0x3e011c16	0.1260837
179	0x3d7ad4b4	0.061238006
180	0xbce96091	-0.02848843
181	0x3b95e95e	0.0045749387
182	0xb9611194	-0.0002146422
183	0xbda8629f	-0.082219355
184	0x3d985737	0.0743851
185	0x3de3a1ff	0.11114883
186	0xbe38f199	-0.18060912
187	0x3d6abd71	0.05730957
188	0x3e3c7cdc	0.18407005
189	0x3d8303f0	0.063972354
190	0x3d4b5c0f	0.04964834
191	0xbd428baa	-0.047496475
192	0xbd917639	-0.07102627
193	0x3d54e840	0.051979303
194	0x3d8d440d	0.06897745
195	0xbce9baa3	-0.028531378
196	0x3dae5b6b	0.0851353
197	0x3c7dbcae	0.015486879
198	0x3d469eb5	0.0484912
199	0x3daeed40	0.085413456
200	0xbda5dd8f	-0.080988996
201	0x3d7c984c	0.06166868
202	0xbd86e5d1	-0.06586803
203	0x3c3c3310	0.011486784
204	0xbd9e7975	-0.0773801
205	0x3d67b610	0.056570113
206	0xb9c50026	-0.0003757488
207	0xbdd2cbfe	-0.10292815
208	0x3e0ace8f	0.13555358
209	0xbc815921	-0.01578957
210	0xbd9f6a46	-0.07783942
211	0xbd254a78	-0.040354222
212	0xbbce9f6a	-0.0063056247
213	0x3db176d5	0.086652435
214	0xbd15f5b9	-0.036611293
215	0x3d3cf72b	0.046134155
216	0x3c7dadc9	0.015483328
217	0x3da6aebb	0.08138796
218	0xbe2b540a	-0.16731277
219	0xbd83f228	-0.06442672
220	0xbdb4b3e1	-0.08823372
221	0x3deaea08	0.11470419
222	0xbd898c7a	-0.06716247
223	0xbd093e0c	-0.033506438
224	0x3d983225	0.07431439
225	0x3d4ba88c	0.049721286
226	0x3da7b279	0.08188338
227	0xbdd9c318	-0.10632914
228	0x3da78914	0.081804425
229	0xbd8cb9f2	-0.06871404
230	0xbd562f4b	-0.052291196
231	0xbdd619ee	-0.104541644
232	0xbca32ae4	-0.019917913
233	0xbce0910e	-0.027412917
234	0xbbbde970	-0.00579565
235	0x3df53e45	0.119747676
236	0xbd808091	-0.06274522
237	0x3d9d5c25	0.07683591
238	0xbdaf8b87	-0.085715346
239	0x3d93415e	0.07190202
240	0xbd887887	-0.06663614
241	0xbd1fc26b	-0.03900377
242	0xbd678ae0	-0.056528926
243	0xbde3edb2	-0.11129321
244	0x3e21cd68	0.15801013
245	0xbd597867	-0.05309334
246	0x3c6eebad	0.014582557
247	0x3d37609c	0.04476987
248	0xbdf114ea	-0.11771567
249	0xbdaad634	-0.08341637
250	0x3bbd11d6	0.0057699485
251	0x3e187cc9	0.14891352
252	0xbda1f4f4	-0.07908049
253	0xbd10c0a0	-0.03533995
254	0xbe015ef8	-0.12633884
255	0x3dbcae23	0.092129014

lstm.weight_hh_l0 f4 [256, 64]
0	0xbbf76ee9	-0.0075510633
1	0xbd89b00a	-0.0672303
2	0x3ca242fc	0.019807331
3	0x3ded673d	0.11591957
4	0xbdd298a0	-0.10283017
5	0x3d87c9a5	0.066302575
6	0xbdcee2dd	-0.101018645
7	0x3ddb1f58	0.10699338
8	0x3d8b4bb0	0.068015456
9	0xbda94299	-0.082646556
10	0x3d9c256d	0.07624326
11	0xbd1a15b6	-0.03761836
12	0xbd86c82f	-0.06581151
13	0x3daed05c	0.08535835
14	0xbc5ccf14	-0.013477106
15	0xbd97630d	-0.07391939
16	0xbdc89970	-0.09794891
17	0x3cf3de3d	0.029769057
18	0xbbb48aa7	-0.0055096927
19	0x3c25d7c9	0.010122248
20	0xbd394a9b	-0.045237165
21	0x3dc7042a	0.09717591
22	0x3d53141c	0.05153285
23	0xbc903188	-0.017601743
24	0x3dc0e53d	0.09418724
25	0x3d6abacf	0.05730706
26	0xbdc6488a	-0.096818045
27	0x3c01b4cf	0.007916643
28	0xbdcf10a6	-0.10110597
29	0xbdd7e4b6	-0.1054167
30	0xbda469ca	-0.0802799
31	0x3c53de02	0.012931349
32	0x3d8b32c4	0.06796792
33	0x3dec79be	0.11546658
34	0xbd64586a	-0.05574838
35	0x3d7d997e	0.06191396
36	0x3d22d95d	0.039758075
37	0xbdab3eb2	-0.083615676
38	0x3d1e54fd	0.03865527
39	0x3cc62034	0.024185278
40	0x3ca0ecee	0.019644227
41	0xbce4a9c4	-0.027912982
42	0x3dcd56b1	0.10026301
43	0x3e038ede	0.12847468
44	0xbdbf251a	-0.093332484
45	0x3dc36752	0.09541191
46	0x3c474df6	0.012164583
47	0x3d385a08	0.045007735
48	0xbe16d371	-0.14729096
49	0x3e127c67	0.14305268
50	0xbce048a5	-0.02737839
51	0x3d529bd7	0.05141815
52	0xbcada5a0	-0.02119714
53	0xbd0db8a0	-0.0345999
54	0xbd325636	-0.04353925
55	0x3d98194e	0.074267015
56	0x3beed0e5	0.0072880858
57	0x3d5ac5c7	0.05341127
58	0x3dc9d88c	0.09855756
59	0xbe168bdd	-0.14701791
60	0x3c796109	0.015220889
61	0xbdacf667	-0.08445435
62	0x3d86dae8	0.06584722
63	0xbdb80d9b	-0.0898697
64	0x3b3ab8a8	0.0028491411
65	0xbd9c3254	-0.07626787
66	0x3ce2349f	0.027612982
67	0xbdb79cea	-0.08965476
68	0x3d344257	0.04400858
69	0xbd3c2a0d	-0.04593854
70	0x3d6ff7a8	0.058585793
71	0xbd7eb557	-0.062184658
72	0xbcd08740	-0.025455117
73	0x3d8ae52e	0.06781994
74	0x3deef048	0.11666924
75	0x3c98f3f1	0.018671008
76	0x3e04b339	0.12958993
77	0xbd4d207b	-0.050079804
78	0x3d708afa	0.05872629
79	0x3da3c526	0.079965875
80	0xbd2b6b99	-0.04185066
81	0x3d635a43	0.055506002
82	0xbd2af13c	-0.041733965
83	0xbac818d3	-0.0015266187
84	0x3c9747e9	0.018466907
85	0xbd572b6c	-0.052531645
86	0x3da34e1c	0.079738826
87	0x3d256c14	0.040386274
88	0xbda5c7ac	-0.08094725
89	0x3ce29fe6	0.027664136
90	0xbe047d1a	-0.12938347
91	0x3d8c71ca	0.06857641
92	0xbd996665	-0.07490233
93	0xbdeeee3a	-0.11666532
94	0x3d888c46	0.0666738
95	0xbcab80c5	-0.020935426
96	0x3aec6dc8	0.0018038088
97	0xbe0fbea1	-0.14037563
98	0x3da24064	0.07922438
99	0x3cf9166e	0.030406203
100	0xbd61acbd	-0.055096377
101	0x3cfbfcaf	0.030760137
102	0x3d02c4fe	0.031926148
103	0xbd50589a	-0.050865747
104	0xbb864898	-0.0040980093
105	0xbe09edb0	-0.13469577
106	0x3c6f8eb1	0.014621423
107	0x3dc9292a	0.098223045
108	0x3d3c37b3	0.045951556
109	0x3dedec40	0.11617327
110	0x3d989cf2	0.0745181
111	0x3d97375f	0.07383608
112	0x3d91d63b	0.07120939
113	0x3d4b0e15	0.049573977
114	0xbdc2e1e7	-0.09515744
115	0xbdc1bb88	-0.09459597
116	0xbd9f461d	-0.07777045
117	0x3c15209c	0.009102013
118	0x3ddfc48e	0.10926162
119	0xbd8907a5	-0.06690911
120	0x3da227d2	0.07917751
121	0x3d6354dc	0.05550085
122	0xbd82ee9e	-0.06393169
123	0x3d9e5812	0.07731642
124	0xbbca12df	-0.0061668004
125	0xbd9b15e7	-0.07572537
126	0x3dd77843	0.10520985
127	0x3cb0c0c6	0.021576297
128	0xbd619fb7	-0.055083957
129	0xbd9c5a1b	-0.07634374
130	0x3ded0982	0.11574079
131	0x3ca611e6	0.020272207
132	0x3dc0cc8d	0.09414015
133	0x3dc0f282	0.09421255
134	0xbd9ada1e	-0.07561134
135	0xbc2a1356	-0.010380587
136	0x3dd47fbf	0.10375928
137	0xbda3a550	-0.07990515
138	0xbe184cba	-0.14873019
139	0x3dbb3b46	0.09142165
140	0x3c77d3a7	0.015126145
141	0x3bd8158a	0.0065943645
142	0xbd27052d	-0.04077642
143	0xbd8d31b9	-0.068942495
144	0xbc2494a1	-0.0100452015
145	0x3d0e28ea	0.034706987
146	0x3da7b4af	0.081887595
147	0x3dd14217	0.10217684
148	0xbd849061	-0.064728506
149	0x3d1edf20	0.038787007
150	0xbd64c9de	-0.055856578
151	0xbd4229ac	-0.047403023
152	0xbddaf6ac	-0.1069158
153	0xbd3edd29	-0.046597634
154	0x3e04d6bb	0.12972538
155	0x3cdae096	0.026718419
156	0x3de8b0af	0.11361825
157	0x3d0503d6	0.03247436
158	0x3cff71a0	0.03118211
159	0xbd9d893d	-0.07692192
160	0x3d171782	0.036887653
161	0xbd29bc7f	-0.04143953
162	0x3d1cb4e7	0.03825846
163	0xbd1a37aa	-0.03765074
164	0xbd540ab3	-0.051768016
165	0x3dfd7e20	0.12377572
166	0x3ddf2743	0.108961605
167	0x3d9db1f6	0.07699959
168	0xbcd87c18	-0.02642636
169	0xbbb5f927	-0.005553383
170	0x3c8c78b2	0.017147396
171	0x3b40671f	0.002935834
172	0xbd6c66ed	-0.057715345
173	0xbdf054e6	-0.11734943
174	0xbdec9c8b	-0.11553296
175	0x3d5fa890	0.054604113
176	0xbd9c7912	-0.0764028
177	0xbe11b86a	-0.14230505
178	0xbc5073bf	-0.0127229085
179	0x3dc758ca	0.09733732
180	0x3cf13840	0.029445767
181	0xbe0860bd	-0.13318153
182	0x3cf53d19	0.02993636
183	0x3dc17e7c	0.09447953
184	0x3dea0d0f	0.11428272
185	0x3e139a31	0.14414288
186	0xbe00ea42	-0.12589362
187	0x3e074525	0.1320997
188	0x3daa8483	0.08326056
189	0x3da8b072	0.08236779
190	0x3a38ea24	0.00070539326
191	0xbd8eeae7	-0.06978398
192	0xbcdb36eb	-0.026759585
193	0x3c1229fc	0.008921143
194	0xbd7d44f9	-0.061833356
195	0xbde5e5c4	-0.11225465
196	0x3e008ff5	0.12554915
197	0x3d389bde	0.04507052
198	0xbd87dda2	-0.0663407
199	0x3d8fa093	0.07013049
200	0xbdb78929	-0.08961708
201	0x3d16beac	0.036802933
202	0x3d115079	0.035477135
203	0xbda87ca0	-0.08226895
204	0xba53c629	-0.00080785394
205	0x3d2657e8	0.040611178
206	0xbc5dc42f	-0.013535543
207	0x3dc7b869	0.0975197
208	0x3d665d60	0.056241393
209	0xbd88f5e7	-0.06687527
210	0xbddf3a00	-0.108997345
211	0xbdc315d8	-0.09525651
212	0x3dd00b1d	0.1015837
213	0x3d92bb37	0.07164615
214	0x3dd37f75	0.10327045
215	0xbaefef66	-0.0018305599
216	0x3e0d7e17	0.1381763
217	0xbd41707e	-0.04722642
218	0xbd8fe9ec	-0.07027039
219	0x3cac3c18	0.021024749
220	0xbd318628	-0.043340832
221	0x3dc70cef	0.09719264
222	0xbe0a601f	-0.1351323
223	0x3d8a6982	0.06758405
224	0xbda313ca	-0.07962759
225	0x3ccc8675	0.024966458
226	0xbc7e72a7	-0.015530265
227	0xbdf83f55	-0.121214546
228	0xbd1ccf60	-0.038283706
229	0xbd21c64e	-0.03949576
230	0x3db343be	0.08753155
231	0xbdc9b7e8	-0.098495305
232	0xbd91dea2	-0.07122542
233	0x3c95d525	0.018290112
234	0x3c998acd	0.018742943
235	0x3da1c842	0.07899524
236	0xbda79f7e	-0.081847176
237	0xbd2b31e7	-0.041795637
238	0xbd0f9134	-0.035050586
239	0x3d767186	0.060166858
240	0xbc936567	-0.017992688
241	0xbdade635	-0.08491174
242	0xbe07ee63	-0.13274531
243	0x3d2dbe16	0.04241761
244	0x3dd5d76a	0.104414776
245	0x3db5665b	0.088574134
246	0x3d846450	0.064644456
247	0xbd2a5e2c	-0.041593716
248	0xbe00ffcc	-0.12597579
249	0x3d16ab46	0.036784433
250	0x3df1b92a	0.11802895
251	0x3d7d1f18	0.06179723
252	0x3d271f4a	0.040801324
253	0xbd941cf7	-0.07232087
254	0xbdb7a6c9	-0.089673586
255	0x3d17bce2	0.037045367

lstm.bias_ih_l0 f4 [256]
0	0x3a05bbd4	0.0005101536
1	0x3d9b89e5	0.07594661
2	0xbbb1d8e1	-0.0054274653
3	0x3df85b0b	0.1212674
4	0x3df80c09	0.121116705
5	0x3dbe9e72	0.09307565
6	0x3dfa94aa	0.12235387
7	0x3deb7a46	0.11497931
8	0x3de8a720	0.113600016
9	0x3c7c4d8b	0.015399347
10	0xbd541576	-0.05177828
11	0xbdb5ebf2	-0.088828936
12	0xbcb222bf	-0.021745084
13	0x3df5fabe	0.12010716
14	0xbd8a806a	-0.06762774
15	0xbd8bd964	-0.06828573
16	0xbd9563e2	-0.07294442
17	0x3d55c3be	0.052188627
18	0x3e0c26b4	0.13686639
19	0x3db35110	0.08755696
20	0xbca8c869	-0.020603376
21	0x3d0d6b4f	0.034526166
22	0x3d761df3	0.060087156
23	0x3baee818	0.0053377263
24	0x3e088bff	0.13334654
25	0xbd784d81	-0.06062079
26	0xbc51366f	-0.012769326
27	0x3d3d22ea	0.046175875
28	0xbd09202b	-0.033477943
29	0x3df848b2	0.121232405
30	0x3de00024	0.10937527
31	0x3da7c81e	0.08192466
32	0x3dc1295d	0.094317175
33	0x3da2269f	0.07917523
34	0x3ddf5a41	0.109058864
35	0x3db2bf13	0.08727851
36	0xbd9fff88	-0.078124106
37	0x3db79c46	0.08965354
38	0xbdd6a7d9	-0.10481233
39	0x3e23c606	0.15993509
40	0xbd21f6be	-0.039541952
41	0x3d9a8eec	0.075467914
42	0x3d43ca61	0.047800425
43	0x3ceeec5d	0.029165441
44	0xbdb0f418	-0.08640307
45	0x3d89f7fa	0.06736751
46	0x3d80b92a	0.06285317
47	0x3ca73370	0.02041027
48	0xbd909bf3	-0.07060995
49	0xbdab6f3f	-0.08370828
50	0xbde84b22	-0.113424554
51	0x3da7f57b	0.082011186
52	0xbdd48398	-0.10376662
53	0x3d7cdb40	0.06173253
54	0xbd9ca387	-0.07648378
55	0x3c95c791	0.018283637
56	0xbd5c2c59	-0.05375323
57	0x3de34038	0.11096233
58	0x3dae5c50	0.08513701
59	0xbd51ec75	-0.051250894
60	0x3cf8aac2	0.030354861
61	0xbc822cd1	-0.01589051
62	0xbdb89bdf	-0.09014105
63	0xbdaa1383	-0.08304503
64	0x3b62efae	0.0034627724
65	0xbd8984fb	-0.06714817
66	0x3d7eab9d	0.062175382
67	0x3d1bf231	0.03807277
68	0x3dd42e94	0.103604466
69	0xbc030686	-0.007997161
70	0xbc93a854	-0.018024601
71	0xbd9db983	-0.07701399
72	0xbd2aa4e7	-0.04166117
73	0xbd4d2a75	-0.05008932
74	0x3de703e3	0.11280038
75	0x3d50b69b	0.050955396
76	0x3d9459d1	0.072436936
77	0x3de4d954	0.111742646
78	0xbdf99ee0	-0.12188506
79	0xbde3a5cf	-0.1111561
80	0xbd9f2753	-0.077711724
81	0x3d3e9e2c	0.046537563
82	0x3dde87c7	0.10865741
83	0x3d2f6d28	0.04282871
84	0xbd9fbb5b	-0.07799407
85	0x3ca216ef	0.019786326
86	0x3d7093e3	0.058734786
87	0x3dbbefc3	0.0917659
88	0xbdb559eb	-0.08855041
89	0xbd8b268e	-0.06794463
90	0x3dd40c29	0.10353882
91	0x3dd285ce	0.102794275
92	0x3d9d8ceb	0.076928936
93	0x3cb17d6f	0.021666257
94	0xbdef0c6f	-0.116722934
95	0x3da9a7a3	0.08283927
96	0xbdbe3e45	-0.09289221
97	0xbddb4d3a	-0.10708089
98	0x3decf657	0.11570423
99	0x3c555ccc	0.013022613
100	0x3d101e58	0.035185188
101	0x3d8030f4	0.06259337
102	0x3d666cf1	0.05625624
103	0x3e1c72af	0.15278123
104	0x3d9368cf	0.07197725
105	0xbd626be4	-0.055278674
106	0xbda2c6d2	-0.07948078
107	0x3dd0ed09	0.10201461
108	0xbddc63f7	-0.10761254
109	0x3dde1377	0.108435564
110	0xbcd290e3	-0.025703853
111	0xbcc724a0	-0.024309456
112	0x3df41083	0.11917212
113	0x3da67fb7	0.081298284
114	0x3db528d9	0.08845682
115	0x3d7adb00	0.06124401
116	0xbdc43284	-0.095799476
117	0xbc04d9a8	-0.008108534
118	0x3c9046d3	0.017611897
119	0x3da51c68	0.08062059
120	0x3d80d464	0.0629051
121	0x3db709aa	0.0893739
122	0xbc916b47	-0.01775135
123	0xbb02a622	-0.0019935449
124	0xbddfad06	-0.109216735
125	0x3dc2b066	0.095063016
126	0xbcc4de23	-0.024031704
127	0x3dde9f76	0.108702585
128	0x3d9dcc27	0.077049546
129	0xbce91a8c	-0.028455041
130	0x3de96015	0.11395279
131	0xbdd34c4e	-0.10317288
132	0x3dfc197a	0.12309547
133	0x3da9934f	0.0828005
134	0x3dbd64ba	0.09247728
135	0x3d27b957	0.04094824
136	0x3cdeef9f	0.02721387
137	0xbdae5919	-0.08513088
138	0xbdb1b293	-0.086766385
139	0x3db00647	0.08594947
140	0x3dd5470d	0.104139425
141	0xbd76f9ea	-0.06029693
142	0x3bf9f665	0.0076282495
143	0x3d4efb86	0.05053284
144	0x3c65499f	0.013994603
145	0x3d144e2c	0.036207363
146	0x3d39e8a9	0.045387898
147	0x3dab972a	0.08378442
148	0x3bf5d245	0.0075018727
149	0xbcdea131	-0.027176471
150	0xbd9935e8	-0.07480985
151	0x3dd2466e	0.1026734
152	0x3c260453	0.010132867
153	0x3ddfeb77	0.10933583
154	0x3d55dd66	0.052213095
155	0x3de8737a	0.113501504
156	0x3d75c3c3	0.060001146
157	0xbdbe8f7d	-0.09304712
158	0x3d0b796e	0.03405135
159	0x3dbd1236	0.09231989
160	0xbcd18d47	-0.025580062
161	0xbd415b76	-0.047206365
162	0x3c876e11	0.016531976
163	0xbd0b1206	-0.033952735
164	0xbd803e22	-0.06261851
165	0xbd3f4b33	-0.046702575
166	0xbb84f4f7	-0.0040575224
167	0x3d8590da	0.06521769
168	0x3dcf82b7	0.10132354
169	0xbdf104d2	-0.117684975
170	0x3ce7d679	0.02830051
171	0xbd548008	-0.051879913
172	0x3c7a1b2f	0.01526527
173	0x3bc079cb	0.005873894
174	0xbd6ced26	-0.05784335
175	0xba664b65	-0.00087850384
176	0xbd812130	-0.06305158
177	0x3d85ace9	0.065271206
178	0xbd5f047c	-0.054447636
179	0xbdcdb9b4	-0.10045186
180	0xbd02c9f9	-0.031930897
181	0x3d91e1af	0.07123124
182	0x3d82594a	0.06364687
183	0x3dbe8a2d	0.09303699
184	0xbdbb4768	-0.09144479
185	0x3e03c867	0.12869416
186	0xbd3f9bc3	-0.046779405
187	0xbdf130fd	-0.11776922
188	0x3d7985f6	0.06091877
189	0xbcce5c00	-0.025190353
190	0x3d403013	0.046920847
191	0x3de31322	0.11087634
192	0x3d0aa248	0.03384617
193	0x3ddb65bb	0.10712763
194	0xbd8c2ced	-0.068445064
195	0xbdc34e0e	-0.09536372
196	0xbd904e26	-0.07046156
197	0xbd3652b5	-0.04451247
198	0x3e094dba	0.13408557
199	0xbc7ee1a9	-0.015556731
200	0xbc8559d2	-0.016278181
201	0xbd5b0544	-0.05347182
202	0xbd85ed00	-0.06539345
203	0xbdc7d6e9	-0.09757788
204	0x3e003d92	0.12523487
205	0x3db1cdd3	0.08681836
206	0xbd0f3106	-0.03495886
207	0x3db09ba8	0.08623439
208	0x3c8774ca	0.016535182
209	0x3abaad4a	0.0014242318
210	0xbd2c26fd	-0.04202937
211	0x3c480404	0.012207989
212	0xbd1e6763	-0.038672816
213	0x3c0669b0	0.008203909
214	0xbc852088	-0.016250864
215	0x3e13c2cb	0.14429776
216	0xbdae469c	-0.085095614
217	0x3daa8061	0.083252676
218	0x3d026b8d	0.03184085
219	0x3d1fe53b	0.03903697
220	0x3cd0d700	0.025493145
221	0x3d930085	0.071778335
222	0x3cd0e2bf	0.025498746
223	0x3d9149bd	0.070941426
224	0xbd30dd42	-0.043179758
225	0xbdd587c3	-0.10426285
226	0x3dcd6de7	0.10030728
227	0xbdb8addf	-0.09017538
228	0x3df7d75e	0.12101625
229	0x3d8296f3	0.063764475
230	0x3da5817b	0.08081337
231	0x3de1514c	0.11001834
232	0x3bfb5fbc	0.0076713245
233	0x3c5f33f7	0.013623229
234	0xbccfc142	-0.025360707
235	0xbd5db78e	-0.05413013
236	0x3dce2cbf	0.100671284
237	0xbd10a281	-0.035311226
238	0x3ca60182	0.02026439
239	0xbd80d4e1	-0.062906034
240	0x3d5b1dad	0.053495098
241	0xbd071566	-0.03297939
242	0x3d9697f7	0.07353204
243	0xbd0e4d79	-0.034741852
244	0x3c07fb66	0.008299684
245	0xbd5e50a7	-0.054276135
246	0xbd9cacbd	-0.07650135
247	0x3b375900	0.0027976632
248	0xbcc2286f	-0.02370092
249	0x3d9d7b6f	0.07689559
250	0xbd895a82	-0.06706716
251	0x3de8a278	0.113591135
252	0xbd948400	-0.072517395
253	0xbd79a05c	-0.060943946
254	0x3d98b3f0	0.07456195
255	0x3de1f471	0.110329516

lstm.bias_hh_l0 f4 [256]
0	0xbcd850e1	-0.026405754
1	0x3e1910c1	0.14947797
2	0x3ddb7a22	0.10716654
3	0xbca3302c	-0.019920431
4	0x3db0827f	0.0861864
5	0x3ceb9df2	0.028761838
6	0x3dc9d584	0.09855178
7	0xbc374080	-0.011184812
8	0xbd85453e	-0.065073475
9	0xbc0a3944	-0.008436505
10	0x3dcc50ee	0.099763736
11	0x3d6db2ff	0.058032032
12	0x3e08cb70	0.13358855
13	0x3da57ab2	0.08080043
14	0x3d8d1d44	0.068903476
15	0xbaa8d03c	-0.0012879441
16	0x3d0fe807	0.035133388
17	0x3df95523	0.12174442
18	0x3dc34bee	0.09535967
19	0xbc69f8f3	-0.0142805455
20	0xbdec0e6c	-0.11526188
21	0x3d99acac	0.07503638
22	0xbd2386d4	-0.039923504
23	0x3d10ae97	0.03532275
24	0x3d65e924	0.056130543
25	0xbda2e898	-0.0795452
26	0xbce390e5	-0.027779052
27	0x3d26629c	0.040621385
28	0xbd356eb3	-0.044295024
29	0xbd9ef706	-0.0776196
30	0xbdb7658a	-0.08954914
31	0xbd1b36d7	-0.037894096
32	0x3d9d2609	0.0767327
33	0x3dade67f	0.08491229
34	0x3df903d7	0.121589355
35	0xbc078c44	-0.008273188
36	0xbdb4902a	-0.088165596
37	0xbd848345	-0.0647035
38	0xbdd1f45d	-0.10251687
39	0xbc791a82	-0.015204074
40	0xbd844bf8	-0.064598024
41	0xbd9676c0	-0.073468685
42	0xbd9149c0	-0.07094145
43	0x3d78317f	0.06059408
44	0x3d117874	0.035515264
45	0x3dc0590f	0.093919866
46	0x3e158895	0.14602883
47	0x3dec27a4	0.11530998
48	0x3d26167f	0.040548798
49	0x3d34bc64	0.044124976
50	0xbd852156	-0.06500499
51	0x3dbd7427	0.0925067
52	0xbca48820	-0.02008444
53	0x3b2d73fc	0.0026466837
54	0xbce95dfd	-0.0284872
55	0xbdf5aaa3	-0.11995437
56	0xbdd852e1	-0.10562683
57	0xbc9baee8	-0.0190043
58	0xbc88a7a4	-0.0166815
59	0x3d6a935e	0.057269447
60	0xbda5febf	-0.081052296
61	0x3dd16245	0.102238216
62	0xbd586160	-0.05282724
63	0x3d9f94dd	0.07792065
64	0x3d5fabf6	0.054607354
65	0x3dfd3063	0.12362745
66	0x3dc06d16	0.093958065
67	0x3df20b13	0.118185185
68	0x3d67e6db	0.056616645
69	0x3dd13871	0.102158435
70	0x3a9c2fda	0.0011916116
71	0x3d2530ba	0.040329672
72	0xbd832c98	-0.0640499
73	0xbda3286c	-0.07966694
74	0x3dedd3bf	0.11612653
75	0x3d1609a2	0.03663028
76	0xbc508fc8	-0.012729593
77	0xbd865a32	-0.06560172
78	0x3d3d8c9a	0.046276666
79	0x3d97a44d	0.07404385
80	0xbdb8b63e	-0.09019135
81	0xbc044713	-0.008073586
82	0xbd8b5195	-0.0680267
83	0x3df45fce	0.11932336
84	0xbdf3f548	-0.11912018
85	0xbdb9bb7b	-0.09068962
86	0x3dd254e9	0.102701016
87	0x3d1c00ef	0.038086828
88	0x3dcf2357	0.101141624
89	0xbdf55261	-0.11978603
90	0x3dcabb9f	0.09899067
91	0xbc04d282	-0.00810683
92	0xbcbb5e0a	-0.02287199
93	0xbde2549e	-0.11051296
94	0xbda039c3	-0.07823517
95	0x3d326bbd	0.04355978
96	0x3db8f6ab	0.09031423
97	0x3dce8024	0.10083035
98	0x3dcb9929	0.09941322
99	0xbdebb029	-0.11508209
100	0xbd60ca44	-0.054880396
101	0x3d0cc1b3	0.034364413
102	0xbd0bfd2f	-0.034177
103	0xbd85ee11	-0.06539548
104	0xbdd987df	-0.106216185
105	0xbd50ed9c	-0.051007852
106	0xbdd0b790	-0.10191262
107	0x3dd64327	0.10462027
108	0x3d1fc363	0.039004695
109	0xbcf1652c	-0.029467188
110	0x3b93b915	0.0045081475
111	0x3e2a81c7	0.16651069
112	0xbdb22b41	-0.08699656
113	0xbe03e758	-0.1288122
114	0xbb065b25	-0.0020501104
115	0xbd1b2304	-0.03787519
116	0x3cda541c	0.026651435
117	0xbdc87d49	-0.09789521
118	0xbb9dea4c	-0.00481919
119	0xbc39c510	-0.011338487
120	0xbd61cee5	-0.05512895
121	0x3dd0d560	0.10196948
122	0xbdcfdbaa	-0.101493195
123	0xbdf8f1ec	-0.12155518
124	0x3d9cd6b2	0.076581374
125	0x3c7140e0	0.01472494
126	0xbd4d767e	-0.05016183
127	0x3d775cc4	0.060391203
128	0xbd7678aa	-0.060173668
129	0x3cd89228	0.02643688
130	0x3d61b33d	0.055102576
131	0x3dd92d68	0.10604364
132	0x3d9c8f1e	0.07644485
133	0xbbcf6294	-0.00632889
134	0xbd96bb08	-0.07359892
135	0xbdcdb78d	-0.10044775
136	0x3dab9f46	0.08379988
137	0x3df9d111	0.121980794
138	0xbd8092f5	-0.0627803
139	0x3bb41580	0.005495727
140	0xbda78997	-0.0818054
141	0xbd9313a6	-0.07181482
142	0xbceb5792	-0.02872828
143	0x3d0fbbc6	0.035091184
144	0x3d9152f4	0.070959
145	0xbd6a663c	-0.057226405
146	0x3d95e6dc	0.073194236
147	0xbcbecbef	-0.023290602
148	0xbdca10a1	-0.09866453
149	0xbcd41e91	-0.025893481
150	0x3d267973	0.040643167
151	0x3c264433	0.010148096
152	0xbd41856f	-0.047246393
153	0xbd2a3a2b	-0.04155938
154	0xbddac932	-0.10682906
155	0x3dd44aa4	0.10365799
156	0xbd9a7486	-0.07541756
157	0x3c36e86d	0.011163813
158	0xbdcc7378	-0.099829614
159	0xbd408ee2	-0.047011264
160	0xbdba4f42	-0.090971485
161	0x3d04215a	0.03225837
162	0xbdd1a1d3	-0.10235944
163	0xbdb3e2ee	-0.08783518
164	0xbd9ed856	-0.077561066
165	0xbd008d3e	-0.0313847
166	0xbc91f77f	-0.01781821
167	0xbdc81c52	-0.09771027
168	0xbb438687	-0.0029834823
169	0xbd8eeffa	-0.06979366
170	0x3deef357	0.11667507
171	0x3d827a32	0.06370963
172	0x3cc8472a	0.024447996
173	0xbdd4eac1	-0.10396338
174	0x3d8b4204	0.06799701
175	0xbd125e79	-0.035734627
176	0xbda199dc	-0.078906745
177	0xbd6cafdd	-0.057784904
178	0x3d608ec0	0.054823637
179	0xbdb4cfe2	-0.08828713
180	0x3d9c4d72	0.07631959
181	0x3d1df50b	0.03856377
182	0x3c923500	0.017847538
183	0xbd4e888d	-0.050423194
184	0xbddd226e	-0.107975826
185	0x3cebb0ea	0.028770883
186	0x3cd97d2e	0.026548948
187	0x3d4db656	0.050222717
188	0x3deaa9bb	0.11458155
189	0xbdd725d1	-0.1050526
190	0xbd71d07d	-0.05903672
191	0x3dcd48d4	0.100236565
192	0xbd030a9e	-0.031992547
193	0xbdafc827	-0.08583098
194	0x3c17813d	0.009247121
195	0xbde06a54	-0.109577805
196	0x3cacd3a4	0.021097012
197	0xbdc8b837	-0.09800761
198	0xbc3c78fb	-0.011503453
199	0xbda8f67f	-0.082501404
200	0xbdbf8527	-0.09351569
201	0xbb94d556	-0.004542033
202	0x3dbf4a4c	0.09340343
203	0x3d8d2d64	0.06893423
204	0x3cb80078	0.022461161
205	0x3dc977c9	0.098373
206	0x3dea7ee6	0.11449985
207	0xbdd3296c	-0.10310635
208	0xbdc7ea14	-0.09761444
209	0x3ca3762e	0.019953813
210	0x3d01223d	0.031526793
211	0xbd7f36c7	-0.0623081
212	0x3cf9be00	0.030486107
213	0x3d117f36	0.03552171
214	0x3df13f68	0.11779672
215	0x3ddcef6f	0.10787856
216	0xbc4269ca	-0.011866042
217	0xbe08b5d9	-0.1335062
218	0xbc307c42	-0.010771813
219	0xbcda9ecc	-0.026687048
220	0xbd012243	-0.031526815
221	0x3d41e6a6	0.047339104
222	0xbca398f9	-0.019970404
223	0xbdc8d62a	-0.098064736
224	0xbda3cf0c	-0.079984754
225	0x3dfb4a7a	0.12270065
226	0xbd41674b	-0.04721765
227	0xbddc2a43	-0.10750248
228	0xbd52c0af	-0.05145329
229	0xbd758130	-0.059937656
230	0xbc6379dd	-0.013884035
231	0xbd6ca258	-0.05777201
232	0x3c064b6d	0.008196694
233	0x3d550354	0.052005127
234	0xbd56f51e	-0.052479856
235	0xbd92fde2	-0.071773306
236	0x3d93d17b	0.072176896
237	0x3d74a631	0.059728805
238	0xbd710ba4	-0.058848992
239	0x3d452c87	0.048138168
240	0x3da0ee69	0.07857973
241	0xbdbac757	-0.09120052
242	0xbd2058c8	-0.03914717
243	0xbd513f0f	-0.051085528
244	0x3d4f0bcb	0.050548356
245	0x3c915767	0.017741872
246	0x3db8cb80	0.090231895
247	0xbd910f2b	-0.07082971
248	0x3d6c73ff	0.05772781
249	0x3d932e1b	0.07186528
250	0x3e04be4a	0.12963215
251	0x3da7efb0	0.08200014
252	0xbdd3b15a	-0.103365615
253	0x3e18df0c	0.14928836
254	0x3da8b768	0.08238107
255	0x3d31130f	0.043231066

lstm.weight_ih_l0_reverse f4 [256, 4]
0	0x3e0cde36	0.13756642
1	0x3d798a78	0.06092307
2	0x3d6ff2b3	0.058581065
3	0xbd95a78b	-0.07307347
4	0x3b5f0f64	0.0034036273
5	0xbd9dad67	-0.076990895
6	0x3d1d91c9	0.03846911
7	0x3d35b613	0.044363093
8	0x3d8655eb	0.06559356
9	0xbd133523	-0.035939347
10	0x3d4ce95b	0.050027233
11	0x3dc9517e	0.098299965
12	0xbd93a21c	-0.07208654
13	0x3c589822	0.013219865
14	0x3d300dde	0.042981975
15	0xbbc8fb0d	-0.006133443
16	0xbd3591e2	-0.044328578
17	0xbdb47815	-0.08811966
18	0x3c38d9c2	0.011282386
19	0xbceb4cb6	-0.028723102
20	0x3dbc7f81	0.09204007
21	0x3db93588	0.090434134
22	0x3d863895	0.06553761
23	0x3ba7dda7	0.0051228586
24	0x3dade1e4	0.08490351
25	0xbd04bb11	-0.032404963
26	0xbcfc571b	-0.030803254
27	0x3d57c4b0	0.05267781
28	0x3dd1981a	0.10234089
29	0x3e0bcdc5	0.13652714
30	0x3d298145	0.041383047
31	0x3de7f64e	0.11326276
32	0x3d2e7309	0.042590175
33	0x3db9973f	0.09062051
34	0xbe12df4c	-0.14342993
35	0xbd6c8bf3	-0.057750653
36	0xbc2e6883	-0.010645035
37	0xbd5b67c9	-0.053565774
38	0xbcca0168	-0.024658874
39	0x3b9f0d3c	0.0048538726
40	0x3d0fa936	0.03507348
41	0xbca9376d	-0.020656312
42	0x3d89a3e8	0.06720716
43	0xbc8a8e11	-0.016913446
44	0xbdb684ba	-0.08912034
45	0xbcb12e2b	-0.02162846
46	0xbc1a4cf1	-0.009417758
47	0x3d88c078	0.066773355
48	0x3deb3266	0.11484222
49	0xbdbd0ca6	-0.09230928
50	0xbe0f9e6c	-0.14025277
51	0x3cd2c5cf	0.025729088
52	0xbd901758	-0.070357025
53	0x3cefad52	0.02925745
54	0x3cbc473a	0.022983182
55	0xbc90de28	-0.017684057
56	0x3dbbe903	0.09175303
57	0x3dd76d05	0.10518841
58	0x3d9528c7	0.07283168
59	0x3cbd0ed5	0.023078362
60	0xbd99afa8	-0.07504207
61	0x3b3a1936	0.0028396375
62	0x3e17bb14	0.14817458
63	0x3d90a2b2	0.07062282
64	0xbcf1d0f3	-0.02951858
65	0x3d7d208c	0.061798617
66	0x3e43213b	0.19055645
67	0x3ba331f6	0.004980321
68	0xbe140d33	-0.1445816
69	0x3da8cec5	0.08242563
70	0xbddace10	-0.106838346
71	0xbe053413	-0.13008146
72	0xbd9d2237	-0.076725416
73	0xbd30dce6	-0.043179415
74	0xbc576f7e	-0.01314914
75	0x3d2af074	0.04173322
76	0x3d80036d	0.062506534
77	0x3da9598a	0.08269031
78	0x3dad4b48	0.084616244
79	0x3c8cfd01	0.017210485
80	0x3d70ad8c	0.058759257
81	0xbc79d381	-0.01524818
82	0xbe19a66a	-0.15004888
83	0xbe126412	-0.14295986
84	0x3dfeb35a	0.12436552
85	0x3de04b5a	0.10951872
86	0xbd75e5c9	-0.060033593
87	0xbdc1445a	-0.09436865
88	0x3dcdd143	0.10049679
89	0xbdd94f93	-0.10610881
90	0xbda8dd03	-0.0824528
91	0x3ae1fe50	0.0017241929
92	0x3bdcda07	0.006739858
93	0x3dc17889	0.094468184
94	0xbd01d641	-0.03169847
95	0x3d7d80da	0.06189046
96	0xbd7f7099	-0.06236324
97	0x3d072b9c	0.033000574
98	0x3e1c7788	0.15279973
99	0xbd4de806	-0.050270103
100	0x3d0d7438	0.034534663
101	0x3da71775	0.08158771
102	0xbdb36b7d	-0.08760736
103	0x3d5a35db	0.053274017
104	0x3df36c5f	0.118859045
105	0x3c2699e4	0.010168526
106	0x3d60feb6	0.05493041
107	0xbd444820	-0.047920346
108	0xbd8815a2	-0.06644751
109	0xbdb3f26e	-0.08786474
110	0x3cd97c26	0.026548456
111	0x3cab6d0d	0.020926023
112	0x3d9def32	0.077116385
113	0xbd785200	-0.060625076
114	0xbd389107	-0.045060184
115	0x3b9beb88	0.004758302
116	0xbd19a367	-0.03750935
117	0x3dde5417	0.108558826
118	0x3d91771b	0.07102796
119	0x3dd69abc	0.10478732
120	0x3df1c8c8	0.11805874
121	0xbbea1048	-0.007143054
122	0xbd2e21de	-0.042512767
123	0xbdbdffc7	-0.09277301
124	0x3c0b0012	0.0084839035
125	0xbcdc0497	-0.026857657
126	0xbdf3ce0e	-0.11904536
127	0x3cc0f0a0	0.023552239
128	0xbdd4188f	-0.10356247
129	0xbd2a3b22	-0.0415603
130	0xbdf27a29	-0.118397065
131	0x3baa3fdd	0.0051956014
132	0xbd88997e	-0.06669901
133	0xbd59818c	-0.05310206
134	0x3d0ef19c	0.034898385
135	0x3d7196d4	0.05898173
136	0x3de0420b	0.10950097
137	0x3dae0bbc	0.08498332
138	0x3e3adbb8	0.18247879
139	0x3da55a0a	0.08073814
140	0xbd63489c	-0.055489168
141	0x3cdb82f8	0.02679585
142	0x3d47ff6f	0.048827585
143	0x3cb8a18c	0.022537969
144	0x3deb5d91	0.11492456
145	0x3dae38b9	0.08506913
146	0x3ca8298b	0.020527622
147	0x3dde37c6	0.10850482
148	0x3e005b2a	0.12534776
149	0x3e089abf	0.13340281
150	0x3d849c50	0.06475127
151	0x3dac5607	0.08414846
152	0xbb4d6c32	-0.0031345007
153	0xbc36ff85	-0.011169319
154	0x3d78bc67	0.06072655
155	0xbd17898b	-0.036996406
156	0xbcdc032b	-0.02685698
157	0x3cb2e232	0.021836374
158	0xbda1ef3d	-0.07906959
159	0x3e0c0c1e	0.13676497
160	0x3bc54e22	0.006021277
161	0xbd6e3262	-0.058153518
162	0x3e3b0ca7	0.18266545
163	0x3cee5aaf	0.029095976
164	0xbc2f7eac	-0.010711353
165	0xbca0a7ae	-0.019611206
166	0xbd95c72d	-0.073133804
167	0x3dc51d9b	0.096247874
168	0x3caecceb	0.021337947
169	0x3d806323	0.06268909
170	0xbe13ba72	-0.14426592
171	0xbe0eebcc	-0.13957137
172	0xbd8f4675	-0.069958605
173	0x3cf5b49b	0.029993346
174	0xbc966433	-0.018358326
175	0xbd88cabf	-0.06679296
176	0xbd2c7e0f	-0.042112406
177	0xbde827a7	-0.11335688
178	0xbcac1545	-0.021006236
179	0x3d86beaf	0.06579339
180	0x3e0878ff	0.13327406
181	0xbdb330e1	-0.08749557
182	0xbe082798	-0.13296354
183	0xbd874b80	-0.06606197
184	0x3d3e9b77	0.04653498
185	0x3d8ecd78	0.06972784
186	0x3a3a2136	0.0007100286
187	0x3d3cab63	0.046061885
188	0x3d08a0d2	0.033356495
189	0x3e035503	0.12825398
190	0x3d2beaf2	0.04197211
191	0x3d05eedb	0.032698493
192	0x3dc76618	0.0973627
193	0x3c085147	0.008320159
194	0xbd2a8a73	-0.04163594
195	0xbd5cee96	-0.05393847
196	0x3d53d42a	0.051716007
197	0xbd84eecf	-0.064908616
198	0xbdb559a0	-0.08854985
199	0xba9f4bb2	-0.0012153296
200	0xbd2e0fd1	-0.042495552
201	0x3de89b97	0.113578014
202	0x3ddbcae4	0.10732058
203	0xbd590420	-0.05298245
204	0x3e0c926d	0.13727732
205	0x3d5a2d41	0.053265814
206	0xbd8ce060	-0.06878734
207	0x3d448483	0.047977936
208	0x3dc72a18	0.097248256
209	0x3d9021e7	0.07037716
210	0xbd924679	-0.07142348
211	0x3db4b13b	0.088228665
212	0xbbfd6349	-0.007732783
213	0xbda5343b	-0.08066603
214	0x3dc782fe	0.09741782
215	0x3d1191fc	0.035539612
216	0x3df452da	0.11929865
217	0x3d84a3b3	0.06476536
218	0xbd8d7cb7	-0.06908553
219	0x3e058f77	0.13043009
220	0x3d911677	0.07084363
221	0x3c26a6d6	0.010171613
222	0xbdaafe77	-0.083493166
223	0xbde3949d	-0.1111233
224	0xbdbd2d23	-0.09237125
225	0xbd7878c5	-0.06066205
226	0xbd6747c8	-0.05646494
227	0xbd27ba0b	-0.04094891
228	0xba5c6c6a	-0.0008408489
229	0x3dfb0c59	0.122582145
230	0x3e2ed149	0.17072023
231	0x3dcf5053	0.101227425
232	0x3d11d669	0.035604868
233	0xbd699b42	-0.05703283
234	0x3dd5fa05	0.10448078
235	0x3b9a5624	0.004709976
236	0x3ca35629	0.019938545
237	0x3ddf6c6c	0.10909352
238	0x3c5cf311	0.013485686
239	0x3d06b03a	0.032882906
240	0xbd8a6b35	-0.06758729
241	0x3a9c1f7b	0.0011911237
242	0xbce77917	-0.028255982
243	0xbca011d7	-0.019539757
244	0x3d73f21a	0.059557058
245	0x3d9237c1	0.071395405
246	0x3d491f8f	0.049102362
247	0x3d542ce9	0.051800642
248	0xbd213296	-0.039354883
249	0xbc4f2939	-0.012644106
250	0x3d93fb55	0.07225672
251	0x3ba5203d	0.0050392435
252	0x3d25470f	0.04035097
253	0xbda14a4e	-0.078755006
254	0x3bf7ae25	0.0075586014
255	0xbd02d547	-0.03194168

lstm.weight_hh_l0_reverse f4 [256, 64]
0	0xbd86fd36	-0.06591265
1	0x3dc0e5d4	0.09418836
2	0x3dacaf3f	0.08431863
3	0xbd4aabcc	-0.049480245
4	0x3d099ad3	0.033594918
5	0xbc39432e	-0.011307521
6	0x3d8f04f0	0.06983364
7	0x3ae4318c	0.0017409786
8	0xbdcb2d60	-0.09920764
9	0x3dc68e88	0.096951544
10	0xbc7d6d8c	-0.015468013
11	0x3c807d2e	0.01568469
12	0xbdd1f47b	-0.10251709
13	0x3c20d6f3	0.009816873
14	0xbdadf190	-0.0849334
15	0x3ded2009	0.11578376
16	0x3ce8873c	0.028384797
17	0x3c4fd380	0.012684703
18	0xbcd8d5cd	-0.026469136
19	0xbe05afb7	-0.13055311
20	0xbdde3964	-0.1085079
21	0x3d4cff68	0.050048262
22	0x3d8240d6	0.06360023
23	0x3d0c77ce	0.034293942
24	0x3d88c33a	0.066778615
25	0x3dd8a230	0.1057781
26	0x3d747354	0.059680298
27	0x3e004a5a	0.12528363
28	0xbd9e4271	-0.077275164
29	0x3d8820b8	0.066468656
30	0x3c61b41d	0.0137758525
31	0x3d13cf3e	0.036086313
32	0x3d4322a1	0.047640447
33	0xbd594140	-0.053040743
34	0xbe0dd060	-0.1384902
35	0x3de75553	0.11295571
36	0xbddb9bb5	-0.10723058
37	0xbc6034f2	-0.013684498
38	0x3b319313	0.002709572
39	0xbdf18ad1	-0.11794055
40	0xbc82e6a5	-0.01597912
41	0x3c9ad0ce	0.018898394
42	0xbcfefc3f	-0.03112614
43	0x3d941481	0.07230473
44	0xbde7fd69	-0.11327631
45	0x3e0362fe	0.12830731
46	0xbc7e423e	-0.015518723
47	0x3d50b191	0.05095059
48	0xbbbcd8bc	-0.0057631414
49	0x3d92aca6	0.07161836
50	0xbdab8d57	-0.08376568
51	0x3dad4d63	0.08462026
52	0x3c3c9581	0.011510254
53	0xbd4b7705	-0.049674053
54	0xbe02525c	-0.1272673
55	0x3ddfae6e	0.10921942
56	0xbdaa09eb	-0.08302673
57	0x3d6f1e52	0.058378525
58	0xbc4cadb4	-0.012492586
59	0xbd90bebb	-0.07067629
60	0xbd2d4b34	-0.042308047
61	0xbbf8b9de	-0.0075905165
62	0x3d78a47b	0.060703736
63	0x3d963360	0.07334018
64	0xbd0630e5	-0.032761473
65	0xbd94fc40	-0.07274675
66	0xbc855d5b	-0.016279867
67	0xbcf67b8e	-0.030088212
68	0x3df06f62	0.117399946
69	0xbdbf9dbc	-0.09356257
70	0x3ddee247	0.10883003
71	0x3d7f6e1c	0.062360868
72	0x3dede7bb	0.11616465
73	0x3dabc484	0.08387092
74	0xbd17ded2	-0.037077732
75	0x3d67ffbf	0.056640383
76	0xbd670953	-0.056405377
77	0xbca4cb52	-0.020116482
78	0xbdbe148e	-0.09281264
79	0xbcdb45d3	-0.026766693
80	0xbd9850c3	-0.07437279
81	0xbdaf6958	-0.085650146
82	0xbe028bd1	-0.12748648
83	0xbc5af7e4	-0.013364766
84	0x3d511ca3	0.0510527
85	0xbc98eb28	-0.018666819
86	0x3d706493	0.058689665
87	0x3d815972	0.063158885
88	0x3dc71450	0.09720671
89	0x3d0a7b6b	0.033809107
90	0xbcb08334	-0.021546938
91	0x3cb95663	0.0226242
92	0x3cc9337c	0.024560682
93	0x3da211b5	0.079135336
94	0x3d8aefd5	0.067840256
95	0xbda5d8da	-0.08098002
96	0xbce17d90	-0.027525693
97	0xbd7b8759	-0.061408374
98	0x3db2f8f6	0.08738892
99	0xbddf7589	-0.1091109
100	0x3d52990c	0.051415488
101	0x3dbcefc8	0.09225422
102	0x3da21be0	0.07915473
103	0x3d787114	0.060654715
104	0xbdfc3da5	-0.12316445
105	0x3ada7472	0.0016666783
106	0x3da4ec13	0.0805284
107	0xbcd89cbf	-0.02644193
108	0x3dc42561	0.09577442
109	0xbdd572b2	-0.10422267
110	0x3dab5503	0.08365824
111	0x3d318530	0.043339908
112	0x3c448c9e	0.011996416
113	0xbe0cdc2b	-0.13755862
114	0x3d352fef	0.044235166
115	0x3dd00702	0.10157587
116	0x3e20b0f9	0.1569251
117	0x3e0435d1	0.12911154
118	0xbdcf30e4	-0.10116747
119	0xbe068cf1	-0.13139702
120	0x3c76ccbf	0.015063464
121	0xbd421ce9	-0.047390852
122	0xbe08db1b	-0.13364832
123	0x3d216b08	0.039408714
124	0x3c2bbbe6	0.01048181
125	0x3dc8dd96	0.09807889
126	0x3d92a217	0.071598224
127	0x3d07f922	0.033196576
128	0xbd985e4b	-0.0743986
129	0xbc8b124b	-0.016976496
130	0x3da477d0	0.08030665
131	0x3de7ae18	0.113125026
132	0xbd718406	-0.058963798
133	0x3dba1a70	0.09087074
134	0xbd993152	-0.0748011
135	0xbdb6aa63	-0.089192174
136	0x3dedcbb5	0.1161112
137	0x3cff9de4	0.031203218
138	0xbdbcf396	-0.09226148
139	0x3d515f33	0.05111618
140	0xbe01353e	-0.12617967
141	0xbd5e1eb8	-0.054228514
142	0xbdc1d434	-0.09464303
143	0xbdfe4535	-0.12415544
144	0xbc034790	-0.008012667
145	0x3d21c1fe	0.039491646
146	0x3dde3587	0.10850053
147	0xbe08ea6f	-0.1337068
148	0xbc4e0988	-0.012575515
149	0x3d2f5b75	0.04281183
150	0xbad1411c	-0.0015964839
151	0xbd738bd6	-0.05945953
152	0x3dad2835	0.084549345
153	0xbd4e6b3e	-0.050395243
154	0x3d968712	0.07349981
155	0xbc643728	-0.013929166
156	0x3db3d672	0.087811366
157	0x3dc1eec2	0.094693676
158	0xbdfbb874	-0.12291041
159	0x3d3f80c0	0.046753645
160	0xbb93e4ac	-0.004513344
161	0xbd29db30	-0.0414688
162	0xbcbabd6b	-0.0227954
163	0xbd5770ae	-0.052597694
164	0x3d2418b8	0.040062636
165	0xbc7b3284	-0.015331868
166	0x3da4e730	0.08051908
167	0xbdf50626	-0.11964063
168	0xbc61f32c	-0.013790887
169	0xbd1e9723	-0.038718354
170	0x3c26363c	0.010144766
171	0xbde6a444	-0.112618
172	0xbc3073e9	-0.010769823
173	0xbd672235	-0.056429107
174	0x3d87ebf3	0.066368006
175	0xbdfc939d	-0.123328425
176	0xbda4dd3b	-0.08050009
177	0x3b2e422e	0.002658974
178	0x3d99ac3e	0.07503556
179	0xbe065de1	-0.1312175
180	0xbd71fab7	-0.05907699
181	0xbd55dca7	-0.052212384
182	0x3cd464fe	0.025927063
183	0x3d96639c	0.07343218
184	0x3d735d5a	0.0594152
185	0x3db6a4e5	0.0891817
186	0xbca073b4	-0.019586422
187	0x3d9dea5e	0.077107176
188	0x3dac8664	0.084240705
189	0x3c4c18d6	0.012457093
190	0x3dc60fdc	0.09670994
191	0xbdc8f02e	-0.09811436
192	0x3da3a76d	0.07990918
193	0x3ce5b2b8	0.028039321
194	0xbce89338	-0.028390512
195	0x3d5d1fd1	0.05398542
196	0x3dc7d8bb	0.09758135
197	0xbcb3a73d	-0.021930331
198	0xbdd52c40	-0.10408831
199	0x3cf94267	0.03042717
200	0x3d558b75	0.05213495
201	0xbd79951d	-0.06093322
202	0x3d83d061	0.064362295
203	0xbda09a84	-0.078419715
204	0xbdc09082	-0.09402563
205	0xbdc18293	-0.09448733
206	0x3defbefb	0.117063485
207	0x3cdd203d	0.026992911
208	0xbd3d2aa1	-0.046183232
209	0x3a865ec1	0.0010251628
210	0xbdb8b768	-0.09019357
211	0x3daa73fe	0.08322905
212	0xbd5da5b0	-0.05411309
213	0xbdc5a2b9	-0.096501775
214	0xbb6f154c	-0.00364812
215	0xba6b440e	-0.00089746795
216	0xbd1bc4bb	-0.038029414
217	0x3d81e31e	0.06342147
218	0xbc0cc887	-0.008592731
219	0x3dd532ca	0.10410078
220	0xbd9412d0	-0.07230151
221	0xbc167a99	-0.009184503
222	0xbde3f295	-0.11130253
223	0x3de066e0	0.10957122
224	0x3d15f09a	0.03660641
225	0x3d2ee6f8	0.042700738
226	0x3d58c882	0.052925594
227	0x3de16a79	0.11006636
228	0x3c23f61a	0.010007406
229	0xbd86276e	-0.06550489
230	0x3daaf73a	0.08347936
231	0xbde4ec2d	-0.111778595
232	0xbd76a654	-0.060217217
233	0x3dbc538c	0.09195623
234	0x3d67d551	0.05659992
235	0x3d90b848	0.07066399
236	0xbc36f0e7	-0.011165834
237	0xbd7e0c18	-0.062023252
238	0xbaf966df	-0.001902785
239	0x3d85ac9e	0.06527065
240	0xbd7b2878	-0.06131789
241	0xbd5c9d2f	-0.05386084
242	0x3da4baad	0.08043418
243	0xbd19a77f	-0.037513252
244	0x3ca74e1d	0.02042299
245	0xbd96e334	-0.07367554
246	0x3da95939	0.08268971
247	0x3d261601	0.04054833
248	0x3dd0f822	0.102035776
249	0x3cba830a	0.022767562
250	0xbd5ae709	-0.05344299
251	0x3d09c2a7	0.0336329
252	0x3d75734b	0.059924405
253	0xbaec1b4d	-0.0018013507
254	0xbe0f15ff	-0.13973235
255	0xbd700f64	-0.058608428

lstm.bias_ih_l0_reverse f4 [256]
0	0x3d68734a	0.056750573
1	0xbe038c8f	-0.12846588
2	0xbe0179f7	-0.12644182
3	0x3cc624ab	0.024187407
4	0xbce9c7bd	-0.028537625
5	0xbd14fcba	-0.03637383
6	0x3dc4931c	0.095983714
7	0x3d7d20f9	0.061799023
8	0x3de298b3	0.11064281
9	0x3c8fe1fd	0.017563814
10	0xbdbf90db	-0.09353801
11	0x3d4a5476	0.049396954
12	0x3dff1e0f	0.12456905
13	0x3e112ff5	0.1417845
14	0x3df2563e	0.11832856
15	0x3d212699	0.03934345
16	0x3dded9e8	0.10881406
17	0xbd033965	-0.032037158
18	0x3d5d7d63	0.054074656
19	0xbb5ab991	-0.0033374766
20	0xbd7d600e	-0.061859183
21	0xbdd2b0cb	-0.10287627
22	0x3d50774e	0.050895028
23	0x3cb9a29f	0.022660552
24	0xbd79a9f5	-0.0609531
25	0xbd5cf775	-0.05394693
26	0x3bb8cacb	0.005639409
27	0x3d6bd2ed	0.0575742
28	0xbdde5b7e	-0.108572945
29	0x3e188dad	0.14897795
30	0xbca1b4b1	-0.01973948
31	0x3ddf8b79	0.10915274
32	0xbe129434	-0.14314348
33	0x3dc640a3	0.09680297
34	0x3d3f884e	0.04676085
35	0xbda3bc87	-0.07994943
36	0xbdd6ba2f	-0.104847305
37	0x3ce7e827	0.028308941
38	0xbb1e54f2	-0.0024159518
39	0x3dc80b85	0.09767822
40	0x3cdfc239	0.027314292
41	0x3d054da8	0.032544762
42	0xbd36b5e3	-0.044607054
43	0x3d27ba43	0.040949117
44	0xbd937f8b	-0.07202061
45	0xbd8c0d78	-0.068385065
46	0x3dde74f3	0.1086215
47	0x3e1f19b9	0.15537156
48	0x3dc1ae28	0.09457046
49	0x3dca4f9a	0.09878464
50	0x3be60829	0.0070200157
51	0x3d8e6e51	0.06954635
52	0x3e2dd848	0.16977036
53	0x3df10fab	0.117705666
54	0xbd18d4a3	-0.03731216
55	0xbdfc6594	-0.12324062
56	0xbe02b868	-0.12765658
57	0x3b380af2	0.0028082696
58	0xbc2768ab	-0.010217826
59	0x3c774648	0.01509244
60	0xbd2266cf	-0.039648827
61	0xbd9a432d	-0.07532344
62	0x3cfe7d0b	0.031065485
63	0xbd36e966	-0.04465618
64	0x3db3a73f	0.08772134
65	0x3dead754	0.11466852
66	0x3d15ccaa	0.036572136
67	0x3e008857	0.1255201
68	0x3c94f4b8	0.018183097
69	0x3b786c60	0.0037906393
70	0xbd3281bf	-0.043580767
71	0xbd9e5b03	-0.07732203
72	0x3d0e91cc	0.03480701
73	0x3d0910b6	0.033463202
74	0xbd82a50c	-0.063791364
75	0xbd55c592	-0.05219037
76	0xbda563f6	-0.08075707
77	0xbdb42c50	-0.087975144
78	0x3d86c1c8	0.065799296
79	0xbd17d28a	-0.03706602
80	0x3dba0755	0.0908343
81	0xbd26299a	-0.040567018
82	0xbda74ae9	-0.08168585
83	0xbd432e7c	-0.047651753
84	0x3d513dd6	0.051084362
85	0x3dbfa71a	0.09358044
86	0xbd15662d	-0.036474396
87	0xbd881105	-0.06643871
88	0x3d9d6362	0.076849714
89	0xbdcfbe87	-0.10143762
90	0xbdba09f2	-0.09083928
91	0x3d93d3d5	0.07218138
92	0xbd50fc73	-0.051022004
93	0x3d89b645	0.06724218
94	0x3daa1ab9	0.08305878
95	0x3dcf6955	0.10127512
96	0xbd216e89	-0.039412055
97	0x3d87e800	0.06636047
98	0x3e029bb0	0.12754703
99	0x3daeaf1a	0.08529492
100	0xbd6f5a7c	-0.058435902
101	0x3d50b99c	0.05095826
102	0x3da9b367	0.082861714
103	0x3d7b7147	0.061387327
104	0xbd54ab7f	-0.051921364
105	0x3cf13076	0.029442053
106	0xbd1d6a42	-0.038431413
107	0xbdd6eb91	-0.104941495
108	0xbd61400a	-0.054992713
109	0xbcd8289b	-0.02638655
110	0xbcddb2d2	-0.027062807
111	0x3d955073	0.07290735
112	0x3e02ef66	0.12786636
113	0xbdcf1405	-0.1011124
114	0x3dcfe520	0.10151124
115	0x3cd9dfa9	0.026595907
116	0x3c9561fd	0.018235201
117	0xbc6e58f1	-0.0145475725
118	0xbdd31bc7	-0.103080325
119	0x3d4103a5	0.047122616
120	0xbd8c98a6	-0.06865053
121	0xbd980e91	-0.07424653
122	0x3c75e58d	0.015008342
123	0x3e05f1aa	0.13080469
124	0x3d4b7397	0.049670782
125	0x3dda6260	0.10663295
126	0x3e2410ea	0.16022077
127	0xbdabb99a	-0.0838501
128	0x3d557ed2	0.0521229
129	0x3cfe46da	0.031039644
130	0xbda579b7	-0.08079856
131	0x3dabb20b	0.083835684
132	0xbdbb3938	-0.09141773
133	0xba3686d8	-0.00069628423
134	0xbcc9266b	-0.024554452
135	0x3cea1df7	0.028578741
136	0xbc42171e	-0.011846332
137	0x3dc157de	0.094405875
138	0x3b308fcc	0.0026941178
139	0xbcf35684	-0.02970434
140	0x3d390127	0.045167115
141	0x3dd21a07	0.102588706
142	0x3de2deab	0.11077627
143	0xbad463ba	-0.0016204037
144	0x3de24ddd	0.110500075
145	0xbdb540a6	-0.08850221
146	0x3c77aece	0.01511736
147	0x3da7e049	0.08197076
148	0x3de999b7	0.11406272
149	0xbd369f25	-0.044585366
150	0x3d56a90e	0.052407317
151	0x3dbbb3e2	0.09165169
152	0x3d0058f4	0.031334832
153	0xbdade328	-0.08490592
154	0xba2baca5	-0.00065488584
155	0x3cb1c2b8	0.021699294
156	0xbdb66f94	-0.089080006
157	0x3a25b626	0.0006321393
158	0x3b8d22de	0.004307135
159	0xbd230ecc	-0.039809033
160	0xbdd17bbd	-0.10228679
161	0xbdccba89	-0.09996516
162	0x3df0b1bd	0.11752651
163	0xbdd293ad	-0.10282073
164	0xbcfc524e	-0.030800965
165	0xbde6de49	-0.11272866
166	0x3d906cf0	0.07052028
167	0x3ce89786	0.028392565
168	0x3d3e8cb7	0.046520915
169	0x3dd48ff8	0.10379022
170	0xbdcdb2ec	-0.10043892
171	0xbd902057	-0.07037418
172	0x3db5224c	0.08844432
173	0x3c0b12c9	0.008488365
174	0x3d84161f	0.06449532
175	0x3dd9cd0e	0.10634814
176	0xbba7945b	-0.005114121
177	0xbdb3ec30	-0.087852836
178	0x3b5770bf	0.0032873598
179	0x3d933e80	0.07189655
180	0xbdf7fa3e	-0.12108277
181	0x3dcf42a9	0.10120136
182	0x3dbfd53e	0.093668446
183	0x3dd691fe	0.104770645
184	0xbd1e9467	-0.038715746
185	0x3dda469b	0.10657998
186	0xbdd361f1	-0.10321415
187	0xbd0c9a75	-0.03432699
188	0x3d9f3747	0.07774215
189	0xbcca67ef	-0.024707763
190	0x3df40fce	0.11917077
191	0xbdd0b7fe	-0.10191344
192	0xbd811730	-0.06303251
193	0x3de3b792	0.11118998
194	0xbcdfd23b	-0.027321925
195	0xbd8a76bb	-0.06760927
196	0xbcab67a4	-0.020923443
197	0xbd32f889	-0.043694053
198	0x3da6a9f7	0.08137887
199	0xbd5ffef2	-0.054686494
200	0x3dc5cf13	0.09658637
201	0xbc8d0743	-0.017215377
202	0xbb499ee4	-0.0030764872
203	0x3bdf0e1e	0.006807103
204	0x3d58fc13	0.05297477
205	0x3d4275eb	0.047475737
206	0xbdc94419	-0.09827442
207	0x3da22a64	0.079182416
208	0xbd1b152c	-0.037861988
209	0xbe0cd78d	-0.13754101
210	0xbd2e423e	-0.042543642
211	0x3d9267ac	0.0714868
212	0xbd0e92f4	-0.034808114
213	0xbd7cbe06	-0.061704658
214	0x3d9f7a01	0.07786942
215	0xbd6bd217	-0.057573404
216	0x3d75ff6c	0.060058042
217	0x3dcd3837	0.10020488
218	0x3deb8ff5	0.11502067
219	0x3da80a1b	0.082050525
220	0xbdee112b	-0.11624368
221	0x3d619928	0.0550777
222	0xbcd7e827	-0.026355816
223	0x3cd26fc3	0.025688058
224	0xbdf1e99a	-0.11812134
225	0x3ce504c0	0.027956367
226	0x3d29ca75	0.041452844
227	0xbd908ad4	-0.07057729
228	0xbcb82279	-0.022477375
229	0xbd5d8f94	-0.054092005
230	0x3d90db3b	0.07073065
231	0x3df8e562	0.12153126
232	0xbd244ac9	-0.040110383
233	0xbd488d24	-0.048962727
234	0x3d328509	0.043583903
235	0xbcff5d66	-0.031172466
236	0xbdd4374c	-0.103621095
237	0xbdb7955a	-0.089640334
238	0xbd5bc880	-0.05365801
239	0xbd3bf06e	-0.04588359
240	0xbb2ceb78	-0.0026385467
241	0xbdd7616d	-0.10516629
242	0x3d29a8bb	0.04142068
243	0x3dadda50	0.084889054
244	0x3e0bc9b6	0.13651165
245	0x3d8ca07a	0.06866546
246	0x3ca6855c	0.020327263
247	0xbd99cd58	-0.07509869
248	0xbdba1499	-0.0908596
249	0x3dbdc750	0.092665315
250	0xbd9b4cf9	-0.07583041
251	0xbd7a1aa3	-0.06106056
252	0xbde2e284	-0.11078361
253	0x3dea57b6	0.11442511
254	0xbd4fe745	-0.050757665
255	0xbd335f95	-0.043792326
