backend/api/ml/models/model_f8e07b09-6e50-4728-829b-dd8d7cddf5e5.pth (torch, 949173 bytes, 26 tensors)

lstm.weight_ih_l0 f4 [256, 4]
0	0x3d09afed	0.03361504
1	0xbc4061aa	-0.011742035
2	0x3dd728b8	0.10505813
3	0xbd5def1b	-0.054183107
4	0xbd623833	-0.055229377
5	0x3d01e663	0.031713855
6	0x3d8b6b03	0.0680752
7	0xbdd4edd2	-0.10396923
8	0x3d64c10b	0.055848163
9	0xbdaf3fcb	-0.085570894
10	0x3ce4f01b	0.027946522
11	0x3df03fbd	0.11730907
12	0xbcff86a1	-0.031192126
13	0xbdf3061d	-0.118664004
14	0xbd0793e1	-0.033100013
15	0x3d27f48a	0.041004695
16	0x3d77cb94	0.06049688
17	0xbdee1799	-0.11625595
18	0xbd91a17e	-0.0711088
19	0xbd19de60	-0.03756559
20	0x3d9dcaf3	0.07704725
21	0xbcbb7201	-0.02288151
22	0x3e277944	0.16354853
23	0xbd38fdec	-0.045164034
24	0x3c1d52fd	0.0096023055
25	0x3d24614b	0.04013185
26	0xbdaf9494	-0.08573261
27	0x3c6bf410	0.014401451
28	0xbd7e483e	-0.062080614
29	0x3dfb4152	0.12268318
30	0x3e2a8e0f	0.16655754
31	0xbcbce1ef	-0.023056952
32	0xbdae5cc3	-0.08513787
33	0xbd9dc3ee	-0.07703386
34	0xbcfabe1f	-0.030608235
35	0xbd7f5aaf	-0.062342342
36	0xbd216cb2	-0.0394103
37	0xbdd8198f	-0.1055175
38	0xbd500129	-0.050782356
39	0xbd2b1f19	-0.041777704
40	0xbd136e66	-0.035993956
41	0xbd892c0f	-0.06697857
42	0x3cba5333	0.02274475
43	0xbd970cbf	-0.07375478
44	0xbdd6dfac	-0.10491881
45	0x3d627924	0.05529131
46	0xbd180c48	-0.037121087
47	0x3cf070c4	0.029350646
48	0x3c373a55	0.011183341
49	0xbc312ef8	-0.010814421
50	0x3c9fe103	0.019516474
51	0x3dfb8a39	0.12282223
52	0xbdf46a42	-0.119343296
53	0x3d979e4a	0.07403238
54	0x3cca1a16	0.024670642
55	0xbcdf2f5b	-0.02724426
56	0xbd0368fc	-0.032082543
57	0x3d4bbaa6	0.04973855
58	0x3db10274	0.08643046
59	0xbdb3d675	-0.08781139
60	0x3d8b3cd1	0.06798709
61	0xbcb357ae	-0.021892395
62	0xbe12bf41	-0.1433077
63	0xbd6c6be9	-0.0577201
64	0x3e094aaf	0.13407396
65	0x3db9e179	0.090762086
66	0x3d30174d	0.04299097
67	0xbcfa900f	-0.03058627
68	0xbd6d8eb2	-0.057997413
69	0x3d1bf12d	0.0380718
70	0xbd7c2853	-0.061561894
71	0xbd30dd7b	-0.04317997
72	0x3d874fd6	0.06607024
73	0x3dce7998	0.10081786
74	0xbdd66b70	-0.10469711
75	0xbdbbacca	-0.09163816
76	0x3e01fb05	0.12693413
77	0x3d864782	0.06556608
78	0xbd2c068d	-0.041998435
79	0x3cfa097c	0.0305221
80	0x3e0019a2	0.12509778
81	0x3ce8673c	0.028369538
82	0xbdb7e0b8	-0.089784086
83	0x3cc3a073	0.02388022
84	0x3c8a1211	0.016854318
85	0xb90d02eb	-0.00013447895
86	0xbc771684	-0.015081052
87	0x3d918686	0.071057364
88	0xbdc8825d	-0.0979049
89	0xbdc50eee	-0.09621988
90	0xbdbfb1b9	-0.0936007
91	0xbd06700e	-0.032821707
92	0xbc90b497	-0.017664237
93	0xbd0d01f6	-0.0344257
94	0x3dcdd4c2	0.10050346
95	0xbda7aee8	-0.081876576
96	0xbd8beef0	-0.06832683
97	0x3c6435ff	0.013928889
98	0xbcb07908	-0.021542087
99	0x3da34711	0.07972539
100	0xbd48cff2	-0.049026437
101	0x3dc6126b	0.09671482
102	0xbd473ba3	-0.04864086
103	0xba7c196d	-0.0009616826
104	0xbd60de3f	-0.05489945
105	0x3cbf77a8	0.023372486
106	0x3d777c25	0.060421128
107	0xbd342c5b	-0.043987613
108	0xbdb71701	-0.089399345
109	0x3c80153c	0.015635125
110	0xbd956df6	-0.07296364
111	0xbd7b69b6	-0.06138011
112	0xbbf5d998	-0.007502746
113	0xbd479225	-0.04872336
114	0x3e02d2f3	0.12775783
115	0x3d8fb63c	0.0701718
116	0x3d47f786	0.04882004
117	0x3df1e5db	0.118114196
118	0x3d5f54a2	0.05452407
119	0xbd1676c7	-0.03673437
120	0x3e1d30cf	0.1535065
121	0xbc95f1fa	-0.01830386
122	0x3d045125	0.032303948
123	0xbd08bb83	-0.03338195
124	0x3dc61dba	0.09673639
125	0x3da4c169	0.080447026
126	0xbd649084	-0.055801883
127	0x3dc7ce88	0.097561896
128	0x3d8b81e5	0.06811885
129	0xbd12a276	-0.035799466
130	0x3d89c319	0.06726665
131	0xbddc6e41	-0.10763217
132	0x3dd76874	0.1051797
133	0xbc5f487b	-0.0136281205
134	0xbde6843e	-0.11255692
135	0x3cf20db7	0.029547555
136	0x3abec690	0.0014555026
137	0x3ca0206c	0.01954671
138	0x3d7a3f0d	0.061095286
139	0x3d90a187	0.07062059
140	0x3cd187f7	0.025577528
141	0xbde57c60	-0.11205363
142	0x3bf8d768	0.007594038
143	0xbddb1f47	-0.10699325
144	0xbdd7dde4	-0.10540369
145	0xbdab1473	-0.0835351
146	0xbd475fa0	-0.04867518
147	0xbc92d150	-0.017922074
148	0x3c897886	0.016781103
149	0x3cc48fe2	0.02399439
150	0x3d92b8a6	0.07164125
151	0x3cf7fbcd	0.030271435
152	0xbdf78211	-0.12085355
153	0x3db9f458	0.09079808
154	0x3df84ee6	0.12124424
155	0xbd920e03	-0.07131579
156	0xbd9fcaa5	-0.07802323
157	0xbdb192f9	-0.08670611
158	0x3cd80e07	0.026373876
159	0x3d876acc	0.06612167
160	0x3dc97b62	0.098379865
161	0xbd653e6a	-0.055967726
162	0xbdb6e6af	-0.08930718
163	0x3e0ea3c4	0.13929659
164	0xbd78cba4	-0.06074108
165	0xbd248fdd	-0.04017626
166	0xbd4b5b81	-0.04964781
167	0xbc86e74f	-0.016467718
168	0x3dafe506	0.08588605
169	0x3d737d24	0.059445515
170	0x3c9888fa	0.018620003
171	0xbd3f6d7b	-0.046735268
172	0x3ddef264	0.10886076
173	0x3de06360	0.10956454
174	0x3c99294b	0.018696448
175	0x3dd2e3d5	0.10297362
176	0x3deb9cfa	0.1150455
177	0xbd8b77ef	-0.06809985
178	0xbd7821f6	-0.060579263
179	0xbdbbb6f6	-0.091657564
180	0x3dd23549	0.102640696
181	0x3db9b295	0.09067265
182	0x3db6f82b	0.08934053
183	0x3c803c33	0.015653705
184	0xbae207cd	-0.0017244756
185	0xbd812cf3	-0.063074015
186	0xbd9a1aa5	-0.07524613
187	0xbdfadd6d	-0.12249265
188	0x3c109d7d	0.008826611
189	0xbd88d1b7	-0.06680625
190	0x3d4a637f	0.049411293
191	0x3d3c4f72	0.045974202
192	0x3c54142b	0.012944262
193	0xbd48e480	-0.04904604
194	0x3d5e72ff	0.054308888
195	0x3be0b409	0.0068573994
196	0x3d916280	0.070988655
197	0xbd52a021	-0.051422242
198	0x3d77dfce	0.06051617
199	0xbdbbf15d	-0.09176896
200	0xbd5f97f7	-0.054588284
201	0x3da7a01e	0.08184837
202	0xbd0864ef	-0.033299383
203	0x3a2b3df9	0.0006532367
204	0x3da9236e	0.08258711
205	0x3dfe03f5	0.124030985
206	0xbc56db15	-0.013113757
207	0x3cb87931	0.022518726
208	0x3dd60b27	0.10451346
209	0xbdc22983	-0.09480574
210	0xbdff2960	-0.124590635
211	0x3db0d734	0.08634797
212	0x3cda0261	0.026612462
213	0xbd0b3e41	-0.033994917
214	0xbb41d8b5	-0.002957863
215	0x3d2e502c	0.042556927
216	0x3dba6cfb	0.091028176
217	0x3ac22ea3	0.0014814924
218	0x3cef1ae4	0.029187627
219	0xbd5d1f4b	-0.05398492
220	0x3da57138	0.080782354
221	0xbdce1f31	-0.10064543
222	0x3baaf23e	0.005216866
223	0x3d32ecbc	0.0436828
224	0x3dbf2a21	0.09334207
225	0x3cbacad6	0.022801798
226	0xbd4ae57f	-0.04953527
227	0xbd408cb4	-0.047009185
228	0xbde2dad4	-0.110768944
229	0x3d0ecb85	0.03486206
230	0x3c7cf416	0.015439054
231	0x3bf620a5	0.0075112158
232	0xbbaee3af	-0.0053372006
233	0xbd55f8fd	-0.052239407
234	0xbd39e2e9	-0.045382414
235	0xbd9ea123	-0.07745578
236	0x3dbe3ae8	0.09288579
237	0x3e0ac089	0.13550009
238	0x3df5cc47	0.120018534
239	0x3ca7f53b	0.020502677
240	0x3de48d07	0.11159711
241	0x3dac52d5	0.084142365
242	0x3e0e0761	0.13870002
243	0x3d906b24	0.070516855
244	0x3df4b7b6	0.119491026
245	0xbd1fc00d	-0.039001513
246	0xbb96d66f	-0.004603199
247	0x3dbf345a	0.09336157
248	0xbdd90469	-0.10596544
249	0xbdc76f0d	-0.09737978
250	0xbd56c96d	-0.05243819
251	0xbcfc5299	-0.030801104
252	0x3cc31c45	0.02381719
253	0xbb82334d	-0.0039734007
254	0xbd333e7b	-0.043760758
255	0x3dad4167	0.0845974

lstm.weight_hh_l0 f4 [256, 64]
0	0x3c2a28a9	0.010385671
1	0x3b73189a	0.003709352
2	0x3c00e6ea	0.007867554
3	0x3ca32816	0.019916575
4	0xbd247fea	-0.04016105
5	0xbdb137e5	-0.08653239
6	0xbc85759f	-0.016291438
7	0x3da60ce1	0.08107925
8	0xbd472dd5	-0.048627693
9	0x3d8928e1	0.0669725
10	0x3cc5bf8f	0.024139194
11	0x3da9a332	0.0828308
12	0xbdac2190	-0.08404839
13	0x3dc93876	0.09825222
14	0x3b401260	0.0029307827
15	0xbd8118cd	-0.063035585
16	0x3cd70fd0	0.026252657
17	0xbd9335d2	-0.07188
18	0xbdfba0d8	-0.12286538
19	0xbdcae9b5	-0.09907857
20	0x3d80fd88	0.06298357
21	0xbd6f1387	-0.058368232
22	0x3d971f06	0.07378964
23	0x3dbdc649	0.092663355
24	0x3dab84a1	0.08374906
25	0xbdb0a13c	-0.08624503
26	0x3c3f5eb4	0.011680294
27	0xbd9f2a7f	-0.07771777
28	0xbd24d342	-0.040240534
29	0x3bc3d363	0.005976127
30	0x3da69711	0.081342824
31	0xbd6e4483	-0.058170807
32	0xbb4f7060	-0.0031652674
33	0x3dc9cd83	0.098536514
34	0x3d8dd2a4	0.06924942
35	0xbd494d48	-0.049145967
36	0xbcf07286	-0.029351484
37	0xbdc5daef	-0.09660899
38	0xbd728e89	-0.059217963
39	0x3d4cc57f	0.049993034
40	0xbd0493b4	-0.032367423
41	0xbdad8752	-0.08473076
42	0xbdcc7b9a	-0.099845126
43	0xbde2777f	-0.11057948
44	0x3d67f073	0.056625795
45	0xbb2b97ae	-0.0026182937
46	0x3df5dc73	0.12004938
47	0xbd7b89ac	-0.06141059
48	0xbc04955d	-0.008092252
49	0xbb218e11	-0.0024651329
50	0xbc13c710	-0.009019628
51	0xbdd15e3e	-0.102230534
52	0xbde12381	-0.109931
53	0x3dfcd7c0	0.123458385
54	0x3d861567	0.06547051
55	0xbb1e8344	-0.0024187127
56	0xbd0eaad8	-0.034830898
57	0x3ddfd16c	0.10928616
58	0xbd230fc4	-0.039809957
59	0x3b583cbc	0.0032995185
60	0xbdb8b236	-0.09018366
61	0x3dc8b347	0.097998194
62	0x3db26208	0.08710104
63	0x3de3834c	0.11109027
64	0xbdf1199c	-0.11772463
65	0x3ced5c12	0.028974567
66	0x3cafaea3	0.021445578
67	0x3c7dd1e3	0.015491935
68	0xbde12bb0	-0.10994661
69	0x3d78237d	0.06058072
70	0xbddd022d	-0.107914306
71	0xbd87430a	-0.066045836
72	0xbe071dd9	-0.1319498
73	0xbcfe3c66	-0.03103466
74	0xbd5dc995	-0.05414732
75	0x3dff2145	0.124575175
76	0x3d913246	0.07089667
77	0xbb720674	-0.0036930116
78	0xbdd1a5b4	-0.102366835
79	0x3d943028	0.072357476
80	0x3d3a5a88	0.045496494
81	0x3d7a344a	0.061085023
82	0x3d27bb64	0.040950194
83	0xbc73646e	-0.014855487
84	0x39c83108	0.00038183504
85	0xbcee80f3	-0.029114222
86	0xbd158310	-0.036501944
87	0x3d27f900	0.04100895
88	0x3e01622c	0.12635106
89	0xbca5c62f	-0.020236103
90	0xbdaa10a5	-0.08303956
91	0x3e01afd9	0.12664737
92	0x3defaaa2	0.117024675
93	0xbd0bbd16	-0.034115873
94	0xbdae4f62	-0.08511235
95	0x3d41c979	0.04731128
96	0xbd97a579	-0.07404608
97	0xbdb1dea7	-0.08685046
98	0x3cdc2adf	0.026875911
99	0xbda305ca	-0.079600886
100	0xbd737bc8	-0.05944422
101	0xbdc6b706	-0.09702878
102	0xbd213f2a	-0.03936688
103	0xbdd5b98e	-0.104357824
104	0xbd3b5782	-0.04573775
105	0x3d8e3bc2	0.06944992
106	0xbdd7dc16	-0.10540025
107	0xbbf0f335	-0.0073532113
108	0xbc45ebea	-0.012080172
109	0xbd4b24b1	-0.04959554
110	0xbd9929fa	-0.074787095
111	0xba9d819b	-0.0012016775
112	0x39fc70dc	0.00048149272
113	0xbca8b9c7	-0.020596398
114	0xbd9d7a01	-0.07689286
115	0xbd3395fd	-0.04384421
116	0x3d79c4b3	0.060978603
117	0x3a13472a	0.0005618209
118	0x3cf2300a	0.029563922
119	0x3d99f170	0.07516754
120	0xbd9f5675	-0.07780162
121	0x3d87cb37	0.06630557
122	0xbc9410a8	-0.018074349
123	0xbdc34bb2	-0.09535922
124	0xbd1048fd	-0.035225857
125	0xbc99e7fe	-0.01878738
126	0x3ca468a4	0.020069428
127	0x3cb24570	0.021761626
128	0xbadbb0d0	-0.0016761068
129	0xbe074d12	-0.13212994
130	0xbdc712e8	-0.09720403
131	0xbd501761	-0.050803546
132	0x3dba04de	0.090829596
133	0xbc306555	-0.010766347
134	0x3da36292	0.07977785
135	0x3d0c99fb	0.034326535
136	0xbd4b5ee7	-0.049651053
137	0xbd728fbb	-0.059219103
138	0xba36bef0	-0.0006971201
139	0x3ddaf795	0.10691754
140	0x3e0c81fb	0.13721459
141	0xbe0d5933	-0.13803558
142	0xbd9e6833	-0.07734718
143	0x3d598fcc	0.05311565
144	0x3d90249e	0.07038234
145	0xbe049476	-0.12947258
146	0x3ca4168b	0.02003028
147	0xbe01a9ad	-0.12662382
148	0xbe022a34	-0.12711412
149	0xbd76b0fd	-0.060227383
150	0xbdd21a29	-0.10258896
151	0x3e0bf44f	0.13667415
152	0xbdbd5275	-0.09244243
153	0xbd17772f	-0.036978897
154	0x3ded5b33	0.115896605
155	0x3d4af142	0.049546488
156	0xbd968f7d	-0.07351587
157	0xbcb05400	-0.02152443
158	0xbd4e73df	-0.050403472
159	0x3e01ed1b	0.12688105
160	0x3e039e78	0.1285342
161	0xbd87a5d9	-0.0662343
162	0x3de06e3a	0.10958524
163	0xbd2b50e8	-0.041825205
164	0x3c27575a	0.010213697
165	0x3bae66a4	0.0053222943
166	0x3dba6340	0.09100962
167	0xbd7b609c	-0.06137143
168	0xbe0dfd1e	-0.13866088
169	0x3c37e254	0.011223394
170	0x3d58e7ce	0.05295544
171	0x3d7c7db7	0.06164333
172	0x3d09ef54	0.033675507
173	0xbdf7a807	-0.120925955
174	0xbdf6353d	-0.12021873
175	0xbd2fdb9b	-0.04293404
176	0xbb98a420	-0.004658237
177	0xbcdb4a19	-0.026768731
178	0x3d7e90db	0.062149864
179	0xbdaa6c87	-0.08321481
180	0xbda928f4	-0.08259764
181	0x3d17608e	0.036957316
182	0xbdb51406	-0.0884171
183	0xbd8f33af	-0.0699228
184	0x3d9f6827	0.07783537
185	0x3d997fe1	0.07495094
186	0x3dd69c30	0.10479009
187	0x3e0c4140	0.13696766
188	0x3d1e837b	0.03869961
189	0x39bbdb88	0.00035830983
190	0x3bf2f6d6	0.007414679
191	0xbc19297c	-0.00934827
192	0x3be119d9	0.0068695364
193	0x3dca1bde	0.098685965
194	0xbdf61c42	-0.120171085
195	0x3d9522db	0.07282039
196	0xbd745138	-0.05964777
197	0x3e0bb4fe	0.13643262
198	0xbcd99fda	-0.026565481
199	0xbd8ffd1b	-0.07030698
200	0xbdf468ec	-0.11934075
201	0xbcccaa45	-0.024983535
202	0xbd0af21a	-0.033922292
203	0x3dbf8bdd	0.09352849
204	0xbdccffde	-0.1000974
205	0xbd90c83d	-0.070694424
206	0x3dcb89a0	0.09938359
207	0x3da7f6cd	0.082013704
208	0x3d2929ff	0.041299816
209	0xbde01459	-0.10941381
210	0x3d95650c	0.07294664
211	0x3da03aae	0.07823692
212	0x3cdd52ee	0.027017083
213	0xbd18e27c	-0.037325367
214	0xbcce1c96	-0.025160115
215	0xbdeed0f7	-0.11660951
216	0x3c665b05	0.014059787
217	0xbd7c1eba	-0.06155274
218	0xbcad0d37	-0.021124465
219	0x3df427b0	0.11921632
220	0xbd26c5b6	-0.040715896
221	0xbd4d33ff	-0.050098415
222	0xbdb8bacd	-0.090200044
223	0x3d491f2c	0.049101993
224	0xbde2e03e	-0.11077927
225	0xbd94d0c8	-0.07266384
226	0x3d8eeef7	0.06979173
227	0xbdef3e26	-0.11681776
228	0xbc8b89ce	-0.017033484
229	0xbd7b7c4a	-0.06139783
230	0xbda7df32	-0.08196868
231	0x3dfabb9e	0.122428164
232	0x3daa1961	0.08305622
233	0xbdd230b6	-0.10263197
234	0xbded929c	-0.11600229
235	0xbdc20a49	-0.09474618
236	0xbdfb3d3b	-0.12267538
237	0x3d4f9861	0.05068243
238	0xbda06c30	-0.07833135
239	0x3c2a2dc1	0.010386885
240	0xbdce0115	-0.100588
241	0x3d0cefc5	0.03440835
242	0x3d889d74	0.06670657
243	0x3e060fed	0.13092013
244	0x3de94148	0.113894045
245	0x3d7a5bcc	0.0611227
246	0xbcff5470	-0.031168193
247	0xbd99c771	-0.075087436
248	0xbc6d067b	-0.014466877
249	0xbc61d84f	-0.013784482
250	0xbe06c2f5	-0.13160308
251	0x3d3f9148	0.04676941
252	0x3ccbc6da	0.024875093
253	0x3dcb5ef7	0.099302225
254	0xbde11c4e	-0.10991727
255	0x3a7bdaab	0.0009607474

lstm.bias_ih_l0 f4 [256]
0	0xbd3d380a	-0.04619602
1	0xbd6bd734	-0.05757828
2	0x3dbe123f	0.09280824
3	0xbd8032a2	-0.062596574
4	0x3ac38449	0.0014916743
5	0xbcdb92ed	-0.026803458
6	0x3d809707	0.06278806
7	0x3df72e0a	0.12069328
8	0x3d9320c6	0.071839854
9	0x3be6a694	0.0070389006
10	0xbcc2173d	-0.023692722
11	0xbd8abd31	-0.06774367
12	0x3d40ea9f	0.047098752
13	0x3db39ee7	0.087705426
14	0x3c20bf68	0.00981126
15	0x3da5724a	0.080784395
16	0xbcce1084	-0.02515436
17	0x3de1c331	0.11023558
18	0x3d24e62c	0.04025857
19	0x3d8ca92d	0.06868205
20	0x3da321c1	0.079654224
21	0x3e0b8bc2	0.13627532
22	0x3dae4e6f	0.08511054
23	0xbd9fad23	-0.07796695
24	0x3c8d0c68	0.01721783
25	0xbd21e02f	-0.03952044
26	0xbdb7f375	-0.089819826
27	0x3d624a74	0.055246785
28	0x3dd193e8	0.10233289
29	0x3dcc0a06	0.09962849
30	0xbd294cba	-0.041332938
31	0xbd91994e	-0.07109319
32	0x3dbd9f02	0.09258844
33	0x3c8e0bdc	0.01733964
34	0x3d6ef511	0.058339182
35	0x3cad56ee	0.021159615
36	0x3d6b2279	0.057405923
37	0x3df40aae	0.119160995
38	0x3d2fba12	0.04290206
39	0xbd1f7fb5	-0.03894015
40	0x3d80f1cd	0.0629612
41	0xbde05d7b	-0.1095533
42	0xbca15b15	-0.019696752
43	0x3d4599c6	0.048242353
44	0x3cd733f4	0.02626989
45	0xbcc27261	-0.02373618
46	0x3cf0bb4f	0.02938619
47	0x3de7c3b5	0.11316625
48	0x3dc77e62	0.097409025
49	0xbd9439a1	-0.07237554
50	0x3d0b95aa	0.034078278
51	0xbdbf03b6	-0.0932688
52	0x3db7b043	0.08969166
53	0xbd15563a	-0.036459185
54	0x3ddac850	0.10682738
55	0xbdb44cc3	-0.08803704
56	0x3e03acb4	0.1285885
57	0x3cbd5ff6	0.023117047
58	0xbcaeec7d	-0.021353
59	0xbdc9da6e	-0.09856115
60	0x3e18baa6	0.1491495
61	0x3cb7df91	0.022445472
62	0xbd7e65d2	-0.062108822
63	0x3c0354b7	0.008015803
64	0x3d4f2b26	0.05057826
65	0xbde358a3	-0.111008905
66	0xbd0d1a81	-0.034449104
67	0x3d699cd2	0.05703432
68	0x3ddf02c1	0.10889197
69	0xbd66f998	-0.056390375
70	0xbc9d7e10	-0.01922515
71	0x3dae3647	0.08506446
72	0xbd8ef662	-0.069805875
73	0x3c9e7057	0.019340677
74	0x3d211853	0.039329838
75	0x3da3f1ec	0.08005127
76	0xbdc9f67b	-0.098614655
77	0xbc29ae50	-0.010356501
78	0xbd5088a3	-0.050911557
79	0x3d2dd335	0.04243775
80	0xbdbee42c	-0.09320864
81	0xbdcb8fc1	-0.09939528
82	0xbdbd27f6	-0.092361376
83	0x3db2b14e	0.087252244
84	0x3d69fa28	0.057123333
85	0xbcc375e0	-0.023859918
86	0x3de37bc4	0.11107591
87	0xbc8b46c5	-0.017001519
88	0x3dd4591f	0.10368561
89	0xbdc3ace5	-0.095544614
90	0x3d9ec284	0.07751945
91	0xbcadb64f	-0.021205096
92	0x3d668591	0.056279723
93	0xbb740799	-0.0037235974
94	0x3db26a76	0.08711712
95	0x3d3c6f82	0.04600478
96	0x3c541577	0.012944571
97	0xbc0a3428	-0.008435287
98	0x3d4be0f5	0.049775083
99	0x3d0fc967	0.03510418
100	0xbb9307a7	-0.004486996
101	0x3d133da1	0.035947446
102	0x3dee8f59	0.11648435
103	0x3d048954	0.03235753
104	0x3da7a589	0.0818587
105	0x3d098083	0.033569824
106	0xbdab3b8e	-0.083609685
107	0x3dd2b628	0.1028865
108	0xbce07196	-0.027397912
109	0x3d390bc6	0.045177244
110	0x3db7bfac	0.089721054
111	0xbd800c69	-0.06252367
112	0x3dc9ec1e	0.09859489
113	0x3d64da3a	0.05587218
114	0xbd95f54d	-0.07322178
115	0xbd97ff9a	-0.07421799
116	0xbda34015	-0.07971207
117	0xbbd43ee9	-0.006477226
118	0xbddf5871	-0.10905541
119	0xbc92025b	-0.017823389
120	0xbd55a86f	-0.052162584
121	0xbd751a50	-0.059839547
122	0x3d9c053e	0.07618187
123	0xbd103fc4	-0.03521706
124	0xbd0eabd6	-0.034831844
125	0xbd2a3095	-0.041550238
126	0x3d30d91e	0.04317581
127	0xbd4e24d1	-0.05032808
128	0xbde4543e	-0.111488804
129	0xbd8bb374	-0.06821337
130	0xbdf660f6	-0.120302126
131	0xbd473390	-0.04863316
132	0xbd55e3a8	-0.052219063
133	0xbdb1aa52	-0.08675064
134	0x3d5f3727	0.054495957
135	0xbd3e291a	-0.046425916
136	0x3e0439f1	0.12912728
137	0xbda4c8f6	-0.08046143
138	0xbd38f85b	-0.045158725
139	0xbdbaedc7	-0.09127384
140	0x3dc24ee1	0.09487701
141	0xbc60a40a	-0.013710985
142	0xbd37d52a	-0.044881023
143	0xbc8489e7	-0.016179038
144	0x3d6d73e7	0.05797186
145	0x3c698845	0.014253681
146	0xbd1e98ca	-0.03871993
147	0xbc75ad53	-0.014994937
148	0xbd6841be	-0.05670332
149	0xbdcd4dc9	-0.10024602
150	0xbd8c9a6a	-0.0686539
151	0x3db3a42b	0.08771547
152	0xbd9ccac6	-0.076558635
153	0x3dd55c06	0.10417943
154	0x3dd46c78	0.10372251
155	0xbca2b57c	-0.01986193
156	0x3d672074	0.056427434
157	0xbd43f14c	-0.04783754
158	0xbd88b7cb	-0.06675681
159	0xbd8ea12e	-0.06964336
160	0xbd4eb24f	-0.050463017
161	0xbd02cdc2	-0.031934507
162	0xbd89a9f3	-0.06721868
163	0xbc51827c	-0.012787458
164	0x3cd4e965	0.025990197
165	0x3e08df2a	0.1336638
166	0xbc00e4b4	-0.007867027
167	0xbd83220c	-0.06402978
168	0x3ddff6c6	0.1093574
169	0xbdca5c01	-0.098808296
170	0x3d00c220	0.031435132
171	0x3cda147c	0.026621096
172	0xbd62b1a1	-0.05534518
173	0x3d8a132c	0.06741938
174	0x3d65fafa	0.056147553
175	0x3de2b87f	0.11070346
176	0xbde607d4	-0.11231962
177	0x3dd6dc1a	0.104912
178	0xbda2d6e6	-0.07951145
179	0x3dc2ac11	0.09505475
180	0xbdcc690c	-0.099809736
181	0xbd5b0828	-0.053474575
182	0x3debe145	0.11517576
183	0x3cc145e0	0.02359289
184	0x3de77056	0.11300723
185	0xbdbf179b	-0.09330674
186	0x3c8c0f21	0.017097058
187	0x3d195a97	0.03743991
188	0xbde7035b	-0.11279937
189	0xbdd6716e	-0.10470854
190	0x3bdd13d8	0.0067467503
191	0xbdf91747	-0.12162643
192	0x3bfc4f55	0.007699887
193	0x3deaab52	0.11458458
194	0x3d6643ee	0.056217127
195	0xbd15cce8	-0.036572367
196	0xbc4d2ec4	-0.012523357
197	0xbdfc6f22	-0.123258844
198	0xbdc10ee0	-0.09426665
199	0xbd37542c	-0.044758007
200	0x3dac88e6	0.08424549
201	0xbc56b5c6	-0.013104862
202	0x3dbc5990	0.0919677
203	0xbb1e94c5	-0.002419756
204	0xbd9fb35e	-0.077978835
205	0xbd2bb6e8	-0.04192248
206	0x3cc50f5d	0.024055177
207	0x3d2855ab	0.041097324
208	0x3d3643aa	0.044498123
209	0xbded2038	-0.11578411
210	0x3c44cd19	0.01201179
211	0xbd75ccc8	-0.060009748
212	0x3db1e4a2	0.086861864
213	0x3d72ecc5	0.059307832
214	0x3dcf5803	0.10124209
215	0x3b85cc3f	0.004083186
216	0xbd471a80	-0.048609257
217	0xbd49f523	-0.049306046
218	0x3dd67a5e	0.104725584
219	0xbdd1838c	-0.10230169
220	0xbda24a98	-0.07924384
221	0x3d8efbb9	0.06981606
222	0x3cc2c282	0.02377439
223	0xb8fafd33	-0.00011968091
224	0xbdbb6d86	-0.09151749
225	0xbd6bd4ae	-0.057575874
226	0x3e1b299b	0.1515259
227	0xbdd66cd5	-0.10469977
228	0x3ddf721b	0.10910436
229	0xbc6c21fd	-0.0144124
230	0x3ddf2eaf	0.10897576
231	0xbd6da90b	-0.05802254
232	0xbc974a11	-0.018467935
233	0x3cbdc7ae	0.023166504
234	0xbcbe4100	-0.023224354
235	0x3d904de2	0.07046105
236	0x3c9da258	0.01924245
237	0xbc6080ae	-0.013702555
238	0x3d9de72c	0.07710108
239	0x3c87aec0	0.01656282
240	0x3dc946e5	0.09827975
241	0x3d474b5d	0.048655856
242	0xbd666390	-0.056247294
243	0x3dee77f5	0.11643974
244	0x3de155a5	0.110026635
245	0x3df231a9	0.11825878
246	0xbd8277b3	-0.06370487
247	0x3dfec780	0.12440395
248	0x3b2cb837	0.0026354918
249	0x3c758441	0.014985145
250	0x3db6cac6	0.08925395
251	0x3deca386	0.11554627
252	0xbd0ed69a	-0.03487263
253	0x3de79573	0.11307802
254	0x3d65171a	0.055930234
255	0xbd581205	-0.05275156

lstm.bias_hh_l0 f4 [256]
0	0x3d92dab4	0.071706206
1	0x3d6ae614	0.057348326
2	0x3d9bf0d8	0.07614297
3	0xbd8c3e15	-0.06847779
4	0xbc8e9f07	-0.017409815
5	0xbdbaccb5	-0.09121076
6	0xbda31149	-0.07962281
7	0xbdbea005	-0.09307865
8	0x3d8568d8	0.06514138
9	0xbda48cf9	-0.08034701
10	0x3dddb1f7	0.1082496
11	0x3df414ee	0.119180545
12	0xbde0d239	-0.10977597
13	0x3da4abf1	0.08040608
14	0xbd260fd8	-0.040542454
15	0xbda3250c	-0.079660505
16	0xbda5bd76	-0.080927774
17	0xbde608f8	-0.112321794
18	0x3d8bf33b	0.06833502
19	0xbdbf423f	-0.09338807
20	0xbde324b5	-0.11090986
21	0xbbfbe003	-0.0076866164
22	0xbc9c2241	-0.019059302
23	0xbdbb55cb	-0.09147223
24	0x3da1e477	0.07904904
25	0xbdd188de	-0.102311835
26	0x3cd99604	0.02656079
27	0x3dd1f80c	0.10252389
28	0x3d6516b0	0.05592984
29	0x3e1c97af	0.15292238
30	0x3db02f5c	0.08602783
31	0x3bacf561	0.005278275
32	0x3ddcc074	0.10778895
33	0xbd20c49a	-0.039249994
34	0x3e0c7c15	0.13719209
35	0x3dca3242	0.09872867
36	0x3c278ae1	0.010225982
37	0x3dc269a8	0.094928086
38	0xbde31cea	-0.11089499
39	0xbc2e0a8c	-0.010622632
40	0xbd0e96b8	-0.034811705
41	0x3b34ffef	0.0027618369
42	0xbdc3d9fa	-0.0956306
43	0xbd3b6652	-0.045751877
44	0xbd1b8870	-0.037971914
45	0xbda0c66f	-0.07850348
46	0xbd3f9e96	-0.0467821
47	0xbdb6ebbb	-0.08931681
48	0xbd8ceace	-0.06880723
49	0x3dda438f	0.10657417
50	0xbd810515	-0.062997974
51	0xbdc63c48	-0.096794665
52	0xbc9b6370	-0.018968314
53	0x3d57b4be	0.052662604
54	0xbd4c8235	-0.049928863
55	0x3b2a0e48	0.0025948454
56	0x3d6b7e3d	0.057493437
57	0x3dee32f0	0.11630809
58	0xbdee273a	-0.116285756
59	0xbc3a1aca	-0.011358926
60	0xbd62eb2b	-0.055400055
61	0xbd9cf652	-0.07664169
62	0x3d152325	0.03641047
63	0xbdab090f	-0.08351337
64	0x3d06227a	0.032747723
65	0x3cbf7bbe	0.023374435
66	0xbd818730	-0.06324613
67	0xbd2791b5	-0.04091044
68	0x3d99dac5	0.0751243
69	0xbc9faafa	-0.019490708
70	0xbdcd7735	-0.100325026
71	0x3dcc3a92	0.09972109
72	0xbd9cdd29	-0.076593705
73	0x3df7ae9b	0.1209385
74	0xbdd834b7	-0.105569296
75	0xbd18afb0	-0.037276924
76	0xba1d8de3	-0.00060102175
77	0xbd52bd02	-0.051449783
78	0x3bbac20e	0.0056994027
79	0x3d7d4984	0.061837688
80	0x3df79bf1	0.1209029
81	0x3cda13bb	0.026620736
82	0x3dedfe24	0.11620739
83	0x3e0b23c2	0.1358786
84	0xbdb65cf1	-0.08904446
85	0x3e06d0f7	0.13165651
86	0xbdf2bade	-0.11852048
87	0xbe01c081	-0.1267109
88	0xbdf39ee3	-0.118955396
89	0xbd3c9857	-0.04604372
90	0xbdeb56fe	-0.11491202
91	0xbd7a9daa	-0.061185516
92	0xbd50785b	-0.05089603
93	0x3d52876b	0.051398676
94	0xbd01881b	-0.03162394
95	0xbacc71c5	-0.0015597871
96	0xbde0b6d4	-0.10972372
97	0xbe020bf6	-0.12699875
98	0xbd958388	-0.07300478
99	0xbc83e0ec	-0.016098462
100	0xbd6f5f63	-0.058440577
101	0x3e0a5d22	0.1351209
102	0x3daf0aa6	0.08546953
103	0x3d020f87	0.03175309
104	0x3e112d9c	0.14177555
105	0xbdff51c6	-0.12466769
106	0xbda29615	-0.07938782
107	0xbdf65c58	-0.12029332
108	0xbd561ae4	-0.05227174
109	0x3d83c16c	0.06433377
110	0xbd35cf56	-0.044387184
111	0xbd99db18	-0.07512492
112	0xbd801d8d	-0.06255636
113	0x3d2baf4a	0.041915216
114	0x3d64153d	0.055684317
115	0x3de0714f	0.10959112
116	0xbdab35f7	-0.08359902
117	0x3c76af9c	0.015056517
118	0xbd3e76b7	-0.046499934
119	0xbdd0699e	-0.10176395
120	0xbd02b601	-0.031911854
121	0xbd9bed65	-0.07613639
122	0xbcf22c74	-0.029562213
123	0x3ca7f80d	0.020504022
124	0x3cc71a55	0.024304548
125	0xbdbb6ceb	-0.09151634
126	0xbba5273c	-0.0050400775
127	0x3da9f75c	0.08299133
128	0x3de83017	0.113372974
129	0x3e024520	0.12721682
130	0x3cb33e7e	0.021880385
131	0x3adc42d1	0.0016804581
132	0x3dd8e956	0.1059138
133	0x3da4b8bc	0.08043048
134	0xbd06a8b0	-0.032875717
135	0xbdd1beb9	-0.102414556
136	0x3dbeea35	0.09322015
137	0xbd570014	-0.05249031
138	0xbd85a158	-0.065249145
139	0xbd19a7b0	-0.037513435
140	0x3dea1e64	0.11431578
141	0xbcfcf00b	-0.03087618
142	0xbd1368a2	-0.035988458
143	0x3dda34ca	0.106546
144	0x3d057047	0.03257778
145	0x3cad0d02	0.021124367
146	0x3d44bf0b	0.048033755
147	0x3e0b0861	0.13577415
148	0xbd60333a	-0.054736353
149	0x3e0861f4	0.13318616
150	0xbd93953c	-0.072061986
151	0xbc52598e	-0.012838734
152	0xbd88a35a	-0.06671782
153	0x3df5f236	0.12009089
154	0xbdbce422	-0.092232004
155	0xbdfa1709	-0.12211425
156	0x3d96879d	0.07350085
157	0xbca7a738	-0.020465478
158	0x3bb0e267	0.005398083
159	0xbd85cdf7	-0.06533425
160	0x3dc8e446	0.09809165
161	0x3cd5ebdc	0.026113443
162	0xbd386fe1	-0.04502857
163	0xbda87b95	-0.082266964
164	0x3db43734	0.08799592
165	0x3def3996	0.116809055
166	0xbdd396e4	-0.103315145
167	0x3daa4646	0.08314185
168	0xbd3f4820	-0.046699643
169	0xbd9b29ab	-0.07576307
170	0xbd030246	-0.03198459
171	0x3d8f0e62	0.06985165
172	0xbc075571	-0.008260117
173	0xbcc66b4f	-0.02422109
174	0xbdc0b37b	-0.09409233
175	0x3c6c5830	0.014425322
176	0xbc51cefa	-0.012805695
177	0x3dc20ee0	0.094754934
178	0xbd5ff02e	-0.054672413
179	0x3ba60fa1	0.005067781
180	0xbde7a2f2	-0.11310376
181	0x3d28a76e	0.0411753
182	0x3d9740e9	0.073854275
183	0x3bada1db	0.0052988357
184	0x3df63a01	0.12022782
185	0x3b2524e4	0.002519899
186	0x3db8de71	0.09026802
187	0x3df2d52a	0.11857064
188	0x3d95c169	0.07312281
189	0xbcdaf15e	-0.026726421
190	0x3e015722	0.12630895
191	0x3c271126	0.01019696
192	0xbc682ef4	-0.014171351
193	0xbde24a66	-0.110493466
194	0xbd7436d7	-0.05962261
195	0x3d8f3ffb	0.06994625
196	0xbdb48dfa	-0.088161424
197	0x3d7d7db4	0.061887458
198	0xbd04bbf8	-0.032405823
199	0xbc5fc699	-0.013658189
200	0x3acc9c84	0.001561061
201	0xbca7f0fc	-0.020500652
202	0xbdd49584	-0.1038008
203	0xbce9ac14	-0.028524436
204	0x3db39e5f	0.08770441
205	0x3d16af7b	0.036788445
206	0x3d8390e4	0.0642412
207	0x3d8e223e	0.06940125
208	0xbcc4fb29	-0.024045544
209	0x3d4d0103	0.050049793
210	0xbda5f962	-0.081042066
211	0x3d49ca47	0.049265172
212	0xbc8166fc	-0.015796177
213	0xbd958523	-0.073007844
214	0xbddab0fd	-0.10678289
215	0xbce144ef	-0.02749869
216	0x3d32ea10	0.04368025
217	0x3d3522b9	0.044222567
218	0xbcac711e	-0.021050032
219	0xbd7d1801	-0.06179047
220	0xbd3a1afc	-0.04543589
221	0x3e1b6298	0.1517433
222	0x3dabd829	0.08390839
223	0xbd9682f9	-0.073492
224	0xbdfb6249	-0.12274606
225	0xbd5ce5af	-0.05392998
226	0x3de967e2	0.11396767
227	0x3e0cfda3	0.1376863
228	0xbda176de	-0.07884
229	0xbc8cc83f	-0.017185329
230	0xbd9df2b6	-0.07712309
231	0x3c1a613d	0.0094225975
232	0x3cc5a764	0.02412767
233	0x3da60ce2	0.08107926
234	0x3db51f57	0.08843868
235	0xbdd382b0	-0.10327661
236	0x3d405aa0	0.046961427
237	0x3b402274	0.002931741
238	0xbe01ac27	-0.12663327
239	0x3dceb78e	0.10093604
240	0xbdba8009	-0.09106452
241	0xbdd82e3b	-0.10555693
242	0xba831bca	-0.0010002789
243	0xbd340f94	-0.04396017
244	0x3d8f7201	0.070041664
245	0xbd61e235	-0.05514737
246	0x3d634b3c	0.05549167
247	0x3d9eaba0	0.077475786
248	0xbde39b3c	-0.11113593
249	0xbcb98368	-0.022645667
250	0xbc1ab27a	-0.009441966
251	0xbdbbcaf7	-0.09169572
252	0x3e120034	0.1425789
253	0xbdeaa0fd	-0.11456487
254	0x3cdbcaf9	0.026830183
255	0x3dbe195f	0.09282183

lstm.weight_ih_l0_reverse f4 [256, 4]
0	0x3d0499ab	0.03237311
1	0x3dd5b998	0.1043579
2	0x3df7a656	0.12092273
3	0x3db46f07	0.08810239
4	0x3c6b2b83	0.014353636
5	0x3e00f174	0.12592107
6	0x3dc72931	0.097246535
7	0x3d2bc132	0.041932292
8	0xbc46e5c6	-0.012139743
9	0xbb7e43ee	-0.0038797813
10	0x3dc75227	0.09732466
11	0xbd2d0690	-0.042242587
12	0xbd304ec6	-0.043043874
13	0x3d588528	0.052861363
14	0x3ce71d50	0.02821222
15	0x3cdceb8f	0.026967792
16	0xbdbdfe7d	-0.092770554
17	0xbccdaba6	-0.025106262
18	0x3d5e019f	0.054200765
19	0x3cc3c56c	0.023897849
20	0x3ae864c9	0.0017730232
21	0x3d40afc9	0.04704264
22	0xbd30e350	-0.043185532
23	0x3d0ecf9c	0.03486596
24	0x3de30dfe	0.11086653
25	0x3e21c16c	0.15796441
26	0x3e0e512d	0.13898154
27	0x3e4ddd3c	0.20103925
28	0x3e01fd1f	0.12694214
29	0xbde7017c	-0.1127958
30	0xbe0d110a	-0.13776031
31	0x3dcff174	0.101534754
32	0x3dfadb52	0.12248863
33	0xbda02120	-0.07818818
34	0xbd4989df	-0.04920375
35	0x3cdca930	0.026936144
36	0xbcc0b21d	-0.023522431
37	0x3e028e33	0.12749557
38	0xbc8319c3	-0.016003495
39	0x3df14ade	0.11781858
40	0x3c73276a	0.01484094
41	0xbd176122	-0.036957867
42	0xbd1fb125	-0.038987298
43	0xbc8f2752	-0.017474804
44	0xbd01f806	-0.031730674
45	0x3d4e5821	0.050377015
46	0x3d8e64a6	0.06952791
47	0x3d05d60f	0.032674845
48	0x3d986e16	0.07442872
49	0xbd89aa81	-0.06721974
50	0x3d740141	0.05957151
51	0x3ccb5893	0.024822509
52	0x3c79b997	0.015242002
53	0x3d9d7db5	0.07689992
54	0x3bb30d6b	0.005464246
55	0x3d593d84	0.05303718
56	0x3dfc17a7	0.12309199
57	0x3dcf9443	0.101357006
58	0xbca93cce	-0.020658877
59	0xbc9d7004	-0.019218452
60	0x3ca15c9b	0.019697478
61	0xbd0f6916	-0.035012327
62	0x3e145c53	0.14488344
63	0xbcb4c0c9	-0.022064583
64	0x3e18f395	0.14936669
65	0xbcb9bbc2	-0.022672538
66	0xbd0304cd	-0.031987
67	0x3dd2a537	0.102854185
68	0x3dc473da	0.095924094
69	0xbdbe10f8	-0.0928058
70	0x3c32061c	0.010865714
71	0x3df6aa23	0.1204417
72	0x3d7e4c15	0.062084276
73	0x3ceb4dfe	0.028723713
74	0xbdabd5bc	-0.08390376
75	0xbcf1384d	-0.029445792
76	0x3d288922	0.041146405
77	0x3da51fc8	0.080627024
78	0x3d4cfa37	0.05004331
79	0x3dfe26c5	0.124097385
80	0x3c2a5d1a	0.010398174
81	0xbd677c55	-0.056515057
82	0x3d96e0ea	0.07367118
83	0x3ddb2fe3	0.10702493
84	0xbcc25580	-0.02372241
85	0x3d8bf0c3	0.06833031
86	0x3e1e9524	0.1548658
87	0x3b8ce228	0.004299421
88	0x3cedf1db	0.02904599
89	0x3d081984	0.03322746
90	0x3bf35e98	0.007427048
91	0xbcf8c3f2	-0.030366872
92	0x3daa9969	0.08330042
93	0xbd5b1447	-0.053486135
94	0x3e0da0ea	0.13830915
95	0x3c215f6e	0.009849412
96	0xbde279c6	-0.11058383
97	0xbd215e92	-0.03939683
98	0x3dac6ebb	0.08419558
99	0x3e08e703	0.13369374
100	0x3db8d397	0.090247326
101	0xb91b8001	-0.00014829637
102	0x3de5e74b	0.11225756
103	0x3bca784c	0.0061788913
104	0xbce78b3d	-0.028264636
105	0x3c9e3430	0.019311994
106	0x3cba66d6	0.022754114
107	0x3d5ccac0	0.053904295
108	0x3dc79fd0	0.09747279
109	0x3df7c15b	0.120974265
110	0xbd8f9f67	-0.070128255
111	0x3dd45a1d	0.1036875
112	0x3da4dd45	0.08050016
113	0x3db5d3e8	0.088783085
114	0x3ddb628d	0.107121564
115	0x3ce4a4f9	0.027910696
116	0xbdc6d395	-0.09708325
117	0x3d062152	0.03274662
118	0x3c9ffd70	0.019530028
119	0x3e01f212	0.12689999
120	0xbde5da30	-0.112232566
121	0x3db6e0d2	0.089296
122	0x3dd5783d	0.10423324
123	0xbdb21b32	-0.08696593
124	0xbd8baeb6	-0.06820433
125	0xbdd84cd9	-0.105615325
126	0x3c2a6488	0.010399945
127	0xbd0a1105	-0.033707637
128	0x3c802c2a	0.015646059
129	0xbce7c29f	-0.028291045
130	0x3d520021	0.051269654
131	0xbdcf1a1d	-0.101124026
132	0x3c2977db	0.010343517
133	0x3d99c555	0.07508341
134	0x3cbaaadd	0.022786552
135	0xbc522bea	-0.012827853
136	0x3d0892fd	0.033343304
137	0x3caf51ce	0.021401312
138	0x3bc4c450	0.0060048476
139	0xbd227f36	-0.0396721
140	0xbd8700c0	-0.0659194
141	0xbd500806	-0.0507889
142	0xbdf21899	-0.11821098
143	0xbc490543	-0.012269321
144	0x3d9d20bd	0.0767226
145	0xbdba9bbb	-0.091117345
146	0x3d7a755e	0.061147086
147	0xbd8ad8de	-0.067796454
148	0xbdb7c195	-0.0897247
149	0x3dd1608c	0.10223493
150	0xbe02380e	-0.12716696
151	0x3b5a57bf	0.003331646
152	0x3d90888d	0.07057295
153	0xbde1373b	-0.109968625
154	0xbd070349	-0.032962117
155	0xbdc7e801	-0.09761048
156	0xbdce6250	-0.10077345
157	0xbdc7ef50	-0.09762442
158	0xbe1c81fd	-0.15283962
159	0x3d596501	0.05307484
160	0xbd6819f3	-0.056665372
161	0xbd5ec625	-0.054388184
162	0x3da7b1cc	0.08188209
163	0x3de0907e	0.1096506
164	0xbdb1eee8	-0.08688146
165	0x3dbdb06e	0.09262167
166	0x3e183832	0.14865187
167	0x3db65a10	0.08903897
168	0xbd0c25ef	-0.034215864
169	0x3de46a32	0.11153068
170	0xbd8bc81b	-0.068252765
171	0x3d648110	0.055787146
172	0xbbf4c06d	-0.007469228
173	0xbdc10e1e	-0.09426521
174	0x3d42ceec	0.047560617
175	0xbd8775ba	-0.066142514
176	0xbdd6bf7b	-0.10485741
177	0x3c629f6c	0.013831954
178	0xbdbbdd4d	-0.09173069
179	0xbd68d29e	-0.056841485
180	0xbdb083a2	-0.08618857
181	0xbd855d6f	-0.06511962
182	0xbd8af3e4	-0.067848
183	0xbd4fedb0	-0.050763786
184	0x3df27c62	0.118401304
185	0x3e3154a2	0.17317441
186	0xbd2ce6d6	-0.04221233
187	0x3e43ad66	0.19109115
188	0xbdabb79a	-0.083846286
189	0x3df7b280	0.12094593
190	0x3d1cf9e9	0.03832427
191	0xbd86e164	-0.065859586
192	0xbda9cc6a	-0.08290942
193	0x3dc37c7a	0.095452264
194	0x3c99bac0	0.018765807
195	0xbbfa1f27	-0.007633108
196	0x3d176bf5	0.03696819
197	0x3da9547b	0.082680665
198	0xbd92ea0a	-0.07173546
199	0x3e223cc4	0.15843493
200	0xbd88e3a2	-0.066840425
201	0x3dc4be9f	0.096066706
202	0x3dd9969d	0.1062443
203	0x3ddffa00	0.109363556
204	0xbda00971	-0.07814301
205	0xbdde7760	-0.10862613
206	0xbb1ae7a9	-0.0023636615
207	0xbd1282bb	-0.035769206
208	0xbdd1da70	-0.10246742
209	0x3e016f04	0.12640005
210	0xbd921448	-0.071327746
211	0x3de1d677	0.11027234
212	0x3b645743	0.003484205
213	0x3d6bc493	0.057560515
214	0xbc2f5c78	-0.010703199
215	0xbcb2b3c2	-0.02181423
216	0xbd9a61b2	-0.07538165
217	0x3d829f04	0.06377986
218	0xbc23abb9	-0.009989672
219	0x3da98fa8	0.082793534
220	0x3d8c3403	0.06845858
221	0x3e08c76e	0.13357326
222	0x3dad1917	0.08452051
223	0x3db140db	0.08654948
224	0x3daa99c9	0.083301134
225	0xbddad262	-0.106846586
226	0x3d94e681	0.07270528
227	0x3c9c9257	0.019112749
228	0x3da7b3e4	0.08188608
229	0xbd6517de	-0.055930965
230	0xbce6f4d9	-0.028192924
231	0xbd144ae3	-0.03620423
232	0xbbd5aa37	-0.0065205353
233	0x3db5d7bd	0.088790394
234	0xbda215fe	-0.07914351
235	0xbd6500ff	-0.055909153
236	0x3dd75781	0.10514737
237	0x3df34e33	0.1188015
238	0x3d8fe973	0.07026949
239	0xbbdc2cfb	-0.0067192293
240	0xbd2aaf15	-0.041670877
241	0x3d991c9e	0.074761614
242	0x3d52086a	0.051277556
243	0xbdeeac9d	-0.11654017
244	0xbd931f75	-0.07183734
245	0xbc87d12a	-0.01657923
246	0xbd93e81a	-0.07222004
247	0xbc33a11b	-0.0109637035
248	0x3bc3e8ed	0.0059786947
249	0xbdc390b5	-0.09549085
250	0xbb5d2b1c	-0.003374762
251	0x3ce9178f	0.028453616
252	0x3d00ecdf	0.031475898
253	0x3c969cff	0.018385408
254	0xbc762d34	-0.015025426
255	0x3cabded1	0.02098027

lstm.weight_hh_l0_reverse f4 [256, 64]
0	0xbc3e0aeb	-0.011599283
1	0x3dd361d9	0.10321397
2	0x3c96e27d	0.018418545
3	0x3e2d9b4b	0.16953771
4	0x3d2b9946	0.04189422
5	0xbd002523	-0.031285416
6	0x3d5fe32a	0.05466
7	0x3e07ead9	0.13273181
8	0xbd952ccb	-0.07283934
9	0xbe23f6f5	-0.16012175
10	0xbd936090	-0.07196152
11	0xbce556fd	-0.02799558
12	0x3d4c150c	0.04982476
13	0xbc39c2ec	-0.011337977
14	0xbd823377	-0.063574724
15	0xbe14f767	-0.14547502
16	0x3ddc3b9e	0.107535586
17	0xbd4e48a8	-0.05036226
18	0xbdb264bd	-0.087106206
19	0xbd1975c5	-0.03746583
20	0x3cbe5b73	0.023236966
21	0xbda40447	-0.08008628
22	0xbe066c92	-0.13127354
23	0x3df3342a	0.11875184
24	0xbd2f1031	-0.04274005
25	0xbd146921	-0.03623307
26	0x3dc470ce	0.09591828
27	0xbd31e9a5	-0.04343571
28	0xbe01c94c	-0.12674445
29	0xbc99ebdb	-0.018789222
30	0x3d1a9a70	0.03774494
31	0xbe0f4c5b	-0.13993971
32	0x3ab600a5	0.001388569
33	0x3dace0c0	0.08441305
34	0xbd1b50de	-0.037918918
35	0x3e1fe29d	0.1561379
36	0xbdeb5478	-0.114907205
37	0xbd8061b1	-0.06268633
38	0x3d9bb5fe	0.07603072
39	0x3d86dd10	0.06585133
40	0x3c72521a	0.014790082
41	0x3dd0d392	0.10196604
42	0x3ce638c6	0.028103244
43	0x3d3e1026	0.04640212
44	0xbd9d15b0	-0.07670152
45	0xbd624060	-0.055237174
46	0x3c31bdc4	0.010848466
47	0xbdc4b385	-0.09604553
48	0x3bd0eea6	0.0063761054
49	0x3daed570	0.08536804
50	0x3e36133d	0.17780776
51	0x3da28c8a	0.07936962
52	0xbdb08286	-0.08618645
53	0xbd80024c	-0.06250438
54	0xbd3df770	-0.046378553
55	0xbdd086ec	-0.10181984
56	0xbd704868	-0.058662802
57	0xbde39369	-0.11112101
58	0xbe1fe1a4	-0.15613419
59	0x3d2a8401	0.041629795
60	0xbd424a88	-0.04743436
61	0xbdc3008c	-0.09521589
62	0x3df27b78	0.11839956
63	0x3d43c292	0.04779298
64	0x3db3c723	0.08778217
65	0x3d32f6b6	0.043692313
66	0x3c615dcf	0.013755276
67	0xbc356eb4	-0.011073757
68	0xbdc5b5b1	-0.096537955
69	0xbd4289d9	-0.047494743
70	0x3e06029f	0.13086937
71	0x3cd6c37c	0.026216261
72	0xbdce615c	-0.100771636
73	0x3df2632e	0.11835323
74	0xbc1d5d3e	-0.00960475
75	0xbd6653fe	-0.056232445
76	0xbb8a7191	-0.004224964
77	0xbd188333	-0.037234496
78	0xbddaba12	-0.10680021
79	0x3d0a5cf3	0.03378005
80	0x3dd5c06e	0.10437094
81	0x3d535061	0.051590327
82	0x3d5c742d	0.05382173
83	0xbcea6d8d	-0.028616691
84	0x3da5affe	0.080902085
85	0xbdc2079b	-0.09474107
86	0x3deb3f90	0.11486733
87	0xbdda45df	-0.10657858
88	0xbd839e6d	-0.06426702
89	0xbd2380b0	-0.039917648
90	0xbdd12ecc	-0.10214004
91	0x3c6b286d	0.0143529
92	0x3c6c5488	0.014424451
93	0x3d63e4de	0.055638187
94	0xbda6dd85	-0.0814772
95	0xbc799d96	-0.015235325
96	0xbdc0e396	-0.094184086
97	0xbce4eb77	-0.02794431
98	0xbd1cc201	-0.038270954
99	0xbdd37723	-0.10325458
100	0xbde105a7	-0.10987406
101	0x3d3aea9c	0.045633897
102	0x3db0793b	0.08616873
103	0x3db5b607	0.088726096
104	0xbe02330c	-0.12714785
105	0xbd2091f9	-0.03920171
106	0xbdc2760f	-0.09495174
107	0x3d82acce	0.06380616
108	0xbb8b0055	-0.004241983
109	0xbdb8bd8d	-0.09020529
110	0x3b20e0f3	0.0024548143
111	0x3c3dba39	0.0115800435
112	0xbcd49131	-0.025948139
113	0xbdc026ac	-0.09382376
114	0xbdbe1458	-0.09281224
115	0x3d9177e1	0.07102943
116	0xbdcc58f4	-0.09977904
117	0x3d43e5f6	0.04782673
118	0xbd9c72b3	-0.07639065
119	0xbdb70e18	-0.08938235
120	0x3d9e65e9	0.077342816
121	0x3dce1866	0.100632474
122	0x3d824fba	0.06362863
123	0x3dc7ef63	0.09762456
124	0x3cb9570d	0.022624517
125	0xbdcfcba2	-0.10146262
126	0x3db8b9eb	0.09019836
127	0xbd71a6d7	-0.058997
128	0xbc9b1ccd	-0.018934632
129	0x3de53d71	0.1119336
130	0xbcbbb54d	-0.0229136
131	0xbd778f09	-0.060439143
132	0x3ccc65bd	0.024950856
133	0x3a9bb260	0.0011878721
134	0xbd48099a	-0.04883728
135	0xbce442d7	-0.027863903
136	0x3b54c8d1	0.0032468329
137	0xbde2fad0	-0.11082995
138	0xbcc9740b	-0.024591466
139	0xbdd0998d	-0.101855375
140	0x3d7a3a1c	0.061090574
141	0xbc7897d7	-0.01517292
142	0xbd5e4ea6	-0.054274224
143	0xbd8f4183	-0.06994917
144	0x3d2d5687	0.042318847
145	0xbd4e7497	-0.050404157
146	0x3d5f5bfe	0.05453109
147	0xbde18223	-0.1101115
148	0xba9d184f	-0.0011985394
149	0x3d9da352	0.076971665
150	0x3d8d5f58	0.06902951
151	0x3a26bd5b	0.00063606136
152	0xbd435952	-0.047692604
153	0xbcc7c342	-0.024385098
154	0x3d951757	0.07279842
155	0x3cb484bf	0.022035955
156	0x3d8cc2aa	0.06873067
157	0x3d2a000d	0.041503955
158	0x3dd8dde6	0.10589199
159	0x3dbfb04f	0.093598
160	0x3d6e9f74	0.058257535
161	0xbd9a8c70	-0.075463176
162	0x3de4e7ef	0.1117705
163	0x3dcd9acc	0.10039291
164	0x3dd06f9c	0.10177538
165	0xbdbb8fb4	-0.091582686
166	0xbc95f1f6	-0.018303853
167	0x3d13edda	0.036115505
168	0xbca6396b	-0.02029105
169	0xbc69db90	-0.014273539
170	0xbdd54cb7	-0.10415023
171	0x3d0112e1	0.031512145
172	0x3dcb368d	0.09922514
173	0xbbb1310c	-0.005407458
174	0xbd9854f1	-0.07438076
175	0x3da774e9	0.08176596
176	0xbdc75336	-0.09732668
177	0x3d928f98	0.071562946
178	0x3e10a93f	0.14127062
179	0x3ddc81e5	0.10766963
180	0xbdba343d	-0.09091995
181	0xbe030e97	-0.12798534
182	0xbdd548e2	-0.10414292
183	0xbce38239	-0.027772056
184	0x3dd097f4	0.10185233
185	0x3dc7eafe	0.09761618
186	0x3dbbb902	0.09166147
187	0xbbe5a08c	-0.007007664
188	0x3da244b2	0.07923259
189	0x3cd11059	0.02552049
190	0x3d913afa	0.07091327
191	0x3dba6790	0.09101784
192	0x3d0b4613	0.034002375
193	0x3db1c597	0.086802654
194	0xbdf7792e	-0.1208366
195	0x3cc662dc	0.024217062
196	0x3d02af86	0.031905673
197	0x3cd352a0	0.025796235
198	0x3d99cebb	0.07510134
199	0xbd1ec409	-0.038761172
200	0xbdac6000	-0.08416748
201	0xbd546dab	-0.0518624
202	0xbd369a2e	-0.04458063
203	0x3da5c0f8	0.080934465
204	0xbce646b3	-0.028109884
205	0xbe23f81e	-0.16012618
206	0xbcede679	-0.029040562
207	0xbca6e73a	-0.02037393
208	0x3dd055cf	0.10172617
209	0xbdf5b497	-0.119973354
210	0xbd4e6833	-0.05039234
211	0x3bd0ade3	0.006368385
212	0xbcb7c080	-0.022430658
213	0xbe277265	-0.16352232
214	0xbd9d17e7	-0.07670575
215	0x3c7314ee	0.014836533
216	0xbd56a028	-0.05239883
217	0xbdc777dd	-0.09739659
218	0xbce47a6d	-0.027890408
219	0x3cc8a493	0.024492538
220	0xbe04ca74	-0.12967855
221	0x3e00f985	0.12595184
222	0x3e262022	0.16223195
223	0xbd3c79ca	-0.046014585
224	0x3b8ade8f	0.004237957
225	0xbbabe964	-0.005246328
226	0x3df455f9	0.119304605
227	0xbdffac98	-0.124840915
228	0x3c01e2c3	0.007927599
229	0xbd7014e8	-0.058613688
230	0xbdf164d1	-0.11786807
231	0xbb6912c4	-0.0035564164
232	0xbd0f4f5f	-0.034987804
233	0xbe1085b3	-0.14113502
234	0xbca6f2c3	-0.02037943
235	0xbc92c8b1	-0.017917963
236	0x3c8d6d20	0.017263949
237	0xbd1dc5f2	-0.038518853
238	0xbd914e6e	-0.070950374
239	0x3dcd3007	0.10018926
240	0x3dd2de7d	0.102963425
241	0x3bd30eff	0.0064409967
242	0x3dc6612b	0.09686502
243	0x3dd1a2c0	0.1023612
244	0xbcdf8c5b	-0.027288606
245	0xbcf4cfc4	-0.029884227
246	0xbd065aa4	-0.032801285
247	0x3d13ca1a	0.03608141
248	0x3df81e93	0.121152066
249	0xbde0a3f9	-0.10968775
250	0xbdb7b6a8	-0.08970386
251	0x3db4502f	0.08804356
252	0x3c658e5f	0.014010995
253	0xbda6f049	-0.081512995
254	0xbd7141f5	-0.058900792
255	0xbd3a8bd3	-0.045543503

lstm.bias_ih_l0_reverse f4 [256]
0	0x3df52418	0.11969775
1	0x3db56168	0.088564694
2	0xbdd84302	-0.10559656
3	0x3c62bb7e	0.013838647
4	0xbddf0a20	-0.10890603
5	0xbcae4db3	-0.021277284
6	0x3dc1e5ff	0.094676964
7	0x3d81ece4	0.063440114
8	0xbab4d94e	-0.0013797672
9	0xbd8a27f2	-0.067459
10	0xbdd23c2b	-0.102653824
11	0x3d9411ee	0.07229982
12	0xbdbcca68	-0.092182934
13	0x3e200cc4	0.1562987
14	0x3d3abbb1	0.045589153
15	0xbcc64b64	-0.02420587
16	0x3e151b5f	0.14561222
17	0x3d66a107	0.05630591
18	0x3e34e7b9	0.1766652
19	0xbd8942eb	-0.06702217
20	0xbc753702	-0.014966728
21	0x3d713bb7	0.05889484
22	0x3dfdf7c8	0.12400776
23	0x3d0df465	0.0346569
24	0x3dcfd36b	0.10147747
25	0x3db90f68	0.09036142
26	0x3c360589	0.011109718
27	0xbdac440d	-0.08411417
28	0x3daa7839	0.08323712
29	0x3d97c31b	0.0741026
30	0xbc4103c1	-0.01178068
31	0xbd920cd9	-0.07131357
32	0x3c4cc7bf	0.012498795
33	0x3c9be9ad	0.019032324
34	0xbd9d2a6b	-0.07674106
35	0xbcc3c5e2	-0.023898069
36	0x3daab4d4	0.083352715
37	0x3dcad245	0.09903387
38	0xbdbb2a72	-0.09138955
39	0xbd73cc25	-0.05952086
40	0xbdbf1f24	-0.093321115
41	0xbbf28ffa	-0.0074024172
42	0xbe038e46	-0.12847242
43	0x3cd51283	0.026009804
44	0xbd077e13	-0.033079218
45	0xbde80c3a	-0.11330457
46	0x3e2f39cf	0.17111896
47	0x3dd0ff88	0.10204989
48	0x3dc58c57	0.09645908
49	0x3d05ea51	0.032694165
50	0x3d646a88	0.05576566
51	0x3e0b409a	0.13598862
52	0xbddc3299	-0.10751838
53	0xbd6bc364	-0.057559386
54	0x3db38060	0.0876472
55	0x3cd16c45	0.025564322
56	0x3d305530	0.04304999
57	0x3bb599cd	0.005542016
58	0x3cea3124	0.028587885
59	0xbde6f5fc	-0.112773865
60	0xbdc66d23	-0.09688785
61	0xbcf669ab	-0.030079683
62	0xbde1f3fc	-0.110328645
63	0xbdb85a71	-0.09001625
64	0x3da2af03	0.07943537
65	0xbd1174af	-0.03551167
66	0xbd929e04	-0.07159045
67	0x3e21fdc4	0.1581946
68	0x3daff87f	0.08592319
69	0xbd8ee6fc	-0.069776505
70	0x3e2cac73	0.16862659
71	0x3bda3c5c	0.0066600274
72	0xbd47a7ac	-0.04874389
73	0xbcf5073f	-0.029910682
74	0x3bca639e	0.006176426
75	0xbae0b07d	-0.0017142441
76	0x3de39dec	0.111141056
77	0xbc6f8f12	-0.014621513
78	0x3ca82568	0.02052565
79	0x3c403d32	0.01173334
80	0x3e053424	0.13008171
81	0xbc2f169f	-0.010686546
82	0xbd3570b6	-0.044296943
83	0xbd5a07ae	-0.05322998
84	0x3d0719d9	0.032983635
85	0x3dc12304	0.09430507
86	0xbd4081e2	-0.046998866
87	0x3dc07ebb	0.09399172
88	0x3ce0fd10	0.02746442
89	0x3d46ab12	0.04850299
90	0xbd7073b5	-0.058704097
91	0x3d07a2fe	0.033114426
92	0x3c9b6d25	0.018972943
93	0x3d3e3e91	0.046446387
94	0x3da26bf0	0.07930744
95	0x3d0c5164	0.034257308
96	0x3d91c463	0.07117536
97	0x3bd5155e	0.0065027913
98	0x3da5f34f	0.08103048
99	0x3d641533	0.05568428
100	0x3dd4abeb	0.10384353
101	0xbda7db53	-0.0819613
102	0x3cebe282	0.02879453
103	0x3d4adce7	0.049527075
104	0xbdd06f07	-0.10177427
105	0x3dfb8b0e	0.12282382
106	0x3d989ce8	0.074518025
107	0xbd7a20cc	-0.061066434
108	0x3d93acf2	0.07210721
109	0x3d3a19be	0.045434706
110	0x3e14cee5	0.14532049
111	0xbc57025d	-0.013123122
112	0xbdb88be7	-0.09011059
113	0x3e2515eb	0.16121642
114	0x3cb0bb18	0.021573588
115	0x3d9c93ed	0.07645402
116	0xbd92d946	-0.07170348
117	0x3de4e3e1	0.11176277
118	0x3da79185	0.081820525
119	0x3c573510	0.01313521
120	0xbd92a064	-0.07159498
121	0x3d04edd8	0.032453388
122	0x3df025cb	0.117259584
123	0x3dd5f884	0.10447791
124	0x3d93f200	0.07223892
125	0xbdde16b7	-0.10844176
126	0xbdfbd29a	-0.122960284
127	0x3d9d3468	0.07676011
128	0xbdda4de1	-0.106593855
129	0x3c5dd641	0.013539852
130	0x3deaf00b	0.11471566
131	0x3c652b69	0.013987401
132	0x3da1beaf	0.07897698
133	0x3bf68a9f	0.007523849
134	0x3c92e02e	0.017929163
135	0xbcb11fd2	-0.021621618
136	0xbc3d409c	-0.011551049
137	0xbc6a1a31	-0.014288471
138	0x3dcaddb1	0.099055655
139	0xbd923da6	-0.07140665
140	0x3d7e86d6	0.06214031
141	0x3dbf8449	0.09351403
142	0x3dae1e44	0.085018665
143	0x3c02f44a	0.007992813
144	0xbde7e62d	-0.113231994
145	0x3dae6da0	0.08517003
146	0x3dcd833d	0.10034797
147	0x3debf0fa	0.11520572
148	0xbcb7896f	-0.0224044
149	0xbde5f364	-0.11228064
150	0x3d402a3f	0.04691529
151	0xbd6363b4	-0.055515006
152	0x3ddba140	0.10724115
153	0xbdbbab9d	-0.09163592
154	0xbbb437c8	-0.0054998137
155	0x3d8a2cfa	0.0674686
156	0xbd40935f	-0.047015544
157	0xbd376346	-0.04477241
158	0x3da5629c	0.08075449
159	0x3dcb510e	0.09927569
160	0xbdb2213b	-0.086977445
161	0x3d3e95f2	0.046529718
162	0x3d9b5a0a	0.07585533
163	0xbddaeb51	-0.10689414
164	0x3da89fea	0.08233626
165	0xbdd02c61	-0.101647146
166	0xbd892707	-0.06696897
167	0x3d562d91	0.05228955
168	0xbbfc4a6c	-0.0076993015
169	0x3cb90331	0.02258453
170	0x3c9d2ab1	0.019185396
171	0xbd910bb7	-0.070823126
172	0xbd4a4ef4	-0.0493917
173	0xbde68faf	-0.11257874
174	0x3ce62222	0.028092448
175	0xbd07532b	-0.0330383
176	0x3dba09cf	0.09083902
177	0xbe0ead21	-0.13933231
178	0xbd56a093	-0.05239923
179	0x3d9ed5ef	0.07755648
180	0x3cd06e31	0.025443168
181	0x3b420ead	0.0029610798
182	0x3c250c37	0.010073713
183	0x3d2bf822	0.041984685
184	0xbdd747e7	-0.10511761
185	0x3dfc8c04	0.12331393
186	0x3d497470	0.04918331
187	0xbd8030de	-0.06259321
188	0x3c02e68e	0.007989539
189	0x3ddbfe57	0.10741871
190	0xbd420617	-0.04736909
191	0x3ddb4f4d	0.10708485
192	0x3bb4ac32	0.0055136913
193	0x3df7b2b5	0.120946325
194	0x3d21b2b6	0.039477073
195	0x3cf4a70b	0.029864809
196	0xbdce5ca9	-0.10076267
197	0xbd22bed1	-0.039732758
198	0x3dd00837	0.10157817
199	0x3beae841	0.0071688
200	0x3e134dcd	0.14385147
201	0x3dea47e2	0.11439492
202	0x3daef32a	0.085424736
203	0x3d27fc0e	0.041011862
204	0x3daf253f	0.08552026
205	0xbda489b1	-0.08034075
206	0x3d9e8da8	0.077418625
207	0x3da8679c	0.08222887
208	0xbd53a08f	-0.051666792
209	0x3c3d3e10	0.011550441
210	0xbccfaef8	-0.025351986
211	0x3c274ffd	0.010211942
212	0xbda2880b	-0.079361044
213	0x3de6837a	0.11255546
214	0x3df5dd05	0.12005047
215	0x3e08eef1	0.13372399
216	0x3bc77294	0.006086657
217	0x3ce4c141	0.027924182
218	0xbd88c624	-0.06678417
219	0x3da63bc4	0.08116868
220	0xbdd6f309	-0.10495574
221	0x3d987a8b	0.07445248
222	0x3dda7b62	0.10668065
223	0x3e01a5b5	0.12660868
224	0xbd8f68ab	-0.07002386
225	0x3bc729e0	0.00607799
226	0x3d96f8a6	0.07371645
227	0xbd6e35cd	-0.058156777
228	0xbdd33b6d	-0.10314069
229	0xbda6bc14	-0.08141342
230	0x3c995d58	0.018721268
231	0xbdcc539e	-0.09976886
232	0xbd019ce2	-0.031643756
233	0xbd93720f	-0.07199489
234	0x3da7122a	0.081577614
235	0xbda8e12d	-0.08246074
236	0x3de7cbf1	0.113181956
237	0x3d6a11ad	0.057145763
238	0x3d172323	0.036898743
239	0xbddc68a9	-0.1076215
240	0xbdcc3396	-0.09970777
241	0xbd6d5cd7	-0.057949867
242	0x3de07f2a	0.109617546
243	0xbc5cc93d	-0.013475713
244	0xbcb990df	-0.022652088
245	0x3ce45fff	0.027877806
246	0xbe0cb416	-0.13740572
247	0xbd0ad6ec	-0.03389637
248	0xbb557a74	-0.0032574208
249	0xbd9fac83	-0.07796576
250	0x3db2c2a0	0.08728528
251	0x3d628f6e	0.055312566
252	0x3d6ad665	0.05733337
253	0x3d4d597f	0.05013418
254	0x3cdf9c39	0.027296172
255	0xbdd02860	-0.10163951
