backend/api/ml/models/model_69ca3f6d-b97c-4ad0-8d3d-e250d8e70c20.pth (torch, 949173 bytes, 26 tensors)

lstm.weight_ih_l0 f4 [256, 4]
00000000: 8d42 65bc b3ab 193e 4fdb af3d 469a 053c
00000010: 964a 1bbc 32a3 98bc b697 243e 8108 8abd
00000020: 4ffb b0bd 91d7 d7bd 9a5f f23d f809 a7bd
00000030: c962 8dbd 1096 7b3d e52a 0abe befb 78bd
00000040: 2757 eb3d fd50 763d 2622 67ba 3926 713d
00000050: e669 90bc 3597 033e 454d 803d e39b 853d
00000060: f37e 18bb 2c02 eabc 086c c43d f8e0 dbbd
00000070: 6e5d a33d 7ff9 00be f8e6 413e bdf3 de3d
00000080: a1de ec3d 9f8e bbbd 7a2e 3f3d 2eec 00be
00000090: 434c c13d e0a2 9bbd c149 053e 9a0e a7bd
000000a0: fc7a 0cbd 4187 103e 904f 2abb 6560 e83d
000000b0: a9e8 1c3e 530a cb3d 7198 e4bd 12f3 8cbd
000000c0: 5168 0e3e 9a68 b5bc ab38 093d bb1c c83d
000000d0: edbd 1dbd bb3e a03c 2617 83bd 3286 0c3e
000000e0: 90cc 05bd e9de 143e e834 2e3d 688a 19bd
000000f0: e72e c6bc 99f2 afbc be53 2a3c 0c5c a23d
00000100: 62df 0dbd 51e3 89bc 079f a6bd f874 b6bc
00000110: d9e1 be3d c0fa d7bd 02c9 37bc 71ab 083e
00000120: 5d5d 09be ef81 0dbd a276 fb3d 8c77 9c3d
00000130: be77 0f3e 193d ab3d f9bc bfbb 0619 d0bb
00000140: 6bd1 69bd c2d2 f53c 0811 00be 2b91 c7bd
00000150: d4bd 643d 9732 c7bd 0ce6 46bb 3fc8 983d
00000160: a08f ee3c 8050 b13d e1c9 1abe 1994 9c3c
00000170: 1241 163e 14c9 17bd 6140 31be 8c6a 023e
00000180: 9b5c 89ba 2ee2 95bd 0407 083e f03f 163e
00000190: 47cb c3bd 0494 093e 2bdc a13d 792b 04bd
000001a0: 4104 62bb 0ebe 7ebd 35d9 363e 73ab 1f3e
000001b0: 6367 99bd c2af debd 6a74 d2bd d4c7 d7bc
000001c0: 416c 643d c683 85bd 56d6 8dbd 0933 a33b
000001d0: 5798 37bd 1eaa cd3d 7a32 4b3d 5b02 cbbc
000001e0: 95ec e6bc b7b9 2bbc d917 acbc ad97 70bb
000001f0: 43bf 363d e67b 433d 5278 063e 6894 1c3d
00000200: 01fc 97bc 223e 94ba 1a9c 273e 4fa7 473d
00000210: a852 74bd 8471 953d 0a0d 90bc 2093 123e
00000220: d745 353e ae80 543c 300b 13be c969 e9bc
00000230: 5bf7 b5bd 640c 00bc aec0 b2bd 0f9f 303d
00000240: c533 043d b523 b0bd c09d e93d 3ac5 8ebd
00000250: ebcf 863c 5915 b33d b92f ad3b 5005 0e3d
00000260: 80ae 69bd 22e5 b6bd 961c 9cbd 183f a73d
00000270: cda0 ce3d 730b 243d 120b 8f3d bdf0 053d
00000280: cf3a ad3d 1985 25bd 8f63 bd3d c0b4 893d
00000290: 4aae 92bd 45a3 79bd 61f0 493c 37ce d63d
000002a0: 09a5 cd3d 9d76 23bd a0b7 ccbd 2a58 c6bd
000002b0: ebf6 6d3c ae49 88b9 f741 3abd d067 623d
000002c0: 5793 a13d 7498 1bbd cd5b 3f3d 2e22 ec3d
000002d0: 7e1e c5bc 63d9 163c d299 c0bc a005 2fbd
000002e0: 2222 9a3d 6924 e03c d5e5 783d 0010 073d
000002f0: 1524 47bc c71b a23d 645b 023d 4dbd afbd
00000300: 86dd aabd 2ea6 ca3d f9c5 29be 177b fcbd
00000310: 4347 6c3d d033 e43d fb28 dabc aaa4 ca3d
00000320: f992 5bbd 7407 2c3d d7df 833c 13c9 38bc
00000330: 2d97 8f3d 423b 22bd be7d e23d 0fd3 023d
00000340: 26e5 d53d f5c6 113d 8d9d 253e 9210 33bd
00000350: 2919 603c c5ba 30bc 0780 12bd a532 3d3d
00000360: b6f0 923b cab7 8f3d aeb8 ae3d 7515 163d
00000370: 6f8e 2b3d 7d70 be3d ebaf e43b a156 fbbd
00000380: 8d83 bf3c 378b a9bd 7ede 163e 1e3d 9d3c
00000390: ab21 a5bc ea4f dc3c 36c1 503d 59b1 a4bc
000003a0: 7270 d5bd c566 c5bb f2aa 03bd b2d9 993b
000003b0: 6f35 da3d c9bb ea3d 410c 023e 8974 fe3d
000003c0: b8c5 333e 742a 9d3c 8084 d7bd 202d 003e
000003d0: e95f ef3d 1f1d 5cbd 02d0 2c3d eda8 943d
000003e0: fb19 163e 94a0 4b3d 338f 39bb ca10 d43d
000003f0: 79d0 d4bc 9dd6 f3bd 23fa 5f3c 01f3 62bc
-0.013992918 0.15006904 0.08586752 0.008154457 -0.009478232 -0.018632505 0.16073498 -0.06739903
-0.08641683 -0.10539163 0.11834641 -0.08156198 -0.069036074 0.061422408 -0.13492925 -0.060786955
0.11491232 0.06013583 -0.0008817039 0.058874343 -0.017628621 0.1285065 0.06264738 0.06523874
-0.0023269027 -0.028565489 0.09590918 -0.10736269 0.07976805 -0.12595175 0.18935764 0.10886333
0.115659006 -0.09158062 0.046675183 -0.12590095 0.09438374 -0.07599425 0.13016416 -0.08157082
-0.034296975 0.14114095 -0.0025987364 0.11346511 0.15323128 0.099140786 -0.111618884 -0.068822995
0.13906981 -0.022144604 0.03350131 0.09771105 -0.038511205 0.019561162 -0.064008996 0.13723066
-0.03266579 0.14538158 0.042530924 -0.03748551 -0.024192287 -0.021477984 0.010395942 0.07927713
-0.034636863 -0.016832026 -0.08135801 -0.022272572 0.09320421 -0.10545874 -0.011217358 0.1334665
-0.13414522 -0.034547742 0.12278487 0.07639989 0.14010522 0.08361263 -0.0058513847 -0.0063506393
-0.057084482 0.030007724 -0.12506497 -0.097444855 0.055845097 -0.09726446 -0.003034952 0.07460069
0.02912122 0.08657932 -0.15116073 0.019113587 0.1467326 -0.037056997 -0.17309715 0.12735957
-0.0010479869 -0.07318531 0.13283926 0.14672828 -0.095602565 0.1343537 0.07903322 -0.03226802
-0.0034487399 -0.06219297 0.17856295 0.15592746 -0.074904226 -0.10873367 -0.102761105 -0.026340403
0.0557673 -0.065192744 -0.06925647 0.004980449 -0.044823017 0.10042213 0.049608685 -0.024781397
-0.028188983 -0.01048129 -0.021007465 -0.00367115 0.044615995 0.04772558 0.13131836 0.03822747
-0.018552782 -0.0011310021 0.16368142 0.048743542 -0.05964914 0.07297042 -0.017584343 0.14313936
0.17702423 0.012970133 -0.14359736 -0.028492825 -0.0888507 -0.007815454 -0.08728157 0.04312044
0.032275934 -0.086005606 0.114070415 -0.06971212 0.016456565 0.08744306 0.00528523 0.034673035
-0.05705118 -0.08930422 -0.0762264 0.08166331 0.10089264 0.04004998 0.06984533 0.03270029
0.084584825 -0.040410135 0.09247505 0.067239285 -0.07162149 -0.06094672 0.012325377 0.10488551
0.100412436 -0.03990804 -0.09995961 -0.09684785 0.014524202 -0.00025994837 -0.045473065 0.055274785
0.07889431 -0.037987188 0.046718407 0.11529957 -0.024062391 0.0092071025 -0.023510847 -0.042729974
0.075260416 0.027361112 0.06076606 0.032974243 -0.012154599 0.07915454 0.03182544 -0.08581028
-0.083430335 0.098949775 -0.16579427 -0.12328165 0.057685148 0.11142695 -0.02663087 0.098946884
-0.05360696 0.041999295 0.016097946 -0.011278409 0.07011256 -0.039607294 0.1105914 0.031939562
0.10444097 0.03559013 0.16173382 -0.043716975 0.013677874 -0.010786717 -0.035766628 0.046190877
0.0044842614 0.07017477 0.085313186 0.036641557 0.041883882 0.09298799 0.006978979 -0.122723825
0.023378158 -0.08278506 0.14733312 0.019194182 -0.020157656 0.026893575 0.05096551 -0.020104097
-0.10421838 -0.006024214 -0.032145448 0.0046951408 0.10654723 0.114615984 0.12699987 0.12424571
0.17555892 0.019185282 -0.10523319 0.12517214 0.11688215 -0.05373871 0.04219056 0.072587825
0.14658348 0.049713686 -0.0028314113 0.10354765 -0.025978314 -0.119061686 0.013670477 -0.013851882

lstm.weight_hh_l0 f4 [256, 64]
00000000: a547 113d 2a68 ccbd 9ce0 cc3d f5b4 26bc
00000010: 02c4 04bd e717 d3bd 9d07 d5bb 8c2b bcbb
00000020: c615 de3d 21dd 543c c45f f73d 765f 533d
00000030: d2d3 aa3d 73f2 63bd 8c80 063e 129d 89bb
00000040: f4f6 66bd 306b 1c3d 642f bdbd 85fa b33d
00000050: 5596 253d fa2a 54bd 733b 9bbc 96b3 46bd
00000060: 2697 dfbd ace1 d2bd a66c eb3d e3ab c8bd
00000070: 89ab 38bd d64a 863d efab a2bd 9c0f dfbd
00000080: f157 cabd a757 b5bc 6546 8ebd c3fa 9e3d
00000090: 4ed9 d13d c07b eb3d 2785 91bd 81ed a63d
000000a0: 58b7 d0bc ddca 7f3d 0510 043e 1922 923d
000000b0: 5968 bebd 10e1 8b3d 47ad 88bd 2035 f0bd
000000c0: c8aa cc3d 1270 c43d 9b1b abbd bd99 e1bb
000000d0: 503e 80bb 215d 1cbd dfa8 a5bd 0ade 053d
000000e0: 2058 bfbc d6d5 dbbd 3878 debd 85ee 3bbd
000000f0: 5cbc c23d 3575 123d bff1 303d 33ed 28bc
00000100: f914 2abb ff1c 9ebd d742 df3d 8830 e03d
00000110: 7b9b f9bd d5ef 3d3d e8f8 743d 12cc a53c
00000120: 5aa3 1a3c 464c cebd 337a 003d 906a 923d
00000130: 5694 ce39 c564 743c efe9 cabc 14b4 493d
00000140: 4b5f d3bd 7acf bdbd 0f8f e1bc 6371 1bbe
00000150: 4cde 0d3d 8a02 d0bd 6615 69bd 3172 54bd
00000160: 8d77 5ebd 83fa 803d 7907 8ebd 331e 3b3c
00000170: 9e2f 83bb 2c48 d3bd 1a69 563d fbd7 d8bd
00000180: 21f5 c8bc 7f0c 9d3c cb19 bcbd 91a8 bc3d
00000190: 7da4 e8bd 3906 083d 5693 84bd 955e 103d
000001a0: 4512 1b3d 11dc 15be 4831 633d 4b71 d13d
000001b0: 7aca b13d 52d4 7cbd 0be5 b53b f51d ebbd
000001c0: 6f30 9a3d 50c2 44bb b01a c0bd 64a8 8bbd
000001d0: 7d02 4cbd da78 fcbb f092 933d 44a2 08bd
000001e0: a006 453d b431 673d 623e aebd 7d07 8ebd
000001f0: 53af cabc 0ca6 fc3c a840 2cbd 7332 9fbc
00000200: c32e 953c 7d64 52bb e08c 513c 290b a0bd
00000210: 076d 843c f6d3 c23d 19ae 093d 308a b03d
00000220: 914e febd b099 a33d 5bd4 b43d a7b0 e0bb
00000230: 8e42 6bbd fc0a 15bd f4ae 67bd 1995 283c
00000240: 03d9 c8ba 40a9 373d 9f86 eabc 9f35 3ebb
00000250: a0e6 3abc 556f 02bd dec2 f93d 70e7 9dbd
00000260: 04ec c039 1244 04bd 8bc9 9fbd 3efe d53d
00000270: 6453 383d f6bf 77bd 5bbc 583d bb35 fb3c
00000280: 9bcc 6c3d 9a68 423d 7f4c d3bd 80ca 5f3c
00000290: cfd1 d63d 2285 82bc daa4 eabd d635 f03b
000002a0: c21c a7bd 2a5b 9d3d 160e 563d 50d6 52bd
000002b0: 3f4d b9bd a4f9 12bd 48a3 b1bd 3d67 c5bc
000002c0: af9a b2bd 006d 72b9 19d5 2abd c027 a33d
000002d0: 5f75 ad3d ab24 0a3c dbc6 d7bd 33b4 2cbd
000002e0: 32ba 17be d52f 913d 30bb fa3c f7e6 fa3d
000002f0: 6471 c7bb 621a e23d 1875 26bd 1aa9 01be
00000300: 8433 50bd 6149 b5bd 0420 13bd b57f ddbc
00000310: 5e8f 0b3e 5503 5cbb 3bb0 b03d c37c 893d
00000320: 9699 473c 8236 9d3b 33a7 e8bd 30eb d4bd
00000330: 3319 ebbd 4b23 c5bc 614b 1d3d 55e5 c8bd
00000340: f980 663d 1cea 573d cbe0 72bd 3b8c 8dbc
00000350: 3fc8 a4bd d8d9 c93d 6048 debd ce02 c4bc
00000360: 230b 86bd 5896 a73d 4a5e 2a3d 5e07 4fbd
00000370: 2655 c63d 03a5 59bd f234 efbd ed2e 073d
00000380: 81b4 b53d efff ee3b 9f84 ddbd 13b5 d13c
00000390: 47e7 103e 2dc3 b23d dbca c8bd c4b3 84bd
000003a0: f6ac 90bd 2250 6cbd 8673 3bbd 6b46 823d
000003b0: 75f1 c03d d4ab 6a3d ae50 93bc 4b21 5cbd
000003c0: 36b1 793d ca40 703c 9317 a93d 857a 8ebd
000003d0: 3266 e9bd 83f3 233d 1520 a2bd 873e 52bc
000003e0: ea28 99bd 8772 3c3d 0dc4 34bd 037a 37bd
000003f0: 2615 033e f76f 863d 8a99 dfbd 7028 7abd
0.035468716 -0.09980805 0.10003778 -0.010174979 -0.03241349 -0.103072934 -0.0065011517 -0.005742496
0.10843997 0.012992174 0.12078813 0.05160471 0.08341183 -0.05565114 0.13134974 -0.0041996324
-0.056387857 0.03818816 -0.09237555 0.08788017 0.04042657 -0.0517988 -0.018949246 -0.04851111
-0.10917501 -0.1029695 0.114953324 -0.0979841 -0.045085464 0.065572426 -0.0794295 -0.10891649
-0.09880055 -0.022136522 -0.069470204 0.07762673 0.10246526 0.11498213 -0.07105475 0.08150769
-0.02547805 0.062449325 0.12896736 0.0713541 -0.092972465 0.06830037 -0.06673675 -0.11728883
0.099935114 0.09591688 -0.08354875 -0.006884782 -0.003913678 -0.038174752 -0.0808885 0.032682456
-0.023357451 -0.10734145 -0.10862774 -0.045881767 0.09508583 0.03575631 0.043199297 -0.010310459
-0.0025952442 -0.07720374 0.109014206 0.109467566 -0.12187859 0.0463713 0.059807688 0.02023891
0.00943836 -0.10073142 0.03136654 0.071492314 0.000394019 0.014916603 -0.024769751 0.049244
-0.1032091 -0.09268089 -0.027534036 -0.15179972 0.034635827 -0.10156734 -0.056905173 -0.051866714
-0.05431323 0.06297781 -0.06935019 0.011420774 -0.004003479 -0.103165 0.052346326 -0.1058807
-0.02453095 0.019170998 -0.09184607 0.09211839 -0.11359499 0.03320906 -0.064734146 0.03524645
0.03785922 -0.1463473 0.05546692 0.10226687 0.086811975 -0.061725922 0.0055509857 -0.11480323
0.07528769 -0.0030023046 -0.0938009 -0.06819227 -0.04980706 -0.0077048363 0.072057605 -0.033357874
0.04810202 0.056443885 -0.08507992 -0.06935022 -0.024741804 0.030840896 -0.04205385 -0.019433236
0.018210774 -0.0032103353 0.012789935 -0.07814629 0.01616527 0.095130846 0.033613298 0.08620107
-0.12417329 0.07988298 0.08829566 -0.006856996 -0.05743652 -0.03638743 -0.056563333 0.010289454
-0.0015323464 0.044839144 -0.028628645 -0.002902366 -0.011407524 -0.031844456 0.12195371 -0.07710159
0.0003679694 -0.03229148 -0.07802113 0.104488835 0.045001402 -0.060485803 0.052914005 0.03066527
0.057812314 0.047463037 -0.10317325 0.01365912 0.104892366 -0.015932623 -0.11457224 0.0073306365
-0.08159782 0.07683404 0.052259527 -0.051473916 -0.09047937 -0.035882607 -0.086737216 -0.02409708
-0.0872091 -0.00023119524 -0.041707132 0.07966566 0.084696524 0.008431594 -0.105359755 -0.04216404
-0.14817122 0.07089201 0.030606836 0.12251084 -0.0060865153 0.11040188 -0.040639013 -0.12662163
-0.05083038 -0.088518865 -0.035919204 -0.027038435 0.13628909 -0.0033571322 0.08627363 0.067132495
0.012182614 0.0047977576 -0.11360016 -0.10396421 -0.11479416 -0.02406468 0.038401965 -0.098093666
0.05627534 0.0527135 -0.05929641 -0.017278781 -0.080460064 0.098560035 -0.10853648 -0.023927119
-0.06545093 0.08182973 0.041593827 -0.050544135 0.096842095 -0.053135883 -0.116800204 0.033003736
0.08872319 0.0072936933 -0.10816311 0.025599038 0.14150725 0.08728633 -0.098043166 -0.064796
-0.0706424 -0.057693608 -0.04576447 0.063610874 0.09421054 0.057292774 -0.017982807 -0.05374269
0.060960017 0.014663884 0.082564496 -0.069569625 -0.11396445 0.040027153 -0.079162754 -0.0128322905
-0.07478507 0.04600766 -0.04413228 -0.044794094 0.12801036 0.06564324 -0.10917957 -0.06107372

lstm.bias_ih_l0 f4 [256]
00000000: d9d6 57bd fb4e 953d 76fc 9cbd b21d 703d
00000010: 31c3 803d 9c05 e53c f4f4 b53c b695 b2bd
00000020: a305 66bd 72cd 413d a717 83bd 8ed9 a7bd
00000030: 858e 2f3d 9213 39bd 306e bf3d 9dd6 a13d
00000040: 3422 88bd 1896 c9bd 4b6a 243d a02d 1d3e
00000050: 9201 853d 4083 86bd 2d80 2f3d c78f 373d
00000060: 9c86 84bd e650 913d 57e6 323e 3777 c4bc
00000070: 78c3 72bd d6ec 5c3d 43fc f63d 3ec1 283d
00000080: 3ce2 01bd 3752 193d 7f23 bcbd 100c b13d
00000090: e948 fabd b663 c7bd 70a5 293d 83fb a6bd
000000a0: b9be babd 8198 2cbd 14a6 d53a 0b2a a1bd
000000b0: 001f 023e bcba a0bc 0ba5 ad3d 0d69 f03c
000000c0: f922 43bd 9e12 b8bd 0378 4dbd 4ce7 cebd
000000d0: e07f 67bd 3f37 b0bc 7692 2d3d 4f1a 85bd
000000e0: 8f4d fabb bda2 9bbc 1f59 3c3d fd56 553d
000000f0: 5817 8d3c 6047 0b3e 4697 f03c 9c8c 4cbd
00000100: c98b a0bd 2303 c0bd 85a4 99bd 635c 983d
00000110: 15a0 16bd 5a2a ec3c 5815 dc3d e9f2 e43d
00000120: 79c1 8cbd 702f 743d e0e9 c5bd deeb 10be
00000130: 042b 963b ceed 263d b83b 0cbe 930a ddbd
00000140: 3fa2 fc3c e045 a6bd 2462 8abd 5d15 23bd
00000150: 5955 713d 7680 47bc 975f 9a3d ba35 523d
00000160: df01 aa3d e359 d7bd 78bd 303e c5a2 de3d
00000170: eb95 933d 6350 7a3d 90b4 a03d 9ecc 0cbe
00000180: bb28 d7bd 7706 c43c e8ab 8bbc a68f 54bd
00000190: aca5 01be b45c 813d 8d6b 933c a66e 9fbd
000001a0: 729e 043d 3e30 c3bc 9768 013e b76e 183d
000001b0: b95d 8e3d aa20 df3d 1ed9 85bc f807 893d
000001c0: 1b51 8f3b 8404 363d 0ef6 233d 10bb edbb
000001d0: 9838 1cbd 24b2 a4bd 947c be3d 7e09 25bd
000001e0: 4cbc a93b 34e5 dcbd 4757 a3bc e30a cebc
000001f0: 2032 c3bd 8ae2 30bc 8d02 103e 1870 cabd
00000200: 1d89 613c 2dfc 43bd 0499 8bbc 9705 703d
00000210: 58d1 b8bd 6ba6 a83d 0acb 773d afd2 b33d
00000220: ea8e bb3d b85a 88bd 26ad d83d f275 543c
00000230: 37bd dabd 5956 8dbd d1b2 923c 1942 0ebc
00000240: 085b 4abb d910 c33d fd35 d5bd 6fb0 ff3a
00000250: fb98 f33d 7316 05bd 9dd5 a63d bcdd e83c
00000260: fcec 99bd 11b0 fdbd 8420 aebb 5183 d73d
00000270: 26d4 473c 60be f7bd 2d6f a03d 6f03 91bc
00000280: 9617 c83c d9c6 f83d f046 72bb 52d3 b8bd
00000290: ca59 af3c f5af 313d c576 d23c 7d7b e7bd
000002a0: cbed 573d 79fc c4bd 60aa c13d 6dd0 f23b
000002b0: adea d7bd cf85 9a3d 346c 2c3d 5a7c 85bd
000002c0: 38d2 963d defb 52bb 1964 71bd 18b2 bc3d
000002d0: badb 48bd 1f40 4bbd 4b3b 36bd e65d c0bd
000002e0: cbc7 783d 7d4e dfbd cda9 0abd 8fbf 8d3d
000002f0: da30 8c3d bab8 883d f999 43bd 27cd 88bd
00000300: b63e c7bd 297e 03bd 1047 ea37 680c e4bd
00000310: b0fc af3d 1a8e b73c 75b0 d93d 7ac7 b83d
00000320: 0843 b33d 7168 d4bd 47a1 c53b 2cdf 89bd
00000330: 54ac 81bd d5ed 493c 8987 7b3d 96d3 c8bd
00000340: 7c05 98bd 5416 90bc f83c 003d cacf 2d3d
00000350: db8c 8abd 5e0b 47bd 7cf4 eb3d 9b53 923d
00000360: 6ed7 b33d a75d 923d 27fa 403d 43ac 973c
00000370: f432 d13d 0133 cbbd 0930 a5bd 564f 4a3d
00000380: d7d0 42bc 7e84 47bd 7bee d33d 535e 27bc
00000390: 0311 8c3b 34cb 9b3d ee37 853c 5b20 0d3e
000003a0: 0060 a23b 5722 e43d af52 d03d d701 183e
000003b0: 2b8c 0a3e 3737 a1bd a753 123e 2c1b 723c
000003c0: a917 0abd 28f7 c83d ffb0 7bbd e14e 8cbd
000003d0: 369e ff3d e397 043e a1ff 14bd 8da7 9e3c
000003e0: e1fb 7c3d c780 79bd 7fd3 1f3c 3202 483e
000003f0: 3368 2a3e 483a c0bd 25f6 8a3d f353 c23d
-0.05269513 0.07290455 -0.076653406 0.05862207 0.0628723 0.027956776 0.02221153 -0.08719961
-0.05615772 0.04731507 -0.06400996 -0.08195792 0.042860527 -0.04518468 0.093471885 0.07902262
-0.06647149 -0.09843081 0.04014043 0.15349436 0.0649444 -0.06568003 0.042846847 0.04481485
-0.06470987 0.07095508 0.1747068 -0.023982627 -0.059268445 0.0539368 0.12059834 0.041199915
-0.031709895 0.03743192 -0.09186458 0.08644879 -0.12220938 -0.09735815 0.04141754 -0.08153441
-0.09118409 -0.042137627 0.0016300105 -0.07869347 0.12707138 -0.019620292 0.08478745 0.029346967
-0.047640774 -0.08987926 -0.05016328 -0.1010271 -0.056518435 -0.021510718 0.042376004 -0.064991586
-0.0076386402 -0.018998498 0.04598343 0.05208491 0.017223045 0.13601446 0.029369008 -0.049938783
-0.07839162 -0.09375598 -0.07502083 0.07439496 -0.03677376 0.028828789 0.107462585 0.11179144
-0.068728395 0.059615552 -0.09663749 -0.14152476 0.0045827646 0.040754132 -0.13694656 -0.107930325
0.030839084 -0.08118796 -0.06757 -0.039815295 0.058919284 -0.012176624 0.075377636 0.05132077
0.08301138 -0.105151914 0.17259777 0.108708896 0.07206329 0.06111182 0.078469396 -0.1374993
-0.105058156 0.023928864 -0.017049745 -0.051894806 -0.12660855 0.0631651 0.01799562 -0.077847764
0.032377668 -0.023826715 0.12637554 0.03721496 0.0695147 0.10894902 -0.016338881 0.06690973
0.004373682 0.0444379 0.040029578 -0.0072549656 -0.03813991 -0.0804179 0.09301105 -0.040292256
0.0051799174 -0.107859045 -0.019939078 -0.025151676 -0.09531045 -0.010796199 0.14063473 -0.098846614
0.0137656005 -0.047847915 -0.017040737 0.05859908 -0.09024304 0.08234867 0.060496368 0.08780419
0.09158118 -0.06657928 0.105799004 0.0129675735 -0.10680621 -0.06901235 0.017907532 -0.008682751
-0.0030877013 0.09524698 -0.10410688 0.0019507537 0.11894413 -0.032492112 0.08146212 0.028426044
-0.07515904 -0.123870976 -0.0053139348 0.105230935 0.012196576 -0.12096858 0.07833705 -0.017701833
0.02442531 0.12147302 -0.0036968552 -0.09024681 0.02140512 0.043380696 0.0256914 -0.113028504
0.05271701 -0.09618468 0.094563246 0.0074101 -0.10542808 0.07545053 0.042095378 -0.06517859
0.07364315 -0.0032193582 -0.05893335 0.09213656 -0.049037673 -0.049621698 -0.04449014 -0.0939291
0.060737412 -0.10903642 -0.03385334 0.069213025 0.06845255 0.06675859 -0.04775426 -0.06679755
-0.09728758 -0.032102738 2.7928065e-05 -0.11135179 0.08593118 0.022406626 0.1062936 0.09022422
0.087530196 -0.10371483 0.0060311886 -0.0673202 -0.06331697 0.01232477 0.061408553 -0.09805982
-0.07422921 -0.017588772 0.031308144 0.04243449 -0.06765147 -0.048594825 0.11521241 0.07144853
0.08781324 0.07146769 0.047113564 0.018514758 0.10214797 -0.099218376 -0.080658026 0.049392067
-0.011890612 -0.04871034 0.10348221 -0.01021536 0.004274489 0.07607117 0.01626202 0.13781874
0.0049552917 0.11139362 0.10172021 0.14844452 0.13530032 -0.078718595 0.14289723 0.014776986
-0.03371397 0.09812766 -0.061448094 -0.068509825 0.12481348 0.12948565 -0.0363766 0.019367004
0.061763648 -0.060913827 0.009755014 0.19532087 0.16641311 -0.09386116 0.067852296 0.09488668

lstm.bias_hh_l0 f4 [256]
00000000: c16e 8bbd 0960 c43d 6f20 8c3d 1f2d 5a3c
00000010: ad34 abbd 155c a93d 3531 fabd fc7e f0ba
00000020: 7156 bf3a dbc2 f0bc 2824 fa3c 70e2 dd3d
00000030: 37bc fcbd 7d5d a13d a708 583a 5a09 59bd
00000040: 6c79 dcbd b596 813d 03dc b1bd 4040 7fbd
00000050: 5349 f1bc 64f9 8c3d d759 8b3d d8c8 9a3c
00000060: fcc0 31bd 1739 64bd 5d26 463c 0260 023d
00000070: 3218 623d b133 ffbd 0d22 f13d 0b6d 4bbc
00000080: bd6c 8dbc d51e bcbb 83d4 a93c 667c b13d
00000090: e1b6 94bc 9c10 a1bd f4c7 063d 07e9 aabd
000000a0: eb33 a53d 637c 1fbc 070d 923d d330 123d
000000b0: a4ae 8e3c 5073 7e3d 6de0 ec3d 892d db3d
000000c0: 31dc ab3d 2084 bebd 6fd5 1cbd 2797 13bd
000000d0: 22b4 89bd ff46 c8bc 9ecc 993d 9648 b53d
000000e0: cc40 873c 2257 e8bd f8ed 86bd 0b1f d33d
000000f0: 94fa 833d a951 403d a47c 003e 812c 11bc
00000100: 9fa0 5bbc cdb5 34bc de33 563c e147 c9bd
00000110: 025b a43d c6e5 0dbd 6e80 08be 4f79 8e3d
00000120: dcc4 dc3b ab2e d73c ec8d 6d3d fed2 6aba
00000130: 11c3 a3bd 667b a4bd 5596 ebbd adb7 78bc
00000140: 17c9 ff3c da09 a33d 08a2 efbc 5b8d b33d
00000150: 199f a83d faf5 df3d 3dfd ecbd 5e1f 5dbd
00000160: e63f deba 255d 51bd 9167 033e bb78 88bb
00000170: dc57 023e 6d0d 59bd 22b8 9c3d 687e 52bd
00000180: 80c1 5abd aa6b cbbd 510a 4abc ff03 cebd
00000190: befb 103d dc6a 253d b279 e8bd b354 0abe
000001a0: ff42 86bd d0ef 033e 7c08 afbd 583b d93d
000001b0: ba8b febc eec5 98bd e0c4 ebbc 8ab0 93bd
000001c0: 2423 01bd 8a71 a83d be49 5b3d 6192 a83d
000001d0: aa11 02be 5818 fc3c 671d 7bbd 265e dcbd
000001e0: 8422 c8bd 2ccb 95bd b9c3 dd3b 78d9 7b3c
000001f0: c9eb cc3b 9d8d dfbc 06c0 abba ba7e cfbc
00000200: cb92 71bc 87db 2b3d 3f33 d03d 4851 c13d
00000210: e4a1 563c 750f c53d 1e3f d83d 7258 723c
00000220: 1a9e edbd 4472 bfbd 5ffd 40bd 897d 413d
00000230: bd20 f93b 3673 e63c 0a32 a13d f418 31bd
00000240: e442 863d a9f1 94bd 8918 e6bd b403 a9bc
00000250: 5970 f9bd 522a f43d 386b 183d 86fe da3d
00000260: 7c2a 8bbd 0127 513d ac1d b6bc 912a 5f3d
00000270: ce95 283d 8483 fa3d 11ae 9fbd cf14 e5bc
00000280: ab5c 393d 1d58 e3bd 424e dbbd 76fb 993d
00000290: 5908 b43d bf02 e83c 462a c83d affb 5e3d
000002a0: 0f35 b5bd 4d0c 4cbd 5492 7bbd 5dbb e53d
000002b0: 2114 89bc 4644 c5bc 479c cbbb c387 56bd
000002c0: 37bc 7e3d a165 8c3d 0f78 be3d b21f 88bd
000002d0: 1e12 c5bd 349b ce3c 9a8d f9bd 2e6c adb8
000002e0: 7b19 a1bd 0e6f 0a3d 8d75 fc3d 07a0 e73b
000002f0: 6569 6b3c b7b7 90bc 0300 3e3d 1491 883d
00000300: 89ec 383d b57b 363c 71d8 323d c02e b8bd
00000310: 654d a9bd ef5c dfbd d9c9 ab3d 6c91 013d
00000320: 89c8 033d ab49 8ebb 02a1 8f3c 3625 233d
00000330: 1fb8 6c3d c401 8ebd 2c8e dbbc 8a92 ccbd
00000340: 00df c03d 555f d73d 250a 2dbc 4ce5 bd3d
00000350: e74c cabd 1af1 a3bd a332 58bc ecbd 183c
00000360: 1820 e9ba 3e30 cebc e9d3 033e c952 b73d
00000370: 22e9 153e a4dd 79bd b6f4 1bba e18b c53d
00000380: 7a5d 853d 6434 e43c 15f5 b63d d93d c93d
00000390: 0cdf d8bc 48b3 f2bd 5ad5 ee3d 54f3 5b3c
000003a0: 3b3b a93d 55d2 d63d d98f d43d f049 d63d
000003b0: 8c5a b93d de88 523d 6dda f03d 4b64 e7bc
000003c0: deea 0fbc 38cc ccbd 7910 22bd cd16 db3d
000003d0: 4d4d e83d 28b7 ab3d 85c9 e53d fc65 47bd
000003e0: 5910 0bbc 6b01 c4bc 0083 bebc 03a8 aa3d
000003f0: bd9e 69bc 0cac 103e e280 283e 3f4b 8cbd
-0.06808234 0.0958863 0.06842124 0.013316422 -0.083596565 0.082695164 -0.12216417 -0.0018348391
0.0014597905 -0.02938979 0.030534819 0.10834205 -0.12340587 0.078791596 0.00082410354 -0.052987434
-0.10765347 0.06327573 -0.08684542 -0.062317133 -0.029453909 0.06883505 0.06804245 0.018894598
-0.043396935 -0.055718508 0.012094107 0.03182984 0.055198856 -0.12461031 0.11774073 -0.012416135
-0.017263765 -0.00574098 0.020731216 0.08666305 -0.01815361 -0.07864496 0.032905534 -0.08345228
0.08066543 -0.009734246 0.07131391 0.035691094 0.01741726 0.06212169 0.11566243 0.107020445
0.083916076 -0.093025446 -0.038289484 -0.036032822 -0.06723811 -0.024447916 0.07509731 0.08851735
0.01651039 -0.11344744 -0.06588358 0.10308655 0.06444278 0.046952877 0.12547547 -0.008860708
-0.013404994 -0.011029673 0.01307389 -0.09828163 0.08025171 -0.034642957 -0.13330242 0.069567315
0.0067373347 0.02626737 0.057996675 -0.0008957832 -0.0799619 -0.08031349 -0.11503283 -0.0151805105
0.031223817 0.079608634 -0.029252067 0.08767196 0.082334705 0.10935588 -0.11571739 -0.053984992
-0.0016956299 -0.05111422 0.12832476 -0.004164783 0.12728828 -0.05299132 0.07652308 -0.05139008
-0.053407192 -0.09932645 -0.012331561 -0.10059356 0.03539633 0.040385112 -0.113513365 -0.13508873
-0.06555747 0.1288445 -0.0854654 0.10607022 -0.031072486 -0.07459627 -0.0287804 -0.072114065
-0.031527653 0.08224781 0.053537123 0.082310446 -0.12702051 0.030773327 -0.061307337 -0.10760145
-0.09772208 -0.073141426 0.0067677167 0.015371673 0.0062536937 -0.027289206 -0.0013103492 -0.025328983
-0.014744471 0.041957404 0.101660244 0.09439331 0.013100121 0.09622089 0.10558914 0.014791595
-0.11602421 -0.09347966 -0.047116634 0.04723886 0.0076027797 0.028131109 0.07870872 -0.043236688
0.06555727 -0.072726555 -0.112351485 -0.020631649 -0.12179632 0.119221345 0.037211627 0.10693078
-0.067952126 0.051062588 -0.022230946 0.054483954 0.04115849 0.12232116 -0.077968724 -0.027964024
0.04525439 -0.11100791 -0.10708286 0.075186655 0.08790655 0.028321622 0.09773688 0.054439243
-0.08848011 -0.04981642 -0.061418846 0.11217377 -0.016733231 -0.024080407 -0.006213698 -0.052375566
0.062191214 0.06855322 0.09300243 -0.066466704 -0.09622596 0.025220491 -0.121852115 -8.269433e-05
-0.07866188 0.033797316 0.123271085 0.0070686373 0.01436839 -0.017665727 0.04638673 0.066682965
0.045147453 0.0111378925 0.043663446 -0.08993292 -0.08266715 -0.109063976 0.08388109 0.031632826
0.032173667 -0.004342278 0.01753283 0.03983041 0.05779278 -0.069339305 -0.026801191 -0.099888876
0.09417534 0.1051623 -0.010561501 0.092722505 -0.09877949 -0.08004971 -0.0131956665 0.009322625
-0.0017786054 -0.025169488 0.12873806 0.08951337 0.14639714 -0.06100239 -0.00059492455 0.096458204
0.0651197 0.027857013 0.089334644 0.0982625 -0.026473545 -0.118506014 0.11661787 0.013424713
0.082632504 0.104893364 0.10378999 0.10463321 0.090504736 0.051400058 0.117604114 -0.028246066
-0.008784024 -0.09999889 -0.03956649 0.10697708 0.11342869 0.08384544 0.112200774 -0.048681244
-0.008487784 -0.023926457 -0.023255825 0.08332827 -0.014259038 0.1412813 0.16455415 -0.068502896

lstm.weight_ih_l0_reverse f4 [256, 4]
00000000: 92b2 a3bd 534c 8fbd 77b8 723d 9696 033d
00000010: 5691 ae3d 01a4 caba 6287 debd ed94 8f3a
00000020: c385 8f3c c5ba adba 2a3d 03be 2d9b 5e3c
00000030: 38e4 bdbd a1cb 603d 23d7 053e b705 1b3e
00000040: f004 b0bd e2a5 d63c 400a d43d 612a 1c3e
00000050: 2543 88bd 84ee d8bd 51ba 423c 8c38 123d
00000060: dadb cd3b 720c d33d 62f4 0b3c 4ab7 50bd
00000070: 3296 0cbb 5a4c 9ebd 4402 76bd 70c2 093e
00000080: 98c0 a1bb bd7f e83d 7c9c 833d a2dd 95bc
00000090: 8ad7 97bd 631e 89bb 1960 663d 3bb5 913d
000000a0: e6f4 083d 1c36 babd b530 a53c 2dad 9f3d
000000b0: 737a 023d 332d da3c 8756 85bd a978 9cbd
000000c0: 4e9c e33d 7792 5abd b06c dfbd c4f8 cd3d
000000d0: e3fd 5b3d 9195 143d 4c22 853d 614d 5b3d
000000e0: 104e 2dbd 181c c7bc 0c62 43bd 6854 73bb
000000f0: 6f11 693d 0fb5 2c3d 9ea4 9f3d 6b3d bc3d
00000100: bd66 e4bc 1ad6 bf3d 233d cd3d 6814 20bc
00000110: f14a f83d 4804 3bbd b266 13be efbb ffbc
00000120: e4bf 363d f7ae 4bbc bb50 b2bc 0b7d 01be
00000130: cb3c da3d 7568 11bd 4298 d7bd d5b9 263d
00000140: 4402 06bd 0078 db3d 219e ac3c c0ab a9bd
00000150: af15 a3bd 922e 943d 5348 45bd fcbc 52bd
00000160: f30e 9c3c efaf b6bc 8213 78bd f8da 5dbc
00000170: 5bd1 0e3e 795e 7d3d 9d77 14be edb1 0cbd
00000180: 51b7 b13d 7745 073e 47fa 223e 73c4 03bc
00000190: 9fe6 0d3d 2eec 493b 57eb 13bd 5ee2 ae3d
000001a0: d0c8 49bc 0171 2b3d e8ae 7fbd 3c5a aa3c
000001b0: ee14 dcbd bb19 933d 30cf 163c b840 033d
000001c0: 89a1 f43d 3e0a c33c 98ec b9bc d2bb e03a
000001d0: 824a 3b3d 3bae cdbd d0ea 1dbd b767 c13d
000001e0: df78 143d 625e 1ebd f7ea 98bd c7fb fd3d
000001f0: 6b09 34bc 5c4f d9bb b5d0 30be befd f33d
00000200: 3340 65bd 0b99 ec3c 006d 973c b23c cf3d
00000210: b236 51be 8be3 1c3c a457 2cbd 4536 023e
00000220: 03bc 8a3d d4dc 7cbd ad23 1bbe e904 d53d
00000230: f7a2 073e 05a9 f93d 9dbb 033c 8f35 e73d
00000240: 7cc7 a33d 871c a43d f2e3 2a3e 59c2 d7bd
00000250: 1275 1cbe 9eff 94bd 5028 b1bd 6165 8a3d
00000260: 6990 be3d c54a 863d 4250 70bd 4e39 acbd
00000270: f0ce 823d 3dcf af3d 7847 9dbd b107 09be
00000280: 9df7 b5bc 62c3 ba3c c116 20bd 7863 e33d
00000290: 66dc 95bd da7c cebd b005 b63d 3122 f33d
000002a0: 02a6 0bbe 0f8a e83c 6f63 6dbd aa32 403e
000002b0: a3db 10bd d9d1 153e a6fb c03b a601 bc3d
000002c0: 959a 953d 8af3 ccbd ccc9 22bd e4fe f43c
000002d0: e2a0 9abd 7e23 0b3d 8e25 bebb 051d ebbd
000002e0: f689 0bbe f865 173c 2f52 a73c d664 df3c
000002f0: c11b 4cbd 1bc4 b4bc 141b 55be 4d2a 3abd
00000300: f808 ec3c f89a 913a 47eb 1bbe 3d22 cfbd
00000310: 7db9 da3d 4e9f e6bc dd8f 5f3d 3fd9 bbbd
00000320: 9137 19be 4162 c63d c146 57bd daa9 cd3d
00000330: 36c3 023e e9bc 93bd 2508 513b 5ced 9b3d
00000340: 5981 cabd 7be6 b03d a7f1 39be d652 883d
00000350: 23cf f8bc a5e3 a93d 2a6e 133d 207c 9b3d
00000360: 82d7 7abd c3f4 a5bc f901 ed3d fbf9 e23d
00000370: 584b 62bd 191b a43d c341 7fbd d8c1 44ba
00000380: 9516 9f3a 8b23 d73d a4f6 093d 423c 9d3d
00000390: 1e6e e2bd 9909 e33c c94f be3d e4ef 2b3d
000003a0: 8ff3 293d 8918 043d 0d1a 1a3e c0fb 413c
000003b0: c2be 59bc e138 77bd b6e6 453a 490a 3d3d
000003c0: 275d cc3c 7e98 6a3d eed5 423d 29bb c63c
000003d0: 33e7 1bbe 5452 b8bd c2c1 5b3d bf2b 41bb
000003e0: d8fd f93b 8613 0dbd 162b 7a3d 8a1f 263d
000003f0: 1e66 07bd 28c0 68bd b762 0a3e 4ac1 13bd
-0.07993044 -0.069969796 0.05925795 0.03212603 0.085238144 -0.0015460254 -0.10865666 0.0010954418
0.017519837 -0.0013254514 -0.12816301 0.0135868015 -0.09272045 0.054881696 0.1307035 0.15138899
-0.08594692 0.026202146 0.103535175 0.15250541 -0.06653432 -0.10592368 0.011885242 0.03569846
0.006282312 0.10305108 0.008542152 -0.050956048 -0.0021451828 -0.07729407 -0.060060754 0.13453078
-0.004936289 0.11352489 0.064263314 -0.01829416 -0.07414158 -0.0041845306 0.05624399 0.07114645
0.03343668 -0.09092352 0.020164827 0.077967025 0.031855058 0.02663288 -0.065106444 -0.076402016
0.11113797 -0.053362336 -0.10909402 0.10057214 0.053708922 0.03627545 0.06500682 0.05354059
-0.042310774 -0.024305388 -0.047700927 -0.0037129167 0.05690139 0.04216486 0.0779507 0.09191402
-0.02788102 0.093670085 0.100214265 -0.00977049 0.12123669 -0.04565838 -0.14394644 -0.031217543
0.044616595 -0.012431852 -0.02176701 -0.12645356 0.106561266 -0.03550001 -0.10527088 0.040704567
-0.032717004 0.107162476 0.021071495 -0.08284712 -0.0796312 0.07235445 -0.048164677 -0.05144976
0.019050097 -0.022300689 -0.06056548 -0.013540976 0.1394705 0.061857674 -0.14498754 -0.03434937
0.08677543 0.13210092 0.15915786 -0.008042443 0.034643766 0.003081094 -0.03611311 0.0853927
-0.012315944 0.041855816 -0.062422663 0.02079498 -0.107461795 0.07182642 0.009204671 0.032044142
0.11944873 0.023808595 -0.022695825 0.0017145819 0.045725353 -0.100429974 -0.038554013 0.0944361
0.036248084 -0.03866423 -0.07466691 0.12401538 -0.010988574 -0.006631775 -0.17267115 0.11913632
-0.05596943 0.02888157 0.018484592 0.101189986 -0.20431021 0.009575735 -0.042075768 0.12716015
0.06774142 -0.061734036 -0.15150328 0.10401327 0.1324576 0.12190441 0.008040336 0.11289512
0.07997033 0.08013254 0.16688517 -0.10535116 -0.15279034 -0.072753176 -0.08650267 0.06757618
0.09304888 0.0655723 -0.05867029 -0.084093675 0.063871264 0.085844494 -0.07679647 -0.1338184
-0.022212798 0.022798244 -0.0390842 0.111029565 -0.07317428 -0.10082407 0.088878036 0.11871756
-0.13637546 0.028386144 -0.057956155 0.18769327 -0.035365712 0.14630832 0.005889374 0.09180002
0.07304875 -0.10007389 -0.03974323 0.029906698 -0.07550217 0.033969395 -0.0058028167 -0.114801444
-0.13626847 0.00924062 0.02042493 0.027269762 -0.049831156 -0.022066167 -0.2081111 -0.045450497
0.02881287 0.0011108806 -0.1522647 -0.10113952 0.1067991 -0.028152134 0.054580558 -0.09172296
-0.14962603 0.09686709 -0.05255771 0.10042162 0.1276978 -0.07213766 0.0031895724 0.07613632
-0.09887952 0.08637711 -0.1815859 0.06656425 -0.030372208 0.08295373 0.035993733 0.07592034
-0.06124068 -0.020258313 0.11572642 0.11082836 -0.055247635 0.08012981 -0.062318575 -0.00075056916
0.0012137467 0.10504826 0.03368248 0.07677509 -0.110561594 0.027714537 0.092925616 0.041976824
0.04149204 0.03224996 0.15049 0.011839807 -0.013290109 -0.06035698 0.0007549332 0.046152387
0.024946762 0.057274334 0.0475673 0.024259167 -0.15224914 -0.09000078 0.05365158 -0.0029475538
0.0076291375 -0.034442447 0.061076246 0.04055742 -0.03305637 -0.05682388 0.13514219 -0.036073007

lstm.weight_hh_l0_reverse f4 [256, 64]
00000000: 60bc 6ebd e808 95bd 8f66 b13b 423d 8dbd
00000010: 0d69 be3d e39f 9bbd e60b 073e 0116 833d
00000020: df34 1bbc f93b bb3d 916f 9fbd d0e7 f03d
00000030: d721 a43d f194 2ebd 1243 f53a 02bf 463d
00000040: ec8e 5b3d 2019 043d 647a 4d3d b0bd 893d
00000050: 7585 d33d 4a4e e9bd 8eb2 b1bd e1ef e1bc
00000060: 4f48 63bd 0a08 aebd a567 aebc b9cd bebd
00000070: 5f08 6dbd 3cca 69bd 77a5 90bb d562 9fbd
00000080: 5b54 9cbc 7436 093e 2bbf 88bc 7b79 b03d
00000090: b19b 22bd a258 493d 480a 8d3d 5475 423c
000000a0: 792a 9abd 37e5 ebbc 9043 07bd 050d b9bd
000000b0: 2a27 aabd 1c00 87bc 6f94 0ebc 98ed fdbb
000000c0: 687c 6f3d 4035 05be a81b 9ebd 4527 d6bc
000000d0: 9cff ff3d e2a2 e5bd bfe8 9e3c 7933 9c3d
000000e0: 8a35 d13d 9b8b 8f3b f56a 2bbd ac09 06be
000000f0: 0551 aabd e67f c6bd 4c7c 90bd e8bd 96bd
00000100: f8d7 773d f29f 98bd 485e fcbd 4fa2 0d3d
00000110: 5013 df3d 6b57 f3bd 31dc 77bc 0352 85bd
00000120: 2d47 12be 4cd1 c5bd 4fb6 babd 2820 03bc
00000130: 91d8 9c3c 898e de3d 653f fa3d 80a4 a43d
00000140: 11d2 4e3d eaf4 c63d 4c3a 3a3c ee5e 99bc
00000150: 37b7 aebd 44d9 aabd 23c6 62bd 1426 90bd
00000160: 5fbf 25bd 2b22 ab3d 450c 17bd 4662 8a3c
00000170: bddd 49bc 35ce dc3d 8fa4 913d c198 cd3d
00000180: 6f62 a4bc d3c8 29bd 49e2 05be 9ebb 153e
00000190: 7e1f e8bd 403a c83b c0ff cdbd 6198 bbbc
000001a0: 2314 45bc c621 68bd de98 373a e806 f83c
000001b0: f8b4 d8bb 7386 97bd 3718 76bc 302f f83c
000001c0: 7713 e43c 4930 813d 009a eb3c 734c 91bd
000001d0: 4c91 803d 9cbe e0bd 9a28 b0bd fe5e ef3d
000001e0: c404 b33d 1686 8e3c 4e26 583c cf04 69bd
000001f0: ebeb 95bd 345d 98bc 8cc3 5abd 930d 803c
00000200: 337a 783d 6e8d 17bd a6ab d13d debd df3a
00000210: 896e 333e 1a35 ab3a 6ff2 2e3c 9258 063e
00000220: 95d3 02be 44e4 f2bc 9355 e4bc 6221 e5bb
00000230: b8a1 393d 2669 733c 91ea de3d 00eb 82bc
00000240: aa87 7b3c 7741 89bd c7bc 6abd 6df4 643b
00000250: b741 bf3d 602a 9f3d db2b 573d 6e97 34bd
00000260: be5a 1e3e 87d3 c7bd c02e 9abd 8152 94bc
00000270: 7504 a53d 5e28 173d beca 00bc a14a 883d
00000280: 3a4a 7bbd 6a53 233c 836d ba3d ceea 4ebd
00000290: d3c4 3f3d 4c50 c23c 955e a4bd 19ef cb3d
000002a0: dc5c edbd f83d bf3d 31b9 2fbd fcef 9fbd
000002b0: c51f 923d e975 03bd 900e 6a3c 4254 96bc
000002c0: 332d c1bd 4443 f1bd db65 0dbe aeb1 db3d
000002d0: 6e06 ba3c a001 183d 7a22 39bb 31c9 133c
000002e0: 6c88 f73d 0456 b0bd fc71 b4bd 0a66 f5bc
000002f0: 2262 dfbd cbbe adbd c9d1 8fbc 4893 513d
00000300: eb45 233d 675f 123e fb09 133d 7759 953d
00000310: c65c 8abc 431e 02be 2a49 4e3d b192 3fbd
00000320: 66e5 b9bd f038 44bd dbfd 603d 8a19 a93d
00000330: 41cc 623d 04da 733c 29e2 d7bd ab06 113b
00000340: acca 853d 28a2 9abd 6e25 ef3c fa9c 713c
00000350: 89ee b7bd 046a d8bd f088 6c3d 5858 353d
00000360: 38b0 2abd 9c50 77bd 96fe 923d 8306 203d
00000370: c87e f2bd 624d 723d 98c5 f03d e296 64bd
00000380: 7e13 3ebd cd1a 293e 7a13 cc3d e9db 1a3e
00000390: 3f66 da3d 1a5c dbbc 2b12 b73d 7efc cebb
000003a0: 2925 9ebd 1031 73b7 ef8a 253c 70da 9abd
000003b0: 1ea2 0c3c 286c 82bd d997 5dbd b61b 173d
000003c0: ee62 7a3d 75af 953d c631 e83d 978a 41bd
000003d0: 5603 87bd 46bb d13d 8311 36bd f39c 0a3d
000003e0: 7faf 23bd 94df 5abd 01a7 11be 01f7 2ebb
000003f0: 7360 95ba 5fdf 88bd d0fe e6bc ed0f fc3d
-0.058285117 -0.07277089 0.0054138373 -0.068964496 0.092973806 -0.07598855 0.13188133 0.06400681
-0.009473055 0.09142298 -0.077849515 0.11762965 0.08014267 -0.04262251 0.0018712005 0.048522003
0.053603098 0.032250524 0.05016555 0.06725633 0.10328189 -0.113918856 -0.08676635 -0.027580203
-0.05548888 -0.08497627 -0.021289656 -0.09316582 -0.05786931 -0.05707763 -0.004414256 -0.077825226
-0.019083193 0.13399678 -0.016692718 0.086169206 -0.03969926 0.049156792 0.068867266 0.0118687935
-0.07527632 -0.028795822 -0.033023417 -0.090356864 -0.08308251 -0.016479544 -0.0087023815 -0.0077492706
0.058468252 -0.13008595 -0.07720119 -0.026141772 0.124999255 -0.11212708 0.019398091 0.07627005
0.1021529 0.004380656 -0.04185005 -0.13089627 -0.083162345 -0.096923634 -0.07054958 -0.073604405
0.0605087 -0.07452382 -0.1232267 0.034578618 0.108923554 -0.11881908 -0.015128181 -0.06509783
-0.14284964 -0.09659061 -0.09116804 -0.008003272 0.019146236 0.1086703 0.12219123 0.080391884
0.050493304 0.097146824 0.011366438 -0.018722024 -0.08531039 -0.083422214 -0.05536474 -0.07038513
-0.04046571 0.083561264 -0.036876936 0.016892564 -0.012320933 0.10781518 0.07111465 0.10038901
-0.020066468 -0.041451287 -0.13074602 0.14622352 -0.11334132 0.0061104596 -0.10058546 -0.022899808
-0.012028727 -0.056672834 0.0007003675 0.03027673 -0.00661337 -0.07398691 -0.015020422 0.030295938
0.027841313 0.06308038 0.028759956 -0.0709466 0.06277713 -0.10973856 -0.08601494 0.1168804
0.08741143 0.017397922 0.013192726 -0.05688935 -0.073203884 -0.01859913 -0.053409144 0.015631473
0.060663413 -0.037000112 0.102378175 0.0017070135 0.17522635 0.001306209 0.010677918 0.13119724
-0.12776025 -0.029649861 -0.027872836 -0.006992505 0.045320243 0.014856612 0.10884584 -0.015981197
0.015352169 -0.067019396 -0.05730894 0.0034935728 0.09338706 0.07771754 0.05253206 -0.044089727
0.15464303 -0.097571425 -0.07528448 -0.018105747 0.08057491 0.03690373 -0.0078608375 0.06654859
-0.061350085 0.009968618 0.09102919 -0.050516896 0.046818566 0.02371993 -0.080258526 0.09957714
-0.11589977 0.093379915 -0.04290122 -0.07809445 0.07134966 -0.03209487 0.0142856985 -0.018350724
-0.09432449 -0.11780408 -0.13808386 0.10727249 0.022708144 0.037110925 -0.002824931 0.009020136
0.12086567 -0.08610156 -0.08810803 -0.029955883 -0.10907389 -0.084836565 -0.017556088 0.05116585
0.0398616 0.14294206 0.03589819 0.07292455 -0.016889941 -0.12706856 0.050362743 -0.046770755
-0.090769574 -0.047905862 0.054929595 0.08256824 0.055370573 0.014883522 -0.105411835 0.0022129219
0.06532797 -0.0755046 0.029192653 0.014746899 -0.08981044 -0.10567096 0.05774778 0.044273704
-0.04167196 -0.06037961 0.07177465 0.03906871 -0.11840588 0.05915583 0.11756438 -0.055807956
-0.046405308 0.1651413 0.09964652 0.15122952 0.10664033 -0.026777316 0.08939012 -0.0063167205
-0.077219315 -1.4495352e-05 0.010103925 -0.07561195 0.008583574 -0.063682854 -0.05409989 0.03689166
0.061129503 0.073088564 0.113376185 -0.04725131 -0.06592433 0.10240798 -0.044450294 0.033841085
-0.039962288 -0.053435877 -0.14223863 -0.0026697519 -0.0011396542 -0.0668323 -0.028197676 0.12307725

lstm.bias_ih_l0_reverse f4 [256]
00000000: 5353 f63d 276e 2c3e 17f2 243e 9592 eb3d
00000010: 38a6 5c3e 6105 5b3c c0f2 e13d 1073 33bd
00000020: d1c0 773d 8b91 263e 86ab cc3d 5bdc a53c
00000030: d2c8 ccbc 2abe 21bc ba9d 803d 5a4d a6bd
00000040: 0e85 b53d 2005 843d 29b3 78bd 9e73 8f3d
00000050: eb70 f73c c378 82bb 4a00 f23d 0d26 0fbc
00000060: 57d1 27bd 005f 39bd 2b8d 32bd 7292 e5ba
00000070: 91d1 8abc b38d aabd 4ba3 62bd 751b b6bd
00000080: 5473 163e 7cb9 273d 6267 bf3d 674c 153e
00000090: 990d 02bd fcb3 ea3d eef2 2e3c 5de5 fe3c
000000a0: 9591 133e 5af8 043d 3528 173d f358 86bc
000000b0: 84a1 84bd d684 19bc 4334 163e 89af 003e
000000c0: 315a 6bbc 4a58 743c 6cfd b1bd d63c 343d
000000d0: a329 55bd c946 6c3d e01f c4bd 39a0 92bd
000000e0: 14a9 003b c57d f43d 14ac b3bd 6c2a 6d3d
000000f0: e4d7 193e ca38 f43a a1a8 babd ac47 2dbd
00000100: b47b c6bd eeee 073e 448e 573d 9e38 94bd
00000110: aaf3 543e ca6f c53d b7e0 f4bd 0326 e1bc
00000120: 7598 8c3d 902e 023c 42b7 92bd a5df 90bd
00000130: 9155 f43a f6df 913d fff8 47bd 1bfb 0b3d
00000140: ac91 6aba b984 76bd fb89 cdbc 2f83 bd3d
00000150: 2fbd bd3d d2a9 313d 4f48 a43d 637c 373c
00000160: e00c c73c dba1 97bc f9e1 7abc 61a3 e43d
00000170: 438e c73d 035d 9cbd a816 2b3d 2266 de3d
00000180: 28cb c1bc eb80 c93d 7ecf 363d bff4 623d
00000190: c933 6e3c d72a 853d d7c8 883c 2a66 e6bd
000001a0: 110a 403e 0d40 843c 92db f63d 8484 da3d
000001b0: 044d 1d3e 3721 2e3d 2851 a3bc c3d3 81bd
000001c0: baeb f2bd e015 d63d 03b9 a83c e87c 4c3d
000001d0: fae1 efbc d763 ff3c 17a6 fd3d 5136 ca3d
000001e0: 910a 9ebd 4a92 033e eac0 813d ab1e 103e
000001f0: c94e 513d 4a7e 063e 680f 353d fd08 ee3d
00000200: 4f82 ba3d 2789 52bd 7ba4 6ebd e8cf 603a
00000210: 9866 c33b d776 65bc 8d44 c0bd 6b72 aebd
00000220: e526 c43d 9f92 533d 07b7 3a3d 967b 25bd
00000230: d258 283c 7973 37bd 2bba e23c e4e2 953c
00000240: e772 a03d 0e67 e5bd 4e73 9fbd 1db4 37bd
00000250: 30ef 873d 97db ebbb b880 a13b 7fa4 c5bd
00000260: 8dcf de3c 062c efbd 76bd 90bb b919 f13d
00000270: 94e3 8a3d f7d6 373c 5637 89bd eff7 f8bc
00000280: 065a bc3d 2547 f13d c92a c63d 9a4a b5bc
00000290: 9536 c93d 58fb d6bd 9a14 b8bd 8a02 cbbd
000002a0: 0a2d e1bd 126d 83bd 5664 eabc e767 3a3d
000002b0: fbfd 8dbd b877 583d 373e eabc dda8 5b3d
000002c0: 092e b43b 7f85 ed3d 67d8 49bd 28a4 93bd
000002d0: 5730 79bd 5694 c1bc 770a 2f3c 6342 9ebd
000002e0: c178 883d 1cb8 2f3c c2d1 90bd 351d af3d
000002f0: 5e51 3dbc 2641 a43d 6934 e4bd 85b4 a2bc
00000300: 9f95 d23d d7bf 473e 6f97 58bc 61cd f23d
00000310: b214 dd3d cb09 ac3d 58d0 c9bd 27e1 133e
00000320: f2a9 71bd bbc7 7f3d 4cb6 6f3d 274a ef3d
00000330: 884f 993c c68f 963d 6c69 5e3d 483d 77bd
00000340: ec9b b7bc 072f 0fbd 296d 433d ec3d 90bd
00000350: 0737 f03c bb8b 3e3d 5006 4b3d f6ee a23b
00000360: bc97 933c dee8 8e3d 6109 6d3d 025e 9d3c
00000370: fe08 d3bc 01db d63d 3b50 a43d 6e4f a23b
00000380: 3985 1f3e d7ff 333e bb09 a8bd cc50 8f3d
00000390: 44b8 c73c b027 1f3d 29ca a6bd 99a7 28bd
000003a0: 50ea e23c be4b b93d 5e74 c13d 2e1e e7bc
000003b0: b58d 8d3a 0977 863d da80 063e 6a6b da3d
000003c0: 173e 54bd efbf 95bd 0f78 8f3d 05e2 8dbd
000003d0: ea94 8e3d 8040 b53d 0f8b a23d 17d3 b83d
000003e0: 97d8 4e3d 9cd4 12bd eb11 70bd 212a 353e
000003f0: 2a01 033e ac61 20bd b244 8e3d a4e6 19bc
0.120276116 0.16838895 0.16107975 0.11502568 0.21547782 0.013367982 0.11032629 -0.043810904
0.06048662 0.16266458 0.09993653 0.020246675 -0.024998102 -0.009871999 0.06280084 -0.081202224
0.08863269 0.0644629 -0.060717735 0.07004474 0.03020521 -0.003981681 0.118164614 -0.008737099
-0.040971126 -0.045256615 -0.04359166 -0.0017514958 -0.016945632 -0.08327808 -0.05533151 -0.08891956
0.14692432 0.040948376 0.093458906 0.14579926 -0.03175125 0.114601105 0.010678036 0.031115228
0.14411004 0.03246341 0.03690358 -0.016399836 -0.06476119 -0.009370049 0.14668374 0.12566961
-0.014364765 0.014913628 -0.086909145 0.04400333 -0.05204166 0.057684693 -0.09576392 -0.07159466
0.0019632028 0.11938051 -0.08773056 0.057901785 0.15023762 0.0018632647 -0.09114195 -0.04230468
-0.09691563 0.13274738 0.05262591 -0.07237361 0.20796075 0.09640463 -0.119569235 -0.027483946
0.06865016 0.007945672 -0.0716386 -0.07073907 0.0018641223 0.07122795 -0.048821446 0.03417502
-0.00089480984 -0.060185168 -0.025090208 0.09253537 0.092645995 0.043374844 0.08021604 0.01119909
0.024298131 -0.018509796 -0.015312665 0.111639746 0.09743931 -0.07634928 0.041769654 0.10859324
-0.023656443 0.09839042 0.044631474 0.05540919 0.014538714 0.06502312 0.01669733 -0.11249955
0.1875384 0.016143823 0.120535985 0.106698066 0.1536141 0.042512145 -0.01993616 -0.063392185
-0.118613675 0.10453391 0.020596033 0.049923807 -0.029282559 0.031175537 0.12385195 0.09873641
-0.07716859 0.12848774 0.063356236 0.14074199 0.051100526 0.13134113 0.044204146 0.11622808
0.09106886 -0.05140033 -0.05826233 0.00085759023 0.005963158 -0.014005384 -0.09388075 -0.08517917
0.09577731 0.0516535 0.045584705 -0.040401064 0.010275083 -0.044787858 0.027676662 0.018296666
0.07834416 -0.11201297 -0.077856645 -0.044849504 0.06637418 -0.007197808 0.0049286745 -0.09650516
0.027198577 -0.11678319 -0.0044171168 0.11772484 0.06781688 0.011220685 -0.067000076 -0.030391661
0.09196858 0.11781148 0.09676129 -0.0221303 0.09824864 -0.10497159 -0.089883044 -0.09912594
-0.10994919 -0.06417288 -0.028612297 0.045509245 -0.069332086 0.052848548 -0.02859412 0.053627837
0.005498652 0.11597728 -0.049278643 -0.07209045 -0.060837116 -0.023630302 0.010683647 -0.07727506
0.06663657 0.010725047 -0.07071258 0.08550493 -0.011555044 0.080202386 -0.11142809 -0.019861469
0.10282444 0.19506775 -0.013219698 0.11855579 0.10794963 0.08400305 -0.098541915 0.14441358
-0.058999963 0.062446337 0.05852346 0.11684065 0.018714681 0.07351641 0.054299757 -0.060361177
-0.022413217 -0.03495696 0.047711525 -0.07043061 0.029323114 0.046519976 0.049566567 0.004972334
0.018016689 0.0697801 0.057870273 0.019209865 -0.025761124 0.104909904 0.08023115 0.0049533164
0.15578164 0.17578064 -0.08204981 0.06997833 0.024379857 0.03885621 -0.08144028 -0.04117546
0.02769962 0.0904765 0.094460234 -0.028212633 0.0010799678 0.06565673 0.1313509 0.10665019
-0.051817026 -0.07311999 0.07005321 -0.069278754 0.06961997 0.08850193 0.079366796 0.09024637
0.050499525 -0.03584729 -0.058610838 0.17691852 0.12793413 -0.039155647 0.06946696 -0.009393368
