backend/api/ml/models/model_72dc4842-8b3f-48fa-80c3-e5fc3c1fbf2f.pth (torch, 23353 bytes, 6 tensors)

lstm.weight_ih_l0 f4 [128, 4]
-0.09937998 0.13498122 -0.11349709 -0.16962583 -0.15545826 -0.058924284 -0.023588013 0.15832523
-0.034206748 0.15688227 0.12790643 -0.037379727 -0.04796685 -0.074253045 -0.16577907 -0.17446429
0.10460753 0.068226 -0.11972356 -0.09381225 -0.12081206 0.03579956 0.10489597 0.15349062
0.011764489 -0.072352916 -0.069600336 0.062148146 -0.057598244 -0.038372327 0.15861961 -0.025263978
0.048562583 -0.03789966 -0.08281454 -0.11334441 -0.13198324 0.18061443 -0.037410084 0.15970169
0.111304775 0.02931646 0.06401841 -0.015793297 0.097212166 0.0113975 0.09606015 -0.07321238
0.1398438 0.04877643 -0.12550206 0.006687503 -0.11148181 0.114480235 -0.1577631 -0.15752712
-0.0062194266 -0.16474527 -0.10004118 0.0083780745 -0.03179142 0.10616126 -0.013537329 -0.14299756
-0.012342061 0.15143928 -0.14433478 -0.0062365797 0.19292082 0.12133422 -0.09461504 0.0528401
0.0141231045 -0.10649914 -0.07179014 0.08559956 0.07300444 -0.029117731 0.056337792 0.14192024
0.035166424 -0.033906464 -0.107277974 0.10957874 0.14571746 0.0425182 -0.13850135 0.14748254
0.11281755 -0.15258142 -0.033303123 -0.10645181 0.13478898 -0.15618384 0.090262815 0.12951164
-0.13872619 0.06572195 -0.030652206 0.124899395 0.1379321 -0.0964098 0.15030701 -0.039349608
-0.09918258 -0.18915921 -0.018623227 -0.115908556 -0.14572193 -0.07877217 0.08685695 0.051524706
0.12088134 0.103909224 -0.102815785 -0.12008229 -0.11508603 0.018878147 0.17536606 -0.05481524
-0.060383353 -0.17530261 -0.16937214 0.14111228 0.12961991 0.02425115 -0.06512801 0.04002549
0.112682045 0.07605322 -0.15609516 -0.009652983 0.14339405 -0.08790312 -0.16884983 0.122662164
0.04381548 -0.037664723 0.014287299 0.03435293 0.1217488 -0.06893716 -0.092193924 0.07447418
-0.13887098 0.15249287 -0.042354833 -0.1280569 -0.027313173 0.14496258 -0.1478017 0.00058588607
0.07324956 -0.14948688 0.14608634 0.070625015 0.104664974 -0.06782851 0.087059446 -0.096088104
0.1606273 0.054826483 0.15346771 0.039322894 -0.047196455 0.030553658 -0.14041 -0.03596374
0.15829821 0.04923386 -0.1255 0.07750522 0.006851657 0.08724937 -0.01367978 -0.040135067
0.19162396 0.034931995 -0.12280467 -0.14876978 0.038880512 0.1474355 -0.023945529 0.102605544
-0.12308627 -0.18103442 -0.010848662 -0.18719652 0.06592431 -0.03127176 -0.016995605 0.11071664
-0.15055595 -0.15515983 -0.071646675 -0.14612134 -0.04135998 0.062969975 0.023169221 -0.06296428
0.05171971 -0.110151924 0.060285863 0.117193066 0.04734511 -0.13796869 0.15371612 0.12771666
0.108435474 0.18403083 0.0698966 -0.15788119 -0.11866119 0.16755037 0.13670085 -0.10104705
-0.048992056 0.1511745 0.005708541 0.1287825 0.14963004 -0.07566952 0.020103239 -0.06898988
0.16411799 -0.03792546 -0.068716526 0.0032148284 0.09255205 0.09201312 0.007828475 -0.0961177
0.009038439 -0.10478944 -0.11632141 0.11342828 -0.08549645 0.10666796 0.14463153 -0.1251921
0.15531437 -0.08291 0.06713631 -0.08786282 -0.13876139 0.03604946 -0.059410557 0.112815514
0.14554721 -0.03929604 -0.0034977007 0.03032418 0.018410152 0.09068741 0.1472839 0.12625076
00000000: bb87 cbbd 8438 0a3e 2a71 e8bd 65b2 2dbe
00000010: 7330 1fbe 975a 71bd a63b c1bc 0220 223e
00000020: 601c 0cbd bfa5 203e e7f9 023e 7c1b 19bd
00000030: e378 44bd fb11 98bd fdc1 29be c4a6 32be
00000040: 793c d63d 13ba 8b3d a031 f5bd a320 c0bd
00000050: 506c f7bd 8fa2 123d b3d3 d63d a52c 1d3e
00000060: d8bf 403c c42d 94bd 9f8a 8ebd 0e8f 7e3d
00000070: 23ec 6bbd 4d2c 1dbd 2e6d 223e 67f6 cebc
00000080: 8fe9 463d ad3c 1bbd ab9a a9bd 1d21 e8bd
00000090: 9d26 07be fdf2 383e 513b 19bd d788 233e
000000a0: c2f3 e33d 1329 f03c 161c 833d f260 81bc
000000b0: 2c17 c73d 94bc 3a3c 2fbb c43d 5ff0 95bd
000000c0: 3733 0f3e cbc9 473d 9d83 00be d722 db3b
000000d0: 9350 e4bd 9d74 ea3d a68c 21be ca4e 21be
000000e0: 55cc cbbb fcb2 28be 64e2 ccbd 3144 093c
000000f0: b837 02bd 136b d93d accb 5dbc f46d 12be
00000100: 5b36 4abc e612 1b3e 7fcc 13be 395c ccbb
00000110: 098d 453e 137e f83d 88c5 c1bd dc6e 583d
00000120: 9864 673c 391c dabd b506 93bd d24e af3d
00000130: 5a83 953d 4f88 eebc 75c2 663d 8a53 113e
00000140: ab0a 103d 81e1 0abd 8eb4 dbbd d26a e03d
00000150: f536 153e 9027 2e3d 4cd3 0dbe aa05 173e
00000160: e30c e73d 4e3e 1cbe db68 08bd 6803 dabd
00000170: 1f06 0a3e a8ee 1fbe b6db b83d b39e 043e
00000180: 3d0e 0ebe 3b99 863d 561a fbbc 41cb ff3d
00000190: 133e 0d3e 8072 c5bd 15ea 193e 0e2d 21bd
000001a0: 3d20 cbbd f4b2 41be bd8f 98bc 7761 edbd
000001b0: 2138 15be 4e53 a1bd 0ee2 b13d 920b 533d
000001c0: a390 f73d 5cce d43d 1591 d2bd b4ed f5bd
000001d0: 39b2 ebbd 58a6 9a3c 2993 333e f285 60bd
000001e0: 8954 77bd 8782 33be e46f 2dbe bd7f 103e
000001f0: 15bb 043e 59aa c63c d661 85bd c5f1 233d
00000200: d8c5 e63d cac1 9b3d 69d7 1fbe 8c27 1ebc
00000210: e4d5 123e 8d06 b4bd f8e6 2cbe 4d36 fb3d
00000220: dc77 333d 5346 1abd 4615 6a3c a8b5 0c3d
00000230: 6f57 f93d ed2e 8dbd 2bd0 bcbd eb85 983d
00000240: 3234 0ebe 1727 1c3e 437c 2dbd 5921 03be
00000250: e0bf dfbc 1271 143e 5459 17be 2696 193a
00000260: de03 963d 1713 19be a897 153e d9a3 903d
00000270: 975a d63d ade9 8abd 394c b23d d7c9 c4bd
00000280: 7c7b 243e bc91 603d a426 1d3e 0b11 213d
00000290: 1251 41bd aa4b fa3c a4c7 0fbe b74e 13bd
000002a0: ed18 223e 72a9 493d 1283 00be 0fbb 9e3d
000002b0: dd83 e03b ccaf b23d 2821 60bc ab64 24bd
000002c0: 1239 443e da14 0f3d 0481 fbbd 1b57 18be
000002d0: 2c41 1f3d 55f9 163e 6a29 c4bc db22 d23d
000002e0: a814 fcbd 1661 39be 96be 31bc 72b0 3fbe
000002f0: 5303 873d d116 00bd 5e3a 8bbc 68bf e23d
00000300: 572b 1abe 38e2 1ebe 7ebb 92bd d5a0 15be
00000310: 1569 29bd 67f6 803d 61cd bd3c 6bf3 80bd
00000320: 0cd8 533d 5597 e1bd 4fee 763d eb02 f03d
00000330: f2ec 413d aa47 0dbe c267 1d3e 28c8 023e
00000340: 6b13 de3d 9472 3c3e f325 8f3d 9bab 21be
00000350: a304 f3bd 5392 2b3e 4ffb 0b3e c1f1 cebd
00000360: e5ab 48bd 7dcd 1a3e b60e bb3b 8fdf 033e
00000370: 9e38 193e 9ff8 9abd 8caf a43c 914a 8dbd
00000380: 8c0e 283e ba57 1bbd 40bb 8cbd dfaf 523b
00000390: ee8b bd3d 6071 bc3d 0143 003c 5bd9 c4bd
000003a0: f615 143c d99b d6bd eb39 eebd 164d e83d
000003b0: c318 afbd bb74 da3d 4a1a 143e 5c32 00be
000003c0: bb0a 1f3e b8cc a9bd c37e 893d 6cf1 b3bd
000003d0: 7717 0ebe 99a8 133d 7c58 73bd d20b e73d
000003e0: 540a 153e e2f4 20bd ae39 65bb 6a6a f83c
000003f0: e3d0 963c 52ba b93d 97d1 163e e147 013e

lstm.weight_hh_l0 f4 [128, 32]
0.021767667 -0.007675209 0.120735444 -0.14384586 -0.064591266 0.09106051 -0.0046424186 0.015849799
0.085479654 -0.088450834 -0.1567278 -0.19453427 -0.12544121 0.12592614 0.047756832 0.10057831
0.16192459 0.10849124 -0.038642652 -0.022794498 0.1502957 0.12217851 -0.14679518 0.092988074
0.14603205 -0.1497437 -0.06656427 -0.10338707 0.031229727 0.050395623 0.01123148 0.07809046
-0.16994579 0.10256568 0.056839608 0.14597864 -0.12100105 0.018857418 0.117692634 -0.11588203
0.13858277 -0.006648185 -0.10571687 0.049029633 0.095513456 -0.10263069 0.16146713 0.08627565
-0.16902931 0.11919398 -0.16094816 -0.04732295 -0.040050227 -0.026115138 0.04234089 0.028371237
-0.10379427 0.0020955706 -0.1468685 -0.116637975 0.12336369 -0.064918935 -0.16518168 -0.1246482
0.13583739 -0.060060542 0.014384412 0.06535105 -0.08970391 0.13319007 -0.1802022 -0.032645244
-0.13810498 -0.10840601 -0.15560384 0.14125428 0.033333234 0.04633975 -0.13245632 0.055551846
0.15922233 -0.021440327 0.13730212 -0.09163191 0.034818064 -0.09847668 0.038686994 -0.11238182
0.011687569 -0.15225928 -0.00457435 0.14017273 -0.17769793 0.09202726 -0.041794837 0.17307383
0.008743969 -0.15503955 -0.16717212 0.05737078 -0.07421969 -0.15617399 0.108464584 -0.05946448
-0.009746716 -0.12968417 0.08490985 -0.13045883 -0.07792905 -0.030689528 -0.15882774 -0.043888513
-0.0065731886 -0.044589743 0.022814058 -0.13741991 0.09089055 0.15348485 0.027067762 0.14346243
-0.11437042 0.021402799 -0.09556678 -0.03234038 0.12376546 -0.050691765 0.037403412 0.15972689
0.08884047 -0.052762 -0.1910975 -0.18144657 0.16090874 0.113403104 -0.14349973 -0.10694357
0.079719655 -0.18007082 0.04796534 0.11617128 0.067452684 0.0047423127 0.11320245 0.039445553
-0.081780516 0.055111926 0.0065742033 -0.004367831 -0.018241005 0.09568165 -0.026917463 -0.12947202
0.1765405 0.062398504 0.09128254 0.01262689 0.12997389 -0.110339925 -0.04852098 -0.15822892
-0.10346673 -0.14980339 -0.050238613 -0.13625519 0.0285689 0.05978987 -0.07172849 -0.06012819
-0.02663544 0.12599424 0.17848928 -0.058916543 0.10803659 -0.017251398 0.1682597 -0.042510033
-0.08208091 -0.08747883 -0.015391316 0.14553489 -0.13661237 0.14261897 0.10839575 -0.11993499
-0.07717527 0.08240635 0.03852472 -0.0019403005 -0.05102984 -0.0184911 -0.15085277 -0.036631785
-0.13683759 0.08463804 -0.09589649 0.014557757 -0.03169076 0.18500933 0.0724766 0.034216847
-0.1342841 -0.05995254 -0.038862526 0.15016669 -0.03451455 0.08710538 0.014035946 0.0910719
-0.1488733 0.18493761 -0.009760827 0.07607407 -0.13998601 0.15811047 0.10195714 -0.111787684
0.07339559 0.083149165 -0.063379735 -0.14661585 0.1373415 0.18558581 -0.024498902 -0.106050424
0.10521399 0.1597198 0.07954517 -0.02573661 -0.027354304 -0.10452926 -0.10357389 -0.14327072
-0.0067147603 0.08209309 -0.0489447 0.13799743 -0.040606033 0.039834853 0.1170387 -0.01900984
0.12264374 -0.058981065 -4.7311074e-05 -0.12473774 -0.06469309 -0.17994049 0.044970624 -0.020071957
0.11322801 0.068602204 0.011669118 0.07740907 -0.03905142 -0.18697305 -0.17992514 -0.027410528
00000000: 1b52 b23c 5280 fbbb 2544 f73d 544c 13be
00000010: 6d48 84bd ef7d ba3d 6e1f 98bb 70d7 813c
00000020: f50f af3d b625 b5bd 417d 20be fe33 47be
00000030: a973 00be c8f2 003e ab9c 433d 00fc cd3d
00000040: 8fcf 253e a830 de3d c247 1ebd 87bb babc
00000050: 1ee7 193e ba38 fa3d 7a51 16be 8870 be3d
00000060: 6d89 153e 6a56 19be d952 88bd 9abc d3bd
00000070: 7cd5 ff3c a46b 4e3d 3e04 383c e4ed 9f3d
00000080: 4506 2ebe f50d d23d a6d0 683d 6d7b 153e
00000090: 66cf f7bd df7a 9a3c d608 f13d 8f53 edbd
000000a0: a4e8 0d3e 05d9 d9bb 1682 d8bd 4cd3 483d
000000b0: 8f9c c33d 0a30 d2bd a457 253e 4ab1 b03d
000000c0: 0516 2dbe f91b f43d 98cf 24be b6d5 41bd
000000d0: b50b 24bd 6aef d5bc a46d 2d3d cc6a e83c
000000e0: 1792 d4bd d755 093b b264 16be e4df eebd
000000f0: 1aa6 fc3d 38f4 84bd 6325 29be 8e47 ffbd
00000100: f518 0b3e 0b02 76bd 99ac 6b3c c5d6 853d
00000110: afb6 b7bd fa62 083e ed86 38be 05b7 05bd
00000120: 646b 0dbe f803 debd 9d56 1fbe f6a4 103e
00000130: 6e88 083d c0ce 3d3d a1a2 07be 558a 633d
00000140: 2e0b 233e a0a3 afbc ed98 0c3e 83a9 bbbd
00000150: 639d 0e3d 24ae c9bd 4176 1e3d 7128 e6bd
00000160: 387d 3f3c dbe9 1bbe 6ee4 95bb 7189 0f3e
00000170: 72f6 35be ca78 bc3d 1031 2bbd 443a 313e
00000180: dd42 0f3c b0c2 1ebe 2b2f 2bbe 9ffd 6a3d
00000190: 7e00 98bd 13ec 1fbe ae22 de3d 0791 73bd
000001a0: b1b0 1fbc edcb 04be 37e5 ad3d 0097 05be
000001b0: 4499 9fbd 9b68 fbbc bda3 22be 71c4 33bd
000001c0: e763 d7bb bca3 36bd 8ce4 ba3c ceb7 0cbe
000001d0: d324 ba3d 222b 1d3e 36bd dd3c d1e7 123e
000001e0: 0a3b eabd ec54 af3c 84b8 c3bd 5977 04bd
000001f0: bf78 fd3d 2ba2 4fbd 5234 193d 728f 233e
00000200: fef1 b53d f81c 58bd 10af 43be 21cd 39be
00000210: 43c5 243e e33f e83d 98f1 12be 3b05 dbbd
00000220: 0f44 a33d 7c64 38be 4e77 443d 35eb ed3d
00000230: a224 8a3d 6765 9b3b b0d6 e73d a991 213d
00000240: 8b7c a7bd 0bbd 613d 6a6c d73b 0620 8fbb
00000250: 296e 95bc bef4 c33d 0382 dcbc 5094 04be
00000260: 08c7 343e 9395 7f3d 57f2 ba3d 04e1 4e3c
00000270: e017 053e e6f9 e1bd efbd 46bd c306 22be
00000280: 5de6 d3bd 0f66 19be 01c7 4dbd 7b86 0bbe
00000290: 5309 ea3c 39e6 743d 63e6 92bd fa48 76bd
000002a0: 9132 dabc a204 013e e5c5 363e 7952 71bd
000002b0: 4a42 dd3d ce52 8dbc 454c 2c3e 001f 2ebd
000002c0: 091a a8bd 1a28 b3bd dc2b 7cbc 1907 153e
000002d0: 1de4 0bbe b50a 123e 97fe dd3d 7aa0 f5bd
000002e0: 110e 9ebd a9c4 a83d 19cc 1d3d ae51 feba
000002f0: aa04 51bd a67a 97bc 2679 1abe 360b 16bd
00000300: 271f 0cbe b556 ad3d 6165 c4bd a983 6e3c
00000310: 2cce 01bd 1673 3d3e 9d6e 943d f726 0c3d
00000320: c581 09be cb90 75bd 502e 1fbd 4cc5 193e
00000330: 215f 0dbd 4e64 b23d 06f7 653c e883 ba3d
00000340: 3e72 18be 4960 3d3e e0eb 1fbc b9cc 9b3d
00000350: 7e58 0fbe b6e7 213e e8ce d03d f1f0 e4bd
00000360: 6d50 963d 1c4a aa3d 3ccd 81bd 7722 16be
00000370: 40a3 0c3e 350a 3e3e ecb1 c8bc f730 d9bd
00000380: 6f7a d73d 968d 233e 94e8 a23d 95d5 d2bc
00000390: 2216 e0bc 7013 d6bd 8c1e d4bd 8fb5 12be
000003a0: 7e07 dcbb 6c20 a83d 3d7a 48bd 334f 0d3e
000003b0: 8352 26bd df29 233d fcb1 ef3d 86ba 9bbc
000003c0: a42c fb3d 2196 71bd e16f 46b8 8076 ffbd
000003d0: d07d 84bd 5242 38be 1e33 383d f26d a4bc
000003e0: 16e4 e73d 507f 8c3d d42f 3f3c a688 9e3d
000003f0: 62f4 1fbd dd75 3fbe 4c3e 38be 0b8c e0bc

lstm.bias_ih_l0 f4 [128]
-0.09667614 0.055435777 -0.006465359 -0.15427461 -0.13537246 -0.14692296 -0.14679188 -0.05123694
0.16733584 0.104244515 0.13187192 -0.1281414 0.10794264 0.14875515 0.04693685 0.1444402
-0.03156823 0.10162924 -0.15110159 0.038514663 0.036929585 -0.016798923 -0.13205661 -0.16638923
0.014358484 1.7366981e-05 0.033781465 0.022737885 0.009845173 0.03147153 -0.015743274 0.008152844
-0.10995449 -0.07845102 -0.13556756 0.17911234 -0.10634766 0.08332184 -0.02765469 -0.05112303
-0.13262156 0.104132816 -0.09993666 -0.12803015 -0.11337771 0.09694056 -0.15371215 0.0938292
-0.012751852 0.1519461 0.108599424 -0.17048286 0.0028679722 -0.021066189 -0.15159076 -0.040521964
0.14627899 -0.018330025 -0.1529193 -0.052602816 -0.075739965 0.09396166 -0.118609905 -0.01836981
0.06955946 0.00045290656 -0.10704761 -0.04158472 0.13154575 0.17297037 0.002552621 0.009438027
-0.17536579 -0.007992676 -0.042943515 0.050202478 -0.13235885 -0.04029621 0.13312899 0.037982304
0.15004002 0.15331356 0.07998859 0.04738245 0.015556131 -0.12805307 -0.05015591 0.103806525
-0.1171584 -0.17298578 0.060042515 0.13645403 -0.09105944 0.03831628 -0.06494738 0.1324137
0.18846473 -0.033689473 0.060394567 0.11057337 -0.1301761 0.17021361 0.06539348 -0.03479617
0.11340399 -0.10968802 0.030899141 0.110736996 -0.12616563 -0.056116797 -0.07080464 0.15769865
-0.12496237 -0.0974965 0.064696275 -0.005678391 -0.065389276 -0.01883733 -0.038068626 -0.009732043
-0.07481029 0.07537562 -0.024287188 -0.086965255 0.12755816 0.025338015 0.104294546 0.13127977
00000000: 24fe c5bd a010 633d 5ddb d3bb 2afa 1dbe
00000010: 149f 0abe f972 16be 9c50 16be d3dd 51bd
00000020: 165a 2b3e 267e d53d 6f09 073e 8037 03be
00000030: 0811 dd3d 4553 183e db40 403d 22e8 133e
00000040: b04d 01bd fe22 d03d 60ba 1abe 8dc1 1d3d
00000050: 7a43 173d e59d 89bc d939 07be f061 2abe
00000060: d93f 6b3c 4faf 9137 6f5e 0a3d cd44 ba3c
00000070: a64d 213c 4be8 003d 0af8 80bc 8293 053c
00000080: d22f e1bd eeaa a0bd 39d2 0abe 3a69 373e
00000090: cdcc d9bd a4a4 aa3d 178c e2bc 6266 51bd
000000a0: f2cd 07be 9643 d53d 97ab ccbd 561a 03be
000000b0: 9332 e8bd c688 c63d b866 1dbe 8629 c03d
000000c0: 25ed 50bc c297 1b3e 6069 de3d 0f93 2ebe
000000d0: 97f4 3b3b 0093 acbc 9c3a 1bbe 5cfa 25bd
000000e0: 29ca 153e d928 96bc e196 1cbe 0d76 57bd
000000f0: 8e1d 9bbd f96e c03d c0e9 f2bd 497c 96bc
00000100: 3175 8e3d 1774 ed39 c73b dbbd bd54 2abd
00000110: eeb3 063e 251f 313e e049 273b f4a1 1a3c
00000120: 1793 33be b7f3 02bc 8ae5 2fbd 1da1 4d3d
00000130: 1489 07be a40d 25bd f752 083e 5593 1b3d
00000140: 17a4 193e 3bfe 1c3e 0fd1 a33d 1a14 423d
00000150: 24df 7e3c 5820 03be 4970 4dbd 8498 d43d
00000160: bef0 efbd 2f23 31be 24ef 753d 9bba 0b3e
00000170: 5f7d babd 88f1 1c3d 2203 85bd 7597 073e
00000180: e6fc 403e f9fd 09bd 4b60 773d 4a74 e23d
00000190: e24c 05be 7a4c 2e3e 04ed 853d 6e86 0ebd
000001a0: 5a40 e83d 1da4 e0bd 3220 fd3c 14ca e23d
000001b0: 9031 01be bada 65bd 0602 91bd c17b 213e
000001c0: 45ec ffbd 3fac c7bd 7b7f 843d cc11 babb
000001d0: d0ea 85bd bf50 9abc d9ed 1bbd 2673 1fbc
000001e0: 2336 99bd 885e 9a3d edf5 c6bc d71a b2bd
000001f0: 9b9e 023e ab91 cf3c 6198 d53d 346e 063e

lstm.bias_hh_l0 f4 [128]
-0.095493674 -0.16640843 0.11254856 0.1387915 -0.12144282 0.1620491 -0.15296224 0.019724956
0.08095994 0.17945401 0.10464541 -0.06317519 0.13345116 0.08846869 0.090180226 0.15266423
-0.09128581 0.11091817 0.12880544 -0.007945623 0.017806843 -0.048870355 -0.08411228 0.08207646
-0.0688497 -0.04921476 -0.003484426 0.14944704 -0.05613342 0.074980654 0.115485206 -0.12455598
-0.14629382 -0.13040712 -0.056121398 -0.11719055 -0.049088977 0.114718184 0.028667664 -0.1510788
0.08835691 -0.10304909 0.013282529 -0.11092549 0.1917308 -0.0090395035 -0.08563233 0.039946213
-0.14436017 -0.13139887 0.06688749 0.0067592277 0.060935494 -0.12036937 -0.053524785 0.0892894
0.10070548 -0.15891387 0.10217394 0.15825032 0.049791805 0.019732073 -0.030796673 0.004838687
-0.042595316 -0.08365202 0.11937284 0.11769741 0.039505858 0.05246698 -0.15903407 0.086289264
0.019584402 0.091534086 0.025859041 -0.10959065 0.08089416 0.1525185 0.030331802 -0.029039575
0.18807605 0.13877524 -0.07806734 -0.14344095 0.19384208 0.19245522 0.071352065 -0.043375533
-0.011571386 -0.19254822 -0.026448011 0.049384914 -0.15367031 0.10234732 0.09355095 0.08954085
0.052006826 0.057764556 0.06197208 -0.10044562 -0.089461945 0.03409332 0.11887333 -0.11345006
0.16029216 -0.13517512 0.13777836 -0.062508374 0.13783866 0.01578254 0.12608148 0.1286693
-0.14951947 0.15717539 -0.03403271 0.15109205 0.040739324 0.18865624 0.13953507 -0.1858396
0.14852835 -0.033702273 -0.06132387 -0.17764114 -0.16823353 0.038887974 0.057145033 -0.03621122
00000000: 3092 c3bd f966 2abe dc7f e63d 5c1f 0e3e
00000010: 03b7 f8bd 33f0 253e 22a2 1cbe 3b96 a13c
00000020: 53ce a53d cbc2 373e 5550 d63d fe61 81bd
00000030: 6ca7 083e 132f b53d 69b0 b83d 0354 1c3e
00000040: 0ef4 babd 1129 e33d 93e5 033e 5c2e 02bc
00000050: a8df 913c 482c 48bd 0f43 acbd b417 a83d
00000060: 1201 8dbd 6b95 49bd f85a 64bb a508 193e
00000070: 28ec 65bd 758f 993d 8283 ec3d 3517 ffbd
00000080: 0cce 15be 7289 05be 8ddf 65bd 9901 f0bd
00000090: 8611 49bd 5ef1 ea3d 73d8 ea3c 67b4 1abe
000000a0: 78f4 b43d 670b d3bd f79e 593c e72c e3bd
000000b0: 1455 443e 6d1a 14bc 0160 afbd a49e 233d
000000c0: 27d3 13be 6d8d 06be 4ffc 883d 837c dd3b
000000d0: 7f97 793d 3784 f6bd ce3c 5bbd 5cdd b63d
000000e0: ad3e ce3d 51ba 22be 9240 d13d 5f0c 223e
000000f0: 7ef2 4b3d 28a5 a13c 4e49 fcbc d98d 9e3b
00000100: 6d78 2ebd c051 abbd bf79 f43d 570b f13d
00000110: e5d0 213d 9ee7 563d d4d9 22be 6db8 b03d
00000120: 786f a03c 3976 bb3d 57d6 d33c 1071 e0bd
00000130: d6ab a53d cf2d 1c3e 667a f83c 67e4 edbc
00000140: 0297 403e 191b 0e3e c5e1 9fbd 2fe2 12be
00000150: 8a7e 463e fb12 453e 0821 923d 8baa 31bd
00000160: e995 3dbc 5c2b 45be 80a9 d8bc d647 4a3d
00000170: c05b 1dbe 799b d13d a497 bf3d 3161 b73d
00000180: 1c05 553d 879a 6c3d 70d6 7d3d 6fb6 cdbd
00000190: d337 b7bd 70a5 0b3d dc73 f33d 8158 e8bd
000001a0: a123 243e 596b 0abe c515 0d3e 6404 80bd
000001b0: 9425 0d3e 634a 813c 811b 013e e3c1 033e
000001c0: a21b 19be 96f2 203e e265 0bbd e0b7 1a3e
000001d0: 47de 263d 1a2f 413e 48e2 0e3e bc4c 3ebe
000001e0: d117 183e 650b 0abd bd2e 7bbd 8fe7 35be
000001f0: 6945 2cbe ff48 1f3d e910 6a3d 3752 14bd

fc.weight f4 [3, 32]
0.03020986 -0.06673315 -0.16965313 -0.14600962 -0.15610342 -0.020446248 0.04755044 0.14452057
0.09360488 -0.12680548 0.13979694 0.13898177 -0.016290791 -0.0307468 0.02808295 0.17280403
0.16312954 0.15698357 0.10597043 0.008595328 -0.14072458 -0.18214211 0.1526949 -0.032645956
0.019613538 -0.039879203 -0.021243935 0.0010268476 -0.04905262 -0.055881277 0.03249876 0.12514678
-0.114734635 -0.025734315 -0.1447879 -0.1164359 0.144926 -0.08119329 0.12837897 0.14659077
0.13707128 -0.042781893 -0.00323818 0.029672395 0.097105145 0.13920385 0.098956294 -0.07487404
-0.068994306 -0.05543819 0.02924338 -0.010798192 -0.17204954 -0.052008312 -0.16271123 0.010929402
0.11730443 0.08473587 0.015036286 0.02061701 -0.07815716 -0.08129267 0.099328846 0.0034611314
0.022098245 0.16759215 0.11673395 0.030894566 -0.1008291 0.14065956 -0.074954905 0.059175164
0.008458071 0.050615307 -0.158176 0.16747743 -0.06472921 0.1683983 -0.09504122 0.06534407
-0.1226406 -0.0912396 0.09237624 0.07697774 -0.09184296 0.05084229 0.0811358 -0.14258426
0.08938917 0.1728205 -0.01997004 0.09156276 0.037538763 0.08307414 -0.14994085 0.032835893
00000000: ab7a f73c 64ab 88bd 8db9 2dbe 8c83 15be
00000010: 93d9 1fbe e47e a7bc 40c4 423d 33fd 133e
00000020: eab3 bf3d 4cd9 01be ee26 0f3e 3d51 0e3e
00000030: 4474 85bc b7e0 fbbc 370e e63c 8af3 303e
00000040: 6e0b 273e 4dc0 203e 0607 d93d 6bd3 0c3c
00000050: 1b1a 10be 7683 3abe 0d5c 1c3e c4b7 05bd
00000060: 92ac a03c 6058 23bd c307 aebc 4a97 863a
00000070: 66eb 48bd c4e3 64bd 6b1d 053d 7a26 003e
00000080: fef9 eabd c5d0 d2bc 4743 14be f275 eebd
00000090: 7b67 143e ab48 a6bd c775 033e e41b 163e
000000a0: 6a5c 0c3e 113c 2fbd a537 54bb 8613 f33c
000000b0: 10df c63d 748b 0e3e 99a9 ca3d 9057 99bd
000000c0: e34c 8dbd 2813 63bd d08f ef3c e6ea 30bc
000000d0: c12d 30be ab06 55bd c69d 26be 3c11 333c
000000e0: 4e3d f03d 008a ad3d c15a 763c 01e5 a83c
000000f0: dc10 a0bd c57c a6bd ec6c cb3d 26d4 623b
00000100: 6107 b53c 479d 2b3e 3612 ef3d 9a16 fd3c
00000110: 7d7f cebd 0f09 103e f581 99bd a861 723d
00000120: b993 0a3c ff51 4f3d e4f8 21be 347f 2b3e
00000130: c090 84bd 9b70 2c3e f9a4 c2bd 1dd3 853d
00000140: ff2a fbbd d4db babd c12f bd3d 81a6 9d3d
00000150: 2918 bcbd 0140 503d 872a a63d 9c01 12be
00000160: ab11 b73d dbf7 303e 3698 a3bc 4285 bb3d
00000170: 3fc2 193d c622 aa3d 188a 19be ee7e 063d

fc.bias f4 [3]
-0.04057447 0.1463858 -0.0015761867
00000000: 6a31 26bd 29e6 153e 0d98 ceba
