backend/api/ml/models/model_c08721ae-f541-43b7-849b-1a2f79db0cf6.pth (torch, 949173 bytes, 26 tensors)

lstm.weight_ih_l0 f4 [256, 4]
000000 e4 9b 9d bd 97 14 78 3d 7c 44 22 bc 60 e8 a4 3c
       -0.076957494 0.06056651 -0.009904023 0.020130336
000010 ad 57 17 3e 24 3b ff bb 54 cf bd 3d a3 28 fe 3d
       0.1477954 -0.0077890325 0.0926806 0.124100946
000020 ee a1 ee 3d 52 31 98 bd ab b1 91 bc f0 a9 af 3c
       0.116519794 -0.07431282 -0.017784914 0.021443337
000030 44 12 78 3c 13 6e f6 3d d3 2b 13 3e 34 9e c0 3d
       0.015141074 0.12032714 0.14372186 0.09405175
000040 99 0b e6 3c d6 1c 13 3e 34 d1 4c bd 4d 6e 09 bd
       0.028081702 0.14366469 -0.0500042 -0.033552457
000050 5b 17 9f 3c 3e 9f e9 bb 7e da 0d bd 20 e7 32 3d
       0.019420316 -0.007129579 -0.0346322 0.04367745
000060 ee 15 f9 bc 4f 9e 74 3d 97 9c d4 bd 03 72 f9 bd
       -0.030405965 0.059721287 -0.1038143 -0.12179949
000070 2d f4 57 3d 7b c1 04 3e f3 6d 0f bd b4 b7 d7 bd
       0.0527231 0.12964432 -0.035016965 -0.105330855
000080 5f e2 78 bd 8e 57 05 bc 7a db aa 3d 6e d4 93 bd
       -0.06076276 -0.00813855 0.08342643 -0.07218252
000090 52 5c 70 bd 2a b8 6d bd 63 9d 1b bc 19 37 98 bd
       -0.058681794 -0.05803696 -0.009497973 -0.07432384
0000a0 e4 3e 7d bd af a3 1a be ee e8 ab bd 14 3e 4f 3c
       -0.061827555 -0.15101503 -0.08394037 0.012649078
0000b0 6c 6f 41 bd 1c fe 9a 3d b8 e4 14 3c 17 a2 ab bd
       -0.0472254 0.07567999 0.009087734 -0.083805256
0000c0 31 e0 e0 3d 19 b2 9c bd 9f 53 d6 3d 68 14 ae bc
       0.10980261 -0.07651157 0.10465168 -0.021249965
0000d0 53 86 29 bd 79 07 0b 3d 9c 5a fd bc ba 8a c6 3d
       -0.041387867 0.033942673 -0.030926995 0.09694429
0000e0 99 49 3f 3d 6d f4 64 3d 10 36 81 bc 5d 8e e5 3a
       0.046701048 0.055897165 -0.01577285 0.0017513741
0000f0 24 86 39 bd 46 4e a7 bd 87 24 ff 3d 54 12 d6 bd
       -0.045293942 -0.08169226 0.12458139 -0.104527146
000100 00 a0 be 3d 51 1f 87 3d 91 96 11 be 6b c4 a9 bd
       0.09307861 0.0659777 -0.14217593 -0.08289417
000110 3e c0 23 3d 8a c9 34 bd 78 ea 31 bd 9a 6d 24 3d
       0.03997826 -0.044137515 -0.043436497 0.040143587
000120 f5 1b 88 3d b6 3b 0b 3e d3 cb 99 3d ee 64 c7 3d
       0.066459574 0.13596997 0.075095795 0.09736048
000130 6e 02 e0 3d 0d 56 b3 bd 08 40 18 3d 0f c0 94 3d
       0.109379634 -0.08756647 0.03717044 0.07263195
000140 32 e5 9d 3d 10 30 9c bd 81 55 11 3e b6 88 d0 bd
       0.07709731 -0.07626355 0.14192773 -0.101823255
000150 79 d8 96 3d da 9e ca 3c dd 5a e2 3d cf e0 f4 3d
       0.07365508 0.02473395 0.11052487 0.11956941
000160 61 61 08 3e 57 4a 22 3e ae 61 d8 3d 2b d5 db bc
       0.13318397 0.15848671 0.10565506 -0.026835045
000170 3d a7 89 3d 63 ed 52 3d 26 29 e0 3c 59 a1 d7 3d
       0.06721351 0.05149592 0.027363371 0.105288215
000180 c2 ac b1 3a 83 c8 a1 bd 72 ba 2f 3d 62 74 54 bd
       0.0013555514 -0.07899573 0.042902417 -0.051868804
000190 49 40 f1 3b 58 4f c2 3d db 9a c6 3d 05 ac b7 bd
       0.0073623997 0.0948779 0.09697505 -0.08968357
0001a0 80 47 83 3d fb 2f 88 bd 9d 17 4d bd d2 f7 81 bd
       0.06410122 -0.066497765 -0.050071348 -0.06346096
0001b0 27 3d 3d 3e 78 e8 8c bc d0 af e9 3a 55 d8 0a bc
       0.18480359 -0.017200693 0.0017828885 -0.008474429
0001c0 fa b1 a4 bd 21 07 b8 3d 36 a8 3f bd d0 bf df bd
       -0.08041759 0.08985735 -0.046791278 -0.10925257
0001d0 ab 6f 5f 3d 1a 45 0a 3e 70 85 fd 3d 05 74 c8 bc
       0.054549854 0.13502923 0.12378967 -0.024469385
0001e0 46 14 80 bd c4 c3 8b 3d 75 39 36 3e b5 0f 93 bc
       -0.06253867 0.06824449 0.17795356 -0.017951826
0001f0 08 1b 1e 3e b8 6c f2 3d bb 41 54 3e 7e a8 82 3d
       0.15439999 0.11837143 0.20728199 0.063797936
000200 16 ce c0 3c cf 0d 7f bd 64 80 f7 bc 23 95 a3 3d
       0.02353577 -0.06226903 -0.030212589 0.0798743
000210 26 57 ef 3c 80 95 04 be cf b9 c9 3c 4b 00 a2 3c
       0.02921636 -0.12947655 0.024624733 0.01977553
000220 04 c2 37 bd 61 75 98 3c 3b 31 86 3c f1 41 ed 3c
       -0.044862762 0.018610658 0.016380897 0.028962107
000230 5a 8e dd bd 41 a9 19 bd 2f 19 ed 3d 33 80 de bd
       -0.10818167 -0.03751493 0.11577069 -0.10864296
000240 14 0f 4a bc d4 3f 09 3e 02 45 24 3e fb 43 0b 3e
       -0.0123326965 0.13403255 0.1604195 0.13600151
000250 34 81 de 3b 2c 24 77 3d 19 9a 1b 3c c9 68 af 3d
       0.0067903046 0.06033723 0.009497189 0.08564908
000260 b7 2d 50 3d 7f 2d f9 bd 7d 51 fb 3c 39 40 7b bd
       0.050824847 -0.12166881 0.030678505 -0.061340544
000270 e9 e1 0b bd 57 83 a2 bd 1e ad e9 3d f7 c2 3b 3d
       -0.03415099 -0.07935207 0.114099726 0.04584023
000280 27 81 af 3d 59 ec bf 3d 7f 1a 0a 3c e0 2d 07 3d
       0.08569556 0.093712516 0.008429169 0.033002734
000290 82 21 57 bd 7f d9 a0 3d d0 ee e2 3d dd e0 0f bd
       -0.05252219 0.07853984 0.11080706 -0.035126556
0002a0 51 9e cf bd 4c 97 c9 3d b1 2e 53 3d 67 50 2a bc
       -0.10137618 0.09843311 0.0515582 -0.010395146
0002b0 23 89 8e bc 61 5e ed 3c c1 92 60 3d a5 ab 91 bd
       -0.017399376 0.028975667 0.054827455 -0.07112817
0002c0 91 31 0b 3e dc dc 93 3c 53 51 da 3c 8c ff 25 3d
       0.13593127 0.01804965 0.026650107 0.04052691
0002d0 9d 23 70 bd 53 8e c7 bd e5 13 42 3c 91 89 0d bc
       -0.058627713 -0.09743943 0.011845564 -0.008638755
0002e0 fd 8c ed 3d 75 52 8b 3d c8 e4 8a 3c 36 1b 60 bd
       0.11599157 0.06802837 0.016954795 -0.05471345
0002f0 db 01 f3 3d 05 1b ef 3d 68 33 e8 bc 06 4a cd bc
       0.11865588 0.116750754 -0.028344825 -0.025059711
000300 e0 5d c9 bd dd ef 36 3d 83 dc a9 3d 9b 6b f9 bc
       -0.09832358 0.044662345 0.082940124 -0.030446818
000310 66 75 a3 bd e9 77 b6 bd a4 9d 1d bd 2b 34 98 3d
       -0.07981376 -0.0890959 -0.038480416 0.07431825
000320 88 da 1e bc e8 d3 a9 bd 34 f6 0c be bc f4 d2 bd
       -0.009695657 -0.08292371 -0.13765794 -0.10300586
000330 d7 fd cd 3d 96 e2 e8 3d 16 6a eb 3d 20 c7 17 3c
       0.10058182 0.11371343 0.11494844 0.009263784
000340 27 cf 61 bb 5b 00 90 bc 1f c9 50 bd 56 15 89 bd
       -0.0034455748 -0.017578295 -0.050973054 -0.06693523
000350 96 a5 f9 3d c8 11 29 3e e3 80 29 3e 2d f6 ee 3d
       0.12189786 0.1651069 0.16553073 0.11668048
000360 cc cc 42 3d 7c f1 f2 bb 9b b7 61 3c 47 5a 0e bd
       0.04755859 -0.007414041 0.013776685 -0.034754064
000370 27 83 a7 bd 82 a4 fd 3d 3f 5d 6e 3c 04 b0 0f bd
       -0.08179312 0.12384893 0.014548599 -0.03507997
000380 30 80 8c bd 65 6d 6b bc cc 58 e8 3d fd 01 f4 39
       -0.06860387 -0.014369343 0.11345062 0.00046540788
000390 5f 66 95 3d c4 2f 25 3e 22 dd dc 3d 3e cb 57 3d
       0.07294916 0.16131502 0.10784365 0.05268406
0003a0 c3 2a 8a 3d d6 2e cc 3c 70 5a c4 3d c1 47 c7 3d
       0.067464374 0.024924677 0.09587562 0.09730483
0003b0 c5 d5 e3 bd 2e b0 f4 bd 76 da b6 bd 67 ae e4 bd
       -0.11124758 -0.11947666 -0.08928387 -0.11166077
0003c0 4c 18 85 bd dc 07 1a 3d aa 19 46 bd e8 bf a4 bc
       -0.06498775 0.03760515 -0.04836432 -0.02011104
0003d0 39 90 4d 3d 48 4a 9d bd d6 36 46 3c 43 28 ba bd
       0.05018637 -0.07680184 0.012098035 -0.090897106
0003e0 70 c9 19 3c e1 0e a7 3c be 59 c6 3d 59 6d bb 3d
       0.009386405 0.020392837 0.09685086 0.09151716
0003f0 f2 3f 00 3d f8 d5 c5 3c d3 61 0e be bc 07 55 bd
       0.031310983 0.02414988 -0.13904504 -0.05200933

lstm.weight_hh_l0 f4 [256, 64]
000000 4c 17 c3 bb d4 d0 80 bd 79 14 72 3d 81 be 7b 3d
       -0.005953705 -0.06289831 0.059101555 0.061460976
000010 2d dd dc 3d 5a 26 50 bc 7b c3 ce 3d 72 87 40 3d
       0.107843734 -0.012704456 0.10095879 0.04700417
000020 10 5a 5b 3d a0 f2 97 bd 1d a0 09 3e 6b 68 91 3d
       0.053552687 -0.07419324 0.13439985 0.07099994
000030 e5 f5 9f 3d b5 e1 4f bd de 9c c5 bd ea f3 89 bc
       0.078105725 -0.05075236 -0.09649061 -0.01683994
000040 e0 e8 ec 3d de c5 8f bd fd d0 05 be cb 62 d6 3d
       0.11567855 -0.07020162 -0.13068004 0.10468062
000050 05 19 9e 3d 1f ba 55 bd d9 0d 20 bd 14 eb df bd
       0.07719616 -0.052179452 -0.039075706 -0.109335095
000060 69 57 18 3d fb 18 b2 bd 7e 1b e9 3c d5 0e 01 bd
       0.037192736 -0.08696171 0.028455492 -0.031508286
000070 3b ea 0a be 04 7a f1 bc 41 a8 c7 bd c8 f2 29 39
       -0.13565914 -0.029477127 -0.09748889 0.00016207539
000080 17 08 eb bb 6c 87 67 bd 07 84 e0 3d 60 69 68 3a
       -0.0071725952 -0.056525633 0.10962682 0.00088658
000090 c8 20 8f bd a9 7d f7 bc cf 81 9f 3d a6 25 22 bd
       -0.069886744 -0.030211287 0.07788431 -0.039586686
0000a0 ad b3 3d 3d 56 4b 50 3d 53 a3 85 3d 0d 69 47 ba
       0.04631393 0.050853096 0.06525292 -0.00076069013
0000b0 01 a0 58 3c 74 47 a9 bd bd c5 a1 bd bf e5 55 bd
       0.013221742 -0.08265582 -0.07899044 -0.052221056
0000c0 75 75 b7 3d c9 05 b0 bd 6c a2 7d 3d 80 22 b8 3d
       0.0895795 -0.085948534 0.061922476 0.08990955
0000d0 eb d3 db 3d 4c 62 22 bd 51 a3 2f bd 22 38 a5 3d
       0.107337795 -0.039644524 -0.04288036 0.08067347
0000e0 95 92 cd 3d fe 1d fa bd 58 81 4d 3c af 11 9c bd
       0.10037724 -0.12212752 0.012543045 -0.076205604
0000f0 e0 e4 22 3d 71 32 4c bc d9 34 c7 3c fa 95 cf 3d
       0.039769053 -0.012463198 0.024317192 0.10136028
000100 8b bd 5c bd da 5f 54 3d d4 b1 80 bd c5 d1 db 3d
       -0.0538917 0.051849224 -0.06283918 0.1073337
000110 51 b1 01 be 87 05 77 3d 51 45 84 3c 47 df ba bd
       -0.12665297 0.060308006 0.016146334 -0.09124618
000120 ff 5d aa bd 81 d9 85 3d 0f c6 dc bd cd c0 73 bd
       -0.083187096 0.06535626 -0.10779964 -0.05951004
000130 d2 18 dd 3d 85 63 b4 3a d5 16 34 3c dd 96 d8 bd
       0.1079575 0.0013762569 0.010991772 -0.1057565
000140 4c b2 81 bd 31 e9 03 3e 98 e4 7f bc 4d b3 9a 3d
       -0.063328356 0.12881924 -0.015618466 0.0755373
000150 f4 2a 5b 3c 6d e2 f8 3d 00 31 c2 3d a0 ba fb 3b
       0.01337694 0.12152562 0.09482002 0.0076821595
000160 9f e7 e9 3d 54 17 1f bd 19 3b 42 bd ce 92 8f 3d
       0.11421131 -0.038840607 -0.04741964 0.07010423
000170 0c 93 6a 3d 28 ff ae 3d 2e e6 19 3d 8d 0a b2 bd
       0.05726914 0.08544761 0.037573032 -0.08693419
000180 a0 35 06 bc 7c 76 07 3e 28 e5 e7 bc 0b d1 64 3b
       -0.008191496 0.13228792 -0.028307512 0.0034914638
000190 5e 2a 8d 3d 92 42 b9 3d f6 89 57 3d f8 d4 c3 bd
       0.068928465 0.090459004 0.052621804 -0.09562105
0001a0 11 48 4a 3c 9c 63 96 3c 56 86 e5 bc 37 4d bf 3d
       0.0123462835 0.018358044 -0.028018158 0.093408994
0001b0 1f 10 35 bd 82 e9 fe bd f1 40 c0 3c f9 7f d1 bd
       -0.044204827 -0.12446882 0.023468466 -0.10229487
0001c0 f7 f4 b1 bc ed ed 2a 3d 17 68 48 bd 4a 27 be 3c
       -0.021723254 0.04173081 -0.048927393 0.023212094
0001d0 12 e3 da bd b8 96 9f 3d 73 dc fd bd c0 e4 9a bd
       -0.106878415 0.07792419 -0.12395563 -0.07563162
0001e0 c7 5b 2b 3d 5a 03 ef 3c 8e 01 ba bd 83 2a 01 bc
       0.041835573 0.029176403 -0.09082328 -0.007883671
0001f0 30 fc a0 bd 78 77 a9 bd 2e ef bb 3d 9e 5c bf bd
       -0.07860601 -0.0827474 0.09176479 -0.09343837
000200 57 e4 8c b9 d5 1e fd bd 5b de 91 bc 5b bb d5 3d
       -0.00026873007 -0.12359396 -0.017806223 0.10436126
000210 c5 b4 c4 3c a3 7a 5e 3d f6 49 df bd ba 2c 5f bd
       0.024011979 0.054316174 -0.10902779 -0.054486014
000220 5c 5e cf 3d 1e b8 8f bd 77 92 eb bc 92 e3 e6 3d
       0.101254195 -0.070175394 -0.028756363 0.11273874
000230 f4 03 89 3d 04 3a 80 bd c8 53 a6 3a 93 69 a0 bb
       0.06690207 -0.062610656 0.0012689764 -0.004895398
000240 c8 70 fe 3d dd 85 50 3d 50 5e b8 3d 5c bd 7a 3d
       0.12423855 0.050908912 0.09002364 0.061215743
000250 25 3a 6f 3b d3 3f 00 be ce 64 cd bc ac b2 c0 bd
       0.0036503163 -0.12524347 -0.025072481 -0.09409079
000260 37 54 87 bd 9b 25 52 3d de 2d 69 bd 20 93 d6 3d
       -0.066078596 0.051305395 -0.056928508 0.104772806
000270 16 ab 82 3d b4 e8 8c 3d 80 0b 9e bd bd 8a d6 3d
       0.06380288 0.06880322 -0.07717037 0.10475681
000280 a5 f1 d2 bc 3d d8 a3 bd 3e c8 cd bc 24 11 af 3d
       -0.02574999 -0.080002286 -0.025119897 0.08548191
000290 dd 3b af bd d5 f5 92 3d 16 42 ab bc 69 36 89 3d
       -0.0855634 0.07175795 -0.020905536 0.06699831
0002a0 0c f5 5f bd 90 47 15 3d ab 35 cd 3d e6 fa 0a 3e
       -0.054677054 0.0364452 0.10020002 0.13572273
0002b0 94 2d 81 bd 77 d3 46 3d 6b c4 01 3d 4a 62 d8 bd
       -0.063075215 0.048541512 0.03168146 -0.10565622
0002c0 b1 61 a3 3d ca 10 60 3d c4 fa 86 3d 42 bc cc bd
       0.079776175 0.05470351 0.065907985 -0.09996845
0002d0 b7 6d fe bd 11 c1 5c bd 5c f4 21 3c 19 94 07 be
       -0.1242327 -0.05389506 0.00988492 -0.13240089
0002e0 81 25 0a 3e c3 55 d4 3d 66 a2 82 3d 3c 0e ee bc
       0.13490869 0.1036792 0.06378631 -0.029059522
0002f0 8c 51 05 3e cb 37 99 3d 8c 36 8a 3d d8 2e cc bd
       0.13019389 0.07481345 0.06748685 -0.09969872
000300 37 08 d1 bd 8d 68 7f 3c bc e3 cb 3c db 2e d3 bd
       -0.10206645 0.015588892 0.024888866 -0.10311671
000310 20 3a ae 3d 13 c2 03 3d 6f 94 96 3d f0 12 6f 3b
       0.0850718 0.032167505 0.0735253 0.0036479793
000320 72 7b ec bc 31 57 ef 3c 3a 34 9b 3d 65 ef b1 3d
       -0.028867457 0.02921638 0.07578321 0.08688239
000330 f5 f8 26 3d d4 9b bc 3d 35 db ba bd 41 c4 4e 3d
       0.040764768 0.09209409 -0.09123842 0.05048013
000340 0c 17 e6 bc 29 3a 80 3d e2 37 88 bd da 42 a0 bc
       -0.028087161 0.06261093 -0.06651284 -0.019563127
000350 4a 66 16 3e d2 a8 be bd fe fe 88 3c 3c d8 bf 3d
       0.14687458 -0.09309544 0.016723152 0.09367415
000360 05 95 d0 3c 03 d9 6a 3c e9 09 e9 3d de 4b b3 3b
       0.025461683 0.014333966 0.11378843 0.0054716906
000370 59 30 ed bc 2d 18 4b bd 66 34 e0 bd 4b 51 0a be
       -0.028953718 -0.049583603 -0.10947494 -0.13507573
000380 75 89 23 3d 20 bb 3c 3d 5f dd 1b be 42 e8 24 3b
       0.03992601 0.046076894 -0.15221165 0.002516285
000390 ab d9 ea bd 6e a0 d7 bb ac 26 2b 3b 44 bd 88 bb
       -0.11467298 -0.006580404 0.002611558 -0.004172953
0003a0 45 54 18 bd c4 14 48 bc 3f 69 f2 3c c1 99 0d 3c
       -0.03718974 -0.012211982 0.0295912 0.008642615
0003b0 4f e6 3c 3d 4b 46 2c 3d 4b 0d c2 bd 9d e1 e4 bd
       0.046118077 0.042059224 -0.09475192 -0.11175845
0003c0 0b dd 9c bd d1 8b 5a bd 7f 55 29 bd 9b f4 23 bd
       -0.07659348 -0.053355996 -0.0413413 -0.040028196
0003d0 e8 83 23 bd 87 f3 86 3d 83 2e cc bd d9 4b 4d bd
       -0.039920717 0.06589418 -0.09969809 -0.050121162
0003e0 dc ce cd 3d 7a e8 ba bc 7c 98 b8 bd 0d b0 eb 3d
       0.10049221 -0.022815932 -0.09013459 0.115081884
0003f0 eb cb bb bc 94 c7 d9 3d 19 bd 07 bd 31 06 93 3c
       -0.022924384 0.1063377 -0.033139322 0.017947288

lstm.bias_ih_l0 f4 [256]
000000 86 65 2a bd 3a 6b c1 3d a0 90 0c 3e f1 ec 83 bd
       -0.041600727 0.0944428 0.13727045 -0.06441677
000010 24 ac 00 bd 31 1d 81 bd 7b 15 b2 bd 80 25 3d 3c
       -0.031414166 -0.06304396 -0.08695503 0.011544585
000020 a9 d0 9d bd 1a 49 f1 bc 67 38 f5 bd ce 40 39 3d
       -0.077058144 -0.029453803 -0.119736485 0.04522782
000030 46 3a f3 3b 04 31 19 3e 92 6e 94 bd 99 9f 5e 3d
       0.007422718 0.14960104 -0.07247652 0.054351423
000040 a2 ea 09 3e 75 bd ad 3d f9 80 a6 bd d0 ae 46 bb
       0.13468412 0.08483402 -0.08130068 -0.0030316599
000050 be 3b 72 3d c0 23 31 3d f0 4d b3 bd e6 7a e9 bd
       0.059139006 0.043246984 -0.087551 -0.11400394
000060 85 31 d4 bb 5b 14 18 3d 38 03 a5 bd 04 de f4 3d
       -0.0064756298 0.037128787 -0.080572546 0.119564086
000070 53 91 81 3c a6 cc 93 bc 2d 16 1c 3e 08 d1 56 3d
       0.015816366 -0.01804192 0.15242834 0.05244544
000080 70 37 b4 bd 29 1f 4a bd 5c c8 84 bd 71 10 c3 3d
       -0.08799636 -0.049346123 -0.06483528 0.0952462
000090 aa f9 d0 3d f8 27 0b 3d b7 af ec bd ab fc ce bc
       0.1020387 0.033973664 -0.115569524 -0.025266966
0000a0 8d a7 7f bd e1 6b 55 3d eb 27 f0 3d f3 f9 9e 3c
       -0.06241565 0.052104834 0.11726364 0.019406294
0000b0 1d c2 9a 3d b9 12 64 3d a6 43 a8 3c 6f 3e 44 3d
       0.075565554 0.055681918 0.02054007 0.047911104
0000c0 10 a2 cd bd 70 1b 6c bd b4 42 8d 3d d1 bd be 3d
       -0.100406766 -0.057643354 0.06897488 0.09313548
0000d0 70 1c 95 bd 50 4e 15 bc e6 6b bf ba 0c 99 10 3c
       -0.07280815 -0.009112909 -0.00146043 0.008825552
0000e0 db b3 a3 bd ca 6e e4 3c 9e e6 bd bd d1 b8 d7 3d
       -0.07993289 0.02788486 -0.09272502 0.10533298
0000f0 4e fb bc bd ef 71 0d bd a2 81 81 bd 56 c1 f5 bd
       -0.0922762 -0.034532484 -0.063235536 -0.119997665
000100 25 03 b2 bc 32 42 d8 bd 7e e1 09 3e 9d 27 e8 3d
       -0.021730015 -0.10559501 0.13464925 0.11335681
000110 17 1e eb bb 21 24 f6 3d 31 ec 8a 3d 97 eb 1b bd
       -0.007175218 0.1201861 0.06783331 -0.038066473
000120 3c 37 b2 bc 29 a6 b3 3d 81 fc e8 3d 36 90 b2 3d
       -0.021754853 0.08771927 0.11376286 0.08718912
000130 fd ee be 3d c6 da 59 3c 2e ec 1d 3d c3 3f 8b 3d
       0.09322927 0.013296789 0.038555317 0.06799271
000140 81 28 98 bd 25 73 0d 3c 00 67 7f bd 1a db 10 be
       -0.074296005 0.00863341 -0.062354088 -0.1414608
000150 d7 8c de 3d 66 31 dd bd 74 38 61 bd 9b 1f a0 bd
       0.10866707 -0.10800438 -0.05498548 -0.07818528
000160 39 9b 74 bd 25 b0 f2 bd c4 2c 22 3d d8 9a 4b 3c
       -0.059718344 -0.11850003 0.039593473 0.012427054
000170 5e 01 d9 39 cb f9 3c 3d eb f3 8b 3c 22 9d c2 bc
       0.00041390484 0.04613666 0.017084083 -0.023756567
000180 8f eb 3a bd 5d 72 9a bd 4f 40 8c bd 98 39 be bd
       -0.045634802 -0.07541344 -0.068482034 -0.09288329
000190 1f 7e a3 bd ad 10 92 bc b0 32 f0 3d 3b 6e 22 bc
       -0.0798304 -0.017830217 0.11728418 -0.009913976
0001a0 21 09 cf bd d1 12 ff 3d 48 a1 18 bd c6 c1 8c bd
       -0.10109163 0.12454761 -0.037263185 -0.06872897
0001b0 e4 46 7f bd 12 4f e7 3d a4 f7 ff 3c a4 98 db 3d
       -0.062323466 0.11294378 0.031246014 0.10722473
0001c0 fa dd bd bd 3e 32 ba 3d db bf 8d bd 12 66 1a 3b
       -0.09270854 0.09091614 -0.06921359 0.0023559374
0001d0 b1 fa d3 bd e3 de bc bc 05 9d 11 bd ae 22 18 3d
       -0.1035055 -0.0230555 -0.035550136 0.037142448
0001e0 d7 8a b8 3b 58 02 b0 3d b3 82 fd bc b8 01 28 3d
       0.0056317854 0.08594197 -0.030946111 0.041017264
0001f0 d5 1a 50 bc 59 58 b1 bc e5 3d e1 bd 74 04 f8 bd
       -0.01270171 -0.021648573 -0.109981336 -0.12110224
000200 1f f8 a1 bd 6e d3 d6 bd 54 0f c9 3c 37 b8 2a bc
       -0.079086535 -0.10489546 0.024543442 -0.010419897
000210 df e4 7c bd 36 2f 2a bc ba 70 a7 bd 9d d0 1e bd
       -0.061741706 -0.0103872325 -0.08175798 -0.038773168
000220 33 01 d0 bd 08 94 de bd 33 10 e2 3d 3c 3f 51 3d
       -0.10156479 -0.108680785 0.11038246 0.051085696
000230 38 e5 6f 3d 7f d8 9a bd a7 8c 1c bc da 77 ef 3c
       0.05856821 -0.075608246 -0.0095550185 0.029231954
000240 18 9f ac bd 2f 69 84 bd 36 07 b5 bd 35 0a c4 3d
       -0.08428782 -0.06465375 -0.08839266 0.09572259
000250 21 cc bc bd af 74 b6 bd 21 a6 d2 bd 77 38 93 bc
       -0.09218622 -0.089089744 -0.10285593 -0.01797126
000260 a0 7e 2a 3d 6a 32 d9 bd b1 39 18 3d c7 da b4 bd
       0.041624665 -0.10605319 0.037164394 -0.08830791
000270 19 39 16 bd c8 76 46 bd 90 ac f6 bb d2 a1 ed 3d
       -0.036675546 -0.048453122 -0.0075278953 0.116031304
000280 be 36 cf 3a f3 73 52 3d 24 d1 aa 3b ea 85 67 3d
       0.0015809161 0.05138011 0.00521292 0.056524195
000290 91 ae 4c 3d 14 13 b8 bd 41 4d b7 3c a9 e2 0d bd
       0.049971167 -0.08988014 0.022375705 -0.034639988
0002a0 a5 60 ff bd 2e f6 d8 3d 43 bd a6 bd 39 a4 d3 3d
       -0.12469605 0.1059383 -0.081415676 0.10334057
0002b0 eb 7b ac bd 45 fc 2a 3d 41 4c e6 3c 26 20 c5 b9
       -0.08422073 0.04174449 0.028112533 -0.0003759872
0002c0 07 83 3e bd ac 24 c2 3d 01 c6 4a bd 63 a8 c5 bd
       -0.046511676 0.09479651 -0.049505237 -0.09651258
0002d0 e5 a3 3d 3c 21 10 e0 bd c7 23 72 bd 2e e1 7e bd
       0.01157472 -0.10940576 -0.05911615 -0.062226467
0002e0 1e 64 d6 3d 54 fe 3c bd 70 0d cd 3d 36 63 b4 bd
       0.104683146 -0.046140984 0.100123286 -0.088079855
0002f0 b3 49 b4 bd 7d ca 9b bd 4d 75 d2 3d 3f ba a6 bd
       -0.088031195 -0.07606981 0.102762796 -0.081409924
000300 23 57 a4 3c 1a 58 54 bd c0 97 19 bd 3f db a5 bd
       0.020061081 -0.051841833 -0.037498236 -0.080984585
000310 03 73 8a 3d f3 f4 7e 3d 4c c3 ac bd d9 4a 90 3d
       0.06760218 0.06224532 -0.084356874 0.07045526
000320 48 53 b3 3b 50 59 c3 b7 cb 6d 18 3d 1f 2d 8b bd
       0.0054725744 -2.32874e-05 0.03721408 -0.067957155
000330 f7 e2 b2 3d 3b df 91 bd 00 36 c4 3d 9f ed 3d bd
       0.08734696 -0.07122656 0.09580612 -0.04636919
000340 af 7a fa 3d a5 02 58 3d 8b c9 de 3a a5 8c a0 3d
       0.12230431 0.052736897 0.001699732 0.07839326
000350 93 3d 12 bd 75 c0 df bd a0 96 b0 3d f0 3d d8 3d
       -0.035703253 -0.1092538 0.086224794 0.10558689
000360 8a 5a 5f 3d 4f 6a 01 3e 04 b3 c3 3d 65 64 8a 3d
       0.054529704 0.1263821 0.09555629 0.0675743
000370 78 ef 21 bd c8 fb 50 3d 59 2e 09 3d fb 12 99 3d
       -0.039535016 0.051021367 0.033491466 0.07474323
000380 44 91 e1 3c 7a c6 9d 3d ba 85 03 3d 12 f4 38 bd
       0.027535088 0.07703872 0.032109953 -0.04515464
000390 fc ca f1 bc 76 8f 16 3d 6e 63 bf 3d b8 dd 6c 3d
       -0.029515736 0.03675791 0.093451366 0.057828635
0003a0 f2 8e 27 3d e5 a0 97 bd 7d 68 c3 3c 62 64 d3 3d
       0.040907808 -0.07403735 0.023853535 0.10321881
0003b0 f4 9a 60 bd b8 b0 c1 3d b0 dc 44 bd 86 57 05 3e
       -0.054835275 0.094575346 -0.048062027 0.13021669
0003c0 70 22 e5 bd aa 02 c9 bc 7e 43 da 3d 46 89 91 bd
       -0.11188209 -0.024537403 0.10657404 -0.07106261
0003d0 d3 cf ed bd 8e c9 25 3e 82 14 e6 bd b0 bd 24 bd
       -0.11611905 0.16190168 -0.1123438 -0.040219963
0003e0 ac 64 db bd 0a 0c ca 3a b4 7a 8f 3d bb a1 b3 3d
       -0.10712561 0.0015414965 0.07005826 0.08771082
0003f0 95 97 70 3d 1c d1 28 bd 29 cb 87 bd 35 97 8a bd
       0.05873831 -0.041215047 -0.066305466 -0.06767122

lstm.bias_hh_l0 f4 [256]
000000 42 4e c5 bd 1c c1 bf bd 31 22 9d bc e5 13 50 3c
       -0.09634067 -0.093630046 -0.019181343 0.012700056
000010 43 0a 91 bd 58 80 28 3d 63 1f 63 bd fe 37 16 3e
       -0.070820354 0.041138023 -0.055449855 0.14669797
000020 6d 7c 22 3d 90 5c f5 3d 14 7c 97 bd 15 a7 9f 3c
       0.039669443 0.119805455 -0.07396713 0.01948885
000030 c9 ca 18 3d c5 d6 06 3c a0 ad 7d 3b 8b 30 08 bc
       0.037302766 0.008229916 0.0038708225 -0.008312355
000040 22 87 82 bc ab 5d 9f bd f7 ab ef bc 51 ba 1b bc
       -0.015933577 -0.077815376 -0.029256804 -0.0095048705
000050 1a 09 bc 3c 04 a0 d4 bd 79 10 31 3d a0 dc c7 3d
       0.022953559 -0.10382083 0.0432286 0.09758878
000060 b9 5f a9 bd e2 5b 00 3c 12 5b fd 3d 71 9e c4 3d
       -0.08270211 0.007834407 0.12370886 0.09600533
000070 19 2e 26 bd 35 34 2e bd f0 7c d0 3d e6 d2 c4 3d
       -0.040571306 -0.042530257 0.1018008 0.09610538
000080 f4 e4 49 bd 02 44 70 bc 66 c1 c9 bd 28 da 69 bd
       -0.049290612 -0.014664652 -0.09851341 -0.057092816
000090 e4 d4 b0 3d ae 99 a9 3d 59 c0 c3 3d 45 79 bf bd
       0.08634356 0.08281265 0.09558172 -0.09349302
0000a0 18 b1 a1 3d 49 80 89 3c 61 bf db bd 9e cb 22 3d
       0.07895106 0.016784804 -0.10729862 0.039744966
0000b0 ad 78 eb bc 1b 8d ec 3c c6 4a 99 bb 15 17 37 bb
       -0.028744066 0.028875878 -0.004678103 -0.0027937342
0000c0 c4 96 0e bb 4e 88 0f bc 73 9d 8e 3a 57 25 d5 3d
       -0.0021757344 -0.008760525 0.0010880664 0.10407513
0000d0 2a 49 69 3d 56 4c 16 3e 43 f4 fe bc 98 12 8e 3d
       0.05695454 0.14677557 -0.031122332 0.0693714
0000e0 73 05 70 3d 95 1f f3 3d 7e 20 9d bd cb 3a 74 bd
       0.058598947 0.11871258 -0.07672213 -0.05962638
0000f0 96 2a 85 bd 3e be d5 bc 3e cb f1 bd 86 a4 7a bd
       -0.06502263 -0.026091691 -0.118063435 -0.061192058
000100 36 de b1 bd 70 fe ac 3d c0 5a fa 3d c8 e9 88 3b
       -0.086849615 0.084469676 0.122243404 0.0041782595
000110 26 a8 50 3c 29 e8 e0 3d 2b 4c db bd e3 37 9b bd
       0.012735402 0.10981781 -0.10707887 -0.07579019
000120 23 7d 33 3d bc c0 9c bd ea 4c 44 3c 41 de 82 bd
       0.04382051 -0.07653949 0.011981228 -0.06390048
000130 af 25 92 bd 11 23 bc 3b 22 65 c1 3d b4 96 13 3e
       -0.07136094 0.005741485 0.09443118 0.14412957
000140 98 26 e4 3b 04 ac 93 3d 32 a9 a7 3c 58 dc 01 bc
       0.0069626085 0.07210544 0.02046642 -0.007926069
000150 48 65 9e 3d 1a 74 d2 3d 73 ad 22 3e ad aa a7 bd
       0.077341616 0.10276051 0.15886478 -0.08186851
000160 6d 72 8e bd 45 18 c7 bd 7e 44 3d 3d fb c5 5f 3d
       -0.06955419 -0.09721426 0.046207897 0.05463217
000170 6d 2b b3 3d 60 f7 d5 3b 24 70 a9 bd f3 54 64 3c
       0.08748517 0.0065297335 -0.08273342 0.013936269
000180 8c c3 be 3d 99 22 08 3d 38 67 26 bd c8 8f 04 bd
       0.09314641 0.03323612 -0.04062578 -0.032363683
000190 0c f4 9c 3d af ae 94 bd 3e 91 2f 3d cd 5e cc bd
       0.07663736 -0.07259881 0.042863123 -0.09979019
0001a0 33 1a f9 3c 67 5e bb bd 98 d6 61 3d ec c2 f1 3d
       0.030408 -0.09148865 0.055136293 0.118047565
0001b0 76 d2 38 3d 76 0e 01 3d 38 e9 ca 3d 28 2f cf bc
       0.045122586 0.03150793 0.09907764 -0.02529104
0001c0 cc 20 18 bd 7c a9 1c 3d ff 15 38 3d 86 d6 b6 bd
       -0.037140653 0.03824757 0.044942852 -0.08927636
0001d0 b6 32 27 bd 29 17 1f bd 52 54 8a bd 46 7f 03 3d
       -0.040819846 -0.038840447 -0.06754364 0.0321038
0001e0 36 e3 86 bd b5 e2 e6 3d cc b0 ec 3d 8f 31 67 bb
       -0.06586306 0.1127371 0.11557159 -0.0035277342
0001f0 62 4f 91 3d b7 20 9f 3c 8c f7 ac 3c 98 29 c9 bc
       0.07095219 0.01942478 0.021114133 -0.024555966
000200 19 f9 fe bd 0e b3 b9 3d 20 34 cb 3d d8 31 94 bd
       -0.12449855 0.09067355 0.099220514 -0.072360694
000210 7f e5 96 bc 9f 8f ae 3d 74 3c 9a bd db 21 c1 3d
       -0.01841998 0.08523487 -0.07531062 0.094302855
000220 63 bf b1 bd 92 ab d5 3d 27 67 ef 3d 1c cc 64 bd
       -0.08679082 0.10433115 0.116895966 -0.055858716
000230 9c 68 36 3d 94 0e 30 bd 34 45 b1 bd a1 eb bb 3d
       0.044533357 -0.042982653 -0.086557776 0.09175802
000240 f5 ed 69 3c 39 1d d3 bd 0c a3 ea 3c 9a d2 a2 bc
       0.014277925 -0.10308308 0.0286422 -0.019875813
000250 11 4d 10 bd 28 9c 0a 3c 7f 70 87 3d 2f 34 94 bd
       -0.035229746 0.008460082 0.06613254 -0.07236516
000260 0d 9c ce bc 26 90 e7 3d c9 d6 8d bd d8 83 e8 bb
       -0.025220895 0.11306791 -0.06925733 -0.007095795
000270 8b 64 ba bd f3 c8 90 3d dd d0 e2 bd e0 cf 8b bd
       -0.09101208 0.07069578 -0.11074994 -0.068267584
000280 37 0a 2c bd 5b 2d 75 3c aa d0 d5 3d 92 c9 c3 3d
       -0.04200193 0.014964427 0.1044019 0.09559931
000290 eb af 8b 3d ed 36 df bc 2c 50 bc 3d 9d 3e 9d 3d
       0.06820663 -0.02724787 0.09194979 0.07677958
0002a0 6b 56 e9 bd 8f 14 df 3c 1d 8e 16 bd 63 3e fb bd
       -0.11393436 0.027231483 -0.036756624 -0.12267759
0002b0 66 0d 52 3d 78 ff 31 bd 69 f5 44 3d 5a 6f f5 3d
       0.05128231 -0.043456525 0.048085604 0.11984129
0002c0 8f b0 1f bd 9b f0 7c bb 0b c2 cd bc af 83 a3 3d
       -0.03898674 -0.003859556 -0.025116941 0.07984101
0002d0 35 14 bb bd 4d ee ce 3d 68 00 ab 39 2d 92 0f 3c
       -0.091347136 0.10104046 0.00032615964 0.008762878
0002e0 e3 8b 3e bd 7f 53 b8 bd 50 dc c6 3d 3d 9c 27 bd
       -0.046520125 -0.090003006 0.0970999 -0.040920485
0002f0 d9 51 6d bc 64 ec 71 3c 29 f1 2b 3d 0d 19 d5 bd
       -0.014484846 0.014765833 0.041978035 -0.10405169
000300 83 6c bb bd 92 8c 40 bd 72 26 70 bd cc 67 2e bc
       -0.09151556 -0.04700906 -0.058630414 -0.010644864
000310 9a 98 c9 bd bd bf 82 3c d8 a8 dd bd 89 dd ee 3d
       -0.098435596 0.015960569 -0.1082322 0.11663348
000320 a0 55 1e bd 5b df 4b 3d 39 3e 9e 3d 1a 66 5c bd
       -0.038655877 0.049773555 0.07726712 -0.05380831
000330 8b 94 98 bb a8 fc a8 3d 38 bb b3 3d 52 0a 3b bd
       -0.0046563796 0.08251315 0.087759435 -0.04566414
000340 5c 00 5f bc b8 47 24 bd ef 41 f2 3d 18 ab 96 3c
       -0.0136109255 -0.04010746 0.11828982 0.01839213
000350 d6 5e ac bd 63 6e ae 3d aa c6 c3 bb bd f9 de 3c
       -0.08416526 0.08517148 -0.0059746103 0.027218694
000360 e9 2f d3 bd 33 69 25 3b d2 c9 b1 3d c6 e0 c7 bb
       -0.103118725 0.0025239706 0.08681072 -0.006099793
000370 c2 35 9b 3d 46 1b ad 3c 61 dc 20 bd 67 a4 a8 bc
       0.07578613 0.021131169 -0.03927267 -0.020586206
000380 19 0c 26 bd 88 df e5 3d b4 1b a0 3b d8 a0 b6 3d
       -0.04053888 0.11224276 0.004886115 0.08917397
000390 e3 69 89 bd 74 e8 cf bd e2 dd 05 be c6 d3 c2 bd
       -0.067096494 -0.10151759 -0.13072923 -0.09513049
0003a0 68 7f 24 bc 77 f3 a0 3d 2f 72 00 bd 20 36 fb 3d
       -0.010040142 0.07858937 -0.031358894 0.12266183
0003b0 f6 ca 84 3d ab 6f 70 3d e2 1d dd bc ca 9d d7 bc
       0.06484024 0.058700245 -0.026991788 -0.026320357
0003c0 0c 08 ab 3c 0a 1d 6b bc e9 0b 06 3d 64 97 b5 bd
       0.02087786 -0.014350185 0.032726202 -0.08866766
0003d0 c7 dd b1 3d d7 f6 f6 3d 62 ac e9 3c 21 ff ca 3b
       0.08684879 0.120588 0.028524581 0.0061949645
0003e0 f1 cd 67 3c 7f f6 23 3e 4e 72 6d 3c 3c 33 03 ba
       0.014148221 0.16012 0.014492584 -0.0005004888
0003f0 5d 78 5c bc 54 2e 4c bd 38 a4 8e 3d 92 aa 7f bd
       -0.013456431 -0.04984887 0.06964916 -0.062418528

lstm.weight_ih_l0_reverse f4 [256, 4]
000000 8a ff 45 bd 18 b0 b1 bd a5 db e8 3d 85 18 d8 bc
       -0.048339404 -0.08676165 0.11370019 -0.02637888
000010 59 de 3f bb 09 c7 1a 3e 6a 34 33 3d 00 d5 7e bd
       -0.0029276817 0.15114988 0.043751158 -0.06221485
000020 24 93 9d 3c a1 74 da bd ae 10 7d 3d 83 f0 cf bd
       0.019235201 -0.106667764 0.061783485 -0.10153296
000030 cb 82 3e 3e d5 b5 2f 3e 7e d8 bc 3d 01 8f 4a 3e
       0.18604581 0.17159207 0.0922098 0.19781114
000040 63 b3 eb 3d bc a4 8f 3d 7a 02 c5 bc 91 47 0e 3e
       0.11508825 0.070138425 -0.024049032 0.13894488
000050 4a fb b8 3d 8c c5 12 be c1 51 4c bd b0 dc 61 bd
       0.090323046 -0.1433317 -0.049882654 -0.055142105
000060 39 f4 0a 3e 46 2d f2 3d 8d fe a4 bd 1b a4 3e 3d
       0.13569726 0.118250415 -0.08056364 0.046543222
000070 70 42 29 bd 2f f4 47 bc 09 b9 88 3c f6 31 b4 3d
       -0.041323125 -0.012204214 0.016689794 0.08798592
000080 cb c4 5c 3d 6c de 0a bd 48 fb 16 3d de 9b 8c bd
       0.053898614 -0.033903524 0.036860734 -0.06865667
000090 5b 70 d3 bd e3 4e 90 3d 52 1d b3 3d c9 2e 7f bd
       -0.103241645 0.070462964 0.08745827 -0.062300477
0000a0 42 0e c9 3d 8c 6c 86 bd e1 13 fd bd 27 af c2 bc
       0.098171726 -0.065636724 -0.12357307 -0.02376516
0000b0 a4 24 d9 bb cc 49 d9 3d f7 96 b1 3d fe 4b 6c 3c
       -0.0066266824 0.10609779 0.086713724 0.014422415
0000c0 48 d9 b6 bd 62 47 6e 3d 55 00 07 3b 27 3d 5b 3d
       -0.08928162 0.058173545 0.0020599563 0.053525116
0000d0 8e 81 ed 3d 9a 68 9c bd 2f b7 32 3a 73 e5 b7 bd
       0.11596976 -0.07637139 0.00068174576 -0.08979311
0000e0 c1 30 fe 3d 77 5d 7f 3c 1f 65 60 bd c9 65 88 3d
       0.12411643 0.015586249 -0.054783937 0.06660039
0000f0 7a 13 b6 bd ac 96 e9 3d 23 c4 07 3e 3c 79 42 bd
       -0.088904336 0.114056915 0.13258414 -0.0474789
000100 83 05 9d bd bf 46 ab bd d2 3c b1 3d 7d 72 43 bd
       -0.07667067 -0.08363103 0.08654179 -0.047716606
000110 6c 6a fc 3c e2 bb db 3d 34 1d 31 bd d3 fa ae 3d
       0.030812465 0.10729195 -0.04324074 0.08543935
000120 10 36 7e 3d 3b d6 86 bd 80 4d 05 be 8c 47 8e 3d
       0.062063277 -0.0658383 -0.13017845 0.0694724
000130 b2 f6 fc 3d 75 fe 46 3d 9c dc b9 3d 26 7a 92 bc
       0.12351741 0.048582513 0.09075281 -0.01788051
000140 25 d5 2a 3e 56 b5 18 3e 49 dc 18 bd fd 3c 5c 3d
       0.1668287 0.14912924 -0.037319455 0.0537691
000150 11 90 5b 3c 84 f9 22 3e d9 1e cd 3d f7 ac 5f bd
       0.013401047 0.15915495 0.10015649 -0.05460831
000160 0c 70 72 3d 73 1a bb 3c 15 1b f9 3d ae c8 81 3d
       0.059188887 0.02283976 0.121633686 0.06337105
000170 3c 6c 1f 3d 07 41 35 3d 36 21 48 bd 22 75 c1 bd
       0.03892158 0.044251468 -0.048859797 -0.094461694
000180 9d 85 04 be 66 6e d3 bd ff 91 02 3d 6e 8a 09 bd
       -0.12941594 -0.10323791 0.031877514 -0.033579282
000190 14 41 09 3e 2e ac 18 3e 1d 63 3e 3d 7c 74 7d bd
       0.13403732 0.14909431 0.04648124 -0.061878666
0001a0 d7 34 8c 3c c1 e9 f8 3d 8c 97 e3 3d 0f 4a ae bd
       0.01711504 0.1215396 0.1111289 -0.08510219
0001b0 c4 3c 33 bd f6 13 2d bd b0 ae 94 bc 84 f6 8b 3d
       -0.043759122 -0.042255364 -0.018149704 0.068341285
0001c0 6e c4 0c 3d 6b 3a 0f 3e 07 7e c1 bc 70 f9 f6 3d
       0.034367017 0.13987128 -0.023619665 0.12059295
0001d0 f3 29 58 bd 45 5f c2 3d 7d 7a 0a 3d 03 d5 86 bd
       -0.05277438 0.094908275 0.03380822 -0.065835975
0001e0 cf f2 98 bd 0c 63 64 bd 89 ad d1 bd 24 09 96 bd
       -0.07468187 -0.05575852 -0.10238177 -0.07325962
0001f0 5e d4 f8 3c da 07 14 3e 88 e9 12 3d 00 57 94 3d
       0.030374702 0.1445612 0.035867244 0.072431564
000200 7d 65 fc 3d b9 e1 82 3d 02 dc 38 3d fd 99 de 3d
       0.12324045 0.063907094 0.04513169 0.10869215
000210 b4 1a 81 bd 81 e7 ec 3d f7 ac 06 be a6 5d d2 3b
       -0.06303921 0.11567593 -0.13151918 0.006419855
000220 48 63 46 bd 66 b1 b1 3d e1 76 07 3d 08 c7 7d 3d
       -0.048434526 0.08676414 0.033072356 0.06195739
000230 17 1b fd 3d 4f 34 de 3d 5f 7b 2e be e8 29 0d 3e
       0.123586826 0.10849821 -0.1703925 0.13785517
000240 de 15 cc 3b 61 a7 28 3c e5 95 7e 3d c0 64 5a bd
       0.0062281927 0.0102938125 0.06215467 -0.05331874
000250 30 a1 13 3e c2 5f c5 bd 86 ab 2a bd ba cc 0d be
       0.14416957 -0.09637405 -0.041667484 -0.13847628
000260 9c 72 9a bb c2 b5 01 bc bc 52 5c bd 44 43 64 3d
       -0.0047133695 -0.00791687 -0.05378984 0.055728212
000270 94 fb b8 bb 5f 8f d4 3d 53 8a e0 3d e3 dd 8c 3c
       -0.005645225 0.10378908 0.10963883 0.017195648
000280 50 45 d7 3d 2e 82 07 3e e2 32 26 3d ed 7c 54 3d
       0.10511267 0.13233253 0.04057587 0.05187695
000290 aa 2c 74 bd b7 19 2c 3d 98 3b 45 bb d2 0d 02 3d
       -0.059612907 0.04201671 -0.0030095335 0.03175146
0002a0 8e 0f 22 bc f5 2d aa 3c 47 0c 03 be 84 18 64 3d
       -0.009891404 0.020773867 -0.12797652 0.055687442
0002b0 75 e9 9b 3d 76 b4 e7 3a 66 1b 57 3d c4 2e 43 bc
       0.07612888 0.0017677683 0.052516364 -0.011913005
0002c0 a8 c0 1a bd af c9 5a 3d 97 1b 99 3d 75 b7 ae bd
       -0.037781388 0.053414997 0.074759655 -0.085310854
0002d0 0e a3 b3 bc 3f 9f c0 3d 85 fa ab 3d 1a 67 bf 3d
       -0.021928336 0.09405374 0.08397392 0.09345837
0002e0 eb 45 8d bd 0c e6 e0 3d 3b d3 8a bc c5 26 46 bd
       -0.068981014 0.10981378 -0.016946426 -0.048376817
0002f0 23 9e ea 3d 65 0f fa 3d 37 04 b8 3d 1b be 8d b9
       0.114559434 0.122099675 0.08985179 -0.00027035255
000300 f9 bf ca 3d b3 7d 8c 3d ab 93 02 3e 41 7b cc 3d
       0.09899897 0.06859913 0.12751643 0.09984446
000310 d4 52 8d 3d cb fd ed ba e3 68 28 be 8d 13 5c 3d
       0.06900564 -0.0018157301 -0.16446261 0.053729583
000320 89 b4 28 bd 1a 01 8e 3c 70 06 10 3e 7e fa da bd
       -0.041187797 0.01733451 0.14064956 -0.10692309
000330 2a 72 08 3e 5b ff 3a 3d 49 81 82 3d 68 a4 3c bd
       0.133248 0.045653682 0.063723154 -0.046055228
000340 01 ff 89 bd 16 75 e1 3d 2b 33 ff 3d 94 47 2e bd
       -0.06738091 0.110086605 0.124609314 -0.04254873
000350 31 df b5 bd 53 87 c5 3d 4a 8a 5f bd cd 90 04 3e
       -0.08880461 0.09644952 -0.054575242 0.12945862
000360 7a 46 35 bd 76 37 99 bc 38 08 93 3d 72 67 da bc
       -0.044256665 -0.018703204 0.07179302 -0.026660655
000370 29 f8 ef 3d 6b 94 43 3c cb 64 07 ba bd 82 f5 3d
       0.11717255 0.011937241 -0.00051648606 0.11987827
000380 83 92 df 3d 41 21 8c bc 04 a0 44 be 20 25 b3 3d
       0.10916617 -0.0171057 -0.19201666 0.087473154
000390 3e 4e 7e ba e9 83 96 bd 38 43 bd 3d 63 3a 80 bc
       -0.000970099 -0.073493786 0.092413366 -0.015652841
0003a0 c8 39 88 3d 1d 48 36 3a 2a 86 e8 3c 83 36 5a 3d
       0.06651646 0.0006953495 0.028384287 0.053274643
0003b0 37 50 fd 3d 07 02 cc 3d b4 5f e0 3c 57 07 b1 bc
       0.123688154 0.09961324 0.027389385 -0.021609945
0003c0 81 70 9c 3d 80 b9 16 3e b2 0a ed 3d 59 9c f8 3d
       0.07638646 0.147192 0.115743056 0.12139196
0003d0 6c 49 c0 bc 53 1b b9 3c 2f 7c b6 bd ad d5 51 3d
       -0.02347251 0.022596037 -0.08910405 0.051229168
0003e0 80 a3 7d 3d bf 6a 1b 3e f9 8a 2b 3d ec a8 f4 bc
       0.061923504 0.15177439 0.04188058 -0.029865704
0003f0 2e ae 03 3e 37 d5 a1 3d cd c1 a5 3d 35 a5 e5 3d
       0.12859413 0.07901996 0.08093605 0.11213151

lstm.weight_hh_l0_reverse f4 [256, 64]
000000 d9 af 42 bd 20 24 15 be 4c e2 fc bd b6 76 aa ba
       -0.047530983 -0.14564562 -0.1234785 -0.0013005349
000010 35 eb 4e bd 55 2c 62 3d 6c 5c b4 bd a5 4d b6 3c
       -0.05051728 0.05521806 -0.088066906 0.02225382
000020 24 02 26 3d b6 0d dd 3c a0 10 d6 3d 43 f3 71 3d
       0.040529385 0.026984077 0.1045239 0.059069883
000030 ee ca 98 3d e5 58 b1 3d bb 36 4d bd 06 f5 bc 3d
       0.07460581 0.086595334 -0.050101023 0.09226422
000040 dd 3d f4 3d 64 21 e8 bc cd 90 da 3c f7 43 d4 bd
       0.11925862 -0.028336234 0.026680375 -0.10364526
000050 90 5e f5 bd 21 a8 1e bd 82 48 37 3d e3 29 3f bd
       -0.11980927 -0.03873456 0.044746883 -0.046670806
000060 5c 56 e0 3c 82 ef 09 be 85 21 95 3d 92 7d d3 bd
       0.02738493 -0.13470271 0.07281784 -0.10326685
000070 67 dd 7d 3d d9 95 c6 bc 6f 27 c1 bd e7 28 a1 bd
       0.061978724 -0.024241375 -0.094313495 -0.0786913
000080 76 ed e5 bd db bd 13 be ed f4 35 3d fb 08 27 3d
       -0.11226933 -0.14427893 0.044423033 0.04078005
000090 d8 13 e4 bd e2 7d a9 ba 7f eb a5 bc 6b 70 41 3d
       -0.111365974 -0.0012931193 -0.020253895 0.04722635
0000a0 19 9d 1d bd f0 09 e0 bb b0 93 d0 bd 2f 2a ca bd
       -0.038479898 -0.006837122 -0.10184419 -0.09871327
0000b0 df b2 01 3e 67 de 35 3d 11 f3 c5 3c b5 81 f1 3d
       0.1266589 0.044401553 0.024163755 0.11792318
0000c0 ae 6a 6d 3c 19 54 0e 3d 56 01 e1 3d c6 23 5c bd
       0.014490766 0.03474817 0.10986583 -0.053745054
0000d0 7b 42 de 3c 00 b0 74 3d da bd 60 3c e4 4f cc 3d
       0.02713131 0.05973816 0.013717139 0.099761754
0000e0 49 59 cc bc 3e fc 71 3d af 55 8c bc 87 ca 6a bd
       -0.024944918 0.059078448 -0.0171307 -0.05732205
0000f0 85 2e 4b bd 81 8d 2f bd 17 8e 0c bd d9 0d cb bd
       -0.04960491 -0.042859558 -0.034315195 -0.099147506
000100 26 5c 3f 3d 01 68 90 3d 08 b4 8b 3d ef 09 a5 bd
       0.04671874 0.07051087 0.068214476 -0.08058535
000110 76 5d 99 3d 65 e9 3b bd f2 04 d8 bd 46 07 d4 3b
       0.074885294 -0.04587688 -0.10547818 0.0064705936
000120 44 a4 fa bd 28 4a f3 3d 13 07 94 bd 7e 46 b2 3d
       -0.122383624 0.118793786 -0.07227912 0.087048516
000130 7c c4 79 bb 5c fa 89 bd 3a 47 88 bb 71 1e fd 3d
       -0.0038111499 -0.067372054 -0.0041588815 0.12359322
000140 2e ae 05 bd 18 57 ff bc 5a 4e 2e 3d e0 35 58 3d
       -0.032636814 -0.03116946 0.04255519 0.052785754
000150 84 e3 b1 bd a2 63 bd 3d 34 9b 47 3d ad b1 23 3c
       -0.08685973 0.09247519 0.048731998 0.009991092
000160 60 24 26 3d e1 7b e2 bd ff 1f ba 3c f4 1d b7 bb
       0.040562034 -0.11058784 0.022720335 -0.0055882875
000170 ae d2 9e bd c9 1d b8 3d 8e 71 2a bd e0 70 9f 3b
       -0.07755028 0.08990056 -0.0416122 0.0048657507
000180 42 a6 0d 3d ec 75 ca 3c 25 b0 9c bc 6c 18 af 3d
       0.034582384 0.024714433 -0.019126961 0.0854958
000190 79 16 f1 bd e5 18 a4 3b bf 66 23 be 55 ab de bc
       -0.117718644 0.0050078505 -0.15957163 -0.027181307
0001a0 8d 8d b9 bd 6e a7 a1 bd 5e 91 7a bd 98 78 cb bd
       -0.09060202 -0.07893263 -0.06117379 -0.09935111
0001b0 df f1 6f bd 85 13 c3 bd 45 b7 46 3d dd a8 4b 3d
       -0.058580276 -0.095252074 0.048514623 0.049721587
0001c0 ff 07 6d 3d 67 d0 d6 bd 51 20 c8 bd b8 84 f0 bd
       0.057868954 -0.10488968 -0.09771789 -0.11744064
0001d0 12 cb 13 bd e2 eb fb 3c 2d f2 91 3c e2 3a ac 3d
       -0.036082335 0.030752126 0.017815674 0.084096685
0001e0 c5 d7 31 3c 31 ea f5 3c 96 16 17 3d 53 88 ae 3d
       0.010854666 0.030018898 0.036886774 0.085220955
0001f0 12 22 87 3d 4f ad 7e bd 12 78 a2 bd 88 f1 b3 3b
       0.06598295 -0.062177 -0.07933058 0.0054914393
000200 75 e1 8a bd db 99 3f bd 6a 2d b0 3d 0b 0f ca bd
       -0.06781284 -0.046777587 0.08602412 -0.098661505
000210 c6 83 d9 3d 5a c1 94 bd 31 f8 89 bd 79 af 68 3d
       0.10620837 -0.072634414 -0.06736792 0.05680797
000220 56 30 ea bd 4c 7e 54 bd 5d c3 21 3c ae f8 a6 3d
       -0.114350006 -0.05187826 0.009873238 0.08152901
000230 8c 19 f8 3d 57 0f c2 3d a7 4e 19 bc 67 44 12 bd
       0.12114248 0.09475582 -0.009357131 -0.035709765
000240 e3 4d dc 3d 70 67 b5 bd af eb 1a 3d 55 9b cc 3d
       0.10757043 -0.0885762 0.03782242 0.09990565
000250 96 1f ec 3d a9 70 2e bd 56 d4 11 bc f4 54 e5 bd
       0.11529462 -0.04258791 -0.0089007225 -0.11197844
000260 ca 70 04 be ed 35 e5 3d 4b 13 5f bd fc b3 3d 3c
       -0.1293365 0.11191926 -0.05446176 0.011578556
000270 cf 88 02 bd d0 2f 52 3d 15 5a dd 3d eb 7d 8d bd
       -0.031868752 0.05131513 0.108081974 -0.069087826
000280 a1 12 cc 3d 66 8c 12 bd 84 87 f9 3d 68 79 87 3d
       0.09964491 -0.035778426 0.12184051 0.06614953
000290 03 65 e4 bd e0 e6 97 3d 23 3f 9f 3d fd e8 d7 bc
       -0.11152079 0.07417083 0.07775714 -0.026356215
0002a0 be 38 31 bc 85 31 84 38 24 1f 20 3d e5 e1 8a 3c
       -0.010816751 6.303474e-05 0.039092198 0.016953418
0002b0 93 18 69 bd fb 86 b6 3d 87 0c cd 3d 5b 77 06 3d
       -0.0569082 0.08912464 0.10012155 0.03282867
0002c0 4b 9c 58 3d 0c fb 83 bd b5 53 82 bd 20 2f 64 bc
       0.052883428 -0.06444368 -0.06363622 -0.013927251
0002d0 f2 40 3f bd 02 07 1f bd 10 5e bf bd 82 73 d8 bd
       -0.046692796 -0.038825043 -0.09344113 -0.10568906
0002e0 3f b5 fc 3d 5f e8 89 bd 26 3c b1 3c 01 3f f7 3d
       0.123392574 -0.067337744 0.021635126 0.12072564
0002f0 5b ac 82 3d df a5 22 bb 62 ac c3 3d d3 65 fd bd
       0.063805304 -0.0024818105 0.09554364 -0.12372937
000300 02 65 ad 3b cf ac 63 bc ee 4a 56 bd ae dc c0 3c
       0.005291582 -0.013896181 -0.052317552 0.023542728
000310 81 78 d7 bd 2f 1f e6 3d ea 68 d9 bd 4f ff c0 3d
       -0.10521031 0.112364165 -0.10615714 0.09423696
000320 79 3e 9f 3a e8 b8 3d bd 6f 12 6c bd aa 26 bf 3d
       0.0012149356 -0.04631892 -0.057634767 0.093335465
000330 27 3c 91 3d 81 e2 55 ba aa 50 ed bd e1 45 85 bd
       0.07091551 -0.0008159057 -0.11587651 -0.06507469
000340 ce 6f fc bd 39 c8 a4 bd b6 6c 01 be 14 b9 57 3d
       -0.123260126 -0.08046002 -0.12639126 0.05266674
000350 cd 9a 08 3a a9 82 0a bc b7 78 a5 bd 33 45 d0 3d
       0.00052110554 -0.008454003 -0.08079665 0.10169449
000360 5c 20 b0 3d d4 9f 98 bd 4d d0 1b 3d 5e d6 17 3b
       0.08599922 -0.0745236 0.038040448 0.0023168544
000370 75 7a bf 3d 5d 98 a1 bd 85 26 92 3d 2e 13 e4 3c
       0.09349529 -0.07890389 0.07136253 0.027841177
000380 04 be 80 3c 51 7c 19 3d ab b4 eb bd da 98 da bd
       0.015715607 0.037472073 -0.11509069 -0.10673685
000390 da 1b e6 bd 5c 8b 63 bc b6 46 00 3c 09 67 d8 bd
       -0.11235781 -0.013888206 0.007829359 -0.105665274
0003a0 76 af 90 bd 3b 74 e2 bc 1a 6e 73 3d a6 5b 2b bc
       -0.070647165 -0.027643314 0.059431173 -0.010458862
0003b0 24 51 bb bc f3 41 23 3d 71 8a 9b 3d 24 d9 c2 3c
       -0.02286584 0.039857816 0.07594765 0.023785181
0003c0 53 e8 9b bd db 25 d4 3d 87 c8 67 bd 96 98 8d 3d
       -0.07612672 0.10358783 -0.056587722 0.06913869
0003d0 f5 f6 7f 3d 00 bb 47 3d 10 c8 54 3d 23 74 ad bb
       0.062491376 0.04876232 0.051948607 -0.0052933856
0003e0 ad 30 19 3d 5d ae f2 bd a4 76 bb 3d 46 ed b2 3d
       0.037399936 -0.118496634 0.09153488 0.087366626
0003f0 aa 68 54 bb 8d 98 f2 bb 44 b0 d3 3d 91 9a ae bd
       -0.0032411017 -0.0074034394 0.103363544 -0.08525575

lstm.bias_ih_l0_reverse f4 [256]
000000 ca d4 ea bc 15 0a c8 3d fa 74 a8 3d aa e4 3a 3e
       -0.028665919 0.09767548 0.082254365 0.18251291
000010 f5 92 26 3d fe 1c 91 3d bf cf ba 3d ca c8 89 bd
       0.040667493 0.07085608 0.09121656 -0.067277506
000020 e5 87 64 3d 4a 0b 48 3d 2d ee 12 bd 11 4a 04 3e
       0.05579366 0.04883889 -0.035871673 0.12918879
000030 17 c8 a2 bd 63 71 1c 3d a5 3a 55 bc a3 95 d0 bd
       -0.0794832 0.03819407 -0.01301447 -0.10184791
000040 84 05 38 3d d2 49 b4 3d 73 a6 b5 3d f0 42 fa 3d
       0.044927135 0.088031426 0.08869638 0.122197986
000050 b0 b8 e6 3d 46 10 10 3d 30 24 9a bd 1f 19 f3 3d
       0.11265695 0.03517177 -0.075264335 0.11870026
000060 cd 37 ef bd 33 13 f7 bc 11 0c 09 bd ac d9 de 3d
       -0.11680565 -0.030160522 -0.033458773 0.10881361
000070 76 28 00 bd ea 8f 47 bd 01 a0 4d 3d be 7a aa 3b
       -0.031288587 -0.04872123 0.05020142 0.0052026203
000080 c5 4a 38 bd 40 8f 8f 3d 51 a3 ab bd 95 35 92 bc
       -0.04499318 0.07009745 -0.083807595 -0.017847816
000090 e4 93 cf 3c 64 be a1 bd 4b 2b 66 3d b2 18 69 3d
       0.025339074 -0.07897642 0.05619363 0.056908317
0000a0 81 e0 15 bd 16 56 85 3c 33 59 d4 3d 89 e9 78 3d
       -0.036591057 0.0162764 0.10368576 0.06076959
0000b0 01 cf c4 bd a6 49 17 bc 60 6f 8b 3d ff ca 18 3e
       -0.09609795 -0.009233868 0.068083525 0.14921187
0000c0 90 84 3b 3d da 84 47 bd be 92 ed bd 73 a6 0d 3d
       0.04578072 -0.04871068 -0.116002545 0.034582566
0000d0 da 8a a2 bc 57 67 9c 3d d4 b9 5e bd d4 cc 95 bd
       -0.0198416 0.07636898 -0.05437644 -0.073144585
0000e0 ba a0 5a 3d 66 62 3a 3c 10 82 97 3d 87 9b af bc
       0.053375937 0.011375999 0.07397854 -0.021436466
0000f0 07 34 ed 3d 35 e9 50 bd 5a 6a ca bd b0 2a 9d bd
       0.11582189 -0.051003654 -0.09883566 -0.076741576
000100 41 68 1e 3d fc 97 b7 3d ee f8 24 3c 2e 11 88 bd
       0.038673643 0.089645356 0.010069115 -0.06643902
000110 f6 3f 89 3a e5 e1 f7 3d bf bf 50 bd c6 d9 93 bd
       0.0010471332 0.12103633 -0.050964113 -0.07219271
000120 b5 e8 e4 bc 1e a2 38 bc 35 48 3e bd 95 3d 5f 3d
       -0.027942995 -0.0112691205 -0.04645558 0.05450209
000130 db aa de 3c c5 df e5 3d af d9 3d bd 7b cb 3c bc
       0.02718108 0.11224321 -0.046350177 -0.011523123
000140 15 1a 4b 3d 8d 05 4c bd 63 0d 43 bd 39 5b 11 3e
       0.04958542 -0.04980998 -0.04762019 0.14194955
000150 43 ad 8c 3d f5 38 8d 3d 1e f3 d4 3c 6b 08 bc 3d
       0.068689846 0.06895629 0.025994834 0.09181293
000160 e4 11 5a 3d 1c 01 36 bd 9f f2 35 bc 96 42 0b 3e
       0.053239718 -0.04443465 -0.011105209 0.1359962
000170 cb f9 07 3d 13 e4 1e 3d 66 fc a9 bd a7 82 23 3c
       0.033197206 0.038791727 -0.08300094 0.00997988
000180 fc e9 1d 3e ac 95 bb 39 41 2d ef 3d c8 b9 18 3e
       0.15421289 0.00035778934 0.116785534 0.1491462
000190 5c c2 e0 3d c3 b4 ee 3d 19 3c 22 3e 72 ee d8 bd
       0.10974571 0.11655571 0.15843238 -0.10592355
0001a0 57 88 04 3d cf 58 da 3d a5 e3 1c 3e 0d 66 f0 bd
       0.032356586 0.1066147 0.15321214 -0.11738215
0001b0 3b 75 94 3d ca a8 a5 bc 96 a6 b1 3d c9 ae d4 3b
       0.072489224 -0.020222086 0.08674352 0.0064905626
0001c0 89 1c 7d bd f7 10 2a 3d db 19 48 bd 55 50 ed 3d
       -0.06179479 0.041520085 -0.048852783 0.11587588
0001d0 0c a6 9e 3d 17 62 3c bd fd 8c 4c 3d 04 96 4b 3d
       0.07746515 -0.045991983 0.049939144 0.049703613
0001e0 6f 3c 33 3d 4b a1 9b 3d 11 51 ea 3d c7 89 a5 3d
       0.043758806 0.075991236 0.114412434 0.080829196
0001f0 94 ad cf 3d 20 e0 03 3d 48 78 af bc 06 ae 92 3d
       0.10140529 0.032196164 -0.02141966 0.071620986
000200 4e fe c8 3d bf 80 9b bd be 81 9c 3d 00 63 5a 3b
       0.0981413 -0.07592916 0.07641934 0.0033323169
000210 10 47 a3 3c c3 25 76 bd 75 e6 d7 bd 9a f3 60 3d
       0.019931346 -0.060094606 -0.10542003 0.054919817
000220 8d b8 e5 3c b1 59 a4 bd 3b 00 8f bd c0 b5 85 bc
       0.028042102 -0.0802492 -0.06982466 -0.016322017
000230 c1 32 01 bd a3 5f ed 3c 0a d4 e1 bd 65 1d 4c bd
       -0.031542543 0.028976267 -0.11026771 -0.04983272
000240 bf 5d a4 bd de 7a 67 bd 60 2e 41 3d 4e 4c a4 3a
       -0.08025693 -0.05651366 0.047163367 0.0012534948
000250 a6 16 e1 3d e2 86 1b 3b 0e c0 1f bc a2 cd 9a bc
       0.10990648 0.002373152 -0.009750379 -0.018896881
000260 4f 25 31 3d 50 1a 82 3d ca d9 87 bc 6d a6 b4 3c
       0.04324847 0.06352675 -0.016583342 0.022052014
000270 0e c5 62 bd bb 43 b4 bd 52 86 d8 3d cc 39 1d bb
       -0.055363707 -0.08801981 0.105724946 -0.0023990748
000280 df c2 ca 3d 82 c5 65 3d c0 a2 ca bd 4f cf 70 bd
       0.0990045 0.05609656 -0.09894323 -0.058791455
000290 8b eb 8f 3d 13 13 dc bd 97 e7 06 3d f3 ae 93 bd
       0.07027348 -0.107458256 0.032935705 -0.07211103
0002a0 f7 00 49 bd 64 2a 26 bd 20 4f 80 bb 20 94 e2 bd
       -0.049073186 -0.04056777 -0.0039156824 -0.11063409
0002b0 10 e3 b1 bc 08 b4 91 3c 8c 80 48 3c fd ad b5 bd
       -0.021714717 0.01778604 0.012237679 -0.08871076
0002c0 0a 4e 60 bd 00 4c eb 3d de 39 24 bd 86 af b5 3d
       -0.054761924 0.11489105 -0.04009425 0.08871369
0002d0 50 3a 27 bd 6a 96 3d 3d 09 09 c4 3d 1c d9 53 3d
       -0.040827096 0.046286024 0.09572036 0.051720724
0002e0 93 7e da bd c9 e7 df bd 79 d5 4c 3d e2 03 e1 bd
       -0.10668673 -0.109328814 0.05000827 -0.10987069
0002f0 b4 0d be 3c 17 82 db bd 18 58 da 3c 2c f6 2b 3d
       0.023199894 -0.10718172 0.026653334 0.041982815
000300 4c 82 7a 3c 4b ef 45 3c 62 26 0f 3d ae 57 af 3d
       0.015289854 0.012080978 0.034948714 0.085616454
000310 2e 25 b7 3a 12 94 f2 3c 51 6f a5 3d e2 07 16 bc
       0.0013972872 0.029611621 0.080778725 -0.009157153
000320 12 25 23 3c e4 3d 03 3e 29 6d d9 3d cc 67 95 3d
       0.009957569 0.12816578 0.10616524 0.07295188
000330 55 00 cc 3d 58 ad 08 3d 84 0f 19 3e 9d 27 fc 3d
       0.09961001 0.03336844 0.14947325 0.12312243
000340 87 7e 03 bd 8d 46 44 3d eb 2d 8c 3c 61 60 35 bd
       -0.032103088 0.047918845 0.01711174 -0.044281367
000350 34 9e b0 3d d3 49 93 bd cb b1 67 bd a3 18 2e 3d
       0.08623925 -0.07191815 -0.05656604 0.042503964
000360 be a9 ff bd 04 fb 65 3d 49 b4 87 bd 82 2c 07 3e
       -0.12483548 0.05614759 -0.066261835 0.13200572
000370 45 e5 bb bd a5 8a 3f bc 3d 17 ff bd 42 db 6b bd
       -0.09174589 -0.01169077 -0.12455604 -0.057582147
000380 35 58 29 bb 98 c9 05 3c 67 df c2 3d fa 60 92 3d
       -0.002583993 0.0081657395 0.09515267 0.07147403
000390 a6 3d 5b 3c 3b 25 05 3e 86 92 a5 bd ca d0 9f bb
       0.013381397 0.13002484 -0.08084588 -0.0048771845
0003a0 c8 43 05 3e 86 ba 02 3e 0f c2 bf bc fc f5 ae 3b
       0.13014138 0.12766466 -0.023407964 0.005339382
0003b0 ba 28 72 3d 3f e6 a8 3a 7a f2 03 bd 0c 25 49 b9
       0.05912087 0.0012886001 -0.032213666 -0.00019182655
0003c0 e9 cc 5f bd 0f 29 b3 3d dd ca 51 3c cd e7 1e bd
       -0.054638777 0.08748066 0.012804714 -0.03879528
0003d0 01 f6 26 bd d5 ee 66 3d 53 67 a6 3d 10 15 b8 3d
       -0.04076195 0.05638011 0.08125176 0.08988392
0003e0 67 e4 18 3e 67 c7 bd bc 29 c9 18 3e 5a a3 c9 bb
       0.14930879 -0.023166372 0.14920487 -0.006153506
0003f0 68 59 7c bc 31 c1 89 3c e1 2f 59 3d fa 28 01 3d
       -0.0154021755 0.016815754 0.053024177 0.03153322
