backend/api/ml/models/model_fb8d9548-7c36-45a7-9065-d8432fa051fd.pth (torch, 23353 bytes, 6 tensors)

lstm.weight_ih_l0 f4 [128, 4]
0.12416109 0.14803715 0.08120872 -0.012242428 -0.073364496 0.0417155 -0.15623613 0.04056484
-0.10364142 0.034193434 0.00081920554 0.12052914 0.05423337 0.061575804 0.06506661 0.052369967
-0.15666384 -0.011676196 0.13720946 0.07185155 -0.015696157 0.07010578 -0.117528774 -0.161533
-0.12840635 0.09083293 0.13674171 0.05477399 -0.0040316065 -0.021253468 -0.052942835 0.09648454
0.05656927 -0.13869831 0.057106894 -0.103276074 -0.07706985 -0.104363635 0.06135123 -0.11787746
-0.0006706858 -0.114192374 0.02364155 -0.070863456 -0.04022911 -0.11888395 -0.09659955 -0.11850756
0.078898095 0.09243422 -0.047586415 0.011543332 0.14061916 -0.0021809991 0.070694216 0.07812434
-0.13509284 -0.054153807 0.14953576 0.05159853 -0.07330949 -0.02826598 0.122977875 -0.037269212
-0.042938214 -0.09644318 0.017961727 0.050344042 0.056062654 -0.079429515 0.050055448 -0.10071817
-0.043373466 0.020528968 0.15893154 0.114518754 0.13920811 0.028658886 -0.029649302 0.13846265
-0.0075914855 0.13733162 -0.16213119 0.06594787 0.06342341 -0.11856991 0.09573422 -0.13861291
-0.16040425 -0.18417755 -0.09144675 -0.011958968 -0.05620774 -0.09562167 -0.11033895 -0.13190104
0.0077656982 -0.041842584 -0.19414689 -0.16853875 0.13175105 -0.11966975 -0.07466601 0.015756244
-0.1560491 -0.064286895 -0.10177284 -0.12358367 0.16049291 0.053734902 0.11848461 0.094031505
0.032958295 -0.11538067 0.012967003 0.016901892 -0.10273349 -0.13001987 0.0779593 0.16240303
0.03899083 -0.020863492 0.06393685 0.102789216 -0.02102823 0.12619175 -0.046803523 0.11827137
0.123036124 -0.09080093 0.009608948 0.10304931 -0.08474109 0.052244224 0.09294308 0.0076707904
-0.12830436 -0.09435081 0.16134268 -0.08686957 -0.11843547 -0.0852355 0.13563329 0.08548701
0.03952104 -0.17250727 0.16209133 0.036183238 -0.054488007 0.14676787 -0.16282862 0.08427263
0.013691191 -0.018497035 -0.10718494 -0.19141428 0.08681082 0.16366595 -0.0939231 -0.074828535
0.15166876 -0.1071391 -0.11715123 -0.047906324 -0.07168627 -0.100082666 -0.06806427 0.052174434
-0.10899799 -0.17154554 -0.12316472 -0.09111202 -0.115207754 0.0535696 -0.07238977 0.11540181
0.1088364 -0.16561858 0.077004276 -0.04262818 0.16283359 -0.0035773243 -0.12942253 -0.013732596
0.15973675 0.16936521 -0.13987449 -0.17290482 -0.06522148 0.02589864 -0.017039679 -0.055292577
0.020736575 -0.16450717 -0.045068927 -0.1973514 -0.030010272 -0.011087626 -0.124758214 0.17636345
-0.04488759 0.104588576 -0.038695797 0.10597195 -0.16459389 -0.16976705 -0.05649106 0.0006527988
-0.046385035 -0.08930931 -0.07076292 -0.02032216 0.1317938 -0.15036486 0.03502576 0.059810344
0.14686342 -0.19030036 -0.15857182 0.072582 -0.060093667 0.017130803 -0.052328315 -0.107742175
0.049526107 -0.16270316 -0.060535356 -0.16137218 0.13765274 0.062234845 0.16142696 -0.13984574
0.0111143 -0.08789933 -0.11987264 0.023757033 0.14428036 -0.11910692 -0.0046565505 0.019325906
-0.0012639652 -0.026561137 -0.13106811 0.004809335 0.110989615 -0.15472138 -0.0875632 -0.008195523
0.032539066 -0.029636215 -0.17963825 -0.08934738 -0.16373274 -0.16760838 -0.13622738 0.0030626578
00000000: 2b48 fe3d 0d97 173e c250 a63d 7794 48bc
00000010: 2040 96bd dfdd 2a3d 5dfc 1fbe 5127 263d
00000020: f441 d4bd 6a0e 0c3d f4bf 563a fbd7 f63d
00000030: cf23 5e3d e936 7c3d a541 853d e481 563d
00000040: 7c6c 20be 844d 3fbc a380 0c3e e826 933d
00000050: 3a95 80bc 9f93 8f3d edb2 f0bd e868 25be
00000060: f47c 03be 9d06 ba3d 0506 0c3e b15a 603d
00000070: 911b 84bb c11b aebc 96da 58bd b099 c53d
00000080: 2eb5 673d ee06 0ebe ebe8 693d 6882 d3bd
00000090: ccd6 9dbd 9abc d5bd 6d4b 7b3d bd69 f1bd
000000a0: f6d0 2fba b1dd e9bd edab c13c dc20 91bd
000000b0: 47c7 24bd 6e79 f3bd fcd5 c5bd 17b4 f2bd
000000c0: 5395 a13d 274e bd3d f9e9 42bd 3e20 3d3c
000000d0: 78fe 0f3e 18ef 0ebb 21c8 903d a7ff 9f3d
000000e0: c755 0abe 62d0 5dbd e71f 193e fb58 533d
000000f0: 4923 96bd 0e8e e7bc d3db fb3d 9aa7 18bd
00000100: fbdf 2fbd 0184 c5bd 7924 933c 8e35 4e3d
00000110: f4a1 653d f1ab a2bd f106 4d3d 5445 cebd
00000120: 60a8 31bd 5e2c a83c f3be 223e cf88 ea3d
00000130: 928c 0e3e 0ac6 ea3c 18e3 f2bc 27c9 0d3e
00000140: ffc1 f8bb a9a0 0c3e b805 26be ad0f 873d
00000150: 22e4 813d c8d4 f2bd 4e10 c43d 8bf0 0dbe
00000160: 0341 24be 0a99 3cbe 6f48 bbbd 8cef 43bc
00000170: 163a 66bd 4bd5 c3bd 63f9 e1bd 1111 07be
00000180: 6677 fe3b 2163 2bbd 71ce 46be 6c95 2cbe
00000190: bfe9 063e 6a15 f5bd 7eea 98bd 3d13 813c
000001a0: 56cb 1fbe d9a8 83bd 476e d0bd 6f19 fdbd
000001b0: 4158 243e 2119 5c3d 0fa8 f23d 9793 c03d
000001c0: 47ff 063d b34c ecbd 8d73 543c d675 8a3c
000001d0: f065 d2bd ee23 05be 20a9 9f3d fb4c 263e
000001e0: d9b4 1f3d eae9 aabc 53f1 823d 2783 d23d
000001f0: 6543 acbc 6938 013e 0db5 3fbd 4338 f23d
00000200: 5dfa fb3d d7f5 b9bd d96e 1d3c 840b d33d
00000210: bd8c adbd 0afe 553d f158 be3d 415b fb3b
00000220: 3862 03be ff3a c1bd 0437 253e ace8 b1bd
00000230: 4c8e f2bd f38f aebd 74e3 0a3e d013 af3d
00000240: d0e0 213d bfa5 30be 45fb 253e e034 143d
00000250: d12e 5fbd 514a 163e 8cbc 26be 2197 ac3d
00000260: 0451 603c 1887 97bc c783 dbbd 1b02 44be
00000270: dfc9 b13d 0c98 273e c15a c0bd b43f 99bd
00000280: 0e4f 1b3e bf6b dbbd fcec efbd 6c39 44bd
00000290: 40d0 92bd 24f8 ccbd 4865 8bbd dcb4 553d
000002a0: 573a dfbd a2a9 2fbe c93d fcbd f098 babd
000002b0: 0bf2 ebbd cc6b 5b3d 1641 94bd c957 ec3d
000002c0: 9ee5 de3d eb97 29be 6bb4 9d3d e39a 2ebd
000002d0: d9bd 263e 8b71 6abb 5787 04be affe 60bc
000002e0: 0892 233e 136e 2d3e 423b 0fbe f60d 31be
000002f0: d792 85bd 6229 d43c cc96 8bbc 787a 62bd
00000300: c0df a93c 9174 28be 329a 38bd 7c16 4abe
00000310: 1ad8 f5bc e0a8 35bc 3c81 ffbd 9f98 343e
00000320: 0ddc 37bd 8932 d63d 7c7f 1ebd d207 d93d
00000330: 4d8b 28be 6ad7 2dbe 2b63 67bd 9620 2b3a
00000340: 3cfe 3dbd cde7 b6bd 26ec 90bd a97a a6bc
00000350: f4f4 063e 3ff9 19be 2c77 0f3d b1fb 743d
00000360: 5d63 163e 19de 42be a760 22be dfa5 943d
00000370: c724 76bd e655 8c3c 3756 56bd eea7 dcbd
00000380: e3db 4a3d a89b 26be ecf3 77bd c03e 25be
00000390: d7f4 0c3e f7e9 7e3d 1c4d 253e b933 0fbe
000003a0: c118 363c 9004 b4bd c97f f5bd 1c9e c23c
000003b0: 3bbe 133e 54ee f3bd fa95 98bb 5d51 9e3c
000003c0: a2ab a5ba be96 d9bc b836 06be a097 9d3b
000003d0: 864e e33d 486f 1ebe 5654 b3bd 8446 06bc
000003e0: af47 053d a6c7 f2bc 17f3 37be c2fb b6bd
000003f0: 8ea9 27be 88a1 2bbe 317f 0bbe dfb6 483b

lstm.weight_hh_l0 f4 [128, 32]
-0.024371348 -0.09622852 0.04853641 0.04238912 0.06290367 -0.07489741 -0.07935759 -0.08783783
-0.15055445 0.11309086 -0.14937297 -0.12988804 0.14858279 0.06870535 -0.061235704 -0.008973087
0.15655121 0.13037317 -0.10880232 -0.075600795 -0.024471993 0.037193146 -0.03290119 -0.010409817
0.10051461 -0.0005062019 -0.09948717 0.089378975 -0.03898866 0.12036091 0.13610077 -0.07219658
-0.159772 0.06942031 0.0754784 0.16334088 0.0053684395 -0.022328677 0.10205005 0.09652904
0.17586163 0.15732172 -0.04820597 0.049800415 -0.14277908 0.17942876 0.0024425841 -0.13617079
-0.022370892 0.16178481 -0.17102687 0.043591697 0.11124537 0.032612864 0.07774025 0.01678079
0.06730695 0.102481134 0.028691385 -0.008413681 0.06953554 -0.08283275 0.13760664 -0.10769247
0.14248924 0.05009762 -0.1624798 -0.102637276 -0.059110094 -0.013382452 0.13742703 0.015705576
-0.04507382 0.15649864 0.09679469 -0.1575242 0.023730429 -0.10767105 -0.064258754 -0.045827415
-0.04088722 -0.16110477 0.16611615 0.12665348 0.13977753 -0.14434472 -0.1723852 0.13524154
0.003967203 -0.030902345 -0.15239684 0.15299991 -0.051726133 0.14067772 -0.09695048 -0.1274688
-0.08871376 0.10587217 -0.105859496 0.14365521 -0.017975707 -0.16086096 -0.040418327 -0.14682898
-0.14667183 0.030886728 0.054956973 0.010941028 0.107230335 0.029171022 0.025382781 0.08986595
0.0341797 -0.08683732 -0.12184767 0.07025348 -0.094613105 0.05115841 -0.11571677 -0.067074366
-0.006339958 -0.08809499 0.13321699 -0.09617596 -0.15195537 0.11393132 -0.16238628 -0.13400295
-0.12613156 0.075762086 0.025573079 -0.07065185 0.1622296 -0.13346404 0.02685512 -0.0340091
-0.12367933 0.047744624 -0.10442412 -0.038278364 -0.057294726 0.10313648 -0.06659352 0.07971514
0.0959866 0.1464726 0.16749467 -0.035928752 -0.07573872 -0.08001349 0.14760952 -0.020218067
-0.12982331 -0.08951863 0.15686458 -0.104866095 0.07536187 -0.12700644 0.08713199 0.043361027
0.022471406 -0.02435794 -0.10123546 -0.1667251 -0.0580715 -0.18690608 -0.053573947 0.1347981
0.13899225 -0.08606587 -0.14434007 -0.12764129 0.14308122 -0.17150794 0.08683517 -0.11797613
-0.0075531686 -0.11015701 0.15576236 -0.11581673 0.054899618 0.0012631554 0.008379305 0.00056034233
-0.053900428 0.17418025 -0.0286325 -0.077051386 0.12793398 0.00286123 0.1855284 -0.15384017
-0.16887283 -0.14165637 -0.08559026 -0.15000589 -0.005767287 0.036915928 -0.06525038 0.20760065
-0.0041888645 0.16578302 0.074216634 0.18875125 -0.14117971 -0.15447512 0.06977182 0.016903268
0.027522655 0.067555204 -0.03795815 0.1185436 -0.18061851 -0.057757553 0.036139105 0.025666483
-0.02280602 -0.10913133 -0.010713385 0.071538635 0.06212394 0.042748585 0.040764417 0.14640518
0.096232295 0.0328928 0.13029899 -0.16701475 0.11817156 0.10769018 -0.01680045 0.040663302
0.15375787 0.018708883 0.069322184 -0.019487226 0.0077140224 -0.14514054 -0.1506178 -0.16606985
0.05634957 -0.051214196 -0.063175514 -0.0100682825 0.12091537 -0.09163566 0.0207872 -0.15359253
0.029244836 -0.07893822 -0.12383684 -0.15307283 0.14242592 0.0051050694 0.09475755 -0.15202361
00000000: 6ca6 c7bc 7513 c5bd 1dce 463d 37a0 2d3d
00000010: a4d3 803d d063 99bd 3b86 a2bd 52e4 b3bd
00000020: f22a 1abe 2e9c e73d 3af5 18be 5f01 05be
00000030: 1626 183e 64b5 8c3d 4ad2 7abd db03 13bc
00000040: f64e 203e 8b80 053e c0d3 debd 97d4 9abd
00000050: 7d79 c8bc d757 183d 66c3 06bd f08d 2abc
00000060: 9bda cd3d a2b2 04ba eebf cbbd 530c b73d
00000070: 93b2 1fbd c87f f63d 005e 0b3e cddb 93bd
00000080: 459b 23be 3c2c 8e3d 6b94 9a3d d542 273e
00000090: bce9 af3b a1ea b6bc 9eff d03d 04b1 c53d
000000a0: 1215 343e f218 213e a073 45bd 85fb 4b3d
000000b0: ae34 12be 2cbc 373e c313 203b 5b70 0bbe
000000c0: 2943 b7bc ebaa 253e ab21 2fbe 358d 323d
000000d0: 9dd4 e33d 1195 053d 4836 9f3d de77 893c
000000e0: 3ad8 893d a1e1 d13d 320a eb3c 89d9 09bc
000000f0: a668 8e3d 38a4 a9bd c1e8 0c3e df8d dcbd
00000100: b3e8 113e 2933 4d3d 1b61 26be 7e33 d2bd
00000110: 6d1d 72bd 1242 5bbc acb9 0c3e fba8 803c
00000120: 539f 38bd 2e41 203e 4b3c c63d 064e 21be
00000130: 5166 c23c a482 dcbd 189a 83bd 87b5 3bbd
00000140: 5c79 27bd a6f8 24be 5a1a 2a3e 73b1 013e
00000150: d721 0f3e 1acf 13be bf85 30be c27c 0a3e
00000160: 50ff 813b ea26 fdbc eb0d 1cbe 02ac 1c3e
00000170: c8de 53bd d20d 103e f98d c6bd 2e87 02be
00000180: 8faf b5bd 82d3 d83d ddcc d8bd 5a1a 133e
00000190: ca41 93bc bcb8 24be b08d 25bd 565a 16be
000001a0: 2431 16be 2a06 fd3c 901a 613d ff41 333c
000001b0: 949b db3d 11f8 ee3c 8def cf3c a40b b83d
000001c0: 0300 0c3d c4d7 b1bd 458b f9bd 0ee1 8f3d
000001d0: 84c4 c1bd 7b8b 513d eafc ecbd 495e 89bd
000001e0: 6cbf cfbb 256b b4bd 096a 083e e7f7 c4bd
000001f0: 309a 1bbe d354 e93d 9748 26be 1238 09be
00000200: a228 01be 2729 9b3d a27e d13c ebb1 90bd
00000210: 841f 263e ccaa 08be 45ff db3c 204d 0bbd
00000220: 974b fdbd de8f 433d 50dc d5bd c6c9 1cbd
00000230: e0ad 6abd 3839 d33d 2f62 88bd b141 a33d
00000240: 9f94 c43d eafc 153e b983 2b3e 072a 13bd
00000250: e71c 9bbd 1dde a3bd f326 173e 5ca0 a5bc
00000260: 67f0 04be 8b55 b7bd 1ca1 203e 09c4 d6bd
00000270: 5357 9a3d fa0d 02be 4272 b23d 559b 313d
00000280: f415 b83c 4d8a c7bc 8954 cfbd fcb9 2abe
00000290: 62dc 6dbd 4f64 3fbe 5b70 5bbd 8308 0a3e
000002a0: fc53 0e3e 4e43 b0bd e2cd 13be 66b4 02be
000002b0: e283 123e c79f 2fbe a3d6 b13d 789d f1bd
000002c0: 9280 f7bb 009a e1bd 2b80 1f3e 5231 edbd
000002d0: 6cde 603d 7690 a53a 5a49 093c f0e3 123a
000002e0: b2c6 5cbd 4f5c 323e b48e eabc 1ecd 9dbd
000002f0: 2001 033e 7983 3b3b 28fb 3d3e 4788 1dbe
00000300: 00ed 2cbe 5e0e 11be f249 afbd 259b 19be
00000310: 83fb bcbb 2835 173d fea1 85bd 4495 543e
00000320: be42 89bb 06c3 293e e4fe 973d 0248 413e
00000330: 6a91 10be ba2e 1ebe 87e4 8e3d b978 8a3c
00000340: 3177 e13c 625a 8a3d 017a 1bbd fdc6 f23d
00000350: 0ff4 38be 2f93 6cbd 9906 143d 8442 d23c
00000360: b1d3 babc 3f80 dfbd 3287 2fbc d982 923d
00000370: ac75 7e3d 2419 2f3d 97f8 263d 3deb 153e
00000380: 7015 c53d 9aba 063d 196d 053e ea05 2bbe
00000390: ee03 f23d ab8c dc3d 19a1 89bc 908e 263d
000003a0: b472 1d3e 5f43 993c caf8 8d3d ada3 9fbc
000003b0: e9c5 fc3b b99f 14be 8d3b 1abe 370e 2abe
000003c0: cfce 663d fac5 51bd 2a62 81bd 70f5 24bc
000003d0: 7aa2 f73d 7aab bbbd eb49 aa3c 5c47 1dbe
000003e0: de92 ef3c 5daa a1bd 2b9e fdbd 20bf 1cbe
000003f0: 1ad8 113e 6d48 a73b 3f10 c23d 14ac 1bbe

lstm.bias_ih_l0 f4 [128]
0.07354643 -0.15247066 0.09230307 0.05889776 0.12877695 0.056017764 -0.19629231 -0.10594362
-0.07372547 0.15494418 0.08473605 0.092078745 0.022220822 -0.06711147 -0.04273587 0.08432889
0.0052337 0.048113555 -0.12759247 0.11259327 -0.09456888 -0.13654344 -0.11821562 0.009323455
0.087570146 0.15114419 -0.029755339 0.0230893 0.061833967 0.035408217 -0.09512122 -0.12967727
0.07404769 0.013875463 0.09497001 -0.09487526 -0.10374632 0.07271027 0.109852605 0.017987031
-0.11054325 0.17291705 0.06407726 -0.107807346 0.110084936 -0.03770339 -0.029603671 -0.14004669
0.10023007 -0.11125513 -0.09911687 -0.13307475 0.17086934 0.002593087 0.15912347 -0.076084346
-0.14905399 0.008603769 -0.097067274 -0.10149606 -0.014285707 0.083624594 -0.11695108 0.043764126
0.18744813 0.18303129 0.03131624 -0.06408866 0.1410577 0.10258221 0.05549475 -0.11877465
0.068155855 0.16608484 0.11124913 -0.093829386 0.024934122 0.058225803 -0.050644353 0.13505046
0.12731402 -0.12014245 0.17425068 0.1464189 0.071335725 -0.0039331517 -0.08839024 0.16368528
0.15858346 -0.12877423 0.102863386 0.15318795 -0.13471669 0.06073457 -0.14044191 -0.013777966
0.06294535 0.08941502 -0.14383273 0.09073387 -0.084265366 0.01140462 0.12126235 -0.17482412
-0.1677235 -0.13089694 0.13612589 0.068826444 -0.15394317 -0.024909906 -0.08521982 -0.02399073
-0.16170658 -0.16836365 0.1649666 0.03202307 0.13928656 0.15817265 -0.15966238 -0.14040662
-0.094746895 -0.07656672 0.12566847 0.15270726 0.073392026 0.15746962 0.07005442 -0.19902888
00000000: 839f 963d 4521 1cbe 6409 bd3d c73e 713d
00000010: 1bde 033e e272 653d da00 49be f8f8 d8bd
00000020: 61fd 96bd b0a9 1e3e 188a ad3d c893 bc3d
00000030: 7108 b63c bd71 89bd cf0b 2fbd a0b4 ac3d
00000040: 757f ab3b b812 453d 9aa7 02be 4d97 e63d
00000050: 54ad c1bd 0bd2 0bbe 081b f2bd 68c1 183c
00000060: fa57 b33d 8bc5 1a3e 78c1 f3bc c625 bd3c
00000070: 9d45 7d3d 3508 113d eace c2bd 1eca 04be
00000080: 51a6 973d e955 633c a37f c23d f64d c2bd
00000090: f378 d4bd 1fe9 943d 67fa e03d 8a59 933c
000000a0: 8064 e2bd 2b11 313e f03a 833d 19ca dcbd
000000b0: 3674 e13d df6e 1abd 6683 f2bc 6668 0fbe
000000c0: 6c45 cd3d bbd9 e3bd c9fd cabd bf44 08be
000000d0: 5ff8 2e3e c8f0 293b 43f1 223e 1cd2 9bbd
000000e0: 9ca1 18be d3f6 0c3c 35cb c6bd 2bdd cfbd
000000f0: 990e 6abc 5f43 ab3d 0c84 efbd 0342 333d
00000100: 67f2 3f3e 8e6c 3b3e 7545 003d ea40 83bd
00000110: 6e71 103e 9f16 d23d 774e 633d 2040 f3bd
00000120: 4c95 8b3d 2512 2a3e 95d6 e33d 9f29 c0bd
00000130: a542 cc3c 2e7e 6e3d 7470 4fbd ab4a 0a3e
00000140: 9b5e 023e 3f0d f6bd c56e 323e d6ee 153e
00000150: 7718 923d abe1 80bb f105 b5bd 1d9d 273e
00000160: b463 223e 64dd 03be 0aaa d23d 4ddd 1c3e
00000170: 2cf3 09be d0c4 783d 01d0 0fbe fabc 61bc
00000180: 7ee9 803d 391f b73d e348 13be aed2 b93d
00000190: 5293 acbd 71da 3a3c 6558 f83d 1805 33be
000001a0: b6bf 2bbe d909 06be 9664 0b3e e1f4 8c3d
000001b0: 47a3 1dbe dc0f ccbc bb87 aebd 3588 c4bc
000001c0: 6996 25be 8567 2cbe 01ed 283e 9f2a 033d
000001d0: 23a1 0e3e 03f8 213e 897e 23be c1c6 0fbe
000001e0: a90a c2bd 03cf 9cbd 3caf 003e 4b5f 1c3e
000001f0: 8f4e 963d b73f 213e b178 8f3d 3ace 4bbe

lstm.bias_hh_l0 f4 [128]
0.014068898 -0.110551216 0.023185423 0.106562 -0.018514052 -0.076166 0.040939678 -0.12077428
-0.16977392 -0.06517262 -0.15687358 -0.116049156 -0.059865937 0.032978397 -0.14389282 -0.1495695
-0.081306934 0.035559315 -0.08887262 -0.03408186 0.09991071 -0.13023016 0.1081574 0.049126774
-0.11635559 -0.032557823 -0.05862099 -0.14031339 -0.14791815 0.14054626 0.079513356 -0.1115994
0.048990026 0.001507451 0.01713271 0.1618483 0.16560781 -0.13450226 -0.14648631 -0.07597564
0.116774656 0.047108248 -0.07723437 0.032494906 0.10478412 -0.10419882 0.07605084 -0.16403913
-0.13023609 -0.0064426535 0.091204576 0.03473606 -0.1129257 0.11661726 -0.07753366 0.0043961243
0.12984028 -0.067754135 -0.04622385 -0.1645523 0.16765635 0.07802237 -0.15410145 0.040045727
0.002700616 0.117813274 0.0022607513 -0.02288005 -0.059585024 -0.07322086 0.08291041 -0.08963759
-0.15569629 -0.14641966 0.13243194 -0.065345444 -0.060841735 -0.0057296776 -0.15109968 -0.02768933
0.043120928 0.14869203 -0.042949118 0.018940352 -0.111745775 0.070866145 0.16886117 0.03647826
-0.017183237 -0.044212185 -0.1229891 0.0010065072 0.036607575 0.022150652 0.0690556 0.11730801
0.1297598 -0.028116751 -0.09613982 -0.12417925 0.13237353 -0.16065316 -0.12873463 0.025053127
0.14604698 0.09852404 -0.13470669 -0.12877427 0.075070456 0.047989193 0.19560051 -0.10308282
-0.10474456 0.02415759 -0.0771826 0.027377388 0.04993455 0.023403097 -0.043243665 0.1460062
-0.029950382 -0.1351871 -0.09078314 -0.038271643 0.09088623 0.005156732 -0.14443871 -0.042660948
00000000: 3c81 663c ad68 e2bd 5bef bd3c 2e3d da3d
00000010: c8aa 97bc ebfc 9bbd 5db0 273d 8158 f7bd
00000020: 37d9 2dbe 3979 85bd 78a3 20be 2eab edbd
00000030: fc35 75bd 5b14 073d a458 13be bf28 19be
00000040: 4084 a6bd a5a6 113d d902 b6bd 6c99 0bbd
00000050: fc9d cc3d 0e5b 05be a081 dd3d 2839 493d
00000060: d74b eebd 5a5b 05bd 901c 70bd 50ae 0fbe
00000070: db77 17be 5ceb 0f3e e6d7 a23d 3a8e e4bd
00000080: c4a9 483d a995 c53a e659 8c3c 90bb 253e
00000090: 1895 293e f6ba 09be 8200 16be 1e99 9bbd
000000a0: 8d27 ef3d 94f4 403d 0e2d 9ebd 6119 053d
000000b0: 0f99 d63d 3166 d5bd 8bc0 9b3d e0f9 27be
000000c0: 9c5c 05be e51c d3bb 77c9 ba3d 6647 0e3d
000000d0: 9745 e7bd 08d5 ee3d f8c9 9ebd 5d0d 903b
000000e0: daf4 043e aec2 8abd 3855 3dbd 6680 28be
000000f0: 1bae 2b3e 31ca 9f3d c5cc 1dbe fd06 243d
00000100: d1fc 303b 1648 f13d 1d29 143b f16e bbbc
00000110: 6d0f 74bd d1f4 95bd efcc a93d ea93 b7bd
00000120: d96e 1fbe 09ef 15be 3d9c 073e d5d3 85bd
00000130: 2f35 79bd 05c0 bbbb e0b9 1abe bcd4 e2bc
00000140: 929f 303d b942 183e 6aeb 2fbd cc28 9b3c
00000150: f8da e4bd 4522 913d f1e9 2c3e 3a6a 153d
00000160: dcc3 8cbc d617 35bd b6e1 fbbd c7ec 833a
00000170: d3f1 153d 4975 b53c 066d 8d3d 2f3f f03d
00000180: c1df 043e 1a55 e6bc f4e4 c4bd b151 febd
00000190: ed8c 073e 4382 24be 03d3 03be 373c cd3c
000001a0: 578d 153e f9c6 c93d 8df0 09be 67dd 03be
000001b0: 8abe 993d 5190 443d 804b 483e 161d d3bd
000001c0: 5184 d6bd 23e6 c53c e911 9ebd 8b46 e03c
000001d0: 2c88 4c3d dab7 bf3c 4520 31bd a682 153e
000001e0: 815a f5bc 7d6e 0abe 83ec b9bd bac2 1cbd
000001f0: 8f22 ba3d cef9 a83b bee7 13be 3fbd 2ebd

fc.weight f4 [3, 32]
0.08436553 0.12734707 -0.1064684 0.050084833 0.14246517 -0.08146212 -0.014650582 -0.08543892
0.013182109 -0.16030762 0.09881629 0.114439815 0.015119654 0.118858196 0.05158765 0.16531874
-0.054501284 -0.113398165 -0.0004480606 0.16853166 0.08572036 0.009369711 0.09293164 -0.1578004
0.0065460666 -0.16352545 0.012055777 0.20516038 0.024133896 0.026091916 0.105681606 0.073700875
0.03832793 0.03395392 0.08355416 0.035563283 -0.11666755 -0.0427576 -0.12486892 0.03925289
-0.11902027 -0.05464602 0.14700791 0.09698411 0.1422581 -0.05129878 -0.093016446 0.050847903
-0.1471935 -0.09056929 -0.07800229 -0.047992103 0.14637275 0.028577322 0.008788975 0.01959849
0.004779121 -0.1355791 -0.08356556 -0.0979539 -0.10014007 0.004400004 -0.072100684 -0.015957225
0.08843599 0.005950876 0.15272667 -0.028520811 0.036838293 0.15305078 -0.01652603 0.07389455
-0.08938491 0.14258556 -0.0040559084 -0.12745114 0.17276952 -0.07644223 -0.1819391 0.15679178
0.03074899 -0.1674678 0.14547214 0.048746746 0.06640955 0.13184203 -0.12885547 0.16767786
-0.12733473 -0.12253982 -0.08356751 -0.03438182 0.024717918 0.18430637 -0.08462698 -0.10352519
00000000: d6c7 ac3d 4567 023e 1b0c dabd c125 4d3d
00000010: 64e2 113e 9dd5 a6bd ff08 70bc 9afa aebd
00000020: c6f9 573c ae27 24be 3260 ca3d 6c5f ea3d
00000030: 6db8 773c ed6b f33d 924d 533d 5149 293e
00000040: bd3c 5fbd 4c3d e8bd ade9 eab9 9093 2c3e
00000050: 288e af3d 6b83 193c f252 be3d 6e96 21be
00000060: 6380 d63b 3773 27be 9885 453c 9015 523e
00000070: 73b4 c53c b7be d53c 996f d83d 7cf0 963d
00000080: bffd 1c3d 4413 0b3d 721e ab3d ceaa 113d
00000090: 65ef eebd 9822 2fbd 47bb ffbd a3c7 203d
000000a0: e6c0 f3bd 81d4 5fbd 3e89 163e 9b9f c63d
000000b0: 1bac 113e ab1e 52bd 687f bebd e445 503d
000000c0: e5b9 16be 647c b9bd aabf 9fbd 5e93 44bd
000000d0: bde2 153e fd1a ea3c a2ff 0f3c 038d a03c
000000e0: 2c9a 9c3b 3fd5 0abe 6c24 abbd 0e9c c8bd
000000f0: 3d16 cdbd e92d 903b 86a9 93bd bab8 82bc
00000100: ee1d b53d 91ff c23b 6164 1c3e 7aa4 e9bc
00000110: c0e3 163d 58b9 1c3e 9961 87bc 0756 973d
00000120: 700f b7bd f301 123e 6de7 84bb 8d82 02be
00000130: 7eea 303e be8d 9cbd 3e4e 3abe 068e 203e
00000140: 4ee5 fb3c ae7c 2bbe a6f6 143e abaa 473d
00000150: bb01 883d 9901 073e b0f2 03be bfb3 2b3e
00000160: 0964 02be 28f6 fabd 7125 abbd f4d3 0cbd
00000170: 3b7d ca3c cfba 3c3e e950 adbd 0405 d4bd

fc.bias f4 [3]
-0.048685756 -0.025063738 -0.109905705
00000000: b76a 47bd 7852 cdbc 3e16 e1bd
