backend/api/ml/models/model_8c9365dd-198e-4da7-801c-f00fd64a4aa9.pth (torch, 949173 bytes, 26 tensors)

lstm.weight_ih_l0 f4 [256, 4]
0	0xbd9be578	-0.07612127
1	0xbce68f9b	-0.028144648
2	0x3dadb9d0	0.084827065
3	0x3daabab9	0.08336396
4	0x3d9d051e	0.07666992
5	0x3e02c679	0.12771024
6	0x3da3c62a	0.07996781
7	0x3bec59bb	0.007212845
8	0xbe035632	-0.1282585
9	0xbdda61bd	-0.10663173
10	0xbbbf8902	-0.00584519
11	0xbd07f2c8	-0.03319052
12	0x3d833476	0.064064905
13	0x3d0fe99d	0.0351349
14	0xbe08a944	-0.1334582
15	0x3d8305f4	0.0639762
16	0x3e39db0d	0.18149967
17	0x3d24f0b3	0.04026861
18	0xbcf7a9ab	-0.030232271
19	0x3c1466a5	0.0090576755
20	0xbd694c80	-0.05695772
21	0x3d9101d1	0.070804246
22	0xbb74e7f8	-0.003736971
23	0xbcec807a	-0.028869856
24	0x3d1b2875	0.03788038
25	0x3d5e5ea4	0.054289475
26	0xbd15ed90	-0.03660351
27	0x3d549ef2	0.051909395
28	0xbc42500a	-0.011859903
29	0x3d72af4c	0.059249207
30	0xbdacccae	-0.08437477
31	0x3dec73bc	0.11545512
32	0xbdeff69f	-0.11716961
33	0x3cb283ef	0.021791426
34	0x3e198ff7	0.14996324
35	0x3d88c90a	0.0667897
36	0xbd62ab50	-0.055339158
37	0x3def31dd	0.116794325
38	0x3e200b2a	0.15629259
39	0x3dc74b19	0.097311206
40	0x3dd85a84	0.105641395
41	0xbda35575	-0.07975284
42	0xbd88d6c4	-0.06681588
43	0x3d8dcda8	0.069239914
44	0xbdc2d3f8	-0.09513086
45	0xbd04772b	-0.03234021
46	0x3c5d3b6c	0.013502937
47	0x3e1620b7	0.14660917
48	0xbd074d4a	-0.033032693
49	0xbdc85ee8	-0.09783727
50	0xbdbfaf98	-0.09359664
51	0xb9b17d79	-0.00033853555
52	0x3d99057a	0.07471748
53	0xbd5728b3	-0.05252905
54	0xbc1540b0	-0.009109661
55	0xbe03086d	-0.12796183
56	0xbd475ba0	-0.048671365
57	0xbd72fbdf	-0.059322234
58	0xbd24b3fe	-0.040210716
59	0xbd8718fd	-0.06596563
60	0x3dc78438	0.097420156
61	0xbdae1a7c	-0.08501145
62	0x3d51e9c8	0.05124834
63	0x3b344151	0.0027504752
64	0x3dfa8caf	0.122338645
65	0x3afb137d	0.0019155588
66	0xbd94489d	-0.072404124
67	0xbd9af2c5	-0.07565836
68	0xbd921b74	-0.071341425
69	0x3d98d7de	0.074630484
70	0xbc821e5b	-0.015883615
71	0x3dc2ea07	0.095172934
72	0x3c16a28e	0.0091940295
73	0xbc876467	-0.016527368
74	0xbb2ceae2	-0.0026385118
75	0xbd82a8ca	-0.0637985
76	0x3dc2a159	0.09503431
77	0xbdcdc49b	-0.10047265
78	0xbcdd389b	-0.02700453
79	0xbda6943d	-0.08133743
80	0x3e046071	0.12927414
81	0xbdf18c98	-0.11794394
82	0x3e0136f0	0.12618613
83	0x3e1a9a62	0.15097955
84	0x3e083433	0.13301162
85	0xbd083ccc	-0.033261105
86	0x3c8dccd4	0.017309584
87	0x3d0bb08b	0.03410391
88	0xbdcfc529	-0.10145027
89	0x3dec0a5f	0.11525416
90	0xbcdff410	-0.027338058
91	0x3d2b9d51	0.041898075
92	0x3d34640b	0.04404072
93	0x3d825c34	0.063652426
94	0xbbd1fe96	-0.006408523
95	0x3e08adcd	0.1334755
96	0xbdd8ce9e	-0.10586284
97	0x3e2fb164	0.17157513
98	0x3e0d0dea	0.13774839
99	0x3debcd6d	0.11513791
100	0xb975bb58	-0.00023434812
101	0xbd2c61ad	-0.04208534
102	0xbdb056fb	-0.0861034
103	0xbd7f735c	-0.062365875
104	0x3d8906f9	0.06690783
105	0x3c98fab5	0.018674234
106	0x3d2175f4	0.03941913
107	0x3d3d1b69	0.04616872
108	0x3d84578b	0.0646201
109	0x3ce253e9	0.027627902
110	0x3ca4d2dc	0.020120077
111	0xbdb0dee6	-0.086362645
112	0xbd243f03	-0.040099155
113	0x3d51a6d8	0.051184505
114	0xbd3f79d2	-0.046747036
115	0x3db5c185	0.088748015
116	0xbda1152f	-0.078653686
117	0x3dfc986e	0.12333761
118	0xbc20187f	-0.009771465
119	0x3dcb37ae	0.099227294
120	0x3cfe5cd5	0.031050125
121	0xbca30de6	-0.019904088
122	0xbd9b48bd	-0.07582233
123	0x3d20f292	0.039293833
124	0x3e2dab0e	0.16959783
125	0x3d31dfbc	0.04342626
126	0xbc7b68f6	-0.015344849
127	0x3e2584e3	0.16163974
128	0x3d6db1f1	0.058031026
129	0x3b85a840	0.004078895
130	0x3d7b042a	0.061283268
131	0xbd54a537	-0.051915374
132	0x3de4d25c	0.11172935
133	0xbce751d7	-0.028237266
134	0x3b84ce0d	0.0040528835
135	0x3da1ea40	0.07906008
136	0xbd5e8557	-0.05432638
137	0xbd808a9f	-0.0627644
138	0xbd58c03c	-0.052917704
139	0xbd42df2f	-0.047576126
140	0xbdef4712	-0.116834775
141	0xbc5cf531	-0.013486193
142	0x3cfa3774	0.03054402
143	0x3d8e31cf	0.06943094
144	0xbd81319c	-0.0630829
145	0xbd9b0769	-0.07569773
146	0x3e447170	0.19183898
147	0xbd95c252	-0.07312454
148	0x3d73eee7	0.059554007
149	0x390f93d2	0.0001369261
150	0xbc0b2f34	-0.008495141
151	0xbd1306f6	-0.03589531
152	0xbd447370	-0.047961652
153	0xbcbac91c	-0.022800975
154	0x3c10954d	0.008824659
155	0x3e078331	0.1323364
156	0x3d938e97	0.07204931
157	0x3c1297e7	0.008947349
158	0x3de5e4db	0.11225291
159	0x3d0eaf0e	0.034834914
160	0x3e052d79	0.13005628
161	0x3e248b8b	0.16068856
162	0x3dde1162	0.10843159
163	0x3bd3dea3	0.0064657493
164	0xbd2d347e	-0.04228639
165	0x3e01c577	0.12672983
166	0x3d4bb343	0.049731504
167	0xbbeae223	-0.007168071
168	0x3dbd9d1c	0.09258482
169	0x3d368654	0.0445617
170	0x3e21ca75	0.15799887
171	0x3ddadd23	0.1068671
172	0xbb8747c5	-0.0041284286
173	0x3dedd118	0.11612147
174	0xbd42c642	-0.047552355
175	0xbdbcc887	-0.09217935
176	0x3ca99bf1	0.020704241
177	0x3e2a9a8f	0.16660522
178	0x3e23ba7f	0.15989111
179	0x3e103d7d	0.14085956
180	0x3e05c667	0.13063966
181	0xbd331230	-0.043718517
182	0xbdbe6756	-0.092970535
183	0x3c887644	0.016657956
184	0xbdd75683	-0.10514548
185	0x3c5d028e	0.013489379
186	0x3d00b6da	0.03142438
187	0x3dcd0e56	0.100125
188	0xbdbf83de	-0.093513235
189	0xbcc6e055	-0.024276892
190	0xbda49c24	-0.08037594
191	0xbe06ec8b	-0.13176171
192	0x3d3e48d1	0.046456162
193	0x3d986c07	0.074424796
194	0xbc61f904	-0.01379228
195	0xbe03fd51	-0.12889601
196	0xbd888bb5	-0.06667272
197	0x3df75f96	0.120787784
198	0xbd4421ef	-0.047883924
199	0xbb2f322f	-0.0026732793
200	0x3dbea29e	0.093083605
201	0x3e393486	0.18086442
202	0x3df2f3b9	0.11862893
203	0x3def44de	0.11683057
204	0x3d84e417	0.06488817
205	0x3dbfafbf	0.09359693
206	0xbb0b574e	-0.0021261754
207	0x3be7facc	0.007079458
208	0x3ba1752c	0.004927298
209	0xbd192a1e	-0.03739368
210	0xbcd555eb	-0.026041945
211	0x3e0679e3	0.13132434
212	0x3dccbda7	0.09997111
213	0x3d9af9e1	0.07567192
214	0xbd531e54	-0.051542595
215	0x3cd90ad6	0.026494425
216	0x3d8870c2	0.06662132
217	0xbdb8aa5f	-0.09016871
218	0xbd2e88b6	-0.042610846
219	0x3d1dbf11	0.038512293
220	0x3ddf129d	0.10892222
221	0xbc738282	-0.014862658
222	0x3d9a9054	0.0754706
223	0x3dbe2d94	0.09286037
224	0x3e09bf77	0.13451944
225	0xbd8f6705	-0.07002071
226	0xbe43fc43	-0.19139199
227	0x3c33da10	0.010977283
228	0x3c35dd8f	0.011100187
229	0x3d6d7475	0.05797239
230	0x3d902d19	0.07039852
231	0x3cc906df	0.02453941
232	0x3d80c21a	0.06287022
233	0x3e0cc3e2	0.13746598
234	0x3d2de87f	0.042458054
235	0x3cb5bc83	0.022184616
236	0xbcf6cb43	-0.03012622
237	0xbd21c7db	-0.039497238
238	0xbe426baa	-0.18986383
239	0xbdb71346	-0.08939223
240	0x3d8fd9a1	0.07023931
241	0x3df057be	0.117354855
242	0xbe0c816c	-0.13721246
243	0x3d944419	0.07239551
244	0xbdd97942	-0.10618831
245	0x3d05c3e9	0.032657538
246	0xbcd20afc	-0.025640003
247	0xbdeab574	-0.11460391
248	0x3dbe01ee	0.09277712
249	0xbccd6eba	-0.025077213
250	0xbd90e13c	-0.0707421
251	0x3df6249c	0.120187014
252	0xbd17ea03	-0.037088405
253	0xbd2abc6c	-0.0416836
254	0xbd9d2f8f	-0.07675087
255	0xbd9b7af6	-0.07591812

lstm.weight_hh_l0 f4 [256, 64]
0	0xbddeca10	-0.10878384
1	0xbda7f73c	-0.08201453
2	0xbd1740ea	-0.03692714
3	0xbda94873	-0.08265772
4	0x3bdedf5d	0.0068015293
5	0x3d5d1ae1	0.05398071
6	0x3d9f018d	0.07763968
7	0x3d92fe0a	0.0717736
8	0xbd96196b	-0.07329067
9	0x3dfb23b2	0.12262668
10	0x3dc9ae7b	0.09847733
11	0x3d7c22c9	0.06155661
12	0xbc016ebd	-0.007899937
13	0x3cc5d968	0.024151519
14	0xbcd9f071	-0.02660391
15	0xbda3dc22	-0.080009714
16	0xbd0806ee	-0.033209734
17	0x3dc59eb2	0.09649409
18	0x3d10f223	0.03538717
19	0xbd862e3e	-0.06551789
20	0xbc6c79f6	-0.014433375
21	0xbdc1d2a7	-0.09464007
22	0xbb92f027	-0.004484195
23	0x3dded1df	0.108798735
24	0xbd82a834	-0.063797385
25	0x3bda67e0	0.006665215
26	0xbdf62431	-0.12018622
27	0x3dded131	0.10879744
28	0xbdfb1fe5	-0.12261943
29	0x3d6a3039	0.057174895
30	0xbd09c833	-0.03363819
31	0xbdd80c89	-0.10549266
32	0x3d0a7ba0	0.033809304
33	0x3d03339b	0.032031637
34	0x3d99501f	0.07485985
35	0x3de19f3e	0.11016701
36	0x3d290832	0.04126758
37	0xbdbe1142	-0.092806354
38	0xbddde3a9	-0.10834438
39	0xbcf5abdc	-0.029989175
40	0x3d6fc0fc	0.058533654
41	0xbc7f612f	-0.015587135
42	0xbd7cd1ad	-0.0617234
43	0x3d94286b	0.072342716
44	0xbac40bdd	-0.0014957149
45	0x3ceebe07	0.029143346
46	0x3da81978	0.08207983
47	0xbd8b41b0	-0.06799638
48	0xbdeae096	-0.114686176
49	0xbd9c1b51	-0.07622398
50	0xbd21922e	-0.03944605
51	0x3c1d8793	0.009614843
52	0xbd2a39b4	-0.041558936
53	0xbdb6985e	-0.089157805
54	0xbd7fb70c	-0.062430426
55	0x3a66d602	0.00088056934
56	0x3dcb3406	0.09922032
57	0xbdd2cfc0	-0.102935314
58	0xbdc96299	-0.09833259
59	0xbcff0715	-0.031131307
60	0x3d032255	0.032015163
61	0x3e00642d	0.12538214
62	0xba8bca61	-0.0010665172
63	0x3e1005e1	0.14064743
64	0x3d2b3d97	0.041806784
65	0xbc8312fe	-0.016000267
66	0x3c3ed61c	0.011647727
67	0xbcaf20e7	-0.021377994
68	0xbe0c9125	-0.13727243
69	0xbde69f97	-0.11260908
70	0xbd86e37e	-0.065863594
71	0x3d430e5e	0.047621123
72	0x3da34339	0.07971806
73	0xbd5fe7d6	-0.054664455
74	0x3db543be	0.088508114
75	0x3dc78fc2	0.097442165
76	0xba9de395	-0.0012045974
77	0xbdcb353b	-0.09922262
78	0xbd93f5ef	-0.072246425
79	0xbc2eb3ef	-0.010663017
80	0xbd9a6052	-0.07537903
81	0xbc97127e	-0.018441435
82	0x3d27bf55	0.040953953
83	0xbdf10458	-0.11768407
84	0xbccc6ba4	-0.02495367
85	0xbd74d12a	-0.059769787
86	0x3c8af467	0.016962243
87	0x3db54d4f	0.08852636
88	0xbdce1c62	-0.10064007
89	0xbd948387	-0.07251649
90	0x3d3f2e7e	0.046675198
91	0xbdd345cb	-0.10316046
92	0xbd16e987	-0.036843803
93	0x3c16b097	0.009197376
94	0x3cbc2049	0.022964614
95	0xbd907f35	-0.07055513
96	0xbdd0a1d6	-0.10187118
97	0x3d9a68db	0.07539531
98	0x3d750492	0.05981881
99	0x3da22cf1	0.07918728
100	0x3c5a8ade	0.013338773
101	0x3cc86bb8	0.024465427
102	0x3df0064f	0.11719953
103	0x3dc8e794	0.09809795
104	0x3d3cb905	0.046074886
105	0x3e1a53cd	0.1507103
106	0x3ddf49ca	0.10902746
107	0xbe1c1500	-0.15242386
108	0xbbdaa4cb	-0.006672477
109	0x3e024a73	0.12723713
110	0x3ce65452	0.028116379
111	0xbdd87118	-0.10568446
112	0x3d5c8574	0.05383821
113	0xbd3a4347	-0.045474317
114	0xbc3d1467	-0.011540509
115	0x3d06a33c	0.032870516
116	0xbd76358b	-0.060109656
117	0x3da8d9af	0.08244645
118	0xbd4482ce	-0.047976308
119	0xbcafc213	-0.021454846
120	0xbd2b1079	-0.041763756
121	0x3de2c0a6	0.11071901
122	0x3d3d6ea2	0.046248086
123	0xbdb2256a	-0.086985424
124	0xbc442e06	-0.0119738635
125	0x3e11e804	0.14248663
126	0x3d9886b5	0.07447568
127	0xbdb1cfa4	-0.086821824
128	0xbe04e0f1	-0.12976433
129	0xbdee279c	-0.11628649
130	0x3d6cde90	0.05782944
131	0x3cb8a598	0.022539899
132	0x3d938b0e	0.07204257
133	0x3b936130	0.0044976696
134	0x3d4602dc	0.04834257
135	0xbcaca160	-0.021073043
136	0xbcafdbf5	-0.021467188
137	0xbde00ed3	-0.109403275
138	0xbd9feeff	-0.07809257
139	0x3dcae334	0.09906617
140	0x3dc181ab	0.0944856
141	0xbd364da9	-0.044507656
142	0xbd97cea1	-0.07412458
143	0x3bd29303	0.0064262166
144	0xbcac6db6	-0.021048408
145	0x3e086b66	0.13322219
146	0xbd683200	-0.05668831
147	0xbdf75dff	-0.12078475
148	0x3d48a1dc	0.048982486
149	0x3dd5db2b	0.104421936
150	0xbd004d84	-0.031323925
151	0x3daa594b	0.083178125
152	0x3d8949f8	0.067035615
153	0xbdce206b	-0.10064777
154	0xbde84999	-0.11342163
155	0x3dc504fe	0.09620093
156	0xbd43c1c3	-0.047792207
157	0x3d666538	0.056248873
158	0xbdcf53fe	-0.10123442
159	0xbcbd4316	-0.023103278
160	0xbcf2dcb3	-0.029646253
161	0x3d8bab22	0.0681975
162	0xbdd1d20d	-0.10245142
163	0xbd8eb46e	-0.06968008
164	0xbd8cb928	-0.06871253
165	0xbd5d9a49	-0.054102216
166	0x3d1e306f	0.03862041
167	0x3dce80da	0.1008317
168	0xbdb5e1d3	-0.08880963
169	0xbd9ae4cd	-0.075631715
170	0xbde21827	-0.11039763
171	0x3dc0bdfb	0.09411236
172	0xbabe12e0	-0.0014501475
173	0x3d46fc36	0.04858037
174	0xbac100b3	-0.001472494
175	0xbdb81f9e	-0.089904055
176	0x3d40b8bc	0.047051176
177	0x3d5186fe	0.05115413
178	0xbdfdce87	-0.123929076
179	0xbda511c9	-0.08060033
180	0xbcc8dc5d	-0.02451914
181	0xbdac16ef	-0.08402812
182	0xbdcbc317	-0.0994932
183	0x3df2cf65	0.118559636
184	0x3d90fae9	0.07079107
185	0x3da2d8ac	0.07951483
186	0x3daf4626	0.08558302
187	0x3db8bce7	0.09020405
188	0x3cde60df	0.027145801
189	0x3d9a91a4	0.0754731
190	0xbdbaa618	-0.09113711
191	0xbc904e7f	-0.017615555
192	0xbc3c49cb	-0.011492203
193	0x3d6ad16d	0.05732863
194	0xbda9cc4e	-0.08290921
195	0xbdc0ad28	-0.09408027
196	0xbcca5bac	-0.024701916
197	0x3cdc452d	0.026888454
198	0x3decb660	0.11558223
199	0x3d167ff7	0.03674313
200	0x3d5fa44a	0.054600038
201	0x3e07eaba	0.13273135
202	0x3d2a3c9d	0.04156171
203	0xbde8e792	-0.113722935
204	0x3dc1af9f	0.09457325
205	0x3dbe66e5	0.09296969
206	0x3d163209	0.03666881
207	0xbb968d2b	-0.0045944653
208	0x3dfb04d0	0.12256777
209	0x3da1d019	0.079010196
210	0xbc614930	-0.013750359
211	0xbd5e5ee2	-0.054289706
212	0xbdd35fa7	-0.103209786
213	0xbd1bdadd	-0.03805052
214	0xbd358de5	-0.044324774
215	0x3d96e622	0.07368113
216	0xbda6dfd5	-0.08148161
217	0xbc2d75c8	-0.010587163
218	0xbd0a00b0	-0.033692062
219	0x3d0e0ed2	0.034682103
220	0x3d22501a	0.039627172
221	0x3ae223ab	0.0017253062
222	0xbe00e64f	-0.12587856
223	0xbba31fa6	-0.004978138
224	0xbbefb9b5	-0.007315839
225	0x3c706f32	0.0146749485
226	0x3db23d52	0.08703102
227	0xbdbf1c0a	-0.0933152
228	0x3dd8e38c	0.10590276
229	0xbd4a25f2	-0.049352594
230	0x3db8d4e8	0.09024984
231	0xbdf797e2	-0.12089516
232	0x3d9ac729	0.07557518
233	0x3e04d211	0.12970759
234	0x3d5c9080	0.053848743
235	0x3c34ee50	0.011043146
236	0xbd829d35	-0.06377641
237	0x3c68f406	0.014218336
238	0xbcee3f07	-0.029082788
239	0xbc5e88c0	-0.013582408
240	0xbd3c6a11	-0.04599959
241	0xbdc5bd4b	-0.096552454
242	0xbd877685	-0.06614403
243	0xbdd2f39d	-0.10300372
244	0x3b349f36	0.0027560717
245	0xbd276e27	-0.040876534
246	0xbd8bf4dc	-0.068338126
247	0xbd0e7e3b	-0.03478835
248	0xbdb9168f	-0.09037506
249	0x3dcd30cb	0.10019072
250	0xbdbcc942	-0.092180744
251	0xbd855f57	-0.06512325
252	0x3df11f6e	0.11773573
253	0xbd8ba3d4	-0.06818357
254	0x3d8d30ff	0.06894111
255	0x3d4acb4f	0.049510296

lstm.bias_ih_l0 f4 [256]
0	0xbc18a265	-0.009316062
1	0x3d371741	0.04469991
2	0x3d886eb2	0.066617385
3	0xbd35e4ca	-0.044407643
4	0x3cf2948a	0.029611845
5	0x3d85cfe6	0.06533794
6	0xbd9e3062	-0.07724072
7	0x3d0f6275	0.035006005
8	0x3d7f158e	0.062276416
9	0x3df2c779	0.11854453
10	0x3d6ef3a3	0.05833782
11	0x3d2d5ef8	0.042326897
12	0xbd0a56c9	-0.03377417
13	0xbdef9acc	-0.11699447
14	0x3d1fc2d9	0.03900418
15	0xbd0643cd	-0.032779504
16	0xbccefb43	-0.025266295
17	0xbde0f292	-0.109837666
18	0x3e081e60	0.13292837
19	0x3c09b45e	0.008404819
20	0x3d5a614a	0.05331544
21	0xbdceb2db	-0.10092708
22	0xbbdd1b3d	-0.006747632
23	0xbc1c924a	-0.009556362
24	0x3db458aa	0.08805974
25	0xbd1f8e1b	-0.03895388
26	0xbc6f78c1	-0.014616192
27	0xbd627ed9	-0.055296753
28	0x3e206bf6	0.15666184
29	0xbd37c4ce	-0.044865422
30	0x3c4c0aad	0.012453717
31	0xbd66dd12	-0.056363173
32	0x3c877ee4	0.016539998
33	0x3c93efc1	0.01805866
34	0xbc956283	-0.01823545
35	0xbdb0c2a1	-0.086308725
36	0xbd884e2f	-0.06655537
37	0xbcc39db4	-0.02387891
38	0x3e18d865	0.14926298
39	0x3d24cea1	0.04023612
40	0xbb202e5a	-0.002444169
41	0x3cd8dd24	0.026472636
42	0x3dc7b796	0.09751813
43	0xbdbaca80	-0.09120655
44	0x3e0d1ce1	0.13780548
45	0xbda3f5c4	-0.080058604
46	0xbd7ef836	-0.06224843
47	0xbdd29d92	-0.102839604
48	0xbc9f6d98	-0.019461438
49	0x3c7cca76	0.01542913
50	0x3dd2ab94	0.10286632
51	0xbc5e07d8	-0.013551675
52	0xbd87705a	-0.06613226
53	0x3da0bc48	0.07848412
54	0xbda1174e	-0.07865773
55	0x3d5328f7	0.05155274
56	0x3e021977	0.12705027
57	0xbcd6bcb9	-0.026213037
58	0xbce37d46	-0.027769696
59	0xbd66dc1a	-0.05636225
60	0xbd77577c	-0.060386166
61	0xbd746ac3	-0.05967213
62	0xbe01aa6b	-0.12662666
63	0xbd9da2e0	-0.076970816
64	0xbdcc17f1	-0.09965504
65	0x3d4047a8	0.046943337
66	0x3d104ae2	0.035227664
67	0xbd98bb3e	-0.074575886
68	0x3df16821	0.11787439
69	0xbc5077c4	-0.012723867
70	0xbdbb6042	-0.09149219
71	0xbd222779	-0.039588425
72	0xbd5df927	-0.05419269
73	0xbdbcc42b	-0.092171036
74	0xbda2587a	-0.07927032
75	0xbdaa8152	-0.08325447
76	0xbd3a0950	-0.045419037
77	0x3d03a2f0	0.03213781
78	0x3abc1aee	0.0014351287
79	0x3c9f7cca	0.019468684
80	0x3d85283e	0.06501816
81	0xbd9c96b7	-0.07645934
82	0xbb8360e4	-0.004009353
83	0xbdcf215f	-0.10113787
84	0x3dc000d0	0.09375155
85	0x3ce2e086	0.027694952
86	0x3c4e6e00	0.012599468
87	0x3d2aad9f	0.041669484
88	0xbc83d138	-0.016090974
89	0x3e123b88	0.14280522
90	0xbd910180	-0.07080364
91	0x3dae01f8	0.08496469
92	0x3c726c77	0.014796368
93	0xbde85a3a	-0.11345334
94	0xbcf508a1	-0.029911341
95	0x3da00c6b	0.078148685
96	0x3d7565b4	0.059911445
97	0x3d8ad214	0.067783505
98	0xbd6c75a2	-0.05772937
99	0x3d0e2a65	0.0347084
100	0xbdfe8a26	-0.124286935
101	0xbbbb5aab	-0.0057175956
102	0x3dfc200c	0.123108
103	0x3c72db38	0.014822774
104	0x3e0f50a7	0.1399561
105	0xbd918861	-0.0710609
106	0x3dcdf7f2	0.100570574
107	0xbcc1ef2b	-0.023673614
108	0xbd868ce1	-0.06569839
109	0xbc667962	-0.014067026
110	0xbd53624c	-0.051607415
111	0xbd8cf070	-0.06881797
112	0xb89ae8a4	-7.386625e-05
113	0xbd95af6b	-0.07308849
114	0xbd739858	-0.05947146
115	0x3d1ae669	0.037817392
116	0xbd1cadda	-0.038251735
117	0x3e20e4b2	0.1571224
118	0x3cdfccee	0.027319398
119	0x3dd1bc34	0.10240975
120	0xbde94c54	-0.113915116
121	0x3da157fe	0.07878111
122	0xbdff5005	-0.124664344
123	0x3ceba12e	0.02876338
124	0xbc9f3b04	-0.01943732
125	0xbd12d367	-0.03584614
126	0x3db1322c	0.08652148
127	0x3db07a91	0.08617128
128	0xbd931d8f	-0.07183372
129	0xbd9c82b7	-0.076421194
130	0x3dbd69fd	0.09248731
131	0x3d7c4429	0.06158844
132	0x3df97a19	0.121814914
133	0x3d68af86	0.056808017
134	0x3de6baee	0.11266123
135	0xbdf874f4	-0.12131682
136	0xbcef8ece	-0.0292429
137	0x3d9a3ede	0.07531522
138	0xbcc4b2b3	-0.024010992
139	0x3d5ef4eb	0.05443279
140	0xba906269	-0.0011015657
141	0x3dd8897e	0.105730996
142	0xbc681401	-0.014164926
143	0xbcfcdcda	-0.030867029
144	0x3defa83f	0.11702012
145	0xbce69a8f	-0.028149871
146	0x3d036c16	0.0320855
147	0xbc1484cf	-0.009064867
148	0xbca2f7bc	-0.01989352
149	0xbd8df96d	-0.0693234
150	0xbdc40a5b	-0.09572288
151	0x3cc5ae47	0.024130953
152	0xbd6dbfc5	-0.058044214
153	0xbd8c8066	-0.068604276
154	0x3d82f624	0.06394604
155	0x3ce2f3e6	0.02770419
156	0xbd545614	-0.051839903
157	0xbd899220	-0.06717324
158	0xbdbf1ef4	-0.09332076
159	0xbca15ce9	-0.019697623
160	0x3d16c4f9	0.03680894
161	0xbd3d22bc	-0.046175703
162	0xbdeab5fc	-0.11460492
163	0x3daa2cbb	0.08309313
164	0x3de1fc0c	0.11034402
165	0xbd0d6557	-0.034520473
166	0xbdcea3fe	-0.10089873
167	0xbccde9e3	-0.02513594
168	0x3de4e370	0.11176193
169	0x3b14dc1c	0.0022714203
170	0x3d69bbf1	0.057064
171	0x3db1989f	0.08671688
172	0xbd7b21ee	-0.061311655
173	0xbd9bc1b9	-0.07605309
174	0xbcf73398	-0.030175969
175	0x3c98e482	0.018663649
176	0x3d86fa4a	0.065907076
177	0xbda32d04	-0.079675704
178	0x3cb4bd76	0.022062998
179	0xbda1c581	-0.07898999
180	0x3b9e9e1c	0.0048406255
181	0x3d3b8692	0.045782633
182	0x3d2338ea	0.0398492
183	0x3d2c3134	0.04203911
184	0xbdc172d8	-0.09445733
185	0x3c09381b	0.008375193
186	0x3dccedc7	0.1000629
187	0x3d8e54c5	0.06949762
188	0x3d657635	0.056020934
189	0xbd11e01a	-0.03561411
190	0xbdb4e392	-0.08832468
191	0x3dc327b8	0.0952906
192	0xbd0890c3	-0.03334118
193	0x3e193e1d	0.149651
194	0xbda5d9c0	-0.08098173
195	0xbd2d14d8	-0.042256206
196	0xbd6126a4	-0.05496849
197	0x3cf5e23c	0.030015104
198	0xbdafbc39	-0.085808225
199	0x3d1f068a	0.038824596
200	0x3cab36d8	0.020900175
201	0x3e27faab	0.16404216
202	0x3c920381	0.017823936
203	0xbb836101	-0.0040093665
204	0xbd83943e	-0.06424759
205	0xbdc0a203	-0.09405901
206	0xbd8b2083	-0.067933105
207	0x3d9aed94	0.07564846
208	0x3db5225b	0.088444434
209	0x3d67b1cb	0.05656604
210	0x3d9d4102	0.07678415
211	0xbc85b3e2	-0.016321126
212	0x3b5b3e31	0.0033453817
213	0x3c3f44c7	0.011674113
214	0x3d3dd1b5	0.04634257
215	0xbd3ef441	-0.046619657
216	0x3ddedfce	0.10882531
217	0xbd433ab7	-0.047663417
218	0x3d51608a	0.051117457
219	0xbdc3ea01	-0.09566117
220	0x3e10081f	0.14065598
221	0x3d5fa07b	0.054596405
222	0x3dcf7f01	0.10131646
223	0x3d8494e7	0.06473713
224	0xb947a080	-0.0001903791
225	0x3d86d9a4	0.065844804
226	0x3da51c87	0.08062082
227	0x3d9e306b	0.07724079
228	0xbc859c92	-0.01631001
229	0xbdadc801	-0.08485413
230	0x3cdb04cc	0.026735686
231	0x3d8e25cf	0.06940805
232	0x3decbbb4	0.11559239
233	0x3dffd857	0.124924354
234	0xbd6fb79b	-0.05852471
235	0xbdcfbe39	-0.10143704
236	0x3cd5615f	0.026047407
237	0xbdd8501e	-0.10562156
238	0x3cbad609	0.022807138
239	0x3dbcf84f	0.092270486
240	0xbdc91a99	-0.09819526
241	0xbd0500c6	-0.03247144
242	0x3cf378d8	0.029720709
243	0x3de831e9	0.113376446
244	0xbda3f8cc	-0.080064386
245	0x3d7d7f44	0.061888948
246	0x3dabe197	0.08392637
247	0xbdc9f3b1	-0.098609336
248	0xbdc9983a	-0.09843488
249	0x3dd2e1cd	0.10296974
250	0x3deb6b92	0.11495127
251	0x3dd48974	0.103777796
252	0xbd932213	-0.071842335
253	0xbe03c70a	-0.12868896
254	0x3dcafb28	0.099111855
255	0x3d914e9d	0.070950724

lstm.bias_hh_l0 f4 [256]
0	0x3cac999a	0.021069337
1	0x3dc912f6	0.0981807
2	0xbdadfa80	-0.08495045
3	0xbdc602d6	-0.0966851
4	0x3ca52243	0.020157939
5	0xbc4c8246	-0.0124822315
6	0x3d1dc347	0.03851631
7	0x3ddb3928	0.10704261
8	0x3dc74186	0.097292945
9	0x3d857c8d	0.06517897
10	0xbdd8b3c3	-0.10581162
11	0x3e0a4d22	0.13505986
12	0xbde2f018	-0.110809505
13	0xbdc9cbcc	-0.09853324
14	0x3da4421a	0.0802042
15	0x3cab426d	0.020905698
16	0xbdd021fe	-0.101627335
17	0x3de9cd7a	0.11416145
18	0xbc3ace0a	-0.011401663
19	0xbda52d62	-0.08065297
20	0xbd823adb	-0.06358882
21	0x3d2da7be	0.0423963
22	0x3d325ac0	0.043543577
23	0x3ddd8cdc	0.108178824
24	0x3e0bdc1c	0.13658184
25	0x3d2554f4	0.04036422
26	0x3e25875e	0.1616492
27	0xbd8c2e1b	-0.068447314
28	0x3dfea785	0.124342956
29	0x3d39c8ea	0.045357622
30	0x3c96fb8e	0.018430497
31	0x3db2c5e7	0.08729153
32	0x3dc887cd	0.09791527
33	0x3de4d414	0.11173263
34	0x3d2e8e1e	0.042616002
35	0xbdb6d68b	-0.089276396
36	0x3c6815e7	0.014165378
37	0xbd62ed82	-0.055402286
38	0x3e00a505	0.1256295
39	0x3e1dee4a	0.15422931
40	0x3daae42d	0.08344302
41	0x3c44b640	0.012006342
42	0x3c94d8b7	0.018169744
43	0x3db1fcb6	0.08690779
44	0x3e272c16	0.16325411
45	0xbc895fdb	-0.01676934
46	0x3dc32e87	0.09530359
47	0xbd8f23fc	-0.06989285
48	0xbdc1bbdf	-0.09459662
49	0x3d4b5849	0.049644742
50	0x3dd10258	0.10205525
51	0xbd3b100a	-0.045669593
52	0xbdb24fc2	-0.08706619
53	0xbd0764ca	-0.033055104
54	0xbcf21801	-0.029552462
55	0xbd8b71da	-0.06808825
56	0xbd79b107	-0.060959842
57	0x3e149399	0.14509429
58	0x3da65ecf	0.08123552
59	0xbd982cf3	-0.074304484
60	0x3e0d0355	0.13770802
61	0xbd8e7c3d	-0.0695729
62	0xbdba61e5	-0.09100703
63	0x3d969c52	0.073540345
64	0xbdea753b	-0.11448141
65	0x3ccc3e0b	0.024931928
66	0x3c828bac	0.015935741
67	0x3d2547fa	0.040351845
68	0x3d9da295	0.07697026
69	0x3dce2ade	0.1006677
70	0xbd08499f	-0.033273336
71	0xbddda127	-0.10821753
72	0xbd8cd0c5	-0.06875757
73	0xbd17b011	-0.037033144
74	0x3cf97076	0.030449133
75	0x3d094815	0.03351601
76	0x399b5179	0.00029624606
77	0x3b9aabb5	0.004720176
78	0xbcc7da48	-0.024396077
79	0xbcb700d0	-0.022339255
80	0x3d874016	0.0660402
81	0xbdab2339	-0.083563276
82	0xbca28c2d	-0.019842232
83	0xbe00c352	-0.12574509
84	0xbc20eca8	-0.009822048
85	0x3db3992e	0.08769451
86	0xbc265640	-0.0101524
87	0xbd81b4a7	-0.06333285
88	0xbe113af2	-0.14182642
89	0x3c4cf6cb	0.012510012
90	0x3da72e93	0.0816318
91	0x3d83b7ab	0.06431516
92	0xbc87395c	-0.016506843
93	0xbd4a0a70	-0.04932636
94	0x3dd4825a	0.10376425
95	0x3ddace8d	0.10683928
96	0xbda85c26	-0.08220701
97	0x3de9b812	0.11412062
98	0x3db3e06f	0.08783042
99	0x3b8e0c30	0.004334949
100	0xbd5c6302	-0.05380536
101	0xbd99f935	-0.075182356
102	0xbd158f03	-0.03651334
103	0x3cbffed4	0.023436941
104	0x3dbc5cbe	0.09197377
105	0x3ccb40ba	0.024811137
106	0x3b85a121	0.004078046
107	0x3c468653	0.012116986
108	0x3dded59a	0.10880585
109	0xbd0a8504	-0.03381826
110	0xbdb29e5a	-0.087216094
111	0xbd837ffc	-0.064208955
112	0x3d1cef70	0.038314283
113	0x3dd6cb0d	0.104879476
114	0x3c75625b	0.014977063
115	0xbd562cb1	-0.052288715
116	0xbdab2db7	-0.08358329
117	0x3c5bc94a	0.01341469
118	0x3da6d08e	0.081452474
119	0xbdf27e7e	-0.11840533
120	0xbd458fd2	-0.04823286
121	0xbdc6db22	-0.09709765
122	0xbe08f901	-0.13376237
123	0x3dbdc0d6	0.09265296
124	0xbe018ddc	-0.12651771
125	0xbdb97088	-0.09054667
126	0x3d4137ed	0.047172476
127	0x3d3ba17c	0.0458083
128	0xbc72f186	-0.0148280915
129	0xbd1943be	-0.03741812
130	0x3c85420a	0.016266841
131	0x3cf66568	0.030077651
132	0x3b842d40	0.0040337145
133	0xbd95714e	-0.07297002
134	0x3b83cbe7	0.00402211
135	0x3c6cced3	0.014453608
136	0xbdd85485	-0.10562996
137	0xbdc7cadc	-0.09755489
138	0xbdb29645	-0.08720068
139	0x3d37522f	0.04475611
140	0xbd7d22e8	-0.061800867
141	0x3d27eee1	0.040999297
142	0xbde130b7	-0.1099562
143	0x3cde177e	0.027110811
144	0x3da0e525	0.07856206
145	0xbd3ad227	-0.045610573
146	0x3d915564	0.07096365
147	0xbddd16f7	-0.10795396
148	0xbde97dfb	-0.11400982
149	0xbd72b14e	-0.059251122
150	0xbc15fb0f	-0.009154095
151	0xbd1267aa	-0.035743393
152	0x3d87c948	0.06630188
153	0x3c75b95e	0.014997808
154	0xbd6f614e	-0.058442406
155	0x3c5efb51	0.013609723
156	0x3dd9c579	0.10633368
157	0x3d358f77	0.04432627
158	0xbdef8cec	-0.116968006
159	0x3d7b3d6c	0.061337873
160	0xbc8658af	-0.01639971
161	0x3be4095e	0.0069591245
162	0xbd53db75	-0.051722962
163	0x3dbf8335	0.09351198
164	0xbbabf000	-0.005247116
165	0xbddceb83	-0.10787108
166	0x3d0c9d8d	0.03432994
167	0x3ddc3bed	0.107536174
168	0xbd87d784	-0.06632903
169	0xbcb3c63c	-0.021945111
170	0x3da2ed6b	0.0795544
171	0xbd7238b7	-0.05913612
172	0x3dbf2f88	0.09335238
173	0x3d9ab09b	0.07553216
174	0xbdaaa628	-0.08332473
175	0xbc7ee5be	-0.0155577045
176	0xbdab6b72	-0.08370103
177	0x3dbaede4	0.09127405
178	0xbd2ff640	-0.04295945
179	0xbcf8759d	-0.03032952
180	0x3d9789e8	0.073993504
181	0xbc4bbb47	-0.012434787
182	0x3ddddcfa	0.108331636
183	0x3c32ee11	0.010921017
184	0x3c8836c5	0.016627679
185	0x3d5e598d	0.05428462
186	0xbbc890c0	-0.006120771
187	0x3d4e0e82	0.050306804
188	0x3d44a695	0.048010428
189	0x3df2e881	0.11860753
190	0x3d48482f	0.048896965
191	0xbd55e1c1	-0.05221725
192	0xbcde6d38	-0.027151689
193	0xbd9544bc	-0.07288501
194	0x3d46e6a0	0.048559785
195	0xbce2acd5	-0.027670303
196	0xbd33091e	-0.043709867
197	0xbd967f2c	-0.07348475
198	0xba53e3d0	-0.0008082958
199	0x3d09d2d6	0.033648334
200	0x3dff7b80	0.12474728
201	0x3d88cdf3	0.06679907
202	0xbd533026	-0.05155959
203	0x3de3fccc	0.111322016
204	0x3ceea1a4	0.02912981
205	0xbdf44023	-0.119262956
206	0xbe057f2b	-0.13036792
207	0x3d5de204	0.054170623
208	0xbdd4d6bd	-0.103925206
209	0x3d9bd6b3	0.0760931
210	0x3e184b5d	0.14872499
211	0xbcef5b78	-0.02921842
212	0x3e152fce	0.14569017
213	0x3dd3278d	0.10310278
214	0xbaa6f09e	-0.0012736504
215	0x3d7e25c3	0.06204773
216	0xbd5afa1b	-0.053461175
217	0x3d025177	0.031815972
218	0xbbd48347	-0.006485376
219	0xbd8d218d	-0.06891165
220	0x3da1a153	0.07892098
221	0x3c8508b6	0.016239505
222	0xbd11da07	-0.035608318
223	0x3dc6e29b	0.0971119
224	0xbd98fa24	-0.074695855
225	0x3cc5a3f2	0.024126027
226	0xbd4bec93	-0.04978616
227	0xbe03a92b	-0.12857501
228	0x3d23aa13	0.039957117
229	0xbdbe25b3	-0.09284534
230	0xbb937fde	-0.004501327
231	0x3d70643d	0.058689345
232	0xbc0876dd	-0.00832912
233	0xbc71fdf8	-0.0147700235
234	0xbcfcb927	-0.030850006
235	0xbde7dc9d	-0.113213755
236	0x3e5cd434	0.21565324
237	0x3dcdfaf2	0.1005763
238	0x3df255a2	0.118327394
239	0xbdfd633b	-0.12372442
240	0xbe073ca1	-0.13206722
241	0x3e0e1051	0.13873412
242	0x3e179450	0.1480267
243	0xbdb4db1f	-0.088308565
244	0x3d9cc244	0.07654241
245	0xbcef0007	-0.029174818
246	0xbd8547df	-0.06507849
247	0x3d3c5610	0.045980513
248	0x3d5ea83c	0.05435966
249	0xbd00d4a7	-0.0314528
250	0x3d530ee4	0.051527873
251	0xbd5b2159	-0.0534986
252	0xbcb49ebc	-0.022048347
253	0x3dd9e7ae	0.106398925
254	0xbb999346	-0.004686746
255	0xbdb272cb	-0.08713301

lstm.weight_ih_l0_reverse f4 [256, 4]
0	0xbd2b13a0	-0.041766763
1	0xbc1cfaff	-0.0095813265
2	0xbde612ea	-0.11234076
3	0x3db66bb8	0.089072645
4	0xbdedb625	-0.11607007
5	0x3bd631be	0.0065366914
6	0x3db66b83	0.08907225
7	0x3e13bb1b	0.14426844
8	0xbdeb3f67	-0.114867024
9	0xbdcfa7f8	-0.10139459
10	0x3de5d165	0.112215795
11	0x3d9623ef	0.073310725
12	0xbdcfd91c	-0.10148832
13	0x3cb4b257	0.022057695
14	0x3dec9b55	0.11553065
15	0xbcf19ed2	-0.029494677
16	0xbd039922	-0.03212846
17	0xbd0a6a9f	-0.033793088
18	0x3cb98625	0.022646973
19	0x3e0bb115	0.1364177
20	0xbdc1921b	-0.094516955
21	0xbdcbc996	-0.09950559
22	0xbc0836e5	-0.008313869
23	0xbd074c3e	-0.033031695
24	0x3d6e2632	0.058141895
25	0x3dee7ae9	0.11644537
26	0x3ca590b3	0.0202106
27	0xbc6bb1c5	-0.014385645
28	0xbc6c79e7	-0.014433361
29	0x3d35d354	0.04439099
30	0x3e04a34c	0.12952918
31	0xbc69b03e	-0.014263211
32	0xbe1172f3	-0.14204006
33	0x3d062f65	0.032760043
34	0xbd1488fc	-0.03626345
35	0xbd62c07b	-0.055359345
36	0x3c0c112d	0.008549017
37	0x3d8a505a	0.06753607
38	0xbe2ff38e	-0.17182752
39	0x3d177891	0.036980215
40	0xbd7b4b85	-0.061351318
41	0x3d573656	0.052542053
42	0xbda1095c	-0.07863113
43	0x3d3732b8	0.044726104
44	0x3dff6b84	0.12471679
45	0x3e06ad10	0.13151956
46	0xbe258ff7	-0.161682
47	0xba9fe990	-0.0012200344
48	0xbbe60ebf	-0.007020801
49	0x3ddf8b45	0.109152354
50	0x3e155f7c	0.14587206
51	0x3e22faa3	0.15915923
52	0x3d80074c	0.06251392
53	0xbca7aa9f	-0.0204671
54	0xbd3d7154	-0.046250656
55	0x3d927293	0.071507595
56	0xbd822127	-0.063539796
57	0x3d501f14	0.05081089
58	0x3e00c9cf	0.12576984
59	0x3d80c219	0.06287021
60	0xbda9e796	-0.08296125
61	0x3c88283a	0.016620744
62	0xbe11c293	-0.1423438
63	0x3d404d3e	0.046948664
64	0x3e02fabf	0.12790965
65	0x3d00c417	0.031437006
66	0x3d9860fd	0.07440374
67	0xbdfb7951	-0.12278999
68	0xbd4bfb26	-0.04980006
69	0xbd5d389c	-0.054009065
70	0x3a147103	0.0005662592
71	0xbc08d3aa	-0.008351246
72	0xbe05e713	-0.13076429
73	0xbdabe30b	-0.083929144
74	0x3ded13a7	0.11576014
75	0xbd7f483d	-0.06232475
76	0xbd02dd6a	-0.03194944
77	0x3c7699a6	0.015051281
78	0xbd500598	-0.050786585
79	0xbdb1602b	-0.08660921
80	0xbe103d8f	-0.14085983
81	0x3d952148	0.072817385
82	0x3e1baea7	0.15203343
83	0x3e294ad3	0.1653245
84	0xbd3f9c20	-0.04677975
85	0xbce52431	-0.027971359
86	0xbda61f52	-0.081114426
87	0x3c8262d5	0.015916267
88	0xbd48abf5	-0.048992116
89	0xbd1190ea	-0.03553859
90	0x3dc9a519	0.09845943
91	0x3dff3608	0.124614775
92	0xbbdc4eac	-0.0067232456
93	0xbdeb8644	-0.115002185
94	0xbbe27323	-0.006910698
95	0x3cfec5a7	0.031100107
96	0x3d869d97	0.065730266
97	0x3d1057b1	0.03523988
98	0x3d04136c	0.032245085
99	0xbdaadf53	-0.08343377
100	0x3d71d54f	0.059041318
101	0xbcd70c6d	-0.026251042
102	0xbd8a2445	-0.06745199
103	0x3da1c924	0.07899693
104	0x3e27e1f6	0.16394791
105	0xbd3aac9d	-0.045574773
106	0xbd519561	-0.05116785
107	0xbbcf97d7	-0.0063352394
108	0x3c1abee0	0.009444922
109	0x3cac2440	0.02101338
110	0x3d002664	0.031286612
111	0xbda30950	-0.079607606
112	0xbe0ef5ad	-0.13960905
113	0x3ba73cd9	0.005103689
114	0xbd549c9e	-0.051907174
115	0x3e4d8603	0.20070653
116	0xbd286b1e	-0.04111778
117	0x3e0a88f0	0.135288
118	0xbda733a3	-0.08164146
119	0x3d26bb3d	0.040705908
120	0x3dc7f80b	0.09764107
121	0xbc8fcef7	-0.017554743
122	0x3de8b425	0.11362485
123	0xbcd1baf7	-0.025601847
124	0xbcf38650	-0.029727131
125	0x3cc5eb0a	0.024159927
126	0x3cef1de7	0.029189063
127	0x3bd75f20	0.006572619
128	0xbd4d11ce	-0.050065808
129	0x3daabaeb	0.08336433
130	0xbd853098	-0.06503409
131	0xbdb8ba65	-0.09019927
132	0x3dca0ef3	0.098661326
133	0x3e02fe42	0.12792304
134	0xbb44dc7d	-0.0030038648
135	0xbd937a09	-0.07201011
136	0x3dd6ca5d	0.104878165
137	0xbdc8cfe5	-0.09805278
138	0xbe29e5f7	-0.16591631
139	0xbc311ead	-0.010810536
140	0xbe01c62d	-0.12673254
141	0x3bc281c5	0.00593588
142	0x3ab5e968	0.0013878765
143	0x3d30f87b	0.04320572
144	0xbe02b8b0	-0.12765765
145	0xbc3efba9	-0.01165668
146	0x3e3bb711	0.18331553
147	0x3db7661f	0.08955025
148	0xbd245dca	-0.040128507
149	0x3e09ac17	0.13444553
150	0x3ddf5759	0.10905332
151	0xbd9a9c6f	-0.075493686
152	0x3c886341	0.01664889
153	0x3e07c114	0.13257247
154	0x3a17c9c8	0.00057902606
155	0x3d13940b	0.036029857
156	0x3d384200	0.044984818
157	0xbe02c720	-0.12771273
158	0x3df206d2	0.11817707
159	0xbd712fd1	-0.058883492
160	0xbd5f04be	-0.054447882
161	0xbd3895cf	-0.045064744
162	0xbd04abb0	-0.032390296
163	0xbcfde8d2	-0.030994806
164	0xbcb263e7	-0.021776153
165	0xbd0879c7	-0.03331926
166	0xbd48aee3	-0.04899491
167	0xbd7f81d7	-0.062379684
168	0x3daaa49f	0.0833218
169	0xbb4ffc5c	-0.0031736111
170	0x3d8d34c7	0.06894832
171	0x3b897a8e	0.004195518
172	0xbc25b84c	-0.010114741
173	0x3c85a06a	0.016311843
174	0xbdec5eca	-0.11541517
175	0xbdbdad7a	-0.09261604
176	0xba5420a5	-0.00080920226
177	0xbdf90cbd	-0.12160633
178	0x3da1d02f	0.07901036
179	0x3db7da07	0.08977132
180	0xbd714cea	-0.05891124
181	0x3dc1b2cc	0.09457931
182	0xbd4a08ad	-0.04932468
183	0x3e13fd03	0.14451985
184	0x3d0ebecc	0.034849927
185	0xbda693d1	-0.081336625
186	0x3c24098f	0.010012045
187	0x3de865b1	0.11347521
188	0x3e0843a5	0.13307054
189	0x3c779609	0.015111455
190	0xbe259564	-0.16170269
191	0xbc7b4999	-0.015337371
192	0xbdaaa7e4	-0.08332804
193	0x3df14e6d	0.11782537
194	0x3dfcf668	0.12351686
195	0x3d8dfcea	0.06933005
196	0xbd5ec4fc	-0.054387078
197	0xbd00c07a	-0.03143356
198	0xbdbf690e	-0.093462095
199	0x3dccb2e5	0.09995059
200	0xbdc7d6ba	-0.09757753
201	0xbd9a9519	-0.07547969
202	0x3d6739c2	0.056451567
203	0x3e3c58ac	0.183932
204	0xbc6a481b	-0.014299418
205	0xbd43edf9	-0.04783437
206	0x3d0118ae	0.031517677
207	0x3981733e	0.0002469066
208	0x3dc8239d	0.09772418
209	0x3de8d317	0.11368387
210	0x3d2fc362	0.04291094
211	0x3e2eccc6	0.17070302
212	0xbcad356b	-0.021143636
213	0x3d690bff	0.056896206
214	0x3ddc6c62	0.1076286
215	0x3dfd29fb	0.12361523
216	0xbda8717b	-0.0822477
217	0xbd3e7b8f	-0.046504553
218	0x3e46bc58	0.19407785
219	0x3e106ed8	0.14104784
220	0xbc663da5	-0.014052783
221	0xbd6d1182	-0.057878025
222	0x3e134fd1	0.14385916
223	0x3da3e599	0.08002777
224	0x3d7aecb2	0.061260886
225	0x3de2d420	0.11075616
226	0xbdc90407	-0.09815221
227	0xbd5b80d6	-0.053589664
228	0x3c95a4e9	0.018267112
229	0x3db2f203	0.08737566
230	0xbbe0356b	-0.0068423054
231	0xbcf33dc8	-0.029692546
232	0xbc00ce25	-0.007861649
233	0xbdf4ad2c	-0.119470924
234	0xbda7e9f7	-0.08198922
235	0xbd9420f4	-0.07232848
236	0x3e0b00bd	0.135745
237	0xbdd356d7	-0.10319298
238	0x3c6250d3	0.013813215
239	0x3d949bab	0.07256254
240	0xbd32f6c2	-0.043692358
241	0x3c62f720	0.0138528645
242	0xbd567fcf	-0.05236798
243	0x3c79bd14	0.015242834
244	0xbc1eed3f	-0.009700119
245	0xbd47bd05	-0.048764247
246	0xbe297ba9	-0.16551079
247	0xbe120de5	-0.14263113
248	0xbdc3d1c6	-0.095614955
249	0xbd50cb33	-0.050975036
250	0x3d47ea15	0.048807222
251	0xbdc63aac	-0.096791595
252	0xbd9ea3a6	-0.07746057
253	0x3dafdeec	0.08587441
254	0x3da3c4d4	0.07996526
255	0xbc9159f1	-0.017743083

lstm.weight_hh_l0_reverse f4 [256, 64]
0	0x3b0eb248	0.0021773744
1	0xbda4791b	-0.080309115
2	0xbd881d84	-0.06646255
3	0xbdcc7170	-0.09982574
4	0xbd929b4f	-0.07158529
5	0xbdc3b6df	-0.09556364
6	0x3d342c0c	0.04398732
7	0x3d93028f	0.071782224
8	0x3d45a15e	0.048249595
9	0x3dd174f3	0.102273844
10	0xbd15d03d	-0.036575545
11	0x3d95a076	0.07305996
12	0x3e0218a3	0.1270471
13	0x3d7c8c5d	0.0616573
14	0x3d88939f	0.066687815
15	0x3d1731da	0.036912777
16	0x3c93838f	0.018007068
17	0xbdb1a0d3	-0.08673253
18	0x3d7fe89d	0.062477697
19	0xbdfb0162	-0.12256123
20	0x3da74b9e	0.0816872
21	0x3d7aa7f1	0.061195318
22	0xbb93ff0c	-0.004516488
23	0x3d9941e9	0.074832745
24	0xbdccd0d3	-0.100007676
25	0xbdfbac6a	-0.12288745
26	0xbc91bd9c	-0.017790608
27	0x3cbee30c	0.023301624
28	0xbdf34a8a	-0.118794516
29	0xbdf08244	-0.11743596
30	0xbde0d785	-0.10978607
31	0x3d9b5261	0.07584072
32	0xbcfa1b1b	-0.030530503
33	0x3d6e0628	0.05811134
34	0xbda63635	-0.08115808
35	0x3dc06661	0.09394527
36	0xbc521214	-0.012821693
37	0xbb7386a4	-0.003715911
38	0x3d99fb2b	0.075186096
39	0xbc20f2ad	-0.009823483
40	0x3ddd5da0	0.10808873
41	0x3de14c41	0.110008724
42	0xbcd8deae	-0.02647337
43	0x3dc1b91e	0.094591364
44	0xbac965c3	-0.001536541
45	0x3d22a5fe	0.039709084
46	0x3d9ca66c	0.0764893
47	0xbc3d2411	-0.011544243
48	0x3da9a3d2	0.08283199
49	0x3d5a1217	0.053239908
50	0x3d35ac93	0.044354033
51	0x3dd92632	0.10602988
52	0x3d4cf451	0.050037686
53	0xbd768582	-0.060185917
54	0x3d7ccd4d	0.061719228
55	0xbd372245	-0.044710416
56	0xbd928b69	-0.071554966
57	0x3dc0bcc7	0.094110064
58	0xbcefb3d0	-0.029260546
59	0xbddcb295	-0.10776249
60	0xbdb03ba3	-0.08605125
61	0xbd239c45	-0.039943952
62	0x3dd51ba7	0.10405665
63	0xbd9668f8	-0.0734424
64	0xbd7e1ffc	-0.06204222
65	0xbd98d4f9	-0.07462496
66	0xbd0864c0	-0.033299208
67	0xbb625d01	-0.0034540298
68	0xbd24e64a	-0.040258683
69	0x3dd48e86	0.10378747
70	0xbe0ddcc7	-0.13853751
71	0x3cce2f37	0.025168998
72	0x3bf230d0	0.007391073
73	0xbc87358d	-0.016505027
74	0x3cc832f2	0.024438355
75	0x3bbaf174	0.005705053
76	0x3d4bef56	0.049788795
77	0x3daae485	0.08344368
78	0xbcb2d2af	-0.021828977
79	0xbdaaede0	-0.08346152
80	0xbdacd0b4	-0.084382445
81	0xbdcc50b1	-0.09976328
82	0x39b7f688	0.0003508816
83	0xbd1d4c22	-0.038402684
84	0x3d011488	0.03151372
85	0x3dced29c	0.10098764
86	0x3d180795	0.037116606
87	0xbd3b2a80	-0.045694828
88	0x3db22e3d	0.087002255
89	0xbde92943	-0.11384823
90	0x3c83fce5	0.0161118
91	0x3dcaa5de	0.09894918
92	0x3dab3786	0.083602
93	0xbdf39337	-0.118933134
94	0xbdb82604	-0.08991626
95	0x3c7af62f	0.015317484
96	0x3c87e2ff	0.016587732
97	0xbd2b4219	-0.041811083
98	0xbd742545	-0.059605855
99	0xbdc532d2	-0.09628834
100	0xbced0411	-0.028932603
101	0xbda8fe14	-0.082515866
102	0xba0a047a	-0.0005264949
103	0x3cf47d10	0.02984479
104	0xbdd7b486	-0.10532479
105	0x3cf0cb19	0.02939372
106	0x3dfb853e	0.12281273
107	0x3dde4148	0.10852295
108	0xbcda5332	-0.026650999
109	0x3d5e6af6	0.054301225
110	0xbd7fcb7a	-0.06244991
111	0xbdc9b410	-0.09848797
112	0x3d3aa5a3	0.04556812
113	0x3da46c53	0.08028474
114	0x3dd919cc	0.106006235
115	0x3dda4049	0.10656793
116	0x3e113a7c	0.14182466
117	0xbdc3f075	-0.09567348
118	0xbcfc5895	-0.030803958
119	0xbd8e1e89	-0.06939418
120	0xbcdcfe7e	-0.02697682
121	0xbd86f6cd	-0.06590042
122	0x3bd40875	0.0064707347
123	0x3d9b7558	0.07590741
124	0xbc23a734	-0.009988595
125	0x3e0b3a99	0.13596572
126	0x3d9f9cbf	0.07793569
127	0x3e0f15aa	0.13973108
128	0xbd20cdda	-0.039258815
129	0x3cc933d7	0.024560852
130	0xbd8e275a	-0.069410995
131	0x3ceb087d	0.028690571
132	0xbd86394b	-0.065538965
133	0x3ddfdd2c	0.10930857
134	0xbd55bfe0	-0.05218494
135	0xbe312301	-0.17298509
136	0x3cd44a66	0.025914382
137	0xbd2241a5	-0.039613385
138	0x3e0d6fc4	0.13812166
139	0x3c815498	0.015787408
140	0xbce41e90	-0.027846605
141	0x3d859082	0.06521703
142	0x3d106989	0.035256896
143	0xbdffc34f	-0.12488424
144	0xbcc15747	-0.023601187
145	0xbd17a6fe	-0.03702449
146	0x3d52003f	0.051269766
147	0x3dac6a05	0.08418659
148	0x3cea0714	0.028567828
149	0xbaf23bf7	-0.0018481006
150	0xbdde5c24	-0.10857418
151	0x3c94d846	0.018169533
152	0xbccb223a	-0.024796594
153	0xbd5ac72c	-0.0534126
154	0xbd083ae4	-0.033259287
155	0x3bc475dc	0.0059954952
156	0xbccf1d93	-0.025282657
157	0x3d4126e0	0.047156215
158	0x3df03295	0.11728398
159	0x3dd44bf3	0.10366049
160	0x3ce3cac2	0.027806643
161	0x3d3a17a6	0.04543271
162	0xbdec7db7	-0.11547416
163	0xbd453910	-0.048150122
164	0xbe329179	-0.17438306
165	0xbdda32eb	-0.10654243
166	0x3da1cd77	0.079005174
167	0x3dc75bf4	0.097343355
168	0xbcc35844	-0.0238458
169	0xbe023dcc	-0.12718886
170	0xbba5d856	-0.0050611896
171	0xbdab41eb	-0.08362182
172	0x3b931bcc	0.0044893976
173	0xbdd82850	-0.10554564
174	0xbdce906b	-0.10086139
175	0xbd11a670	-0.035559118
176	0xbda9c7ec	-0.08290085
177	0x3dc48999	0.09596557
178	0xbe144ce0	-0.1448245
179	0x3caeacc9	0.021322625
180	0xbc36edb2	-0.011165069
181	0x3cfd6c70	0.030935496
182	0xbdd5f09d	-0.10446284
183	0xbd3f6a95	-0.046732504
184	0xbd14326c	-0.0361809
185	0xbdcea39a	-0.10089798
186	0xbdd77d52	-0.1052195
187	0x3e0d7f1b	0.13818018
188	0xbe197878	-0.14987361
189	0x3d6de3df	0.058078643
190	0xbdbd7574	-0.09250918
191	0x3d16d628	0.03682533
192	0xbd6ab4fb	-0.057301503
193	0xbd955189	-0.07290942
194	0xbda8cf39	-0.082426496
195	0xbdab893c	-0.08375785
196	0xbaa8aa1e	-0.0012868082
197	0xbbdf8dac	-0.0068223085
198	0x3df28b5e	0.118429884
199	0x3d9cb923	0.076524995
200	0x3d5a4daf	0.05329674
201	0xbd8ce133	-0.06878891
202	0x3c4e1b8e	0.012579812
203	0x3dc7289e	0.09724544
204	0xbdefbffd	-0.11706541
205	0xbe027979	-0.1274165
206	0x3de1846e	0.11011587
207	0xbda37692	-0.079816
208	0xbd8abdc3	-0.067744754
209	0x3df35d2f	0.11883008
210	0xbde222c7	-0.110417895
211	0x3da5d805	0.08097843
212	0xbd96c6b0	-0.073621154
213	0xbd805a79	-0.06267256
214	0xbd1b297a	-0.037881352
215	0x3cf76507	0.03019954
216	0xbd34d5bd	-0.04414915
217	0xbc513f05	-0.012771373
218	0x3c1ffcaa	0.00976483
219	0x3d432b88	0.047648937
220	0xba19a7de	-0.0005861501
221	0xbcb13e99	-0.021636294
222	0x3d49c3c3	0.04925896
223	0x3d9a2f4d	0.07528553
224	0x3d9f1f96	0.077696964
225	0xbd76a7ed	-0.06021874
226	0xbd3d9d3a	-0.04629252
227	0xbd86dd50	-0.06585181
228	0xbc35723d	-0.0110746
229	0x3de194ef	0.11014735
230	0xbd6cb03d	-0.05778526
231	0x3d979246	0.07400946
232	0xbdcc6c6d	-0.09981618
233	0xbdff9968	-0.12480432
234	0xbbdeee25	-0.0068032914
235	0x3d0d3c5b	0.034481388
236	0xbdef8cb9	-0.116967626
237	0xbdb6303c	-0.08895919
238	0xbd22bad7	-0.039728966
239	0xbe185a46	-0.14878187
240	0xbd505625	-0.050863404
241	0xbd76f88d	-0.06029563
242	0x3de0241a	0.10944386
243	0xbe0733e1	-0.13203384
244	0x3daaae7a	0.0833406
245	0xbdaf26ce	-0.08552323
246	0x3db0bc33	0.08629646
247	0xbc4407c8	-0.011964746
248	0x3dc16dfe	0.094448075
249	0xbb757482	-0.0037453477
250	0x3d97fbeb	0.074210964
251	0x3bd7f2c1	0.006590218
252	0x3d15904a	0.036514558
253	0xbc046557	-0.008080802
254	0x3c805f07	0.015670313
255	0x3b4847d4	0.003056039

lstm.bias_ih_l0_reverse f4 [256]
0	0xbd641e6c	-0.055693075
1	0x3e2a9d48	0.1666156
2	0xbd99e992	-0.07515253
3	0xbd529f76	-0.051421605
4	0xbd8136db	-0.06309291
5	0x3dea8fbe	0.11453198
6	0xbd9de957	-0.07710522
7	0x3e12ef66	0.14349136
8	0xbd925ca3	-0.07146575
9	0x3d169c1a	0.036769964
10	0x3dda2f7d	0.10653589
11	0x3d852857	0.06501835
12	0x3d1b03c1	0.037845377
13	0xbdbdff42	-0.09277202
14	0xbd415971	-0.04720444
15	0x3dfc5c4a	0.1232229
16	0x3de74a2f	0.11293446
17	0x3dee4047	0.11633354
18	0x3d467795	0.048453886
19	0x3db89a93	0.09013858
20	0x3d49d0bc	0.04927133
21	0x3dcacfb1	0.09902895
22	0x3e36f107	0.17865382
23	0xbd97418d	-0.0738555
24	0xbcb07d5d	-0.021544153
25	0xbd83de07	-0.06438833
26	0xbbeda549	-0.0072523695
27	0x3c894b8d	0.016759658
28	0x3ba7e2e2	0.005123482
29	0x3dca8915	0.098894276
30	0xbd96b4d3	-0.07358708
31	0x3dc1063d	0.09425018
32	0xbd001701	-0.03127194
33	0xbd1ba647	-0.03800037
34	0x3ddfc604	0.1092644
35	0x3c160132	0.009155558
36	0x3d63df9f	0.055633184
37	0xbdad25c4	-0.08454469
38	0xbc05a44e	-0.008156849
39	0x3de404be	0.11133717
40	0x3cfe96c0	0.031077743
41	0x3e0713d0	0.13191152
42	0xbd81e684	-0.063427955
43	0x3d4bc543	0.04974867
44	0xbbc6af84	-0.0060634036
45	0x3e40122c	0.18756932
46	0xbc813a31	-0.015774818
47	0xbc16e3ec	-0.009209614
48	0xbd7faf8f	-0.062423285
49	0x3c26b1a7	0.010174192
50	0xbd7396db	-0.05947004
51	0xbce86f72	-0.028373454
52	0x3e1d5a75	0.15366538
53	0xbda3d98d	-0.08000479
54	0xbd6b76b4	-0.05748625
55	0x3df35c9c	0.11882898
56	0x3dcbeef7	0.09957688
57	0xbb614881	-0.003437549
58	0xbd60fd12	-0.054928847
59	0xbdc9bf4e	-0.098509416
60	0xbd0c80e3	-0.034302603
61	0x3d9687c0	0.07350111
62	0xbd3b8a1f	-0.04578602
63	0x3d874105	0.06604198
64	0xbdd13f16	-0.10217111
65	0x3e0d42f3	0.1379507
66	0xbda89b29	-0.082327195
67	0x3db0e134	0.08636704
68	0x3db3ce4c	0.087795824
69	0xbdd3c772	-0.103407755
70	0xbd6f47c0	-0.058418036
71	0x3defc401	0.11707307
72	0x3c6d281b	0.014474894
73	0xbd3d399b	-0.046197515
74	0xbde1dc0c	-0.11028299
75	0x3d273430	0.040821254
76	0x3dcb00b5	0.09912244
77	0x3bdb312e	0.0066892123
78	0x3d88a8a4	0.06672791
79	0xbc28a715	-0.010293742
80	0x3d823e53	0.06359544
81	0xbc0d8872	-0.008638488
82	0xbdbb4858	-0.09144658
83	0x3dd42064	0.103577405
84	0xbcd590fc	-0.02607011
85	0x3d7e19ff	0.06203651
86	0x3cbd227e	0.023087736
87	0x3dcab66d	0.09898076
88	0xbd9a3187	-0.07528978
89	0x3d261cad	0.04055469
90	0xbcdb8807	-0.026798261
91	0x3e01e660	0.12685537
92	0x3c0e7c98	0.008696698
93	0x3d635dec	0.055509493
94	0xbbc62983	-0.006047429
95	0xbdc70515	-0.09717766
96	0x3d13b9a6	0.03606572
97	0xbd9a187e	-0.07524203
98	0xbccc4506	-0.024935257
99	0x3d188f86	0.03724625
100	0x3bffe612	0.007809409
101	0xbdb143b2	-0.0865549
102	0x3dda2759	0.10652036
103	0xbd345b82	-0.04403258
104	0xbdd76cef	-0.10518824
105	0x3ddbb9c9	0.10728795
106	0x3deaf772	0.11472978
107	0xbbd413c9	-0.006472085
108	0xbd815162	-0.06314351
109	0x3cdb5ac4	0.026776679
110	0xbc882152	-0.01661745
111	0xbd049e8f	-0.032377776
112	0xbd92016a	-0.07129176
113	0x3d17aead	0.03703182
114	0x3d9a0f14	0.07522407
115	0xbda3fa2f	-0.08006703
116	0xbd6b616d	-0.05746596
117	0x3dd152ef	0.102208965
118	0x3dbb359b	0.09141084
119	0xbdf691c7	-0.120395236
120	0xbd3ba89d	-0.0458151
121	0x3bde5769	0.0067853224
122	0xbd9772a7	-0.07394915
123	0xbd3dfc65	-0.04638328
124	0x3e0a2523	0.13490729
125	0xbc18f22a	-0.00933508
126	0xbdbb2fbb	-0.09139963
127	0x3d30ebda	0.043193676
128	0xbdcfbda7	-0.10143595
129	0xbd971f7b	-0.07379051
130	0xbdecdc7d	-0.11565492
131	0xbdaf1179	-0.085482545
132	0xbdb492ef	-0.08817088
133	0xbdf2a01e	-0.11846946
134	0xbdc1bd92	-0.09459986
135	0xbda3da50	-0.08000624
136	0x3d8e4696	0.06947057
137	0xbd30f51c	-0.043202505
138	0xbc026712	-0.007959144
139	0x3d61b117	0.055100527
140	0xbd43715a	-0.047715522
141	0x3ded5d3d	0.115900494
142	0x3c65c400	0.014023781
143	0x3ddebac3	0.10875466
144	0xbcb3c469	-0.021944242
145	0xbde85f02	-0.11346246
146	0xbd9f7ab3	-0.07787075
147	0xbd290450	-0.04126388
148	0x3da33efe	0.07970999
149	0xbdebdca8	-0.11516696
150	0x3d8613ca	0.06546743
151	0xbdd880b4	-0.10571423
152	0xbd64aa41	-0.05582643
153	0x3da5194a	0.08061464
154	0xbdd76b4f	-0.10518514
155	0xbd7c6769	-0.061622057
156	0x3dd0cd5c	0.10195419
157	0xbd617073	-0.05503888
158	0x3de09449	0.10965783
159	0x3dd282f0	0.102788806
160	0x3dfef0fe	0.12448309
161	0xbc8b64d3	-0.01701585
162	0x3d1440a4	0.03619446
163	0x3d857123	0.0651572
164	0x3adfb2b1	0.0017066804
165	0xbdb6be82	-0.08923055
166	0xbd197504	-0.03746511
167	0x3dd48304	0.10376552
168	0xbdc2f4ea	-0.0951937
169	0x3dbab1a4	0.091159135
170	0xbcc5a792	-0.024127755
171	0xbd50ed66	-0.05100765
172	0xbde0ce01	-0.10976792
173	0xbc979b52	-0.01850668
174	0xbdb56299	-0.08856697
175	0x3b006228	0.0019589756
176	0x3de37423	0.11106136
177	0xb95a7b20	-0.00020835968
178	0xbd8a6326	-0.06757192
179	0x3d1aa284	0.037752643
180	0xbda118c0	-0.07866049
181	0x3b1dae1d	0.0024060078
182	0xbdb8a1cc	-0.09015235
183	0x3c47b6e8	0.012189604
184	0xbcb24551	-0.021761568
185	0x3d4a65cb	0.049413484
186	0xbd6ec648	-0.058294564
187	0x3b4d4142	0.0031319414
188	0x3c20c08a	0.00981153
189	0x3d6e3117	0.058152284
190	0x3d55dfa6	0.05221524
191	0x3cc4345d	0.02395075
192	0xbd26eb2b	-0.040751617
193	0x3e10b58a	0.14131752
194	0xbc9bf31a	-0.019036818
195	0xbd4bbf0c	-0.049742743
196	0x3dd56af9	0.10420794
197	0xbdc0e55e	-0.09418748
198	0xb9f50e74	-0.0004674081
199	0x3e2dd212	0.16974667
200	0x3d9d2578	0.07673162
201	0xbcfd0990	-0.030888349
202	0xbde1a4d5	-0.11017767
203	0xbd8fd793	-0.070235394
204	0x3d74455b	0.059636455
205	0x3de44ef5	0.11147872
206	0x3d864444	0.065559894
207	0xbcf16b7f	-0.029470203
208	0x3d8c15c9	0.06840093
209	0x3ddbbbbe	0.10729168
210	0x3dc9d7c9	0.09855611
211	0xbbef35c0	-0.0073001087
212	0xbcd3f2ce	-0.025872614
213	0xbd171faa	-0.03689543
214	0x3e17308e	0.14764616
215	0x3d67051f	0.05640137
216	0xbd735c7c	-0.05941437
217	0x3d035a40	0.03206849
218	0x3cc8464f	0.024447588
219	0xbc30774f	-0.010770633
220	0xbb9857e1	-0.004649148
221	0x3de096b0	0.10966241
222	0xbdd0ac72	-0.10189141
223	0x3da48dbb	0.080348454
224	0x3d15805d	0.03649937
225	0xbdce75dc	-0.10081074
226	0xbc9fddfd	-0.019515032
227	0xbd45db10	-0.048304617
228	0x3dc88b0f	0.09792148
229	0x3c7f0a2e	0.015566392
230	0x3de096a3	0.10966232
231	0x3d0591a9	0.032609615
232	0xbd9376c4	-0.07200387
233	0x3e0c18b2	0.13681296
234	0xbd3c81a2	-0.046022065
235	0x3dc7d8d4	0.097581536
236	0xbc3f93bf	-0.01169294
237	0xbbaf4688	-0.005348984
238	0x3b8e9464	0.0043511856
239	0xbc9765ce	-0.018481161
240	0x3dc9a8b4	0.09846631
241	0x3def4eaf	0.116849296
242	0xbd0d0156	-0.034425102
243	0xbc547721	-0.012967856
244	0x3d201888	0.039085895
245	0xbd1a3e21	-0.037656907
246	0xbda5d911	-0.08098043
247	0x3bec0fe6	0.0072040437
248	0x3d7e8f8a	0.06214861
249	0xbd41a868	-0.047279745
250	0xbddc816b	-0.10766872
251	0x3d394a6f	0.045237
252	0x3c44cfce	0.012012435
253	0xbd15329b	-0.036425214
254	0x3cf1375f	0.029445348
255	0x3cdb65cf	0.026781945
