backend/api/ml/models/model_e7c4affc-a80a-48d1-bb45-aea4a7a2a75a.pth (torch, 949173 bytes, 26 tensors)

lstm.weight_ih_l0 f4 [256, 4]
0	0x3d47ee49	0.04881123
1	0xbe00d57f	-0.12581442
2	0xbb77b3a3	-0.003779628
3	0x3df9d7b9	0.12199349
4	0x3bd82daf	0.006597243
5	0x3de4009b	0.11132928
6	0x3cc497a5	0.023998091
7	0xbba1ffc9	-0.004943822
8	0xbb97afb4	-0.0046290997
9	0xbddbb491	-0.107278
10	0xbca19114	-0.019722499
11	0x3d09d2d4	0.033648327
12	0x3d288749	0.041144643
13	0xbdaf2742	-0.0855241
14	0x3d277c48	0.04089001
15	0xbdd03a79	-0.10167403
16	0x3da7d214	0.08194366
17	0x3db296b7	0.08720153
18	0x3e36a28b	0.17835443
19	0x3dbbd1b1	0.09170855
20	0x3de55cbb	0.111993276
21	0xbd9c29f5	-0.0762519
22	0x3ddaa65b	0.10676261
23	0xbd1d3d7e	-0.03838872
24	0xbd325241	-0.043535475
25	0x3bba3d8e	0.0056836074
26	0x3e1f2bf0	0.15544105
27	0x3c161cf4	0.009162176
28	0x3e0decc6	0.13859853
29	0x3d5f9595	0.054586012
30	0xbd15ab61	-0.036540393
31	0x3c09a6a5	0.008401548
32	0x3c80d7fb	0.015727988
33	0x3db364e6	0.08759479
34	0x3df01fbd	0.117248036
35	0x3dc640fa	0.09680362
36	0xbd0fabc1	-0.035075907
37	0x3dcdc635	0.100475706
38	0xbd1cd34d	-0.03828745
39	0xbd4a95d6	-0.0494593
40	0x3e103669	0.14083256
41	0x3df1be73	0.118039034
42	0xbc09f8c5	-0.008421128
43	0x3da17643	0.07883885
44	0xbbb0c195	-0.0053941705
45	0x3d2e4045	0.04254176
46	0xbc9659d9	-0.01835339
47	0x3e096b64	0.13419873
48	0xbd89e162	-0.067324415
49	0xbe229cd8	-0.15880144
50	0xbe0c1362	-0.13679269
51	0x3da521f5	0.080631174
52	0xbd6e3ecb	-0.058165353
53	0xbcd5765a	-0.026057411
54	0x3df81385	0.12113098
55	0x3d9367c9	0.0719753
56	0x3c8a5c57	0.016889734
57	0xbda33d95	-0.0797073
58	0xbc51fab6	-0.012816122
59	0xbd5fb68b	-0.054617446
60	0xbda039d5	-0.078235306
61	0x3d694898	0.056953996
62	0xbcebfdce	-0.028807547
63	0x3c80fa89	0.015744464
64	0x3d9dc395	0.0770332
65	0xbd007b8a	-0.031367816
66	0xbd438743	-0.047736418
67	0x3d591a5f	0.053003665
68	0x3dc63590	0.09678185
69	0x3cf81bd3	0.030286705
70	0xbd55f295	-0.052233297
71	0xbd4e2c1c	-0.050335035
72	0x3d1d8e75	0.038465936
73	0x3da35c77	0.07976621
74	0xbe08ba36	-0.13352284
75	0x3db4d8a8	0.088303864
76	0x3e272d73	0.16325931
77	0x3d6fd6f7	0.058554616
78	0x3d35c54f	0.04437762
79	0x3d4146dd	0.04718672
80	0xbccb382c	-0.024807058
81	0xbd0560e3	-0.0325631
82	0x3d72e14d	0.059296895
83	0x3b97e4e7	0.0046354416
84	0x3b4e9c03	0.0031526096
85	0x3d642981	0.055703644
86	0x3e4af4fb	0.19820015
87	0x3d69bfaa	0.05706755
88	0x3b21ca1e	0.0024687122
89	0xbdac4fc5	-0.08413652
90	0x3e1300f5	0.14355834
91	0x3d740556	0.0595754
92	0xbdcdaf89	-0.10043246
93	0xbd0653fd	-0.03279494
94	0x3cf0cd40	0.029394746
95	0x3db9bc69	0.090691395
96	0x39bc2e22	0.00035892526
97	0x3d1346cf	0.0359562
98	0x3e150d68	0.14555895
99	0xbc2d9e62	-0.010596843
100	0x3df6f06c	0.120575756
101	0x3da5f023	0.08102443
102	0xbbce4da2	-0.0062958756
103	0x3c03cc49	0.008044311
104	0xbcc5d9e7	-0.024151755
105	0x3d652666	0.055944823
106	0x3d6c8584	0.057744518
107	0xb6880e00	-4.0547457e-06
108	0xbbf3f0cc	-0.0074444767
109	0xbb4a7220	-0.0030890778
110	0x3d836b66	0.06416969
111	0x3dd6a20d	0.104801275
112	0x3dbde389	0.092719145
113	0xbddc9f4c	-0.10772571
114	0x3d396492	0.045261927
115	0xbbf8f258	-0.007597249
116	0x3dcc6880	0.09980869
117	0xbd1bcc17	-0.038036432
118	0x3de2f35c	0.11081573
119	0xbc2a1501	-0.010380984
120	0x3da05bfb	0.07830044
121	0xbdc370d2	-0.09543003
122	0xbdd5c990	-0.104388356
123	0x3daee884	0.085404426
124	0x3dcb61c1	0.099307545
125	0x3deee9b2	0.116656676
126	0x3e3f7dbf	0.18700312
127	0x3d16f06d	0.03685038
128	0x3dd3b425	0.10337094
129	0x3e13d281	0.1443577
130	0x3de7d5a3	0.11320045
131	0x3dd27f8f	0.10278236
132	0x3d820b54	0.06349817
133	0x3ce203ad	0.027589643
134	0xbd235445	-0.039875288
135	0xbd54c2d9	-0.051943634
136	0x3de31567	0.110880665
137	0x3dd94bdd	0.10610173
138	0xbe061c58	-0.1309675
139	0x3dd48c84	0.10378364
140	0xbc8b7928	-0.017025545
141	0x3d838966	0.06422691
142	0xbdb708ae	-0.089372024
143	0x3dd5e663	0.104443334
144	0x3df8cfc9	0.12149007
145	0x3ddfed2a	0.10933907
146	0xbd45fc66	-0.04833641
147	0x3df81689	0.12113673
148	0x3d851fcb	0.06500205
149	0x3c66ec80	0.014094472
150	0xbdd447dc	-0.103652686
151	0x3e0bfbf7	0.13670336
152	0x3e058390	0.13038468
153	0x3dd468c2	0.103715435
154	0x3ca6e13e	0.020371076
155	0xbcf12db6	-0.029440742
156	0xbc8770e8	-0.01653333
157	0x3c5875f4	0.013211716
158	0xbd58ed06	-0.05296042
159	0xbdcf156b	-0.10111507
160	0x3dda1cdb	0.10650035
161	0x3dca5bcb	0.09880789
162	0xbdd5eef8	-0.1044597
163	0x3d45d8ad	0.04830234
164	0xbd6d6110	-0.057953894
165	0x3c11c4cd	0.008897019
166	0x3cf83e2d	0.030303085
167	0x3ca41fae	0.020034637
168	0x3dd49c91	0.10381425
169	0x3dc2eff5	0.095184244
170	0x3b934c84	0.0044952054
171	0xbc9affec	-0.018920861
172	0xbdd22740	-0.102613926
173	0x3d6df3cf	0.058093842
174	0x3d9aa172	0.075503245
175	0x3de62ebe	0.11239384
176	0xbcb76ac6	-0.02238978
177	0x3c14f4c6	0.009091562
178	0x3dd76cf5	0.10518829
179	0x3da0478c	0.078261465
180	0x3daedcdf	0.085382216
181	0x3d2838b2	0.041069694
182	0x3db148c0	0.08656454
183	0x3e0f6cfe	0.14006421
184	0xbcb43ce4	-0.022001691
185	0x3c77ebde	0.015131919
186	0xbd373952	-0.0447324
187	0xbcf5b5e2	-0.029993955
188	0xbd4e715f	-0.050401088
189	0xbe036e8a	-0.12835136
190	0xbd9cf489	-0.07663829
191	0xbd28957a	-0.041158177
192	0x3dc4bdab	0.09606489
193	0xbd93a43f	-0.07209062
194	0xbe28e0af	-0.1649196
195	0xbbfb067d	-0.0076606856
196	0x3df6df93	0.12054362
197	0xbcf30d3d	-0.029669398
198	0x3e397289	0.18110098
199	0xbbe6c78f	-0.007042832
200	0x3db0409b	0.086060725
201	0xbbc4c1f8	-0.006004568
202	0xbe03b8aa	-0.12863412
203	0x3dbfd105	0.09366039
204	0x3df7a47e	0.12091921
205	0x3df2ba07	0.11851888
206	0x3dc4ef46	0.0961595
207	0x3e38cddf	0.18047284
208	0xbd8b33f2	-0.06797017
209	0xbb442e60	-0.0029934868
210	0xbe1555ec	-0.14583558
211	0x3d8a9c1d	0.067680575
212	0xbda64449	-0.08118493
213	0xbda120e2	-0.078676
214	0x3e185fc1	0.14880277
215	0x3d2e4f55	0.042556126
216	0xbc28af0c	-0.010295641
217	0x3d4f58f7	0.050621953
218	0xbc0b04bd	-0.008485016
219	0x3cc1d26e	0.023659911
220	0x3c663675	0.0140510695
221	0x3ce5150d	0.02796414
222	0x3e171434	0.147538
223	0x3dfd7b88	0.12377077
224	0xbd7c3812	-0.06157691
225	0xbcc4a6af	-0.024005262
226	0x3e0b9bcd	0.13633652
227	0x3d8daf04	0.06918147
228	0x3d9e0bf2	0.07717122
229	0x3b8ac0a8	0.004234392
230	0xbdd61f1d	-0.10455153
231	0xbc98d76e	-0.018657412
232	0xbd49a33a	-0.04922793
233	0xbdbf3ca5	-0.09337739
234	0xbd6e3550	-0.05815631
235	0xbdb3d20e	-0.08780299
236	0xbcc3dc78	-0.023908839
237	0x3cfd6efb	0.030936709
238	0x3d0543dd	0.032535423
239	0xbca9e2d9	-0.020738052
240	0xbda8a548	-0.0823465
241	0x3c50a488	0.01273454
242	0x3d500013	0.05078132
243	0xbd977bd4	-0.07396665
244	0xbca92d4d	-0.020651484
245	0x3d8a96eb	0.067670666
246	0x3dbefc5e	0.09325479
247	0x3dea145b	0.11429664
248	0x3da30a5a	0.07960959
249	0xbdbe4266	-0.09290008
250	0x3cc14191	0.023590835
251	0xbd565c91	-0.052334372
252	0x3d88b268	0.06674653
253	0xbd319477	-0.043354478
254	0xbdb34c6a	-0.08754809
255	0x3e1a7029	0.15081848

lstm.weight_hh_l0 f4 [256, 64]
0	0x3d853672	0.06504525
1	0x3c35afea	0.011089304
2	0x3dac0cc3	0.084008716
3	0x3c49ee2f	0.012324854
4	0x3cf469be	0.029835578
5	0x3d9cd6ac	0.07658133
6	0xbbf324a0	-0.0074201375
7	0x3c118ae5	0.008883213
8	0x3dc703ee	0.097175464
9	0xbda489bc	-0.08034083
10	0xbd010338	-0.03149721
11	0x3df0302f	0.1172794
12	0xbddbadbb	-0.10726496
13	0x3dddbd00	0.108270645
14	0x3de0c788	0.109755576
15	0x3a06c3ae	0.0005140853
16	0x3c727546	0.014798468
17	0x3d6dd769	0.05806676
18	0x3d9adc4c	0.075615495
19	0x3cc4d0af	0.02402529
20	0x3d7a0524	0.06104006
21	0xbd0c1809	-0.03420261
22	0x3b1b9dc5	0.002374516
23	0xbd5ac4a4	-0.053410187
24	0xbccb1466	-0.02479
25	0xbdadfc4d	-0.08495388
26	0x3d613450	0.05498153
27	0x3da4168d	0.08012114
28	0xbd9a0ea7	-0.07522326
29	0x3baff1a7	0.0053693834
30	0xbd4dbb0f	-0.05022722
31	0x3dfcb65f	0.12339472
32	0x3dbf6d64	0.093470365
33	0x3cc30226	0.023804735
34	0xbdce596b	-0.10075649
35	0x3c0653e7	0.008198715
36	0x3d974d41	0.07387782
37	0x3db2a7d4	0.08723417
38	0xbd3cffb7	-0.046142306
39	0x3d8a1be4	0.06743601
40	0xbb9144b5	-0.0044332393
41	0x3a8b5853	0.0010631181
42	0xbc312ebd	-0.010814366
43	0x39c73174	0.00037993083
44	0xbdd8445c	-0.105599135
45	0x3ddb477f	0.10706996
46	0xbe1682ca	-0.1469833
47	0x3dc08f35	0.094023146
48	0xbd00f477	-0.03148314
49	0x3decbfcd	0.115600206
50	0xbc3434b1	-0.010998891
51	0x3b5c3edc	0.0033606803
52	0x3c83a046	0.016067635
53	0x3d7971aa	0.060899414
54	0x3d275c43	0.040859472
55	0x3bc62e48	0.0060479976
56	0x3d8f7a41	0.0700574
57	0x3bd4d79c	0.006495429
58	0x3d572678	0.05252692
59	0x3d5fcd72	0.054639287
60	0xbdec41c5	-0.11535982
61	0xbcc62c44	-0.02419103
62	0x3d41f1bf	0.047349688
63	0x3d412653	0.04715569
64	0x3d422d1f	0.047406312
65	0xbc07cef3	-0.008289087
66	0xbd35d57b	-0.044393044
67	0xbdfd1020	-0.12356591
68	0xbda528ea	-0.08064444
69	0x3dcd0b4b	0.100119196
70	0xbdb0aded	-0.08626924
71	0xbdb1473e	-0.086561665
72	0x3daf871a	0.085706905
73	0x3cf63da4	0.03005869
74	0xbd9f5ecd	-0.07781754
75	0x3c96fdd1	0.018431576
76	0xbe0670ad	-0.1312892
77	0xbdd94d55	-0.10610453
78	0x3dfb27ed	0.122634746
79	0xbd85fa8d	-0.065419294
80	0xbdd50db9	-0.10403008
81	0xbd710578	-0.058843106
82	0xbc93fb85	-0.01806427
83	0x3de0b4fe	0.109720215
84	0x3df3778a	0.11888035
85	0xba4e2e5a	-0.0007865183
86	0x3db29134	0.087191015
87	0x3de2a473	0.110665224
88	0x3d8862af	0.066594474
89	0x3d57b33a	0.05266116
90	0xbb4d6c84	-0.0031345198
91	0xbd3e4443	-0.04645182
92	0xbd81954c	-0.06327304
93	0xbd666288	-0.05624631
94	0xbdcea804	-0.1009064
95	0x3dc318eb	0.09526237
96	0xbd8fa769	-0.07014353
97	0x3db1d9f6	0.08684151
98	0x3d3712dd	0.044695724
99	0x3c80f4f2	0.015741799
100	0x3d6a7083	0.057236206
101	0xbc6a56d2	-0.014302926
102	0x3d1e6994	0.038674906
103	0x3d99cf55	0.075102486
104	0xbdde3239	-0.10849423
105	0xbdf06c00	-0.11739349
106	0x3d021789	0.031760726
107	0xbcc92bb2	-0.024556968
108	0x3cbe27c6	0.023212325
109	0xbdecc90d	-0.11561785
110	0xbd0a614d	-0.0337842
111	0xbd0f7feb	-0.0350341
112	0xbbedcd5a	-0.007257146
113	0xbc5d384a	-0.01350219
114	0xbdd9506c	-0.106110424
115	0x3dad6656	0.08466785
116	0xbdcbcbd5	-0.09950987
117	0x3dbb1c2c	0.09136233
118	0xbc3f8971	-0.011690483
119	0x3c613f20	0.01374796
120	0xbdcd43d2	-0.10022701
121	0x3cc05693	0.023478782
122	0xbbcb59a8	-0.006205756
123	0xbdb94156	-0.09045665
124	0x3d161968	0.036645323
125	0x3d01ef1e	0.03172218
126	0xbd922788	-0.07136446
127	0x3d06195c	0.03273903
128	0xbc3318fb	-0.010931249
129	0x3cc0cc2a	0.023534853
130	0xbde6c3ca	-0.112678126
131	0xbd453a9e	-0.048151605
132	0xbb9037e4	-0.004401194
133	0x3d7a6cea	0.061139025
134	0x3e09804c	0.13427848
135	0xbd33c31c	-0.043887243
136	0xbd8497f3	-0.064742945
137	0x3dfad1e3	0.12247064
138	0x3da43343	0.0801759
139	0xbc8be8d4	-0.017078795
140	0xb9d63934	-0.0004085988
141	0x3dc207d8	0.09474152
142	0xbd47ea55	-0.04880746
143	0xbd8f2b5a	-0.069906905
144	0xbd8f6de5	-0.070033826
145	0xbd89f48f	-0.06736099
146	0x3ce2a28f	0.027665405
147	0x3ca4bab6	0.020108562
148	0x3de28aa6	0.11061601
149	0xbd574526	-0.05255618
150	0xbd29dfce	-0.041473202
151	0xbaa4313b	-0.0012526879
152	0xbde839df	-0.11339163
153	0x3c6cde53	0.014457303
154	0x3dcd91d7	0.10037582
155	0x3df75586	0.12076859
156	0x3dabf62b	0.08396562
157	0x3c2a7002	0.010402681
158	0xbdab8b27	-0.083761506
159	0x3bb815ad	0.0056178183
160	0x3db9fb9a	0.09081192
161	0xbdb6dde0	-0.08929038
162	0xbd80646d	-0.06269155
163	0x3d492b5d	0.04911362
164	0x3dbe88cd	0.093034364
165	0x3da004d8	0.07813424
166	0xbdbca2ab	-0.09210714
167	0x3d2b07ad	0.041755367
168	0xbcae811c	-0.021301799
169	0x3dac2368	0.08405191
170	0x3df42225	0.11920575
171	0x3db6d133	0.0892662
172	0xbd59a781	-0.05313826
173	0x3d9aa108	0.075502455
174	0xbde50311	-0.111822255
175	0x3dc5f7a8	0.09666377
176	0x3d4932c4	0.04912068
177	0x3c8204f8	0.01587151
178	0xbde40fed	-0.1113585
179	0xbdc734e1	-0.09726883
180	0x3dd8a3ec	0.105781406
181	0xbdde9f32	-0.10870208
182	0x3b64241b	0.003481156
183	0x3d71b59a	0.05901108
184	0xbdd141ee	-0.10217653
185	0x3dabbfc5	0.083861865
186	0xbdb3e4e4	-0.08783892
187	0x3c61d632	0.013783978
188	0xbb9922d7	-0.0046733427
189	0xbdb9c11b	-0.09070035
190	0x3c27a899	0.010233068
191	0xbd222e78	-0.039595097
192	0x3d541068	0.05177346
193	0x3d0ff407	0.035144832
194	0xbccc7885	-0.024959812
195	0x3d7ec277	0.062197175
196	0xbbc3cf0c	-0.0059756096
197	0x3b835bf4	0.0040087644
198	0x3dbf8e55	0.093533196
199	0x3d3b2de9	0.04569808
200	0x3d019d20	0.031643987
201	0xbda2d142	-0.07950069
202	0x3d6a4532	0.057194896
203	0xbd64aa92	-0.05582673
204	0x3d605fb8	0.054778785
205	0x3d2f42a7	0.042788174
206	0xbd27b033	-0.04093952
207	0x3d860546	0.065439746
208	0xbdbda026	-0.092590615
209	0xbc47fddf	-0.012206524
210	0x3d2c29a0	0.042031884
211	0x3d96298e	0.07332145
212	0xbd813e22	-0.06310679
213	0x3d94fb80	0.07274532
214	0xbc530b39	-0.012881094
215	0xbdaa266c	-0.0830811
216	0xbdf42bc6	-0.119224116
217	0x3c55f57a	0.013059014
218	0xbd01d832	-0.03170032
219	0xbd99737d	-0.07492731
220	0x3db8bafa	0.09020038
221	0x3db5936d	0.0886601
222	0x3d7412ee	0.059588365
223	0x3d8cb1fc	0.06869885
224	0xbdc79653	-0.09745469
225	0x3df19956	0.11796825
226	0xbc61b3d8	-0.013775788
227	0xbd5ed320	-0.054400563
228	0x3cf59035	0.02997599
229	0xbde54576	-0.11194889
230	0xbd5aaa0c	-0.053384826
231	0xbc4dbfbf	-0.012557923
232	0x3cfa4641	0.030551078
233	0xbc46eda2	-0.012141617
234	0x3ddc1b6f	0.1074742
235	0x3d54f444	0.051990762
236	0x3d02b6de	0.031912677
237	0xbd6c15c8	-0.05763796
238	0x3cd8dc27	0.026472164
239	0xbde16f15	-0.11007515
240	0xbd54fb41	-0.051997427
241	0x3d72decb	0.059294503
242	0x3dafd0de	0.0858476
243	0xbda6cf2e	-0.08144985
244	0x3daf68af	0.08564889
245	0x3d97b482	0.07407476
246	0x3d443ec7	0.04791143
247	0x3ca654a3	0.02030403
248	0x3b15ed5e	0.0022877078
249	0xbd35ffcc	-0.0444334
250	0xbd0c3850	-0.03423339
251	0xbdc24172	-0.09485139
252	0xbdfd0d58	-0.12356061
253	0xbe023d15	-0.12718613
254	0x3d5dc1b4	0.054139808
255	0xbdd491d9	-0.10379381

lstm.bias_ih_l0 f4 [256]
0	0xbdc14d6c	-0.09438595
1	0xbd80b233	-0.06283989
2	0xbcd8bfde	-0.026458677
3	0x3dfe5f64	0.12420538
4	0xbc084e38	-0.00831943
5	0x3d10808a	0.035278834
6	0xbc2bb598	-0.010480307
7	0xbdf23839	-0.1182713
8	0xbda2875d	-0.07935975
9	0x3d445858	0.047935814
10	0x3d4c96f7	0.04994866
11	0x3d92aece	0.071622476
12	0x3d5a1d25	0.05325045
13	0x3c0cd261	0.00859508
14	0xbda1f913	-0.07908835
15	0x3d555d27	0.05209079
16	0xbdc10fa0	-0.09426808
17	0x3da74515	0.08167473
18	0x3e0937eb	0.13400237
19	0x3dfcb39a	0.12338944
20	0xbdeb877c	-0.11500451
21	0xbdc1c705	-0.09461788
22	0x3d4d9604	0.050191894
23	0xbb163b58	-0.0022923555
24	0x3dfcb12e	0.12338482
25	0xbd6213dd	-0.055194724
26	0x3b89399c	0.004187776
27	0xbda390db	-0.07986613
28	0x3c1a139a	0.009404087
29	0x3b04725b	0.0020209763
30	0xbddd3713	-0.1080152
31	0x3dea184a	0.11430414
32	0xbde580db	-0.11206218
33	0x3dc4e778	0.09614462
34	0xbcc3fd00	-0.02392435
35	0x3e0f45eb	0.13991515
36	0x3dd4b023	0.10385158
37	0xbc8eb651	-0.01742092
38	0xbd01e03a	-0.03170798
39	0x3c115738	0.008870892
40	0x3de90c54	0.113793045
41	0xbd04c1b1	-0.03241128
42	0x3de00ab1	0.10939539
43	0x3d96682a	0.073440865
44	0xbcebedb7	-0.028799875
45	0xbdf53a1d	-0.11973975
46	0xbd80e0bf	-0.06292867
47	0xbdd2e86d	-0.10298238
48	0xbe0e4836	-0.13894734
49	0xbd37ff49	-0.044921193
50	0xbd82d6d7	-0.06388634
51	0x3df2ab7d	0.11849115
52	0x3baf4d8a	0.0053498195
53	0xbc924d8a	-0.01785924
54	0xbbbc11bf	-0.00573942
55	0x3b54492e	0.0032392251
56	0xbde9bd50	-0.114130616
57	0xbd8b5074	-0.068024546
58	0xbd4a60cb	-0.049408715
59	0x3da95da1	0.082698114
60	0xbd693f38	-0.056945056
61	0xbcfc5863	-0.030803865
62	0x3ddd6b40	0.10811472
63	0xbd80d583	-0.06290724
64	0xbdd0fbb6	-0.1020426
65	0x3db363e0	0.08759284
66	0x3df41934	0.119188696
67	0xbd3382f2	-0.04382605
68	0xbd9cb9d4	-0.076526314
69	0xbd0ef34d	-0.0349
70	0xbdf9090b	-0.12159928
71	0xbdd984fd	-0.106210686
72	0xbd391f7c	-0.04519604
73	0xbd2e5c2c	-0.04256837
74	0xbdb8e33b	-0.09027716
75	0xbe0b1b1a	-0.13584557
76	0x3d35bada	0.04436765
77	0xbd882416	-0.06647508
78	0x3c5382ff	0.01290965
79	0xbd953438	-0.072853506
80	0x3beadb76	0.007167275
81	0xbd8727b0	-0.06599367
82	0xbc558ee2	-0.013034554
83	0xbdc54a36	-0.09633295
84	0xbdf0a080	-0.11749363
85	0x3d328aaf	0.04358929
86	0xbc1c5a02	-0.009542944
87	0x3c9dcbc2	0.019262198
88	0x3d85cddf	0.065334074
89	0x3dab1d0a	0.08355148
90	0x3be1fdc8	0.006896708
91	0xbc1f7ea0	-0.00973478
92	0xbdb080b7	-0.086183004
93	0x3ceed26f	0.029153077
94	0x3d3ef42f	0.04661959
95	0xbd0932b2	-0.033495612
96	0xbd6eee00	-0.058332443
97	0xbd667c84	-0.05627109
98	0xbdc2e37a	-0.09516044
99	0x3dae1bdc	0.085014075
100	0x3c51e116	0.012810012
101	0xbdcce001	-0.10003663
102	0x3cc124ef	0.023577182
103	0xbdb4ea35	-0.08833734
104	0xbcba7837	-0.022762401
105	0xbd8f2200	-0.06988907
106	0xbdaabce4	-0.08336809
107	0xbddc572e	-0.10758816
108	0xbd68d3f7	-0.05684277
109	0x3d79a73c	0.060950503
110	0x3d293154	0.04130681
111	0xbdcad560	-0.09903979
112	0xbda64814	-0.081192166
113	0xbd38f9b5	-0.045160014
114	0xbc63ec14	-0.013911266
115	0xbc989c8b	-0.018629333
116	0xbe1a9481	-0.15095712
117	0x3cb7383d	0.022365684
118	0xbc7c75df	-0.015408962
119	0x3da13382	0.078711525
120	0x3d4298c2	0.047508962
121	0x3d6b7100	0.057480812
122	0xbd8f774b	-0.07005175
123	0xbd8d5173	-0.06900301
124	0x3dbafa80	0.0912981
125	0xbd6f2a4e	-0.058389954
126	0xbda9e249	-0.082951136
127	0xbd8cf429	-0.06882507
128	0x3dbfbe1f	0.093624346
129	0xbdc3b4f6	-0.09556
130	0xbd423fa0	-0.04742396
131	0x3da740c0	0.08166647
132	0xba8a8399	-0.0010567784
133	0x3d289ffc	0.041168198
134	0x3b8bf271	0.0042708446
135	0x3cb1e2c2	0.021714572
136	0x3da96b5e	0.08272432
137	0x3d4d7a7f	0.05016565
138	0xbbe8b485	-0.0071015977
139	0xbde86fe5	-0.11349467
140	0xbda630d2	-0.081147805
141	0xbd5dd6b0	-0.05415982
142	0x3d4af004	0.049545303
143	0x3dcf5004	0.10122684
144	0x3da72ae8	0.081624806
145	0xbc9c5ad9	-0.019086288
146	0x3d749f4b	0.059722226
147	0x3dc177ce	0.09446679
148	0x3dc9e015	0.098571934
149	0xbdc979fb	-0.09837719
150	0xbd066c6a	-0.032818235
151	0x3d8bb4b3	0.06821575
152	0xbd7eb055	-0.062179882
153	0xbd936026	-0.07196073
154	0x3ddb5e9f	0.10711407
155	0x3dc65bcc	0.096854776
156	0x3a01b112	0.0004947345
157	0x3d9cada1	0.076503046
158	0xbda9eed3	-0.08297505
159	0x3dae5915	0.08513085
160	0xbd818b3f	-0.06325387
161	0x3da450ce	0.08023225
162	0xbdd28a6e	-0.102803096
163	0x3ddb4d1c	0.10708067
164	0x3dc87d92	0.09789576
165	0xbdaa29da	-0.08308764
166	0xbdb53bea	-0.08849318
167	0xbdbe94b6	-0.09305708
168	0xbdcf26dd	-0.101148345
169	0xbdad47e5	-0.084609784
170	0xbde610fa	-0.11233707
171	0x3df8e7ca	0.12153585
172	0xbd4fd7a0	-0.050742745
173	0x3db3e200	0.087833405
174	0xbc1512f2	-0.009098755
175	0x3d6aec93	0.05735452
176	0x3d5b0f68	0.05348149
177	0xbc033982	-0.008009316
178	0xbd8ddd26	-0.06926946
179	0xbca63f01	-0.020293714
180	0xbdcaf614	-0.09910217
181	0xbdeb11b6	-0.114779875
182	0xbda4c939	-0.08046193
183	0x3c587b71	0.0132130245
184	0xbdbd3c84	-0.09240058
185	0x3d99d0ff	0.07510566
186	0x3d2e0271	0.042482797
187	0x3d83d915	0.064378895
188	0xbd841802	-0.064498916
189	0xbcf9d5bf	-0.03049743
190	0xbdba48b5	-0.09095899
191	0x3c4c682c	0.012476008
192	0x3c42b0bf	0.01188296
193	0xbc6df080	-0.014522672
194	0x3d143b24	0.036189213
195	0x3d89805a	0.06713934
196	0x3c9c333f	0.019067405
197	0x3b5cf29c	0.0033713942
198	0xbbd16c4b	-0.0063910834
199	0xbdcd7f55	-0.10034052
200	0xbd1c4837	-0.038154807
201	0xbdc90381	-0.098151214
202	0x3c8bf90c	0.017086528
203	0x3ce5acbb	0.028036466
204	0xbcdd3694	-0.027003564
205	0xbd780f86	-0.06056168
206	0x3db53978	0.08848852
207	0x3df507c7	0.11964374
208	0x3dc21604	0.094768554
209	0x3d3fd82a	0.04683701
210	0xbd8002d7	-0.06250542
211	0x3d7afe78	0.061277837
212	0xbcf5c14c	-0.029999398
213	0xbc8db474	-0.01729796
214	0xbdc4b2e1	-0.09604431
215	0xbbb76dc5	-0.0055978023
216	0x3ce54518	0.027987048
217	0x3c8ba5c5	0.017046819
218	0x3e1e5a28	0.1546408
219	0xbd69b2d4	-0.05705531
220	0x3daf7f92	0.08569254
221	0xbd609698	-0.054831117
222	0xbc7516d7	-0.014959059
223	0x3a27065e	0.0006371493
224	0xbe030df6	-0.12798294
225	0x3d2b718c	0.041856334
226	0xbd1ab6c6	-0.037771963
227	0xbcaee42a	-0.021349031
228	0xbcdd99b9	-0.02705084
229	0xbd17c483	-0.037052643
230	0x3e0bcc53	0.13652162
231	0x3dbd24dc	0.09235546
232	0x3c166756	0.009179911
233	0xbdf504e4	-0.119638234
234	0x3d83f444	0.06443074
235	0xbe08c59a	-0.13356629
236	0x3b09c9e9	0.002102489
237	0xbd8929cf	-0.066974275
238	0xbcb93713	-0.02260927
239	0xbdb12032	-0.08648719
240	0xbdb868b2	-0.09004344
241	0xbcbe4192	-0.023224626
242	0xbdaef115	-0.085420765
243	0xbb88e457	-0.004177611
244	0x3cdcae59	0.026938604
245	0x3b786bd9	0.003790608
246	0xbd000a8d	-0.031260062
247	0xbd70173a	-0.0586159
248	0x3d710ad7	0.05884823
249	0x3dab8b67	0.08376198
250	0xbcc1a3e9	-0.023637729
251	0x3d5d0f59	0.053969715
252	0x3e019f7c	0.12658495
253	0x3db0580a	0.08610542
254	0xbd5d3530	-0.0540058
255	0x3d4618e1	0.04836357

lstm.bias_hh_l0 f4 [256]
0	0xbcd814cf	-0.02637711
1	0xbcf34f54	-0.029700913
2	0x3d24d82b	0.040245216
3	0x3e0c192e	0.1368148
4	0xbb41c56c	-0.0029567135
5	0xbd4dbe11	-0.05023009
6	0xbdb4da17	-0.0883066
7	0x3d92359d	0.07139132
8	0x3c41db01	0.011832
9	0x3ceec7b1	0.029147955
10	0x3dce7713	0.10081305
11	0x3e073fdc	0.13207954
12	0x3d36d487	0.044636276
13	0x3d86304f	0.06552183
14	0x3d7a1752	0.061057396
15	0xbdb7d3b6	-0.089759275
16	0x3e02a648	0.12758744
17	0x3dc83387	0.09775453
18	0x3d0ae849	0.03391293
19	0x3dd9219d	0.10602114
20	0xbc4b7321	-0.012417586
21	0x3dd24eaa	0.1026891
22	0x3d955b6e	0.072928295
23	0x3cffe3d3	0.031236565
24	0x3daba971	0.08381928
25	0xbca95052	-0.020668183
26	0xbdbd2fbd	-0.09237621
27	0x3db2557a	0.087077096
28	0x3d59dee1	0.05319107
29	0x3d5fbb04	0.05462171
30	0x3d771a7a	0.060327984
31	0x3d9d59a8	0.07683116
32	0x3b7fbbc0	0.003902182
33	0xbdc2ae7b	-0.09505936
34	0xbc7bc724	-0.015367303
35	0x3d6371d2	0.05552847
36	0x3c43e2d6	0.011955937
37	0x3d07b0ba	0.033127524
38	0xbdb37869	-0.08763201
39	0x3d32010d	0.043458033
40	0xbaa80945	-0.0012820145
41	0x3c848f53	0.016181624
42	0x3d9f9833	0.077927016
43	0x3d220bad	0.039561916
44	0x3e229eee	0.1588094
45	0x3dfd8c1e	0.12380241
46	0xbda83c0b	-0.08214577
47	0x3d165839	0.03670523
48	0xbd8d510b	-0.06900223
49	0x3d505b7f	0.050868507
50	0xbdee3866	-0.11631851
51	0x3da2eb9c	0.07955095
52	0xbddf4d2c	-0.10903391
53	0x3ba5a5a0	0.0050551444
54	0xbda09c1a	-0.07842274
55	0xbdc3a06f	-0.09552085
56	0xbdcb46bc	-0.09925601
57	0xbdcf77e7	-0.101302914
58	0xbd85b575	-0.06528751
59	0xbc366bf5	-0.011134137
60	0x3d8762aa	0.066106156
61	0xbdf7ac2c	-0.12093386
62	0xbb346b06	-0.0027529611
63	0xbd1a0063	-0.037598025
64	0x3daf0f65	0.08547858
65	0x3a61c6b0	0.00086126756
66	0x3c2e93ff	0.010655402
67	0xbdd86385	-0.10565857
68	0x3d8318ae	0.06401192
69	0xbdbe3ebc	-0.092893094
70	0x3d505a36	0.05086728
71	0x3d96a26b	0.073551975
72	0xbb654d07	-0.0034988539
73	0xbde25af7	-0.110525064
74	0xbdc0bd87	-0.094111495
75	0xbe07db64	-0.13267285
76	0xbbaa4737	-0.0051964778
77	0xbe136870	-0.14395308
78	0x3df70767	0.12061959
79	0xbdc25ccf	-0.09490358
80	0x3d409327	0.047015335
81	0xbbed0fe0	-0.0072345585
82	0xbd082249	-0.033235822
83	0x3d7388a9	0.0594565
84	0xbd844439	-0.06458325
85	0x3d978f5d	0.07400391
86	0xbd813087	-0.06308084
87	0xbd55d9db	-0.052209716
88	0x3c08079d	0.008302596
89	0xbd141559	-0.03615317
90	0x3c4e84d8	0.012604915
91	0xbd8c5a90	-0.06853211
92	0x3d188be5	0.03724279
93	0xbd50de5d	-0.050993312
94	0xbdbfd6cc	-0.09367141
95	0x3cf874fc	0.03032922
96	0x3dc23cb7	0.09484237
97	0xbe33f30d	-0.17573185
98	0xbd77dc8f	-0.060513075
99	0xbe02821c	-0.12744945
100	0xbddf6ffc	-0.10910031
101	0x3dd5aa7f	0.1043291
102	0xbd495db5	-0.04916163
103	0x3d71e345	0.05905463
104	0x3de73dc3	0.11291077
105	0x3dcab70a	0.09898193
106	0xbd36eb78	-0.044658154
107	0x3d4a9f88	0.049468547
108	0xbe0bd2d8	-0.1365465
109	0x3d340560	0.04395044
110	0xbcc1b706	-0.023646843
111	0x3d496304	0.049166694
112	0xbc548aca	-0.012972543
113	0xbdec91aa	-0.11551221
114	0xbda7ea99	-0.08199043
115	0xbe467855	-0.1938184
116	0x3d1ce0ac	0.0383002
117	0xbc80eef6	-0.015738945
118	0x3e0b07e6	0.13577232
119	0x3dc3eb1a	0.095663264
120	0x3d4a95ea	0.049459375
121	0xbd224720	-0.03961861
122	0x3e1aa9cf	0.1510384
123	0xbdd711bb	-0.10501429
124	0xbd9ff7fc	-0.07810971
125	0xbd37b242	-0.044847734
126	0xbdc96c6a	-0.098351315
127	0xbd58ca1c	-0.05292712
128	0x3dcf2603	0.10114672
129	0xbd24726b	-0.04014818
130	0xbc5e4804	-0.013566975
131	0x3b9f324b	0.0048582903
132	0x3dd3eadd	0.10347531
133	0xbdcc9be0	-0.09990668
134	0x3cac6cb2	0.021047924
135	0x3c713ed2	0.01472445
136	0x3c9c6b35	0.019094089
137	0xbdad1d53	-0.08452859
138	0x3c1c74ef	0.0095493635
139	0x3dad125d	0.08450768
140	0x3e06d065	0.13165434
141	0x3d9fa29d	0.07794688
142	0x3c405e92	0.011741297
143	0xbd3acb7b	-0.04560421
144	0x3a11640c	0.0005546219
145	0x3dd51deb	0.10406097
146	0x3d90eb60	0.07076144
147	0xbd28aef8	-0.04118249
148	0xbaf1c015	-0.0018444086
149	0xbc4a1dd6	-0.012336215
150	0xbdd0ed36	-0.102014944
151	0x3b8c8b9b	0.004289103
152	0x3d03499c	0.03205262
153	0x3db39776	0.08769123
154	0x3c12fd81	0.008971573
155	0x3dc86a6a	0.09785922
156	0xbdac5225	-0.08414105
157	0x3d8353ae	0.06412445
158	0x3d8ea935	0.069658674
159	0xbdc52a8b	-0.09627255
160	0xbce93414	-0.028467216
161	0xbd98eb8d	-0.07466803
162	0xbd9c7548	-0.07639557
163	0x3dc45e4a	0.09588297
164	0xbddc58a2	-0.10759093
165	0x3d1a14ea	0.0376176
166	0x3d194507	0.037419345
167	0x3dcfd11c	0.10147306
168	0x3df0b547	0.11753326
169	0xbda3a5b5	-0.079905905
170	0x3dcbfccb	0.09960326
171	0x3d6f4505	0.05841543
172	0x3ca50b56	0.020147007
173	0xbdd6c345	-0.104864635
174	0x3da28995	0.07936398
175	0x3dfb7969	0.122790165
176	0xbd8406ba	-0.064465955
177	0xbd325919	-0.043542
178	0xbdd8d29a	-0.10587044
179	0x3d4e1750	0.0503152
180	0xbd8b494f	-0.06801092
181	0xbd05be9a	-0.032652475
182	0xbd97e32f	-0.07416379
183	0x3d454c81	0.048168663
184	0x3d8c75dc	0.068584174
185	0xbdea9e47	-0.1145597
186	0x3d83b18b	0.06430348
187	0x3db9d90b	0.09074601
188	0xbdf73859	-0.12071294
189	0xbd5398bb	-0.051659327
190	0x3cab4393	0.020906245
191	0xbdeaf670	-0.114727855
192	0xbdc214c1	-0.09476615
193	0x3ddfa9d7	0.10921066
194	0xbde3262d	-0.11091266
195	0xbd210403	-0.039310466
196	0xbded9fa2	-0.11602713
197	0x3d89f886	0.06736855
198	0x3da0edc4	0.0785785
199	0xbdf83c03	-0.12120821
200	0x3d3bcce5	0.0458497
201	0xbd100b4f	-0.035167035
202	0x3dedeeb8	0.116177976
203	0x3c5dda64	0.013540838
204	0xbdebbf67	-0.115111165
205	0x3c2cd0c2	0.010547819
206	0xbd8042cd	-0.06262741
207	0x3dc2b93c	0.09507987
208	0xbced10f9	-0.028938757
209	0xbc05bb50	-0.008162335
210	0x3cb025aa	0.021502335
211	0xbdb8d4eb	-0.09024986
212	0x3dac1177	0.08401769
213	0xbdce0af0	-0.1006068
214	0x3c7cebf3	0.015437114
215	0xbdba4950	-0.090960145
216	0x3c4aad50	0.0123704225
217	0xbcd311f7	-0.025765402
218	0x3d806449	0.06269128
219	0xbd8e1302	-0.06937219
220	0x3dda56c8	0.106610835
221	0xbe030555	-0.12795003
222	0x3de8f629	0.11375076
223	0xbd99d47b	-0.075112306
224	0x3c034a46	0.008013314
225	0xbdba8312	-0.09107031
226	0x3deca3ef	0.11554705
227	0xbd564421	-0.052311067
228	0xbdcb9d2c	-0.099420875
229	0x3d3e2481	0.04642153
230	0x3de75277	0.11295026
231	0x3dba017e	0.09082316
232	0x3dcde69e	0.10053752
233	0xbd1bc263	-0.03802718
234	0x3e087097	0.133242
235	0x3dad284d	0.084549524
236	0x3dc724c5	0.0972381
237	0xbd9a5daf	-0.075374
238	0x3c8744b9	0.016512262
239	0xbdb6a82a	-0.089187935
240	0xbd88fbe2	-0.06688668
241	0x3e03d386	0.12873659
242	0x3d190095	0.03735407
243	0xbcd41c06	-0.025892269
244	0xbd9538a3	-0.07286193
245	0xbc903f61	-0.017608346
246	0x3ded8303	0.11597254
247	0x3c92e2e8	0.017930463
248	0xbd31878d	-0.043342162
249	0x3d32cb96	0.043651186
250	0x3e0e1b25	0.13877542
251	0x3d9a8df6	0.07546608
252	0xbd71a0ce	-0.058991246
253	0x3dbbd66c	0.09171757
254	0xbde84a32	-0.11342277
255	0xbca5ed62	-0.020254795

lstm.weight_ih_l0_reverse f4 [256, 4]
0	0x3de6fd09	0.112787314
1	0x3e0d0772	0.13772371
2	0x3bc63d3c	0.00604978
3	0x3ded5214	0.11587921
4	0x3d443b7d	0.047908295
5	0xbe0325ad	-0.12807341
6	0xbdbbbf30	-0.091673255
7	0x3d600c0f	0.054699
8	0x3d7c0bd7	0.06153473
9	0x3c42939a	0.011876011
10	0x3da9e610	0.08295834
11	0x3d0a652f	0.033787902
12	0xbce1515e	-0.02750462
13	0x3ba875c7	0.0051409933
14	0x3e4bed41	0.19914724
15	0x3d790f69	0.060805712
16	0xbccac33b	-0.024751296
17	0xbd5f1595	-0.05446394
18	0x3d8aebb6	0.067832395
19	0xbe0529eb	-0.13004272
20	0x3d5df1c6	0.05418565
21	0x385b8c02	5.234406e-05
22	0x3c9455f4	0.018107392
23	0x3e054880	0.13015938
24	0xbd440446	-0.047855638
25	0x3e2bb7d2	0.1676934
26	0xbe0a9619	-0.1353382
27	0x3d468841	0.048469786
28	0xbdd51b69	-0.10405619
29	0xbc5eb91a	-0.013593936
30	0xbd96b99a	-0.073596194
31	0x3c4a4ab8	0.012346916
32	0x3d1b769a	0.037954904
33	0x3df59efd	0.11993215
34	0x3e27f1ab	0.16400783
35	0xbce3b4ec	-0.027796231
36	0x3e2d9bae	0.16953918
37	0x3e197ff9	0.14990224
38	0x3d96964f	0.07352888
39	0xbc59e617	-0.013299487
40	0x3c90156d	0.017588342
41	0x3e22f515	0.15913804
42	0x3e4802fd	0.1953239
43	0x3db6f296	0.08932988
44	0x3e3fbd56	0.1872457
45	0xbc508f6c	-0.012729507
46	0x3b13aa03	0.0022531755
47	0xbd08bfac	-0.033385918
48	0xbd13981c	-0.036033735
49	0x3df60978	0.12013525
50	0xbd8abeb3	-0.06774654
51	0x3db7ca71	0.089741595
52	0xbd6fead2	-0.05857355
53	0x3d30bb14	0.04314716
54	0x3dc1d2d6	0.09464042
55	0xbdb60896	-0.088883564
56	0xbd19cfe9	-0.037551794
57	0xbcfee5d5	-0.031115452
58	0x3a004b4c	0.00048940326
59	0x3cad950f	0.02118924
60	0x3daf13ac	0.08548674
61	0x3de19490	0.11014664
62	0x3df05e93	0.117367886
63	0x3dda9b19	0.10674114
64	0x3cab40c1	0.0209049
65	0x3d9a2eb9	0.07528443
66	0xbc8f4b92	-0.01749209
67	0x3e0b44cd	0.13600464
68	0x3dbaabf8	0.09114832
69	0xbd674817	-0.056465235
70	0x3e33f65d	0.17574449
71	0xbcb83883	-0.022487884
72	0x3d577d16	0.052609526
73	0x3de8ff06	0.11376767
74	0xbe3ffbcc	-0.18748397
75	0xbd36909c	-0.044571504
76	0x3d928938	0.07155079
77	0xbd139474	-0.036030248
78	0x3d9d0a22	0.07667948
79	0xbd8c5acf	-0.06853258
80	0x3db7e332	0.08978881
81	0xbdf2dad2	-0.11858143
82	0x3ccde1f8	0.025132164
83	0xbda841ca	-0.08215673
84	0xbddb06a9	-0.1069463
85	0xbd529f8e	-0.051421694
86	0xbb43fe59	-0.0029906242
87	0xbb8c0287	-0.004272762
88	0xbc0cc650	-0.008592203
89	0x3bcf2076	0.0063210083
90	0x3e032d32	0.1281021
91	0x3d847128	0.06466895
92	0x3cbc390d	0.022976423
93	0xbdbcd3d3	-0.0922009
94	0xbb4ad498	-0.003094947
95	0x3dbaa8c7	0.09114223
96	0x3d878131	0.06616438
97	0x3e22abfa	0.15885916
98	0x3d98f837	0.07469218
99	0xbd44d4b2	-0.048054405
100	0x3e355ca8	0.17711127
101	0xbccd1806	-0.02503587
102	0xbd25c810	-0.040473998
103	0x3e0edba8	0.1395098
104	0xbc4067e0	-0.011743516
105	0x3d2a92e3	0.04164399
106	0x3e155ca5	0.14586122
107	0x3d398d0d	0.045300532
108	0x3c57d21c	0.013172653
109	0x3e00b8fc	0.12570566
110	0x3e5496b3	0.20760612
111	0xbd3ae422	-0.04562772
112	0x3dca932b	0.09891351
113	0xbc1546c3	-0.009111109
114	0x3cfa3130	0.030541033
115	0xbd15ca66	-0.036569975
116	0x3df27452	0.118385926
117	0x3d696c50	0.05698806
118	0xbd8b7114	-0.06808677
119	0x3d865bf4	0.065605074
120	0x3d3f9bff	0.04677963
121	0x3dd2ad16	0.1028692
122	0xbdda0f84	-0.106474906
123	0xbc2c9a5b	-0.010534848
124	0x3d5e829d	0.05432378
125	0xbd724310	-0.059145987
126	0x3e581459	0.21101512
127	0x3e1d0b3c	0.15336317
128	0x3e13f8e8	0.14450419
129	0xbd6d39d0	-0.057916462
130	0x3cf2e129	0.02964838
131	0x3deb6bfa	0.11495204
132	0x3db5bb02	0.088735595
133	0xbb2d35b7	-0.0026429722
134	0xbce7d7dd	-0.028301174
135	0x3e2e6017	0.17028843
136	0x3dd026d5	0.101636566
137	0x3ddf3e53	0.10900559
138	0xbc4a4a2a	-0.012346784
139	0x3dc8ec9f	0.09810757
140	0x3d886c1f	0.066612475
141	0xbcd4184b	-0.02589049
142	0xbd2a8f48	-0.04164055
143	0x3da0abdf	0.07845282
144	0xbcdf741a	-0.027277041
145	0x3d1d8323	0.03845514
146	0xbc3fbf2c	-0.011703294
147	0x3e19f6e1	0.15035583
148	0x3d1c434c	0.038150117
149	0x3e02ae62	0.12761834
150	0x3deb5c78	0.114922464
151	0x3e02b854	0.12765628
152	0xbc888a7e	-0.0166676
153	0x3d264573	0.040593576
154	0xbd69114d	-0.056901265
155	0x3c62f7e0	0.013853043
156	0x3e190161	0.14941932
157	0x3e01521d	0.1262898
158	0xbce43a5b	-0.027859857
159	0x3d8b0fec	0.06790146
160	0x3ce8661c	0.028369002
161	0xbcd8dda0	-0.026472867
162	0x3e2c30e7	0.1681553
163	0xbbe425ed	-0.006962529
164	0x3e401510	0.18758035
165	0x3d60df13	0.05490024
166	0x3e468c74	0.19389516
167	0x3d8366d0	0.06416094
168	0x3d8f1a93	0.069874905
169	0x3e1994f0	0.14998221
170	0x3d86c2c7	0.065801196
171	0x3cd9b7d0	0.026576906
172	0x3ddbd911	0.107347615
173	0x3a78ee70	0.0009495979
174	0x3e0d76c3	0.13814835
175	0x3e11bf47	0.14233123
176	0xbc606814	-0.013696689
177	0xbdc9afcf	-0.09847986
178	0x3d7f833d	0.062381018
179	0xbc7c351c	-0.015393522
180	0xbc37ce32	-0.011218594
181	0x3dea53b5	0.11441747
182	0x3e44d446	0.19221601
183	0x3d81ecde	0.06344007
184	0x3e2beedc	0.16790336
185	0x3dcd58b2	0.10026683
186	0xbd53185d	-0.051536907
187	0x3e4472d2	0.19184425
188	0x3dabf3ac	0.08396086
189	0x3d661348	0.05617073
190	0xbd886b86	-0.066611335
191	0x3cb4ab3b	0.022054305
192	0xbd08377a	-0.03325603
193	0xbdcd3fd9	-0.100219436
194	0xbe3b0172	-0.1826227
195	0xbb963a6a	-0.0045846
196	0x3cd3c143	0.02584899
197	0x3d6d576d	0.057944704
198	0x3ddf2cf7	0.10897248
199	0x3d210d49	0.03931931
200	0xbd85683b	-0.06514021
201	0x3d8056c7	0.062665515
202	0x3baeecf7	0.005338307
203	0xbc9498a7	-0.018139197
204	0x3cb2745c	0.021784
205	0x3d734635	0.059393127
206	0x3b2b72c3	0.0026160933
207	0xbd53f82b	-0.051750343
208	0xbdab8844	-0.083756
209	0xbde5f6c9	-0.11228711
210	0xbd8ac033	-0.0677494
211	0x3d984c42	0.0743642
212	0xbd70b974	-0.058770612
213	0xbd652b17	-0.055949297
214	0xbb7e265a	-0.0038780184
215	0x3e0c54ad	0.13704176
216	0x3e48e07b	0.19616883
217	0x3db3a696	0.08772008
218	0xbc490227	-0.01226858
219	0x3db5c146	0.088747546
220	0x3d8ba25a	0.068180755
221	0xbd4ddec8	-0.05026129
222	0xbd831034	-0.06399575
223	0x3d0ef679	0.034903023
224	0x3d65d689	0.0561128
225	0xbd3cb12e	-0.04606741
226	0x3e37dfab	0.17956416
227	0x3cd38cce	0.025823977
228	0xbc96fdb3	-0.01843152
229	0x3db22e18	0.08700198
230	0xbce50e8c	-0.027961038
231	0x3d80725b	0.062718116
232	0x3dbd6cff	0.09249305
233	0x3d8fe0e7	0.070253186
234	0x3cc6b6fe	0.02425718
235	0x3e044590	0.12917161
236	0xbce14f60	-0.02750367
237	0x3ccf7aa2	0.02532703
238	0x3d137f96	0.036010347
239	0x3d83f738	0.064436376
240	0x3e342b82	0.17594722
241	0x3cb18611	0.021670373
242	0x3d3bc087	0.045837905
243	0xbd236146	-0.03988769
244	0x3d52622a	0.051363148
245	0x3e03a07b	0.12854187
246	0x3d2e1259	0.042497966
247	0x3d876f99	0.066130824
248	0xbd8f1e7b	-0.069882356
249	0x3d88677a	0.066603616
250	0xbd9837d8	-0.07432526
251	0xbdce86ef	-0.1008433
252	0xbdb8ecef	-0.090295665
253	0x3d8a5c96	0.067559406
254	0x3c563db5	0.013076236
255	0x3e18fdd0	0.14940572

lstm.weight_hh_l0_reverse f4 [256, 64]
0	0xbd8678a9	-0.06565983
1	0x3c433394	0.011914153
2	0xbdb74e6b	-0.08950504
3	0xbdc14c79	-0.09438414
4	0xbda44922	-0.080217615
5	0x3d0f776a	0.03502599
6	0x3da6f98f	0.08153068
7	0x3d02dbb5	0.03194781
8	0x3db2bf81	0.08727933
9	0x3d90df91	0.07073892
10	0xbd8292ad	-0.063756324
11	0x3ba69c2c	0.005084535
12	0x3d044f25	0.03230204
13	0x3dd30286	0.10303216
14	0xbdc92d61	-0.098231085
15	0xbbb0d6bd	-0.0053966925
16	0xbd376407	-0.044773128
17	0x3dd977c3	0.10618546
18	0xbcbbde37	-0.022933109
19	0x3e066335	0.13123782
20	0xbdfeb6c7	-0.12437206
21	0xbdd75661	-0.10514522
22	0x3de0bc75	0.10973445
23	0x3d578d2a	0.05262486
24	0x3e0f53f9	0.13996877
25	0xbde7bde5	-0.113155164
26	0xbe1150a0	-0.14190912
27	0xbbaa0d7b	-0.0051895953
28	0x3d8530ee	0.06503473
29	0xbdd0f361	-0.10202671
30	0x3d31788d	0.043327857
31	0xbddf806d	-0.10913167
32	0xbc63e22b	-0.013908903
33	0x3b695601	0.003560424
34	0xbd91f9dd	-0.07127736
35	0x3cc47859	0.023983167
36	0x3dc3b5f9	0.09556193
37	0xbe0afafe	-0.13572308
38	0xbc956fac	-0.018241726
39	0x3b1f1c1c	0.002427823
40	0x3e01b512	0.12666729
41	0xbdd5995c	-0.104296416
42	0x3c6e0099	0.01452651
43	0xbd13d504	-0.03609182
44	0x3d2439cc	0.040094182
45	0xbd1ea140	-0.038728
46	0xbd0cd26a	-0.034380354
47	0xbcdf407f	-0.027252434
48	0x3c1e83f4	0.009675015
49	0xbd86e041	-0.06585742
50	0xbd320c75	-0.04346891
51	0x3db58758	0.088637054
52	0x3e009e2b	0.12560336
53	0x3daacda9	0.08340008
54	0x3d094fd5	0.0335234
55	0xbdad887c	-0.08473298
56	0xbd21e31b	-0.039523225
57	0x3e0d1c47	0.13780318
58	0xbcb25a7f	-0.021771668
59	0x3da48af7	0.08034318
60	0x3cd7ee69	0.0263588
61	0x3d47aa29	0.04874626
62	0xbe00e835	-0.1258858
63	0xbd6628d0	-0.056191266
64	0xbdbce348	-0.09223038
65	0xbd71920c	-0.05897717
66	0xbda0f95d	-0.07860062
67	0x3db1bcc5	0.08678583
68	0xbddbe2ac	-0.107365936
69	0xbd390a53	-0.04517586
70	0x3cb47e25	0.022032807
71	0xbc25cb9a	-0.010119343
72	0xbc88c1f9	-0.016694056
73	0x3d9466dc	0.07246181
74	0xbd8d22aa	-0.06891377
75	0x3d836b8c	0.06416997
76	0xbdeac13a	-0.11462636
77	0x3d1728a5	0.036903996
78	0xbd3364b1	-0.0437972
79	0x3d9eaa6a	0.07747348
80	0xbda43e8e	-0.08019744
81	0x3cc92430	0.024553388
82	0xbde3339c	-0.11093828
83	0xbcbb4e1e	-0.022864398
84	0x3dd91af0	0.10600841
85	0xbdfa3129	-0.12216408
86	0x3d98f787	0.07469087
87	0xbdc86c0a	-0.09786232
88	0x3c00a149	0.007850953
89	0x3db834b0	0.08994424
90	0x3d022b9a	0.031779863
91	0x3d0ba980	0.034097195
92	0x3d5bd10d	0.053666163
93	0x3e01e3c6	0.12684545
94	0xbddf30b9	-0.10897965
95	0x3db45d9b	0.08806916
96	0x3d9ec1ef	0.07751834
97	0xbd2927de	-0.041297786
98	0x3dc39e2d	0.09551654
99	0x3c5e85c6	0.013581699
100	0xbdf09ecb	-0.11749037
101	0xbd0d37bc	-0.03447698
102	0x3d95e8e1	0.07319809
103	0xbdd27c66	-0.10277633
104	0xbd9e4053	-0.077271126
105	0xbd7bd6c7	-0.061484125
106	0xbd665241	-0.056230787
107	0x3c81b2d4	0.015832342
108	0xbd574635	-0.05255719
109	0x3dcb20e9	0.099183865
110	0xbd9999ab	-0.07500013
111	0xbd303bf5	-0.04302593
112	0xbdf03ffd	-0.11730955
113	0x3db40965	0.08790854
114	0x3cb34ea8	0.021888092
115	0x3c7f1144	0.015568081
116	0xbda7652d	-0.081735946
117	0x3d1f6699	0.038916204
118	0xbcba0e3d	-0.022711867
119	0xbd936e5f	-0.07198786
120	0xbcba6bc1	-0.02275646
121	0x3dbfe249	0.09369332
122	0xbdac1522	-0.08402468
123	0xbd151bc5	-0.036403436
124	0x3d67f54f	0.05663043
125	0x3d6ec062	0.05828894
126	0xbb7fad31	-0.0039013142
127	0xbd4e7eec	-0.05041401
128	0x3dad3fc3	0.08459427
129	0x3d56b1a4	0.052415505
130	0x3be643d2	0.007027128
131	0xbc8ad661	-0.016947927
132	0x3ddfc224	0.10925701
133	0x3dc956ee	0.09831034
134	0xbcc85ac5	-0.024457345
135	0xbd2772f7	-0.040881123
136	0x3e003dc1	0.12523557
137	0x3d74c327	0.059756424
138	0xbdd7a83c	-0.10530135
139	0xbdb86988	-0.090045035
140	0x3d625ad9	0.05526242
141	0x3d0f575e	0.03499543
142	0xbda0df94	-0.07855144
143	0xbdaa43a9	-0.083136864
144	0x3c032e6d	0.008006674
145	0xbd9a2227	-0.07526045
146	0xbd8f9611	-0.07011045
147	0xbdec0861	-0.11525036
148	0x3cb35cd0	0.021894842
149	0xbe06707a	-0.13128844
150	0xbdfb4b6d	-0.12270246
151	0x3d9e2867	0.0772255
152	0xbcdcba74	-0.026944377
153	0x39a5de89	0.00031637054
154	0xbd738c55	-0.059460003
155	0x3d900c6e	0.07033621
156	0xbe14bf64	-0.14526135
157	0xbdadbe4e	-0.08483563
158	0xbe00e51e	-0.12587401
159	0x3dc5e613	0.09663024
160	0xbcf83b2b	-0.030301651
161	0xbdfdaa21	-0.12385965
162	0x3c8eabd9	0.017415928
163	0xbdb536f2	-0.088483706
164	0x3ba3dfdd	0.005001052
165	0x3d534fe2	0.051589854
166	0x3d8008f4	0.06251708
167	0xbb18199f	-0.002320863
168	0x3dc5570d	0.09635744
169	0x3d805340	0.06265879
170	0x3d3b0bdc	0.045665607
171	0x3dc69a3f	0.09697389
172	0x3dba5de5	0.0909994
173	0x3e1b33bc	0.15156454
174	0x3d861ec2	0.06548835
175	0x3d4e25f3	0.05032916
176	0xbd8db505	-0.06919292
177	0x3d81879d	0.06324694
178	0x3c4ba77b	0.012430067
179	0x3dfc3c28	0.123161614
180	0xbd227413	-0.03966148
181	0x3d96ef82	0.07369901
182	0xbcb5e880	-0.022205591
183	0xbdb3c72a	-0.08778222
184	0xbcfde584	-0.03099323
185	0x3db2ea51	0.087360986
186	0x3cc2905a	0.023750473
187	0xbd33ccc0	-0.043896437
188	0x3de3e54d	0.1112772
189	0xbd5a0af1	-0.05323309
190	0x3d819509	0.06327254
191	0x3bd8041d	0.006592287
192	0xbd678b50	-0.056529343
193	0xbd9cdd67	-0.07659417
194	0x3ddb08cc	0.10695037
195	0x3ce6cf9c	0.028175168
196	0xbe066f89	-0.13128485
197	0x3cdfa9c4	0.02730263
198	0x3e1746db	0.14773123
199	0x3d923daf	0.071406715
200	0xba01ef58	-0.00049566245
201	0xbe015bea	-0.12632719
202	0xbddbad76	-0.107264444
203	0xbd3b08b0	-0.045662582
204	0xbdaa28fe	-0.083086
205	0xbe10699a	-0.14102784
206	0xbd3e53cb	-0.04646663
207	0x3d9f89cd	0.07789955
208	0x3dbc4959	0.091936775
209	0x3d9bc1f4	0.07605353
210	0xbaca55f4	-0.0015436993
211	0xbde2f838	-0.110825
212	0x3db23d81	0.08703137
213	0xbca4c1ec	-0.020112
214	0x3dadea53	0.084919594
215	0x3d96d9b1	0.0736574
216	0x3b7a5626	0.003819832
217	0xbde0d66a	-0.10978396
218	0xbdcfa031	-0.10137976
219	0x3dfafd9b	0.12255403
220	0x3d268f74	0.04066415
221	0x3d815168	0.06314355
222	0x3d1cc7a6	0.038276337
223	0x3cc5bf1e	0.024138983
224	0xbdcf40b1	-0.10119761
225	0xbd77cd8c	-0.06049876
226	0xbce232ae	-0.027612057
227	0x3bf45fb6	0.0074576987
228	0x3e137c5e	0.14402911
229	0xbd8a9a77	-0.06767743
230	0xbd2b61b6	-0.04184123
231	0x3da63f0f	0.08117496
232	0x3d6797d2	0.05654127
233	0xbd8ce425	-0.068794526
234	0xbd9c5a45	-0.07634405
235	0x3de43edc	0.11144802
236	0x3c83b791	0.016078742
237	0xbdb35fd5	-0.08758513
238	0x3d31ab3d	0.043376196
239	0x3de472a0	0.111546755
240	0xbd34b952	-0.044122048
241	0xbc23598a	-0.009970078
242	0xbd5437cd	-0.05181103
243	0x3c491873	0.012273896
244	0x3c8266c1	0.015918138
245	0x3b05e808	0.002043249
246	0x3d196903	0.037453663
247	0xbd94dd60	-0.072687864
248	0xbdc3bef2	-0.09557904
249	0x3d80aa12	0.06282438
250	0xbd64a869	-0.05582467
251	0x3cfda016	0.030960124
252	0x3d8f3c43	0.06993916
253	0x3d6a586f	0.057213243
254	0xbd5e8335	-0.054324348
255	0x3db70639	0.08936734

lstm.bias_ih_l0_reverse f4 [256]
0	0xbcea03f2	-0.028566334
1	0xbd4feed0	-0.05076486
2	0x3d8f5b3a	0.06999822
3	0xbda2f52b	-0.07956918
4	0xbdb40726	-0.08790426
5	0x3d8ae8f5	0.06782714
6	0x3de15c64	0.1100395
7	0xbd68d8b8	-0.056847304
8	0x3db293a6	0.08719568
9	0xbd33744a	-0.043812074
10	0xbd38489f	-0.044991132
11	0x3e2a2526	0.16615734
12	0xbd1e5128	-0.038651615
13	0x3d83c1ee	0.064334735
14	0x3d16158b	0.03664164
15	0x3ded13b0	0.11576021
16	0x3e09bad6	0.13450179
17	0xbdc0a175	-0.094057955
18	0x3daab32e	0.08334957
19	0x3d805698	0.062665164
20	0xbda18756	-0.078871414
21	0x3d84eecb	0.06490859
22	0xbc2682c6	-0.010163015
23	0xbc0a8990	-0.008455649
24	0x3dc311cb	0.09524878
25	0xbc590e9f	-0.013248115
26	0xbd3236d1	-0.04350931
27	0xbd3b2039	-0.045685027
28	0x3dd56402	0.104194656
29	0xbd00b6ae	-0.031424217
30	0xbd3f79a6	-0.046746872
31	0x3d9c837d	0.07642267
32	0x3da51029	0.08059723
33	0x3c603e30	0.013686702
34	0x3da2cbce	0.07949029
35	0xbd4f3134	-0.050584033
36	0x3e1bd520	0.1521802
37	0xbda14614	-0.078746945
38	0x3d90fa7f	0.07079028
39	0x3e1b1543	0.1514483
40	0x3cab4f2b	0.020911774
41	0xbd949b13	-0.072561406
42	0x3d5ebce7	0.05437937
43	0x3d99f01f	0.075165026
44	0xbd519150	-0.05116397
45	0x3ca4c5a4	0.020113774
46	0x3de52ac5	0.11189798
47	0x3c6826c3	0.014169398
48	0x3c8844f7	0.016634448
49	0x3b8ae88c	0.0042391475
50	0xbd47c77c	-0.048774227
51	0xbdab1cd1	-0.08355106
52	0xbca547cd	-0.020175839
53	0xbbef8059	-0.0073090014
54	0x3cf01d4d	0.029310847
55	0x3d5c4020	0.053772092
56	0x3d9917a5	0.07475213
57	0x3e38ceb1	0.18047597
58	0xbc9b2c29	-0.018941956
59	0xbdbb2a02	-0.09138872
60	0x3dd0c682	0.10194112
61	0xbd0f09e0	-0.034921527
62	0x3dbeafbd	0.09310863
63	0x3d5ba892	0.053627558
64	0xbdcd2335	-0.10016481
65	0xbda96484	-0.08271125
66	0x3c004b01	0.007830382
67	0xbd1b0525	-0.037846703
68	0x3db64d2c	0.08901438
69	0x3e02b47a	0.12764159
70	0x3d932fca	0.071868494
71	0x3da90afd	0.08254049
72	0x3e1b4dde	0.15166423
73	0x3df43d5d	0.119257666
74	0xbd0a0fc4	-0.03370644
75	0xbd37f46c	-0.044910833
76	0x3cbf1006	0.02332307
77	0x3dcced14	0.100061566
78	0x3d895ccc	0.06707153
79	0xbd86c9b3	-0.0658144
80	0x3db46b2c	0.08809504
81	0x3de2f242	0.11081363
82	0xbd1b7879	-0.03795669
83	0xbcfa72fb	-0.030572405
84	0x3dafaf90	0.08578408
85	0xbdd78163	-0.105227254
86	0x3d6b6a1f	0.05747425
87	0x3cdce301	0.026963713
88	0xbba73cc7	-0.005103681
89	0x3e3a0e96	0.18169627
90	0xbc72688b	-0.014795433
91	0x3d163a8c	0.03667693
92	0x3e143037	0.14471518
93	0xbc3c4c76	-0.011492839
94	0x3dbfe1a9	0.09369213
95	0xbccfc6fa	-0.025363434
96	0x3cae4e41	0.021277549
97	0x3d939551	0.07206214
98	0x3d963db5	0.073359884
99	0x3da79cb8	0.081841886
100	0x3dbc0063	0.09179761
101	0xbc9964f3	-0.018724894
102	0x3d52a946	0.051430963
103	0xbbb2b53b	-0.0054537333
104	0x3b801b45	0.003909501
105	0xbbf9ddb6	-0.007625307
106	0xbda35bb8	-0.07976478
107	0xbd739e39	-0.059477065
108	0xbdb1e151	-0.08685554
109	0x3de4d553	0.11173501
110	0x3e08fce5	0.13377722
111	0xbcc0a96a	-0.023518283
112	0x3d7dd091	0.061966483
113	0xbdc26932	-0.09492721
114	0x3d98d9fc	0.07463452
115	0xbdfb5d06	-0.12273602
116	0xbd9e2cd6	-0.077233955
117	0x3c57ef4f	0.013179614
118	0xbd58c03a	-0.052917697
119	0x3df00b84	0.117209464
120	0x3e40e877	0.18838678
121	0x3dc9f83c	0.098618
122	0x3d6dd6c8	0.05806616
123	0xbd70f2d1	-0.058825318
124	0x3d4566db	0.048193794
125	0x3e04ae9e	0.12957236
126	0x3d33e1ae	0.043916397
127	0x3de3ce99	0.1112339
128	0x3dbf2e91	0.09335054
129	0xbd2ecae3	-0.042673957
130	0xbdc47df9	-0.0959434
131	0xbdac20ef	-0.08404719
132	0x3d831792	0.0640098
133	0xbd5407ed	-0.05176537
134	0xbdf6d105	-0.12051586
135	0xbdf15c86	-0.117852256
136	0xbcc6e1e6	-0.024277639
137	0x3d288954	0.04114659
138	0x3da6bbf6	0.081413195
139	0x3d3d7d4f	0.04626208
140	0x3cac3aa5	0.021024058
141	0xbdd309a5	-0.10304574
142	0xbcf038b1	-0.029323908
143	0x3daf3331	0.08554686
144	0xbd842ee3	-0.064542554
145	0x3d832818	0.06404132
146	0xbd80b244	-0.062840015
147	0xbdc45d42	-0.095881
148	0x3c724e50	0.014789179
149	0x3d0a8feb	0.033828657
150	0x3db3c33c	0.087774724
151	0xbd91c023	-0.07116725
152	0x3c9b8a99	0.018986987
153	0x3d69110f	0.056901034
154	0x3dc8546e	0.09781729
155	0x3da61b2b	0.08110651
156	0x3cf11b7d	0.029432053
157	0x3d890435	0.066902556
158	0x3d1b93d4	0.037982777
159	0xbdda5b7a	-0.10661979
160	0xbe0291d8	-0.12750947
161	0xbc9d1632	-0.019175623
162	0xbd88bf82	-0.06677152
163	0x3d997f1a	0.07494946
164	0x3d1dad37	0.03849527
165	0x3d8471b3	0.06466999
166	0x3dc6fbe8	0.09716016
167	0x3d91b3c9	0.071143694
168	0x3df4fecb	0.119626604
169	0xbdc63fe7	-0.09680157
170	0x3daa7bf5	0.08324424
171	0xbdd25b71	-0.10271347
172	0xbd94aa05	-0.07258991
173	0xbbcaf5db	-0.006193859
174	0xbc920e1f	-0.017829
175	0xbdcd0253	-0.10010209
176	0x3cfbb865	0.030727575
177	0xbdd59bc2	-0.10430099
178	0x3deca65e	0.115551695
179	0x3d44abf8	0.048015565
180	0xbc5ebca7	-0.013594783
181	0xbdafe6a1	-0.08588911
182	0xbd686043	-0.056732427
183	0xbab4619d	-0.0013762001
184	0x3dd9c27a	0.106327966
185	0x3d647ec7	0.055784967
186	0xbdbd6f9c	-0.092498034
187	0xbd911853	-0.070847176
188	0xbcf24cce	-0.029577639
189	0xbce640e7	-0.02810712
190	0x3df886e0	0.121351
191	0x3d844497	0.06458395
192	0xbb8ddd4e	-0.00432936
193	0xbe04296a	-0.12906423
194	0xbd715eae	-0.058928184
195	0x3df913a2	0.12161948
196	0xbdfbc21a	-0.12292881
197	0x3d1a4226	0.03766074
198	0x3d11eab1	0.03562421
199	0xbb373321	-0.002795406
200	0x3cd7c8a4	0.02634079
201	0x3e002701	0.12514879
202	0xbcdfe842	-0.027332429
203	0x3e0dc5c2	0.1384497
204	0xbd355059	-0.04426608
205	0x3e12ac7d	0.14323612
206	0x3ccfd2bf	0.025369046
207	0xbce519bd	-0.027966375
208	0x3e0d5f11	0.13805796
209	0x3dddc41f	0.10828423
210	0x3dfb5f26	0.122740075
211	0x3e040382	0.12891963
212	0xbdd8181f	-0.10551476
213	0x3dc15303	0.09439661
214	0x3c878a26	0.016545366
215	0x3db85060	0.08999705
216	0xbd2d5824	-0.042320386
217	0x3e4ff03c	0.20306486
218	0xbcf901e9	-0.030396419
219	0xbdd44578	-0.103648126
220	0x3b6e54f9	0.0036366566
221	0xbd8a90a6	-0.06765871
222	0x3c639da9	0.01389257
223	0xbd80f5dc	-0.06296894
224	0x3e277de3	0.16356616
225	0x3ccd65c0	0.025072932
226	0x3cf2bbc9	0.029630559
227	0x3db1928a	0.08670528
228	0xbd6eee8f	-0.058332976
229	0x3e152483	0.1456471
230	0x3e37ceb9	0.17949952
231	0x3e12632a	0.1429564
232	0x3e041195	0.12897332
233	0x3dd20b58	0.1025607
234	0x3e008dc6	0.12554082
235	0x3d19455e	0.03741967
236	0xbdcfc8f7	-0.10145753
237	0x3cc93985	0.02456356
238	0x3da7d989	0.081957884
239	0x3c62d40d	0.013844502
240	0x3dad7964	0.08470419
241	0x3d4ea6a9	0.05045191
242	0x3c6ae927	0.014337814
243	0x3dd6d757	0.104902916
244	0xbcca8cd3	-0.024725353
245	0x3c3f8f45	0.011691873
246	0x3cebdb4d	0.028791094
247	0x3c55d244	0.0130506195
248	0x3da306c7	0.07960277
249	0x3be69576	0.00703686
250	0x3e3aa34f	0.1822636
251	0xbd6ac26e	-0.05731433
252	0x3e3970f6	0.18109497
253	0x3e42ea84	0.19034773
254	0x3db85a23	0.09001567
255	0xbcc4456b	-0.023958882
