backend/api/ml/models/model_c624c5b8-67eb-4cc0-bb0d-1a65e820157f.pth (torch, 949173 bytes, 26 tensors)

lstm.weight_ih_l0 f4 [256, 4]
-0.08441247 -0.08660291 -0.016733376 -0.066301584 0.06478294 -0.005425732 0.093965665 0.05950818
-0.08842514 0.0048779105 0.022466293 -0.022043575 0.08595953 0.04010066 -0.0336297 0.022421302
0.12531795 -0.032353252 -0.0962377 0.04131563 0.147166 0.03714762 -0.0153355645 0.07083303
0.020910881 0.07275198 0.14520504 -0.041800782 0.15534876 0.0023161878 0.09664691 -0.08514206
0.01343501 -0.030400505 -0.06760783 -0.0014873195 -0.026368735 0.080498405 0.008399426 -0.033212386
0.09069377 -0.034575354 -0.11317222 0.00058901234 -0.07334127 0.12503238 0.049686763 -0.07242787
0.07096109 0.034180105 -0.1063409 0.05790966 -0.100545056 -0.06002287 0.08703863 -0.004889225
0.025134284 -0.08712672 -0.025147226 -0.009620611 -0.04667489 0.0077982345 -0.10146975 0.050447144
0.13017535 -0.05091712 0.09472163 0.11642062 -0.044818915 0.07162649 -0.053906325 0.12222502
-0.1005461 0.1045963 0.07602837 0.075678214 0.06505246 -0.04653517 -0.06658209 -0.008977784
0.07686418 0.046235725 0.026149036 -0.061810646 0.09247184 -0.033277817 -0.056984853 0.13706109
-0.05935171 0.07505285 0.1273143 -0.12147749 0.07497476 -0.07738142 -0.13567086 -0.0592779
0.09397441 -0.1217442 -0.0074489797 0.039959244 0.12752248 -0.03595083 -0.14292085 -0.08091824
-0.03875467 -0.034359127 0.02660581 -0.080162555 0.020590326 -0.060992695 -0.077036686 0.05719856
0.055754676 0.120260894 -0.061137587 -0.05523132 0.021648197 -0.02547342 -0.08702056 0.016064836
-0.045840524 0.019247888 0.1649801 -0.071079135 -0.05387277 -0.07758853 -0.049863014 -0.11238215
0.032300632 0.021394573 -0.06033598 -0.08080161 -0.0074767536 -0.025327336 0.048172414 0.05756257
-0.069680475 0.0033653174 0.11193112 0.097762525 0.18695927 -0.026720183 -0.008011343 -0.017017834
0.131925 -0.022021297 0.094258845 -0.110818364 0.049452487 0.09673842 0.0848203 0.08267575
0.04824944 0.103546105 0.08843888 -0.017850388 -0.060706805 -0.0620899 0.054636817 0.029801171
0.010207346 0.09481272 0.04646731 0.05428264 -0.044299904 -0.010906294 0.08431962 0.053333856
0.055936407 0.09015605 0.066304006 0.026781894 0.18977231 0.13174294 0.09723298 0.11535828
-0.027269702 -0.039647833 0.15121542 0.07304934 -0.08297701 0.09482015 0.11675216 -0.10169755
0.030516233 -0.07254569 -0.01373373 -0.047678944 -0.03735022 -0.046515077 0.11866977 0.0024312427
0.04632924 0.019988038 -0.009570023 0.010065815 0.03563607 -0.1034435 0.037773017 -0.08577452
0.08568873 0.105876945 -0.1111524 -0.033547647 0.12209868 0.04249773 0.087581724 -0.084194
0.07773456 -0.033787552 0.048849028 0.0044677295 0.069014065 0.07229969 -0.095735356 -0.031553816
-0.025783107 0.017091135 -0.10221683 -0.015175425 -0.079814956 -0.07531923 -0.08518065 -0.04929613
0.11658591 -0.017261475 0.09505179 0.0026806688 -0.025538465 -0.10713411 -0.097199716 -0.041276895
-0.102040544 -0.09262102 -0.0017664005 -0.05603401 0.08117779 0.051085208 0.009583796 0.119173594
0.0038994402 0.067541756 0.061339304 0.076422304 -0.025107654 0.0908196 -0.09886373 -0.058829498
-0.013193743 0.022453558 0.10230854 0.09416977 -0.06868047 0.042664375 -0.059704356 0.020863548
00000000: 72e0 acbd de5c b1bd 6f14 89bc 20c9 87bd
00000010: ebac 843d 57ca b1bb 1271 c03d d9be 733d
00000020: 3d18 b5bd e1d6 9f3b 3b0b b83c ba94 b4bc
00000030: 8d0b b03d 9740 243d 4cbf 09bd e1ac b73c
00000040: 5953 003e d884 04bd 4518 c5bd 943a 293d
00000050: afb2 163e 1a28 183d 0542 7bbc e810 913d
00000060: 4c4d ab3c fdfe 943d a1b0 143e 4c37 2bbd
00000070: bf13 1f3e 2fcb 173b d1ee c53d f65e aebd
00000080: 841e 5c3c 7b0a f9bc f975 8abd 29f2 c2ba
00000090: 3f03 d8bc 59dc a43d bf9d 093c b609 08bd
000000a0: a8bd b93d e39e 0dbd d6c6 e7bd f367 1a3a
000000b0: f333 96bd 7d08 003e 5984 4b3d 1055 94bd
000000c0: 0c54 913d 7000 0c3d 42c9 d9bd ae32 6d3d
000000d0: 91ea cdbd 8ada 75bd 4f41 b23d cb35 a0bb
000000e0: 6ae6 cd3c 7e6f b2bd 8e01 cebc c49f 1dbc
000000f0: 2b2e 3fbd 5588 ff3b 5fcf cfbd aaa1 4e3d
00000100: b04c 053e 788e 50bd 6afd c13d ef6d ee3d
00000110: 0a94 37bd e9b0 923d e1cc 5cbd 1c51 fa3d
00000120: 1deb cdbd 9636 d63d c3b4 9b3d 2efd 9a3d
00000130: 393a 853d aa9b 3ebd 315c 88bd 8e17 13bc
00000140: f86a 9d3d ac61 3d3d 8136 d63c 292d 7dbd
00000150: e061 bd3d 524e 08bd f368 69bd be59 0c3e
00000160: c71a 73bd 4fb5 993d ae5e 023e 31c9 f8bd
00000170: 5e8c 993d 267a 9ebd 4ded 0abe 62cd 72bd
00000180: a875 c03d 0655 f9bd 9216 f4bb 4eac 233d
00000190: 4195 023e 2d41 13bd d859 12be 76b8 a5bd
000001a0: 38bd 1ebd 28bc 0cbd 6df4 d93c 442c a4bd
000001b0: 0bad a83c 7ad3 79bd 69c5 9dbd 0a49 6a3d
000001c0: 045f 643d 584b f63d 686b 7abd 3d3a 62bd
000001d0: 8f57 b13c a2ad d0bc d637 b2bd 679a 833c
000001e0: 46c3 3bbd bfad 9d3c 8bf0 283e f091 91bd
000001f0: b2a9 5cbd bce6 9ebd 293d 4cbd 9d28 e6bd
00000200: ab4d 043d ac43 af3c dc22 77bd 517b a5bd
00000210: 8eff f4bb 467b cfbc 7050 453d bbc6 6b3d
00000220: a3b4 8ebd a88c 5c3b 253c e53d b837 c83d
00000230: 4072 3f3e 49e4 dabc 0242 03bc fc68 8bbc
00000240: 5917 073e 0266 b4bc c80a c13d bdf4 e2bd
00000250: b18e 4a3d cb1e c63d 44b6 ad3d e751 a93d
00000260: 34a1 453d fb0f d43d 721f b53d fa3a 92bc
00000270: b3a7 78bd fb51 7ebd dbca 5f3d 9621 f43c
00000280: b63c 273c 2c2d c23d 8254 3e3d 7957 5e3d
00000290: d173 35bd 50b0 32bc c4af ac3d 9a74 5a3d
000002a0: 931d 653d bca3 b83d 65ca 873d b465 db3c
000002b0: ac53 423e 9fe7 063e 1622 c73d f640 ec3d
000002c0: b664 dfbc c465 22bd 37d8 1a3e e49a 953d
000002d0: daef a9bd 1131 c23d c21b ef3d ce46 d0bd
000002e0: 2efd f93c d692 94bd 7003 61bc ff4a 43bd
000002f0: 8bfc 18bd 9886 3ebd 2309 f33d 7c55 1f3b
00000300: bbc3 3d3d f4bd a33c 96cb 1cbc 17eb 243c
00000310: 21f7 113d 30da d3bd e1b7 1a3d 8daa afbd
00000320: 937d af3d 03d6 d83d dfa3 e3bd 4269 09bd
00000330: df0e fa3d 1a12 2e3d 0c5e b33d e76d acbd
00000340: 4c33 9f3d d164 0abd eb15 483d 0866 923b
00000350: 3f57 8d3d dc11 943d e610 c4bd 933e 01bd
00000360: 1837 d3bc b502 8c3c 0f57 d1bd 59a2 78bc
00000370: 0676 a3bd f840 9abd 3173 aebd bdea 49bd
00000380: 98c4 ee3d f067 8dbc 83aa c23d 29ae 2f3b
00000390: 0b36 d1bc 2169 dbbd a510 c7bd f611 29bd
000003a0: a2fa d0bd 17b0 bdbd 9186 e7ba eb83 65bd
000003b0: 8b40 a63d b93e 513d 5b05 1d3c 4911 f43d
000003c0: c08d 7f3b 5553 8a3d ec3e 7b3d 4c83 9c3d
000003d0: 91ae cdbc a0ff b93d 1179 cabd 33f7 70bd
000003e0: 922a 58bc 86f0 b73c 2487 d13d 15dc c03d
000003f0: 59a8 8cbd d7c0 2e3d 8e8c 74bd 08ea aa3c

lstm.weight_hh_l0 f4 [256, 64]
-0.020381695 0.09937905 0.031326044 0.019664917 0.091459446 0.035789296 0.02887532 0.16804148
-0.046448093 0.0915684 -0.011297506 -0.12126751 -0.09476273 -0.083613746 0.042961046 -0.101713255
-0.07193624 0.027990788 0.07709552 0.076223865 0.06608006 -0.0859628 0.032162104 -0.0025556176
0.0019010878 0.03162653 -0.01110129 0.040859446 0.065010436 -0.08727953 0.008333132 0.017473234
0.023253776 -0.04458704 -0.023829704 0.06796038 -0.046457686 0.101711944 0.0940929 0.026383867
0.028716654 0.1310579 0.04424937 -0.020756045 -0.13607657 -0.09460918 0.033617593 -0.10094444
-0.0046728477 -0.064223275 0.06590532 -0.09257432 0.14432369 -0.063257135 0.07935343 -0.05989009
-0.0075866864 -0.08977103 -0.03276393 0.019812584 0.13306838 -0.11312756 -0.091620915 -0.07148155
0.10466027 0.04246575 0.10529901 -0.035990495 -0.063744016 0.000726885 -0.00535537 0.087596714
0.093908966 -0.12826395 0.03376355 0.036221243 0.002146269 -0.052876264 -0.08761721 0.085640505
0.014493054 0.12813954 0.028443446 0.069564 -0.055974465 0.13817187 0.03852853 0.039878357
0.08352691 0.012463101 0.07670191 0.10018056 -0.055890214 -0.060020138 -0.036808006 0.03777146
-0.08581606 0.045616526 -0.10513168 -0.07236716 0.07291043 0.099924244 0.09269869 0.011750215
-0.022256514 -0.0286136 0.10164812 -0.07517795 -0.07896466 0.02178705 -0.06415775 -0.046784677
-0.036471907 -0.031049063 -0.06714198 -0.08274821 -0.04935918 -0.008728676 0.11533713 -0.02452181
0.040496565 0.021821052 -0.096038304 -0.055975545 0.061933536 -0.059726622 0.08266926 0.015179067
-0.047066763 0.021658828 -0.03717792 -0.13039985 0.035773154 -0.027999707 0.09456608 0.005760101
0.099151246 0.0870529 0.020817937 0.06406567 -0.08607736 0.066332564 0.10106079 0.053067453
-0.006744663 0.0012629458 -0.13497265 0.053865906 -0.12491104 -0.09193912 0.018360097 0.053893015
0.08598469 0.086570926 0.016042305 -0.114223614 0.08579103 0.113187596 -0.04193868 0.07524528
-0.07562048 0.0938874 0.11875999 -0.06522164 0.12280321 -0.111308105 0.11226918 0.06870787
-0.034949314 0.018475594 -0.08691574 -0.024916092 0.04841777 -0.13165453 0.070407234 0.021048015
0.021417318 -0.027190866 -0.02329216 -0.09194035 0.014223123 0.112249054 0.05746021 0.001235881
0.00086275494 0.00020638284 0.038849045 0.05316382 0.117634155 0.09477986 -0.09280774 -0.021534279
-0.051413488 -0.07917014 -0.040197205 -0.04388679 0.08101662 0.10578378 -0.02862306 -0.102935046
-0.026793886 -0.026678879 -0.023009405 -0.0640344 -0.03187551 0.13573754 0.03460484 -0.022343485
-0.117106274 -0.11263099 -0.11477632 0.14225122 -0.026950743 -0.11983742 0.08937064 0.038624264
-0.08237542 -0.022763405 -0.014087614 0.049242344 0.12438537 0.07339596 0.056604296 0.00076837296
0.13979319 -0.050108176 0.114252016 -0.12522635 0.029205777 0.049422238 0.074141815 -0.057429396
0.06854782 0.06667442 -0.0030052674 -0.14335047 -0.024884416 0.090555675 0.04242673 0.15757498
-0.09523715 -0.13968289 0.069706894 -0.12249728 -0.0487987 -0.08737179 0.021986714 -0.07783687
-0.15699743 -0.10321346 0.05855396 0.10046527 -0.10383043 -0.11995504 0.06048094 0.01982717
00000000: 83f7 a6bc 3e87 cb3d bd4f 003d 5218 a13c
00000010: 174f bb3d cc97 123d ef8b ec3c 1113 2c3e
00000020: 5b40 3ebd 3788 bb3d 2d19 39bc 1a5b f8bd
00000030: f612 c2bd af3d abbd ecf7 2f3d 0a4f d0bd
00000040: 4f53 93bd f04c e53c 42e4 9d3d 421b 9c3d
00000050: fc54 873d 440d b0bd 69bc 033d 267c 27bb
00000060: ec2d f93a d28a 013d 2fe2 35bc 3c5c 273d
00000070: 3124 853d 9cbf b2bd b087 083c 0724 8f3c
00000080: b47e be3c e6a0 36bd 8336 c3bc d02e 8b3d
00000090: 6a4a 3ebd 5a4e d03d c7b3 c03d fb22 d83c
000000a0: 303f eb3c 0b34 063e d43e 353d 9508 aabc
000000b0: a857 0bbe 75c2 c1bd 9ab2 093d f5bb cebd
000000c0: b01e 99bb 7e87 83bd 5ef9 863d 9b97 bdbd
000000d0: 97c9 133e f58c 81bd 0d84 a23d 504f 75bd
000000e0: bd99 f8bb e0d9 b7bd 7833 06bd 004e a23c
000000f0: 1443 083e 6caf e7bd bfa3 bbbd eb64 92bd
00000100: 2058 d63d 91f0 2d3d 02a7 d73d c56a 13bd
00000110: 398c 82bd 6d8c 3e3a 1a7c afbb e865 b33d
00000120: 5853 c03d a057 03be a64b 0a3d ba5c 143d
00000130: 6ba8 0c3b c894 58bd a770 b3bd 4a64 af3d
00000140: 4674 6d3c 0337 033e 3b02 e93c 9277 8e3d
00000150: 7b45 65bd ed7c 0d3e 18d0 1d3d 7d57 233d
00000160: 2810 ab3d 0932 4c3c e415 9d3d 772b cd3d
00000170: 23ed 64bd add7 75bd fec3 16bd 3fb6 1a3d
00000180: 55c0 afbd 65d8 3a3d 474f d7bd 3c35 94bd
00000190: 1052 953d 15a5 cc3d d0d8 bd3d f983 403c
000001a0: 4b53 b6bc 1267 eabc e42c d03d e6f6 99bd
000001b0: 39b8 a1bd c17a b23c 2365 83bd 4aa1 3fbd
000001c0: 9163 15bd 9b5a febc bc81 89bd e577 a9bd
000001d0: da2c 4abd b802 0fbc e035 ec3d f6e1 c8bc
000001e0: badf 253d 10c2 b23c bbaf c4bd 9d46 65bd
000001f0: 05ae 7d3d e7a3 74bd 804e a93d 9fb1 783c
00000200: 14c9 40bd db6d b13c e047 18bd 8a87 05be
00000210: df86 123d a45f e5bc dcab c13d 3bbf bc3b
00000220: cf0f cb3d ca48 b23d 618a aa3c dd34 833d
00000230: 5449 b0bd 5ed9 873d f6f8 ce3d 425d 593d
00000240: 5602 ddbb 6e89 a53a 4536 0abe 7fa2 5c3d
00000250: 5cd1 ffbd 944a bcbd ea67 963c ecbe 5c3d
00000260: be18 b03d 194c b13d 276b 833c 12ee e9bd
00000270: 35b3 af3d e6ce e73d e5c7 2bbd 331a 9a3d
00000280: e9de 9abd 0a48 c03d 7038 f33d ec92 85bd
00000290: 4080 fb3d 81f5 e3bd 62ed e53d b6b6 8c3d
000002a0: 0327 0fbd 215a 973c e100 b2bd d51c ccbc
000002b0: b651 463d 72d0 06be ab31 903d e36c ac3c
000002c0: 5f73 af3c 61bf debc 33cf bebc 394b bcbd
000002d0: 1a08 693c d5e2 e53d 665b 6b3d 49fd a13a
000002e0: 812a 623a 7968 5839 2d20 1f3d 4ec2 593d
000002f0: 2dea f03d f11b c23d fc11 bebd a868 b0bc
00000300: f396 52bd f423 a2bd d3a5 24bd a2c2 33bd
00000310: 0bec a53d 2ba5 d83d e87a eabc 9ccf d2bd
00000320: da7e dbbc aa8d dabc 387e bcbc 7824 83bd
00000330: e58f 02bd c8fe 0a3e cebd 0d3d af09 b7bc
00000340: 6ad5 efbd 14ab e6bd d90f ebbd 4eaa 113e
00000350: cec7 dcbc 526d f5bd f407 b73d 7a34 1e3d
00000360: 72b4 a8bd 527a babc bccf 66bc 57b2 493d
00000370: c2bd fe3d 9f50 963d e8d9 673d a36c 493a
00000380: f225 0f3e 3b3e 4dbd f6fc e93d 563b 00be
00000390: f440 ef3c f96e 4a3d aad7 973d 163b 6bbd
000003a0: cd62 8c3d 998c 883d 05f4 44bb 77ca 12be
000003b0: 67da cbbc 4175 b93d a7c7 2d3d 565b 213e
000003c0: b20b c3bd 0809 0fbe 7dc2 8e3d dbdf fabd
000003d0: 25e1 47bd fbef b2bd 7b1d b43c f068 9fbd
000003e0: efc3 20be 9461 d3bd 47d6 6f3d bcc0 cd3d
000003f0: 0ca5 d4bd fdaa f5bd ddba 773d 976c a23c

lstm.bias_ih_l0 f4 [256]
-0.10996361 -0.04054768 -0.03842679 0.14034334 0.01492764 0.13127975 0.025174554 -0.0043553663
0.14445007 0.03332116 -0.07872712 0.114475384 -0.017328192 -0.09944688 0.1152681 0.024685571
0.10513373 0.101642996 0.119576335 -0.046267197 -0.08671837 0.13639452 -0.068722375 0.051344365
0.096178904 0.08528775 -0.10246868 -0.0153715955 0.084344074 0.08349166 0.047731474 0.0911577
-0.018245216 -0.094766244 -0.030844936 -0.047778625 0.07576164 -0.08657414 0.115761176 0.048584625
0.095028214 0.041570723 0.03248763 -0.011318186 0.12593712 -0.017428996 0.12407675 0.15289694
0.11637265 0.02169962 0.08011602 0.0024639165 -0.0100501 0.06338459 0.0781618 -0.010363734
-0.08698556 -0.019070586 0.120014265 0.08856342 -0.11058312 0.120427765 -0.04727278 0.06293622
0.07663361 0.0011139855 0.032624863 0.08222128 0.0633891 -0.055909157 0.039748415 -0.026495105
-0.046048008 0.018630534 0.05253893 -0.005632756 -0.07649106 0.016458062 -0.12759863 -0.12471022
0.030999051 0.058641482 -0.078754954 -0.12855662 -0.087598756 -0.003000309 -0.09138403 0.0044976044
0.037016816 0.010859113 0.056608714 0.09680622 -0.048561174 -0.10503204 0.008053299 -0.11983733
0.1153164 0.08434991 -0.06527623 0.035382316 0.06650634 -0.034867212 -0.054624837 0.072727874
0.10166887 -0.050647 -0.1161866 -0.014076452 -0.007136157 0.020137554 -0.085523814 0.056352597
-0.11689009 0.050541576 -0.08635095 -0.028554786 0.09421861 0.00023131019 -0.08340948 0.026870666
0.10934591 -0.007284278 -0.11033352 -0.018702755 0.10282719 0.07574037 -0.04814674 -0.070419855
0.13386562 -0.031550393 -0.01565958 0.082450025 -0.08111982 0.024930371 0.056976356 -0.09456397
-0.078778006 0.068210214 0.0029448634 -0.042659137 -0.094156586 -0.11554677 -0.030400496 0.11282629
-0.093625925 0.09841001 0.08098773 0.06517203 -0.04119127 -0.115900196 -0.028290829 0.08549573
0.051900066 0.041757196 -0.103697404 0.06921768 0.022383744 -0.011620821 -0.10232249 0.08069051
0.034101486 0.031758174 0.008201607 -0.11281798 -0.03957835 -0.015928889 -0.037421316 0.110050455
0.07390439 0.013252224 0.07361838 -0.11477284 0.06096583 0.0996236 0.05820302 0.0878746
0.10718479 -0.0662269 0.08268522 -0.07623447 -0.0078530405 -0.018386802 -0.042001512 0.024134746
-0.048120786 -0.1159083 0.10424401 0.07840261 0.11381307 -0.121978514 0.06218057 0.03843116
0.11248864 0.008038413 0.071983226 0.105735876 -0.11137993 -0.035557255 -0.02869208 -0.028796982
0.03388095 -0.043855395 -0.03246732 0.1499551 -0.074776456 -0.09695434 -0.041273855 0.047510605
0.09603766 0.006934416 0.034000985 -0.002819906 -0.084042035 0.025874723 0.0670387 -0.003468424
-0.030565476 0.07048996 -0.112830214 -0.06153739 -0.11611185 -0.11025365 -0.094598316 -0.061919738
0.06946461 0.097347274 -0.031149099 0.028126692 0.07014254 -0.031705294 0.009355048 0.066426426
0.10895194 0.07562777 -0.039705265 0.06882748 0.095506005 0.10440736 -0.046175696 -0.05694824
-0.045127198 0.079123914 0.039097898 0.016046464 -0.06722156 0.0069171544 -0.058555387 -0.056645166
-0.015260335 -0.016663384 0.073922746 0.12225807 -0.02204354 -0.08428501 -0.10086278 0.0029951755
00000000: 9a34 e1bd 5315 26bd 6965 1dbd 2ab6 0f3e
00000010: 0f93 743c 336e 063e de3a ce3c 76b7 8ebb
00000020: b8ea 133e c57b 083d af3b a1bd 1272 ea3d
00000030: daf3 8dbc ceaa cbbd ae11 ec3d 6539 ca3c
00000040: 5a50 d73d 342a d03d 70e4 f43d ac82 3dbd
00000050: 6799 b1bd 01ab 0b3e 51be 8cbd 784e 523d
00000060: 72f9 c43d 58ab ae3d 19db d1bd 25d9 7bbc
00000070: 96bc ac3d adfd aa3d 1482 433d e3b0 ba3d
00000080: fe76 95bc ce14 c2bd 85ae fcbc 85b3 43bd
00000090: eb28 9b3d c84d b1bd 3214 ed3d ac00 473d
000000a0: 279e c23d 1046 2a3d c011 053d ea6f 39bc
000000b0: a9f5 003e 41c7 8ebc f31b fe3d 0491 1c3e
000000c0: c954 ee3d 67c3 b13c de13 a43d a979 213b
000000d0: 2da9 24bc c8cf 813d 4b13 a03d a7cc 29bc
000000e0: 7c25 b2bd eb39 9cbc 0aca f53d bd60 b53d
000000f0: 6779 e2bd d5a2 f63d 1aa1 41bd b4e4 803d
00000100: 15f2 9c3d 2703 923a a6a1 053d a163 a83d
00000110: 25d2 813d 0001 65bd 3ccf 223d 430c d9bc
00000120: d69c 3cbd 109f 983c 1033 573d fb92 b8bb
00000130: 58a7 9cbd 0fd3 863c 37a9 02be 1268 ffbd
00000140: b9f1 fd3c 0d32 703d 474a a1bd 59a4 03be
00000150: fa66 b3bd d5a0 44bb 8d27 bbbd a460 933b
00000160: f29e 173d 6cea 313c 8ade 673d 5742 c63d
00000170: 15e8 46bd 0a1b d7bd fcf1 033c 466d f5bd
00000180: 012b ec3d a5bf ac3d 8baf 85bd 0ced 103d
00000190: 7a34 883d ecd0 0ebd 4bbe 5fbd 5af2 943d
000001a0: c537 d03d 3b73 4fbd 3df3 edbd eba0 66bc
000001b0: 6cd6 e9bb 83f7 a43c 1c27 afbd fbd1 663d
000001c0: 1264 efbd af04 4f3d c4d8 b0bd baeb e9bc
000001d0: b0f5 c03d db8b 7239 97d2 aabd df1f dc3c
000001e0: c0f0 df3d f4b0 eebb 8af6 e1bd 8536 99bc
000001f0: 1097 d23d c41d 9b3d 8435 45bd 4938 90bd
00000200: 1214 093e fc3a 01bd 8548 80bc 8fdb a83d
00000210: 2622 a6bd c73a cc3c 0a60 693d c1aa c1bd
00000220: 5d56 a1bd ccb1 8b3d 9cfe 403b 59bb 2ebd
00000230: 2bd5 c0bd c9a3 ecbd 760a f9bc 7811 e73d
00000240: f3be bfbd 308b c93d e5dc a53d ea78 853d
00000250: 2db8 28bd 155d edbd 2bc2 e7bc 6318 af3d
00000260: 2a95 543d 9809 2b3d 4e5f d4bd 00c2 8d3d
00000270: 1d5e b73c 4265 3ebc 748e d1bd 1141 a53d
00000280: 00ae 0b3d dc14 023d 0860 063c 1d0d e7bd
00000290: e81c 22bd 4d7d 82bc 1847 19bd 2262 e13d
000002a0: 2f5b 973d db1f 593c 3cc5 963d 060e ebbd
000002b0: 4eb7 793d 7507 cc3d 4a66 6e3d 99f7 b33d
000002c0: b383 db3d f8a1 87bd de56 a93d d120 9cbd
000002d0: 0aaa 00bc eb9f 96bc c709 2cbd 3bb6 c53c
000002e0: 4d1a 45bd 5561 edbd e27d d53d 8c91 a03d
000002f0: d416 e93d dfcf f9bd 0eb1 7e3d fe69 1d3d
00000300: 7260 e63d 8cb3 033c f16b 933d 0d8c d83d
00000310: 291b e4bd 7ca4 11bd a70b ebbc a6e7 ebbc
00000320: c0c6 0a3d b7a1 33bd 74fc 04bd d48d 193e
00000330: 6624 99bd ff8f c6bd c60e 29bd 7b9a 423d
00000340: 65af c43d 193a e33b 9e44 0b3d 2cce 38bb
00000350: 3b1e acbd 3af7 d33c 964b 893d 804e 63bb
00000360: 7364 fabc 0a5d 903d 8713 e7bd a10e 7cbd
00000370: 0dcc edbd aacc e1bd c3bc c1bd 8d9f 7dbd
00000380: 7643 8e3d 025e c73d 652c ffbc f369 e63c
00000390: e4a6 8f3d 69dd 01bd ea45 193c 940a 883d
000003a0: 3222 df3d bbe2 9a3d fda1 22bd 6cf5 8c3d
000003b0: a798 c33d 87d3 d53d ba22 3dbd 8f42 69bd
000003c0: 4cd7 38bd b80b a23d 1e25 203d e073 833c
000003d0: 75ab 89bd 4ca9 e23b c6d7 6fbd c304 68bd
000003e0: 7c06 7abc a681 88bc cf64 973d 7062 fa3d
000003f0: a794 b4bc 9f9d acbd 2591 cebd b54a 443b

lstm.bias_hh_l0 f4 [256]
-0.10464176 0.012568262 -0.00013511267 0.03164837 -0.094499245 0.096008636 0.07114429 0.05841508
0.08988411 -0.080244705 -0.011897037 0.13078521 -0.112281926 -0.026453324 -0.10761134 0.113349475
0.035408873 0.08504027 -0.10763426 -0.08431626 0.036327492 0.048830453 0.00651923 -0.029790156
0.063436225 -0.067030594 0.01992824 0.0048029935 -0.03298035 -0.017756127 0.027457615 -0.080547206
-0.10589717 0.11954939 0.092256285 0.09301115 0.08479411 -0.04256786 -0.027366163 0.065979026
0.050979096 -0.08532172 -0.11636002 0.083097994 -0.0897261 0.091348395 -0.11515356 -0.08085289
0.035703998 -0.013377655 0.113858834 -0.041290227 -0.0077658086 0.1040915 -0.095974855 0.111312106
0.021588854 -0.012496462 -0.029536864 0.08560004 0.013326604 -0.01903042 0.048858963 0.078511916
0.11760471 -0.050520476 0.065335296 0.036350355 0.09612871 -0.1111075 0.08604783 0.13905394
0.026870834 0.061196975 -0.056047037 0.10277531 0.110124454 -0.070138484 0.014597024 -0.112585
0.13834052 -0.05690806 0.0704595 -0.12519109 -0.055533037 0.1525713 -0.0074223657 0.062033903
0.03940294 0.09963493 -0.11501716 0.1400221 -0.037421584 -0.0368035 -0.09434005 -0.04827541
-0.003558557 -0.0067880335 0.08244824 0.02863446 0.03286326 -0.0134051675 0.09912853 -0.010652924
-0.069816366 -0.10336864 -0.11514773 0.08048099 0.013205501 0.12715045 -0.041486375 0.1357265
0.0715756 -0.1204448 0.030503515 -0.083567634 0.012378575 -0.002899577 -0.08929045 0.030279325
-0.102071926 -0.05220106 0.0600603 -0.09569522 0.05561709 0.07280532 -0.080401294 -0.12077325
-0.07501471 0.09390287 0.11137401 0.09291101 0.08595428 0.018419728 -0.073613 0.03465631
-0.09445184 0.071086764 -0.06828272 0.10223206 0.111491345 0.09327581 -0.028324485 0.04216765
-0.006145383 -0.07324538 -0.059586305 0.08787659 0.099476136 -0.08287566 0.00031536267 0.04194138
0.06322232 0.08447567 0.07729995 -0.11133741 0.111273855 -0.012437807 -0.037252724 -0.060576517
-0.04546616 -0.046357565 0.07357601 -0.0068044933 -0.072757244 0.0060310406 -0.055193454 0.0075366213
-0.018833699 0.08647117 0.022566495 -0.0026418304 0.018802183 0.081573196 0.09495246 0.072792806
0.082340725 -0.10464223 -0.022239018 0.016708447 0.046709385 0.08822661 -0.03615552 -0.010691743
-0.033272207 -0.05258668 -0.030126093 -0.04255363 -0.1224859 -0.0021368095 0.07548184 -0.08821881
0.12240617 0.09880986 -0.0070540477 0.1275905 -0.10548138 0.05319509 0.08660792 -0.00072989933
0.13145506 -0.064839564 0.04702761 0.138625 -0.013557287 -0.108810075 0.092920616 0.110365294
0.11183872 -0.103470065 -0.12131624 -0.0014164106 0.11225449 0.14531593 0.06625577 0.055863492
-0.08336102 0.054787107 -0.109562166 0.03333122 -0.039558277 0.11755115 0.05832255 0.06832565
0.08982668 -0.019029172 -0.121606246 0.0637365 -0.019473772 -0.028825192 0.06563044 -0.04844775
-0.11818081 -0.040023033 -0.021115812 0.103906356 -0.045332476 0.070879124 0.029963905 -0.08309609
-0.045391366 0.051134363 0.1125969 0.09020925 0.06392285 0.14038831 -0.1273771 -0.011088628
0.004650044 -0.07558674 0.10725751 0.05172088 -0.09171462 -0.0022776248 -0.012030179 -0.110364474
00000000: 6b4e d6bd 1deb 4d3c 08ad 0db9 b9a1 013d
00000010: d288 c1bd 2da0 c43d 19b4 913d a744 6f3d
00000020: 2915 b83d 5657 a4bd caeb 42bc 8fec 053e
00000030: 11f4 e5bd a4b4 d8bc 5663 dcbd c523 e83d
00000040: e508 113d 9829 ae3d 5a6f dcbd 01ae acbd
00000050: 23cc 143d 7102 483d 449f d53b 7c0a f4bc
00000060: daea 813d 5647 89bd 8c40 a33c 6e62 9d3b
00000070: 6716 07bd 4c75 91bc cbee e03c eff5 a4bd
00000080: 9ee0 d8bd 50d6 f43d ddf0 bc3d a17c be3d
00000090: 89a8 ad3d a35b 2ebd 012f e0bc 0320 873d
000000a0: 75cf 503d 27bd aebd 2a4e eebd 482f aa3d
000000b0: 51c2 b7bd de14 bb3d a1d5 ebbd 3396 a5bd
000000c0: 5b3e 123d f42d 5bbc d22e e93d f11f 29bd
000000d0: 5378 febb ed2d d53d 778e c4bd 9af7 e33d
000000e0: 1cdb b03c f6bd 4cbc 4bf7 f1bc 134f af3d
000000f0: d457 5a3c afe5 9bbc 5620 483d dbca a03d
00000100: bdda f03d 8fee 4ebd 83ce 853d 1ce4 143d
00000110: 21df c43d 548c e3bd d839 b03d 2864 0e3e
00000120: 3920 dc3c aea9 7a3d 9491 65bd dd7b d23d
00000130: ee88 e13d c4a4 8fbd 5b28 6f3c f792 e6bd
00000140: 23a9 0d3e 6d18 69bd 124d 903d 1832 00be
00000150: 9c76 63bd a73b 1c3e 5137 f3bb 4317 7e3d
00000160: fa64 213d 660d cc3d 1e8e ebbd f461 0f3e
00000170: 6047 19bd 44bf 16bd 5b35 c1bd 70bc 45bd
00000180: ae36 69bb 276e debb 9fda a83d d192 ea3c
00000190: a09b 063d 59a1 5bbc e603 cb3d 9a89 2ebc
000001a0: e2fb 8ebd f0b2 d3bd 93d2 ebbd 38d3 a43d
000001b0: e35b 583c ba33 023e 9eed 29bd e3fb 0a3e
000001c0: 3a96 923d c3ab f6bd 82e2 f93c 8225 abbd
000001d0: 82cf 4a3c d406 3ebb e9dd b6bd 590c f83c
000001e0: 160b d1bd c7d0 55bd ca01 763d dbfb c3bd
000001f0: bfce 633d f51a 953d 6fa9 a4bd f757 f7bd
00000200: 50a1 99bd 2650 c03d 0f18 e43d 2148 be3d
00000210: cc08 b03d f8e4 963c 6ac2 96bd c6f3 0d3d
00000220: f76f c1bd f095 913d d0d7 8bbd 0b5f d13d
00000230: 9355 e43d 6307 bf3d c008 e8bc fcb7 2c3d
00000240: 365f c9bb ac01 96bd c510 74bd a4f8 b33d
00000250: 25ba cb3d b7ba a9bd 4357 a539 b9ca 2b3d
00000260: b47a 813d 9401 ad3d 704f 9e3d de04 e4bd
00000270: 8ce3 e33d f2c7 4bbc 5096 18bd 151f 78bd
00000280: b93a 3abd 6ee1 3dbd 05af 963d 3af8 debb
00000290: c001 95bd 09a0 c53b 8812 62bd c3f5 f63b
000002a0: 2149 9abc cc17 b13d 5fdd b83c 8f22 2dbb
000002b0: 0907 9a3c d90f a73d 6f76 c23d 6514 953d
000002c0: 41a2 a83d aa4e d6bd 9a2e b6bc 27e0 883c
000002d0: 5752 3f3d 27b0 b43d cf17 14bd 6c2c 2fbc
000002e0: 7048 08bd 2165 57bd ffca f6bc b74c 2ebd
000002f0: e3d9 fabd b709 0cbb 3996 9a3d 10ac b4bd
00000300: 16b0 fa3d d35c ca3d a425 e7bb 16a7 023e
00000310: 9f06 d8bd 18e3 593d 7e5f b13d b756 3fba
00000320: 289c 063e 9bca 84bd 06a0 403d b6f3 0d3e
00000330: 621f 5ebc d1d7 debd 2a4d be3d 3307 e23d
00000340: b30b e53d 1de8 d3bd a674 f8bd daa6 b9ba
00000350: afe5 e53d b3cd 143e 1bb1 873d 1ed1 643d
00000360: 2fb9 aabd 7268 603d 2162 e0bd 5186 083d
00000370: dc07 22bd a8be f03d a0e3 6e3d 52ee 8b3d
00000380: 0df7 b73d 11e3 9bbc b20c f9bd 4888 823d
00000390: 7687 9fbc cf22 ecbc 4169 863d 2671 46bd
000003a0: c808 f2bd 31ef 23bd 11fb acbc dbcc d43d
000003b0: 8cae 39bd 1329 913d dd76 f53c 482e aabd
000003c0: 4cec 39bd 4472 513d 3499 e63d a1bf b83d
000003d0: fce9 823d f4c1 0f3e 246f 02be 14ad 35bc
000003e0: 655f 983b 39cd 9abd d3a9 db3d 46d9 533d
000003f0: e0d4 bbbd 3444 15bb 3a1a 45bc c506 e2bd

lstm.weight_ih_l0_reverse f4 [256, 4]
-0.11301607 -0.0059876153 0.061250467 -0.116012625 -0.105108984 -0.051432196 -0.02910535 0.06093166
0.019961907 -0.07213035 -0.05348517 -0.102153204 0.017243216 0.013853088 -0.031128665 0.0014500844
0.05965527 -0.111423425 0.043435726 0.012241844 0.027403645 0.058073677 0.022019345 -0.027176466
0.050733443 0.07863482 -0.03344133 -0.04055922 -0.08333348 0.0966418 0.097928606 -0.09517157
0.07641152 0.055475235 0.0023696916 -0.014928961 -0.027229767 0.058297556 -0.08914854 0.04421748
-0.040190503 -0.02707408 0.0168642 0.066004515 -0.06329372 0.040896114 0.0035766952 -0.036679223
0.08084045 -0.10160267 -0.055052757 0.032977127 0.029303936 0.017688872 0.071606494 0.123015635
-0.051686272 0.10608765 0.06866107 -0.07172788 0.09877279 -0.11670124 -0.04112055 0.04108465
0.17473188 -0.058212437 -0.015071087 -0.041846897 0.15254529 0.026115661 0.11623829 -0.024680248
0.14568733 -0.0027252361 -0.09398446 -0.05176035 0.12680575 0.061290007 0.025020694 0.05540369
0.02054669 -0.08738674 0.010077371 0.08270993 -0.044678617 0.07484484 0.03526011 0.1338485
0.0513082 0.013425224 0.052748445 -0.0147685185 0.12918189 -0.045871954 0.034992356 0.028185453
0.017697487 -0.05103278 0.15736274 -0.011019984 0.01998608 -0.059742108 -0.06250143 -0.089493945
0.033115774 0.05724473 0.08802563 -0.098021485 -0.06395077 -0.04231571 -0.02951167 0.07940513
-0.08940472 0.125448 -0.09189025 -0.025368663 -0.060426816 -0.07721319 0.069547944 0.054971006
0.03977112 -0.07780506 0.039621957 -0.019387953 0.018819856 0.07099707 0.06407484 0.04811542
0.10810884 0.020926096 0.028753962 -0.061759192 0.12747917 0.051362976 0.065176874 -0.009677088
-0.06468734 0.10462513 -0.1162806 0.061129436 0.12487833 -0.10409016 -0.040234298 0.100176506
0.025496421 -0.021502405 -0.05992837 0.10139687 -0.035125434 0.20103036 -0.043267835 0.06634288
-0.061167173 0.082087405 -0.012831197 0.13967694 0.0057135345 0.08899899 0.07377475 0.06946272
0.12839727 -0.07607098 0.003642336 0.06580929 0.044797987 0.11047195 -0.04725664 0.17379224
-0.010350586 0.07882362 0.00038852385 -0.11087385 0.044762496 0.10003302 -0.15229791 0.006622168
-0.03208729 -0.027203482 0.05713952 -0.053585395 0.10120528 0.047040544 0.07343363 0.13160396
0.08331005 -0.051904872 0.08484249 0.0470824 0.014939252 0.057500977 -0.04395534 -0.014754801
-0.019592218 -0.08016127 0.06749495 -0.05716334 -0.01699358 0.052035935 0.0958843 -0.050595377
0.04168272 0.03959949 -0.058414005 -0.09552292 0.16785215 0.09045158 -0.09935077 -0.09160517
-0.13536155 0.044141915 -0.0835603 0.006458669 0.03817417 0.047668383 -0.03139552 -0.06718377
0.04375925 0.071856536 0.103124045 0.06134355 0.10722688 -0.0271778 0.12251752 -0.108767405
-0.0757162 -0.120189846 -0.08800755 -0.09968428 -0.0045447736 0.011387724 0.08897829 0.08753486
-0.12675881 0.008326101 0.047324754 0.092263006 0.09193589 0.05789177 0.12134709 -0.11170071
0.08404415 0.15616733 0.031388734 0.09559607 0.05500724 -0.10012454 0.13735968 -0.1085598
-0.04860846 -0.017696433 -0.047692236 -0.07622775 -0.062113654 0.11609703 0.14939974 0.07884441
00000000: f874 e7bd c233 c4bb c5e1 7a3d 0798 edbd
00000010: 6143 d7bd 91aa 52bd 586e eebc 7a93 793d
00000020: 2787 a33c 14b9 93bd 4413 5bbd b335 d1bd
00000030: a541 8d3c 10f8 623c 8b01 ffbc c210 be3a
00000040: 1659 743d f731 e4bd a9e9 313d 0492 483c
00000050: 9c7d e03c aade 6d3d ea61 b43c 2ea1 debc
00000060: dfcd 4f3d 4b0b a13d c7f9 08bd 6d21 26bd
00000070: beaa aabd 23ec c53d cb8e c83d 50e9 c2bd
00000080: a57d 9c3d 003a 633d d44c 1b3b 9a98 74bc
00000090: f610 dfbc 6bc9 6e3d 8293 b6bd 631d 353d
000000a0: cc9e 24bd 76ca ddbc ca26 8a3c 602d 873d
000000b0: 23a0 81bd af82 273d fd66 6a3b f43c 16bd
000000c0: ae8f a53d 1015 d0bd 007f 61bd 0613 073d
000000d0: cf0e f03c 41e8 903c 6da6 923d 9fef fb3d
000000e0: fcb4 53bd 7b44 d93d 2d9e 8c3d 11e6 92bd
000000f0: 6349 ca3d 0f01 efbd 066e 28bd 6148 283d
00000100: eaec 323e 2a70 6ebd b8ec 76bc a767 2bbd
00000110: d534 1c3e 83f0 d53c 570e ee3d 3b2e cabc
00000120: 0f2f 153e e099 32bb ed7a c0bd a902 54bd
00000130: 5ed9 013e 3b0b 7b3d 33f8 cc3c fbee 623d
00000140: 8851 a83c d2f7 b2bd 8f1b 253c d363 a93d
00000150: ed00 37bd 4048 993d e86c 103d 950f 093e
00000160: 8c28 523d 79f5 5b3c c10e 583d a8f7 71bc
00000170: 4248 043e 3be4 3bbd 2554 0f3d 2ee5 e63c
00000180: 52fa 903c c007 51bd b323 213e 2a8d 34bc
00000190: d9b9 a33c 24b4 74bd c000 80bd 9a48 b7bd
000001a0: 68a4 073d 7379 6a3d c846 b43d 7dbf c8bd
000001b0: 9ff8 82bd 3d53 2dbd 75c2 f1bc 289f a23d
000001c0: d219 b7bd 7175 003e f530 bcbd f1d1 cfbc
000001d0: 1c82 77bd f321 9ebd 276f 8e3d 4729 613d
000001e0: 0be7 223d 4258 9fbd a24a 223d 7cd3 9ebc
000001f0: 192c 9a3c e966 913d ab39 833d ad14 453d
00000200: 2b68 dd3d 346d ab3c 6e8d eb3c 35f7 7cbd
00000210: e689 023e fc61 523d 747b 853d a68c 1ebc
00000220: cc7a 84bd b345 d63d 8624 eebd dc62 7a3d
00000230: 36c0 ff3d 392d d5bd b8cc 24bd 5729 cd3d
00000240: dfdd d03c d025 b0bc 7377 75bd 2aa9 cf3d
00000250: b0df 0fbd e7da 4d3e 9d39 31bd c7de 873d
00000260: 6e8a 7abd 711d a83d f139 52bc 7907 0f3e
00000270: 9a38 bb3b 1a45 b63d 3717 973d 7842 8e3d
00000280: 937a 033e 1acb 9bbd 42b4 6e3b 05c7 863d
00000290: 187e 373d 1e3f e23d 2e90 41bd 98f6 313e
000002a0: 8195 29bc 476e a13d cab2 cb39 d411 e3bd
000002b0: e158 373d 1dde cc3d fcf3 1bbe c5fe d83b
000002c0: f66d 03bd d6d9 debc 210b 6a3d 5c7c 5bbd
000002d0: b744 cf3d 96ad 403d 5f64 963d 30c3 063e
000002e0: 769e aa3d 349a 54bd e6c1 ad3d 7ad9 403d
000002f0: c4c3 743c 2586 6b3d 840a 34bd 1fbe 71bc
00000300: dc7f a0bc 982b a4bd cb3a 8a3d 1b24 6abd
00000310: 1f36 8bbc a223 553d fd5e c43d 193d 4fbd
00000320: 80bb 2a3d 1333 223d 8643 6fbd 85a1 c3bd
00000330: 6fe1 2b3e ae3e b93d 6b78 cbbd 7e9b bbbd
00000340: 389c 0abe 27ce 343d aa21 abbd 3ea3 d33b
00000350: 855c 1c3d ec3f 433d 9798 00bd a597 89bd
00000360: e63c 333d 8529 933d b332 d33d 6043 7b3d
00000370: c499 db3d faa3 debc 77ea fa3d 72c1 debd
00000380: 1811 9bbd 1826 f6bd 4d3d b4bd 4627 ccbd
00000390: 53ec 94bb 9493 3a3c 403a b63d 7a45 b33d
000003a0: 10cd 01be 336a 083c 9ad7 413d 63f4 bc3d
000003b0: e248 bc3d ec1f 6d3d d384 f83d 58c3 e4bd
000003c0: 571f ac3d 54ea 1f3e 7991 003d dfc7 c33d
000003d0: 464f 613d 180e cdbd 04a8 0c3e 9a54 debd
000003e0: aa19 47bd 1cf8 90bc ef58 43bd 4b1d 9cbd
000003f0: e36a 7ebd 48c4 ed3d 3ffc 183e 2e79 a13d

lstm.weight_hh_l0_reverse f4 [256, 64]
0.037474625 -0.022886332 0.028084995 -0.015456373 0.025992129 -0.06577842 -0.070186906 0.11826946
0.10881333 -0.05160518 0.0565733 -0.07166283 -0.06668152 0.087539814 -0.11127376 -0.017869899
0.011546118 0.022986943 0.08065434 -0.05211557 0.051037807 0.092416465 0.072396845 -0.059094433
-0.054976042 -0.0036651422 -0.057360124 0.028466104 0.060456205 0.08334936 -0.13367614 0.058775436
-0.08153329 0.042710926 -0.05654515 0.00010325781 -0.114425205 0.015801214 -0.03903504 0.09779223
-0.10620513 -0.03453211 -0.006769275 0.01649768 -0.071400605 -0.059097882 0.12686941 -0.11550936
0.123979755 0.052528813 0.016469963 -0.078242645 0.05615023 -0.11706584 -0.103936374 -0.1294812
-0.04353406 0.08614878 -0.104619995 -0.06160787 0.10959898 -0.07056116 -0.07827097 -0.101355955
0.022836834 0.0667661 0.13056624 -0.065087825 0.08009492 0.07147858 -0.076412335 0.04620109
0.097129524 0.11959001 0.02128177 0.005621353 -0.020878498 0.030067118 -0.11924745 0.019819994
0.053713683 0.007256713 0.0013520884 -0.09630923 -0.08706252 -0.06986578 -0.053424783 0.08031774
0.057471476 0.00043113262 0.03832913 -0.11811543 0.08985921 0.07600003 0.08210294 -0.03695892
-0.056254577 -0.05438625 0.08989831 0.12662995 -0.014689177 0.021620799 -0.017586093 -0.08402757
0.11619738 -0.034305453 0.11143279 0.006731452 -0.11441198 0.102163695 -0.04290758 -0.021844875
-0.047487464 -0.039875705 -0.098333545 0.06764977 -0.07818646 0.002252044 -0.016690662 -0.09196117
0.038581543 -0.037694898 0.036176633 0.058346123 -0.11734493 -0.036040436 0.020548679 -0.12749375
0.012883541 -0.07536847 -0.0044070976 -0.10703756 0.046130996 0.054593798 -0.07898693 0.0331939
0.10700042 0.064021245 0.11678115 -0.09988785 0.09635018 0.09294304 -0.04594414 0.06667044
-0.11219174 0.1040685 -0.03317117 0.026819965 0.091578916 0.10960053 -0.06072629 -0.003347842
-0.0064943316 -0.088838026 0.10453945 0.051748086 0.07481083 0.0768488 0.11515732 0.012878297
0.008422498 0.025701864 0.031492777 0.020695664 -0.0076797637 0.09725821 -0.077676155 0.031731717
-0.04828372 0.020449353 -0.06073257 -0.047876254 -0.10796363 -0.052306112 -0.038935993 0.009506228
0.020722969 -0.022064336 -0.041054122 0.13139243 -0.120402806 0.06865518 -0.07717641 0.057981983
-0.02100831 -0.011923231 0.056277603 -0.046899006 0.026794858 -0.10763532 -0.024669586 -0.08314708
0.039033044 0.08939697 0.039711703 -0.025672782 -0.01366392 0.111477435 0.08595558 0.1073758
-0.030727588 0.015389946 0.011520942 -0.10438446 0.046255626 -0.057005674 0.032643165 -0.0018172708
0.09902874 -0.06609575 -0.020727703 0.13277519 -0.100028075 -0.0030487503 -0.04121033 -0.07022411
0.027855845 0.07297354 -0.07253302 -0.098901816 0.027845023 0.096792825 -0.01718794 -0.025819879
-0.009894441 0.13499737 0.05128224 0.09999358 -0.022980515 0.060284678 -0.063520715 -0.10826222
-0.1171813 0.06806726 -0.094717965 -0.049749076 0.012597211 0.029469347 0.009673777 0.025455095
-0.09880326 0.12548448 0.032430552 0.022836432 -0.11498838 0.04929421 -0.10811502 0.05374954
0.0014051594 0.013332286 0.09847311 -0.11929728 -0.08629566 0.055683747 0.016460191 -0.08424397
00000000: fe7e 193d 1e7c bbbc 8112 e63c ba3c 7dbc
00000010: 72ed d43c d6b6 86bd 27be 8fbd 4237 f23d
00000020: 86d9 de3d f45f 53bd 68b9 673d f6c3 92bd
00000030: 5290 88bd 1348 b33d 7fe3 e3bd e563 92bc
00000040: ee2b 3d3c 1d4f bc3c 1a2e a53d 2377 55bd
00000050: 050d 513d d844 bd3d cc44 943d 010d 72bd
00000060: 8f2e 61bd e232 70bb 73f2 6abd bf31 e93c
00000070: eda0 773d 12b3 aa3d 66e2 08be 83be 703d
00000080: edfa a6bd a7f1 2e3d e39b 67bd 1d8c d838
00000090: c357 eabd 8c71 813c 35e3 1fbd 4b47 c83d
000000a0: 1382 d9bd 8b71 0dbd cbd0 ddbb 2526 873c
000000b0: 7b3a 92bd 9f10 72bd 0eea 013e 2c90 ecbd
000000c0: 19e9 fd3d 7428 573d 04ec 863c ae3d a0bd
000000d0: c9fd 653d 37c0 efbd 98dc d4bd b896 04be
000000e0: c550 32bd c66e b03d 0243 d6bd 8958 7cbd
000000f0: 6e75 e03d 5f82 90bd 884c a0bd b693 cfbd
00000100: 5014 bb3c aabc 883d 28b3 053e c44c 85bd
00000110: ce08 a43d 5d63 923d 127e 9cbd 5b3d 3d3d
00000120: d8eb c63d 9beb f43d 1b57 ae3c 5433 b83b
00000130: 6209 abbc 514f f63c 0238 f4bd 8a5d a23c
00000140: e102 5c3d b9c9 ed3b 8f38 b13a c63d c5bd
00000150: d64d b2bd ca15 8fbd f2d3 5abd a17d a43d
00000160: 3667 6b3d a409 e239 01ff 1c3d 81e6 f1bd
00000170: 1b08 b83d e7a5 9b3d 9625 a83d 3d62 17bd
00000180: 336b 66bd 1ec4 5ebd 9b1c b83d 48ab 013e
00000190: e0aa 70bc 1a1e b13c b610 90bc a616 acbd
000001a0: e4f8 ed3d e083 0cbd e036 e43d 8393 dc3b
000001b0: d450 eabd 333b d13d dcbf 2fbd 06f4 b2bc
000001c0: 3782 42bd b554 23bd 1963 c9bd f68b 8a3d
000001d0: 3920 a0bd 0797 133b dbba 88bc 2356 bcbd
000001e0: ae07 1e3d f765 1abd f32d 143d 58fc 6e3d
000001f0: 8a52 f0bd 239f 13bd b455 a83c b98d 02be
00000200: 7d15 533c c95a 9abd 6a69 90bb 8236 dbbd
00000210: dbf3 3c3d bf9d 5f3d e6c3 a1bd 54f6 073d
00000220: 0923 db3d 921d 833d f52a ef3d 0092 ccbd
00000230: 3e53 c53d ec58 be3d ec2f 3cbd 838a 883d
00000240: c8c4 e5bd de21 d53d 7ede 07bd 8bb5 db3c
00000250: ba8d bb3d 3e76 e03d 21bc 78bd 7867 5bbb
00000260: 67ce d4bb b6f0 b5bd c718 d63d cdf5 533d
00000270: 6c36 993d e762 9d3d 9ad7 eb3d 7eff 523c
00000280: 84fe 093c b78c d23c 92fe 003d f489 a93c
00000290: 87a6 fbbb 502f c73d ad14 9fbd 1ef9 013d
000002a0: 26c5 45bd 6785 a73c b7c2 78bd e419 44bd
000002b0: 091c ddbd ef3e 56bd 597b 1fbd 03c0 1b3c
000002c0: 37c3 a93c 44c0 b4bc 5e28 28bd bd8b 063e
000002d0: bf95 f6bd 169b 8c3d aa0e 9ebd 847e 6d3d
000002e0: 9f19 acbc a859 43bc 5883 663d 2c19 40bd
000002f0: e480 db3c e86f dcbd df17 cabc 0449 aabd
00000300: 1de1 1f3d c215 b73d bda8 223d ba4f d2bc
00000310: a2de 5fbc 484e e43d 7b09 b03d d8e7 db3d
00000320: 6cb8 fbbc 1d26 7c3c 55c2 3c3c 85c7 d5bd
00000330: 8a76 3d3d c87e 69bd d7b4 053d 7d31 eeba
00000340: 94cf ca3d 355d 87bd 25cd a9bc 38f6 073e
00000350: 85db ccbd 8bcd 47bb 2acc 28bd a8d1 8fbd
00000360: f131 e43c 2773 953d 318c 94bd 098d cabd
00000370: 3f1b e43c 513b c63d b9cd 8cbc 3684 d3bc
00000380: 4b1c 22bc c03c 0a3e 530d 523d 6fc9 cc3d
00000390: a241 bcbc 11ed 763d 2617 82bd 95b8 ddbd
000003a0: c0fc efbd d966 8b3d 7efb c1bd b0c5 4bbd
000003b0: 8864 4e3c b369 f13c c37e 1e3c 3487 d03c
000003c0: 5d59 cabd 017f 003e e6d5 043d 7813 bb3c
000003d0: 077f ebbd bae8 493d 686b ddbd 7a28 5c3d
000003e0: 532d b83a a96f 5a3c 45ac c93d 2252 f4bd
000003f0: c7bb b0bd a414 643d 86d7 863c 1a88 acbd

lstm.bias_ih_l0_reverse f4 [256]
-0.027219543 0.10093572 -0.092003286 -0.09322824 -0.104132265 -0.12392515 -0.042811576 -0.06793154
0.020791696 0.0033024321 -0.0041778195 -0.12837127 -0.020596001 0.021603787 -0.007515329 0.069666736
0.14294551 -0.00035026018 0.10370167 0.020598462 0.07332147 0.03060564 0.06981655 0.14307943
0.10349491 -0.080968045 -0.0755128 0.042016212 0.04871939 -0.010127305 0.11865904 -0.10382389
0.15994784 0.004355413 0.032699388 0.03582431 0.11963778 0.06887582 -0.0848923 -0.026194585
0.029172428 0.16767436 -0.09100878 -0.0728792 0.100244805 0.12507932 -0.085330606 -0.037628535
0.037233315 -0.03787498 0.025053184 0.104757465 -0.06104511 0.0326927 0.116541885 0.050371476
-0.094592415 -0.013905388 -0.04448594 -0.020379849 -0.046138402 -0.10125733 -0.0969156 0.11492644
0.020545932 0.020912612 -0.054036513 -0.020516805 0.07159745 -0.06617563 0.012691382 0.11171954
-0.044536248 -0.008227701 0.042906802 0.11666106 0.060216866 0.052381124 0.14782819 0.010104912
0.07808746 -0.043196574 -0.078878194 0.16250351 -0.013579426 -0.05922595 0.02839598 0.11114723
-0.11614422 0.076629244 0.013839857 0.12665592 0.048409972 0.098443486 -0.10337777 0.04529585
0.054337196 -0.0076360987 -0.03752445 -0.10542088 -0.08422784 0.10110388 -0.08923889 0.17643413
0.07339891 0.16630505 -0.07440882 -0.06613482 0.11851243 0.1323133 0.09805576 0.12461261
0.07636875 -0.11344242 -0.081878826 0.08220688 0.024764258 -0.10418585 0.11487595 -0.0385685
0.07945984 0.0141220335 -0.014511438 -0.022010336 0.16248105 -0.05901672 -0.011174277 0.119493715
0.08605407 -0.0657105 0.07083141 0.0940415 -0.06801736 0.041021843 0.07096949 0.079637304
-0.07273814 -0.04202208 0.11532922 -0.09535985 0.01260508 -0.08875641 0.08903968 -0.062308375
0.09979904 0.123764284 0.044698656 -0.00063717226 0.04880247 0.06511176 0.08482583 -0.0030438984
-0.0018556793 -0.035339084 0.011553524 -0.11644111 0.09947847 -0.064106055 0.087630756 0.03719024
0.038602743 0.091095544 0.121097244 0.038386248 0.082868144 -0.028369477 0.04090119 -0.04332303
0.06856528 -0.008403287 -0.0033369118 -0.047057103 0.02326948 -0.040048514 -0.07927715 -0.015294313
-0.08963138 -0.06905468 0.077289425 0.09550043 -0.061456572 0.028779142 0.03311338 0.0626117
0.060239777 0.06329075 -0.1073628 0.05183053 -0.020113435 0.08353945 -0.09745808 0.082385086
-0.12457095 -0.029673282 -0.002341967 -0.01489736 -0.0007715684 -0.08212352 0.077437 0.02979431
-0.049398977 -0.08624914 -0.059851892 -0.09172851 0.114303455 -0.095442325 0.024015838 -0.0576778
-0.017375998 0.14388813 0.062033553 -0.08825185 0.05561577 0.017069047 -0.017318644 0.1387331
-0.04182238 0.10763949 -0.018621571 0.041656237 0.09358335 0.11747384 -0.09532053 -0.10969207
0.14134096 -0.027040204 -0.06793472 0.08344424 0.02371911 -0.00056906196 0.015970487 0.046537943
0.13344419 -0.04588068 0.08657884 0.039027106 -0.09677666 0.0173483 0.0154535305 -0.10210325
0.04014415 -0.12838595 0.0082304515 0.0324216 -0.03546786 0.050583676 0.11875058 -0.0010668385
0.09218157 -0.073835455 -0.05669993 0.011315241 0.1517236 -0.038391583 -0.069188856 -0.006311598
00000000: 85fb debc 63b7 ce3d 386c bcbd 73ee bebd
00000010: 4c43 d5bd 78cc fdbd 315b 2fbd b11f 8bbd
00000020: 5953 aa3c 9e6d 583b 17e6 88bb c273 03be
00000030: f2b8 a8bc 6dfa b03c 2643 f6bb 6fad 8e3d
00000040: 4f60 123e 20a3 b7b9 8b61 d43d 1bbe a83c
00000050: 9129 963d aeb8 fa3c fbfb 8e3d 6a83 123e
00000060: 24f5 d33d 93d2 a5bd 74a6 9abd 3119 2c3d
00000070: fc8d 473d ffec 25bc 8303 f33d 9fa1 d4bd
00000080: 5ec9 233e dab7 8e3b cbef 053d 83bc 123d
00000090: a704 f53d c40e 8d3d 04dc adbd 0796 d6bc
000000a0: 04fb ee3c d4b2 2b3e d062 babd b141 95bd
000000b0: 264d cd3d cb14 003e d0c1 aebd 6120 1abd
000000c0: f681 183d cc22 1bbd 563c cd3c 158b d63d
000000d0: 700a 7abd c8e8 053d 83ad ee3d 5252 4e3d
000000e0: abb9 c1bd 6dd3 63bc e436 36bd a4f3 a6bc
000000f0: 9ffb 3cbd 0160 cfbd b07b c6bd 8e5e eb3d
00000100: f14f a83c ed50 ab3c 6455 5dbd dc12 a8bc
00000110: afa1 923d 1787 87bd 84ef 4f3c 37cd e43d
00000120: a46b 36bd 7bcd 06bc 0bbf 2f3d feeb ee3d
00000130: f6a5 763d 978d 563d 4660 173e 138f 253c
00000140: 51ec 9f3d e4ee 30bd e48a a1bd 5267 263e
00000150: 3e7c 5ebc e996 72bd b09e e83c 29a1 e33d
00000160: 05dd edbd cbef 9c3d 91c0 623c 17b2 013e
00000170: 8949 463d bd9c c93d b9b7 d3bd 2488 393d
00000180: ae90 5e3d 3d38 fabb 3db3 19bd e7e6 d7bd
00000190: a57f acbd 8d0f cf3d e1c2 b6bd 26ab 343e
000001a0: 2b52 963d df4b 2a3e a763 98bd b171 87bd
000001b0: a5b6 f23d 237d 073e 75d1 c83d e534 ff3d
000001c0: 3867 9c3d 8054 e8bd 16b0 a7bd 155c a83d
000001d0: 6ade ca3c 645f d5bd 1544 eb3d 01fa 1dbd
000001e0: d7bb a23d 1a60 673c 62c1 6dbc 054f b4bc
000001f0: 6f61 263e 84bb 71bd 5114 37bc 1fb9 f43d
00000200: 1e3d b03d 3a93 86bd 0f10 913d d498 c03d
00000210: b04c 8bbd 8506 283d 7458 913d e218 a33d
00000220: bcf7 94bd 581f 2cbd ba31 ec3d 064c c3bd
00000230: 8a85 4e3c ecc5 b5bd 705a b63d 1137 7fbd
00000240: 7063 cc3d 2178 fd3d f015 373d e807 27ba
00000250: 19e5 473d 5059 853d 2ab9 ad3d 247c 47bb
00000260: 443a f3ba b7bf 10bd fe4a 3d3c ad78 eebd
00000270: 5ebb cb3d 094a 83bd c177 b33d cb54 183d
00000280: e91d 1e3d 4d90 ba3d d501 f83d e63a 1d3d
00000290: c6b6 a93d 1b67 e8bc 0288 273d 7d73 31bd
000002a0: f46b 8c3d f1ad 09bc 17b0 5abb f3be 40bd
000002b0: a39f be3c e909 24bd 0f5c a2bd 0095 7abc
000002c0: a890 b7bd 8a6c 8dbd eb49 9e3d bb95 c33d
000002d0: e3b9 7bbd 3cc2 eb3c e5a1 073d 903a 803d
000002e0: fcbd 763d 959e 813d 07e1 dbbd 404c 543d
000002f0: eec4 a4bc bb16 ab3d 1a98 c7bd 83b9 a83d
00000300: 0e1f ffbd 6215 f3bc b07b 19bb 0e14 74bc
00000310: 1443 4aba 6030 a8bd 4a97 9e3d 3213 f43c
00000320: 9556 4abd 64a3 b0bd 4227 75bd 28dc bbbd
00000330: ee17 ea3d 4477 c3bd ddbc c43c 8f3f 6cbd
00000340: 1c58 8ebc 6957 133e e516 7e3d 63bd b4bd
00000350: 5dcd 633d 63d4 8b3c d4df 8dbc 0d10 0e3e
00000360: f24d 2bbd 1872 dc3d 448c 98bc bb9f 2a3d
00000370: a1a8 bf3d 2096 f03d 6937 c3bd 3ca6 e0bd
00000380: afbb 103e 6b83 ddbc 5c21 8bbd d0e4 aa3d
00000390: 944e c23c 1a2d 15ba 8ad4 823c 929e 3e3d
000003a0: 98a5 083e 61ed 3bbd 3f50 b13d e3da 1f3d
000003b0: d732 c6bd 061e 8e3c ce30 7d3c 821b d1bd
000003c0: 316e 243d 9b77 03be 04d9 063c 83cc 043d
000003d0: bf46 11bd d430 4f3d 8133 f33d 29d5 8bba
000003e0: b1c9 bc3d 0b37 97bd 303e 68bd 9063 393c
000003f0: 6e5d 1b3e 7e40 1dbd e3b2 8dbd 85d1 cebb
