backend/api/ml/models/model_1eef5887-1a15-46e0-a697-c8b4d0b0f30d.pth (torch, 949173 bytes, 26 tensors)

lstm.weight_ih_l0 f4 [256, 4]
000000 06 6d d4 3d 1e 6e d4 3d fe 41 c4 3d 4a 71 e6 3d
       0.10372357 0.10372566 0.095828995 0.11252077
000010 cd 41 89 3c 3e d5 f9 3d b2 e8 83 3d 8b 57 87 3d
       0.01675501 0.12198876 0.064408675 0.06608494
000020 c1 98 77 3c e8 99 13 bd 54 0e 2b 3e b9 a0 e2 3d
       0.015112103 -0.03603545 0.16704684 0.11065812
000030 be 9a e0 3d 3f b0 0f bd b8 bf a4 bc 49 4f b5 3d
       0.10967015 -0.03508019 -0.02011095 0.08853013
000040 db 77 6e bc ff c8 02 bd 81 18 20 3e d2 b0 1f bd
       -0.014554943 -0.031929966 0.15634347 -0.03898699
000050 44 ea 8c bd 73 92 b2 bd 51 96 78 bd d9 67 67 3c
       -0.0688062 -0.08719339 -0.060690228 0.01412388
000060 ee 8b 94 3a 7f b4 be bb 66 15 1b bd 8b 68 6c bd
       0.0011333206 -0.0058198567 -0.037862204 -0.057716887
000070 d0 0f 0e bd 76 a0 02 3e bd f4 8a 3d fc 90 8a 3c
       -0.03468305 0.12756523 0.067849614 0.016914837
000080 64 2c 01 3e 68 7b cd bb b9 1a bb 3d 16 6e 60 3c
       0.1261459 -0.0062708147 0.09135956 0.0136981215
000090 87 8f 79 3d 53 dc dd 3d c4 56 c8 3d 27 94 82 bc
       0.060927894 0.10833039 0.09782174 -0.015939785
0000a0 1b 11 ae bd 5d 4a 35 3d ac 3b c3 3d f0 ed f1 3c
       -0.08499356 0.04426037 0.09532866 0.029532403
0000b0 87 eb b0 bd b6 cf 89 3d e7 e9 4e bd 4e 99 14 3e
       -0.08638673 0.06729071 -0.050516035 0.14511606
0000c0 bc 13 13 bd d8 4f f4 3c 3a 04 df bc 98 86 bb 3d
       -0.035907492 0.029823229 -0.027223695 0.09156531
0000d0 c5 76 d8 3c 4f 78 b8 bd a0 52 00 bc e4 1a 09 bc
       0.026423821 -0.09007322 -0.007832199 -0.008368228
0000e0 12 14 90 3d e1 fe 81 3d 37 72 62 bc d0 07 c9 3d
       0.07035078 0.063474424 -0.013821176 0.09815943
0000f0 cb 2a 7a bc 54 d2 98 bc 4b 07 4f 3e 35 1b a9 bc
       -0.015268992 -0.01865498 0.20217626 -0.020642856
000100 31 00 b3 bd f9 d6 37 bd 4c b8 f3 bd 4e a1 93 bd
       -0.08740271 -0.04488275 -0.11900386 -0.07208501
000110 91 50 91 bd 9a 74 08 3e 2b 59 9d 3c fd b8 05 3d
       -0.07095445 0.1332573 0.019207558 0.03264712
000120 98 c3 ac bd 34 67 6c bd 5e b5 23 bd 5a 91 ac 3d
       -0.08435744 -0.05771561 -0.039967887 0.08426161
000130 02 01 71 3d b0 3e a4 3c 61 43 83 3d d2 01 76 bc
       0.05883885 0.020049423 0.06409336 -0.015015082
000140 3a 31 4d 3c 41 0f da 3d 73 2d fd 3c da 26 9a 3c
       0.012523944 0.10647441 0.030905461 0.018817354
000150 3b b3 88 bd 4a fb 9e bc 8e 99 b7 3d 71 ef 18 3d
       -0.066748105 -0.019406933 0.08964835 0.037337724
000160 d6 d4 e3 bc 32 05 d2 bc 4d e7 65 bc 3f 30 a2 3d
       -0.027811449 -0.025637243 -0.014032197 0.079193585
000170 56 a6 40 3d ef 2a cf bd b8 0b 15 be e2 91 a2 bd
       0.04703363 -0.10115611 -0.14555252 -0.07937981
000180 cb c5 0a bd 08 d8 9b 3d b4 44 1e bd 25 48 ca 3d
       -0.033880036 0.07609564 -0.03863974 0.09877042
000190 cd a2 6d bd bf c0 b8 bd f5 4e bf bb e7 17 9a 3b
       -0.058016587 -0.090211384 -0.00583827 0.0047025564
0001a0 b2 34 77 bd 04 51 f9 bc cb 32 d4 bd b3 01 0a be
       -0.06035299 -0.03043414 -0.103612505 -0.1347721
0001b0 35 81 62 bc f4 0d a8 bd fe 2a b6 3d fd ef a2 3d
       -0.013824751 -0.08205786 0.08894919 0.079559304
0001c0 99 14 db bd d6 92 d6 bd 2c 45 4e 3e 09 6f 17 3e
       -0.10697288 -0.104772255 0.20143574 0.1478845
0001d0 f2 77 cf bc 70 15 a2 bb 0a ca 50 3e d3 31 ea bb
       -0.02532575 -0.004946403 0.20389572 -0.007147053
0001e0 96 be ca bd 9a d4 cc 3d 76 09 ca 3d 2c 82 e4 3d
       -0.09899633 0.10001488 0.09865086 0.11157641
0001f0 55 91 23 3e 6a 37 cc 3c 3a 16 2a 3e d2 39 56 bd
       0.15973409 0.024928767 0.16610041 -0.052301235
000200 66 4d 44 3d 4d 45 98 bd 5d 02 b9 bd 6c 28 fc bd
       0.047925375 -0.07435093 -0.09033654 -0.12312397
000210 e2 ca ad 3d 37 50 18 3e a0 aa c6 3d 6f 2c ba 3d
       0.084859625 0.1487435 0.09700513 0.09090506
000220 a6 5b 96 bc 73 b9 75 bb 64 6a 89 3d 3e e7 e9 bc
       -0.018354248 -0.003749457 0.067097455 -0.028552648
000230 3c 96 a7 3b 67 eb 2c 3e 39 da 0d 3e f1 91 0b bc
       0.005114345 0.16886674 0.13852777 -0.008518682
000240 b7 f6 4b bd 10 78 a2 bc f2 01 cb bd d0 a5 52 bb
       -0.049795832 -0.01983264 -0.099124804 -0.003214229
000250 fb 05 ae 3d d5 73 bd 3d 1d ce c4 3c 87 00 ea 3c
       0.084972344 0.09250609 0.024024064 0.028564705
000260 80 74 ea bd 4c 0f f3 3d dd e4 52 bd ad 10 b6 3d
       -0.11448002 0.11868152 -0.051487792 0.088898994
000270 d3 d0 60 3d 54 a7 b4 bc 40 b4 6b bc 55 a5 bf bd
       0.05488665 -0.022052445 -0.014386237 -0.093577065
000280 e7 58 a4 3d 54 36 9c 3b 67 b4 e7 3d 63 45 06 3e
       0.08024769 0.0047672186 0.11313706 0.13112406
000290 c9 1e 4f 3d fd 7b a6 bd ce 0b f2 bc 7d 63 4f 3d
       0.05056647 -0.08129118 -0.029546645 0.05063199
0002a0 6f c4 c4 3d 64 96 95 bb cf a8 e5 bd 93 0f fe bb
       0.09607779 -0.004565047 -0.11213838 -0.0077533214
0002b0 9b ba d4 bd 7b 0d aa 3d 03 36 e2 bd 46 45 d7 bd
       -0.10387155 0.083033524 -0.11045458 -0.1051126
0002c0 58 6b 81 3c a5 53 f9 bd 9c 2a 61 bd f5 39 6c 3d
       0.015798256 -0.12174157 -0.054972276 0.05767246
0002d0 22 ce 1c bd 0b 49 b5 bd 64 ec bb 3d 38 c4 30 3c
       -0.03828252 -0.088518225 0.09175947 0.01078897
0002e0 88 2f f1 3c 11 b2 57 3d 40 e8 c8 bd cc c2 8e bd
       0.02944161 0.05266005 -0.09809923 -0.06970748
0002f0 10 19 1e bd 05 90 55 3d f0 0f 12 3e 3e 9f e5 3d
       -0.03859812 0.0521393 0.14263892 0.11212014
000300 68 9a 68 bd d7 ac 07 3c 00 36 b6 bd e4 ec 17 3d
       -0.05678788 0.008280954 -0.088970184 0.03709115
000310 cb 0a 83 bc ca bd 2f bd 31 8d 0d 3e 72 a5 9d bd
       -0.015996357 -0.042905606 0.13823391 -0.07697572
000320 92 d2 0f bd ad c0 63 3d 47 9a 63 3d e0 d4 93 bd
       -0.035112925 0.05560367 0.055567052 -0.07218337
000330 ba 13 74 bb 61 89 de 3c 6a b8 18 3e c4 22 32 bc
       -0.0037243203 0.027165117 0.14914098 -0.010872547
000340 93 12 41 bd 0e aa 2b 3d 9f 6c 18 bd 12 f5 a6 3c
       -0.047136854 0.041910224 -0.037212964 0.02038053
000350 d7 c8 cb 3c a3 c5 ce 3d fc a3 88 3d 3f 72 30 bd
       0.024876041 0.1009629 0.066719025 -0.043077704
000360 4c fd c8 bd ba 0b 07 3e 9f 28 80 3d c9 ca b8 3d
       -0.098139375 0.13188067 0.06257748 0.09023053
000370 cf b1 e9 3d f5 3e 5a 3d fe c4 81 3d 18 7c 9d bb
       0.114108674 0.053282697 0.063364014 -0.004806053
000380 7d 54 d8 bd 79 cd 1a bd 02 af 95 3d 49 2c b7 bd
       -0.1056299 -0.03779361 0.07308771 -0.089439936
000390 c9 9a b9 bd 90 c5 27 3c 5d 71 54 bd 88 3f 39 3d
       -0.09062726 0.010239974 -0.051865924 0.045226604
0003a0 d7 82 04 be f7 ea 60 bd d6 9d 55 3d 84 5e f0 3d
       -0.12940536 -0.05491158 0.052152477 0.117367774
0003b0 eb 27 3c 3d 73 b1 37 3d 95 46 04 be 14 33 1a 3e
       0.045936506 0.044846963 -0.1291755 0.15058547
0003c0 9f 37 00 bc 1e 33 f4 3d d0 4a 6d bd 7b a6 38 bc
       -0.007825761 0.11923812 -0.057932675 -0.011270161
0003d0 c8 51 03 3e bb 7d d7 ba c4 55 62 3d 61 30 c2 3d
       0.12824166 -0.0016440669 0.055257574 0.09481884
0003e0 70 a7 ea 3d 9e 51 02 3d 94 62 11 3e ab 24 08 3e
       0.114577174 0.031816117 0.14197761 0.13295238
0003f0 c8 9f af 3d 59 1a ef bd 66 09 95 3d 43 4b de 3c
       0.08575398 -0.11674947 0.07277183 0.027135497

lstm.weight_hh_l0 f4 [256, 64]
000000 6a f9 fc 3d e7 88 ce 3d 36 9c c7 3d d4 ea 13 3d
       0.123522595 0.10084706 0.09746592 0.03611262
000010 3e a5 01 bd 26 cf 9c 3b 5b 62 13 3e 55 fb a3 3c
       -0.031651728 0.004785436 0.14392988 0.020017305
000020 c6 fd 77 3d d2 50 d6 bd 6d 9b f2 bb 36 5a 29 bd
       0.06054475 -0.10464634 -0.007403782 -0.041345797
000030 f8 eb c1 bc fd 51 c5 bb 10 14 df bd 3c f4 c9 bc
       -0.023672089 -0.0060217367 -0.108924985 -0.024652593
000040 22 bd 8d bb b5 91 bd 3c 9f 97 ad bd 42 71 09 3e
       -0.004325525 0.023140768 -0.08476185 0.1342211
000050 ec fd ac ba 60 0e 83 3d 48 6c 90 3c c6 a6 f6 bd
       -0.0013198233 0.06399226 0.017629758 -0.12043528
000060 ff 8a 11 bd ef ea 99 3c c1 5b 1d be 58 69 2a bd
       -0.035532948 0.018788783 -0.15367033 -0.04160437
000070 5f 0a 5b bd a3 88 7a 3d 28 d9 0d be 74 24 97 bd
       -0.053476688 0.061165463 -0.1385237 -0.0738
000080 4a c0 d6 bd 9f aa d2 bd b6 86 61 bd 97 5e d0 bd
       -0.10485895 -0.1028645 -0.05506011 -0.101742916
000090 dd 08 e0 bd d3 17 2d be 97 6e 20 bc b3 4e 2d bd
       -0.109391905 -0.1690362 -0.009791992 -0.04231138
0000a0 32 55 9e bd 84 af 22 be 66 48 06 3d 3e 5b 88 bd
       -0.077310935 -0.15887266 0.03278389 -0.06658028
0000b0 71 a0 1b bd 77 6c 2b 3a 4c 38 22 3d 09 54 38 3c
       -0.037994806 0.0006539295 0.03960447 0.011250504
0000c0 02 e2 23 bd 00 e2 96 bc 49 87 f3 bc 2e bf 1e 3e
       -0.04001046 -0.018418312 -0.029727595 0.15502617
0000d0 9b de 9b 3d 4d dd a8 bc b3 cb e5 3d b5 d3 98 bd
       0.07610818 -0.020613337 0.11220493 -0.07462255
0000e0 22 d8 51 bc ea 80 de 3d e6 c6 b3 3d 8b be 00 bd
       -0.012807878 0.10864432 0.08778171 -0.031431716
0000f0 91 c2 86 bd c0 96 81 3d 4b 8f b8 3d 5c 97 05 be
       -0.06580079 0.063275814 0.09011706 -0.1304602
000100 83 b1 ef bc 4b 11 65 bd c4 4e 86 3d 80 35 65 bd
       -0.029259449 -0.055924695 0.06557992 -0.055959225
000110 00 54 fe ba 75 18 d2 3d be 27 7f bd 6b be 95 bd
       -0.0019403696 0.10258571 -0.06229376 -0.0731171
000120 ec f1 05 bd a7 10 a8 bd ee 8b ca 3d 0b 34 8a bd
       -0.032701418 -0.08206301 0.09889971 -0.06748208
000130 dc aa 04 bd 39 f9 e3 bd 75 1c ed 3c de 02 b2 3d
       -0.032389507 -0.1113152 0.028944233 0.08691953
000140 eb 37 0c 3c cf 3d d1 3b 7f 56 80 3d 09 4c d4 3d
       0.008558254 0.006385542 0.06266498 0.10366065
000150 2c ce 1a bb d1 57 3d 3d fd c7 62 bc 63 86 a1 bd
       -0.0023621423 0.046226326 -0.013841626 -0.0788696
000160 31 7b 42 3d 93 83 7e 3d b6 73 96 bd a7 3b 31 3c
       0.047480766 0.062137198 -0.07346289 0.010817445
000170 a9 e2 8b bb d2 be 02 be ee c9 ce bc c6 7a 94 bd
       -0.0042689634 -0.12768105 -0.025242772 -0.0724998
000180 5f 2e e1 bd e9 f6 c2 bd d7 cd 34 3d 4f a3 14 3d
       -0.10995173 -0.095197506 0.044141617 0.036288556
000190 ca 65 9e 3b 52 6b 76 bd 1f ed e3 3d 31 b7 a8 bd
       0.0048339115 -0.060160942 0.11129212 -0.08238066
0001a0 0f 95 d1 3b a4 5a 31 bd 8a 12 fa 3c 4e fb f1 3c
       0.006395943 -0.043299332 0.030526418 0.029538777
0001b0 4a a9 ce bd c9 f9 3f 3d c3 4f e1 3c 95 bb 34 bd
       -0.10090883 0.046869073 0.027503854 -0.044124205
0001c0 5b eb 3a 3b 55 c8 c1 3d f0 80 7b bd 63 3e 23 3d
       0.002852163 0.094620384 -0.06140226 0.03985442
0001d0 81 a5 ac 3d e8 6d ac 3d bc 6d ac 3d 54 df d8 bd
       0.08430005 0.084194005 0.08419368 -0.105894715
0001e0 9f 44 c3 bc 1d b7 93 3c 98 6f cb 3d b7 4f 99 3c
       -0.023836432 0.018031651 0.09933394 0.018714769
0001f0 a7 61 94 3c 00 4e ce bd 15 be a8 3d e3 fd e2 3c
       0.01811297 -0.10073471 0.0823938 0.027708953
000200 96 c8 bd 3d ad 1a ba bc 9f 74 83 bd c3 14 3c bc
       0.09266774 -0.022717798 -0.06418728 -0.011479559
000210 c2 6c eb 3c dc 75 d7 3c 20 54 f5 3b 66 c2 2b 3d
       0.028738383 0.026301317 0.007486835 0.04193344
000220 1a 9b ad 3d c9 6d 82 3c e3 a6 fc bc a2 04 d1 bd
       0.08476849 0.01592149 -0.030841297 -0.10205962
000230 1c ce b8 3c ba ce 48 bd 7e 86 c9 bd ae f6 4f 3d
       0.022559218 -0.049025275 -0.098401055 0.05077236
000240 3a 22 88 bb 39 cb 2e 3d 01 09 24 3d 19 70 6d 3d
       -0.0041544707 0.042674277 0.04004765 0.057968233
000250 cc 7e 9e bd 55 ca 90 bd 47 10 83 3d e4 d9 0c be
       -0.07739028 -0.07069842 0.06399589 -0.13754994
000260 c6 9e b6 3c 30 a2 b7 3d db 65 df bd a6 3e 1a 3d
       0.022292506 0.08966482 -0.10908099 0.037657402
000270 30 50 01 be 15 05 76 bc 40 6b ff 3d 23 98 c2 bc
       -0.12628245 -0.01501586 0.12471628 -0.023754185
000280 7c fd 6a bd a9 0a 64 b9 ea 57 b7 3d 6b cf 63 bd
       -0.057370648 -0.00021747746 0.08952315 -0.05561773
000290 da 1e 4b bc fa 7d 2e 3b a4 14 56 3d 89 21 4a 3d
       -0.012397492 0.002662538 0.05226578 0.049348388
0002a0 d9 95 63 3d 9a 4e 32 3d 4f bd 10 be fd fa 4c 3d
       0.055562828 0.04353199 -0.14134715 0.05004405
0002b0 7a d6 65 3d b0 ef 11 3e c1 90 f7 3d eb 04 6b 3c
       0.056112744 0.1425159 0.120881565 0.014344434
0002c0 f7 25 f0 3d 89 e1 c3 bd 98 cd a0 bd cc 66 a9 bd
       0.11725991 -0.09564502 -0.07851714 -0.0827156
0002d0 4d 69 75 3d 32 ec 15 3c a8 f3 bf bd 74 bd b3 3d
       0.059914876 0.009150552 -0.093726456 0.0877637
0002e0 84 c9 07 be fc f6 4e bd 63 a7 d3 bd 16 46 be 3b
       -0.13260466 -0.05052851 -0.10334661 0.0058066947
0002f0 9d b5 cc bd 60 29 17 bd 69 6d f2 3d ce 2d d1 3d
       -0.099955775 -0.036904693 0.118372746 0.10213815
000300 50 eb fd 3d 61 af 34 3d e7 6b bc bd f2 f8 41 3d
       0.12398398 0.044112567 -0.09200268 0.047356553
000310 23 ac d6 bd 94 8a e9 bb 5d c8 04 3d fb 71 c8 3d
       -0.10482051 -0.0071271155 0.032417644 0.09787365
000320 fc d6 f7 3b 1e 5c ae 3d 23 85 cc 3b 78 98 98 3c
       0.00756347 0.08513664 0.006241457 0.01862739
000330 0a 22 bd 3d 06 ac 0f bd 10 30 95 bd 0d 01 9b 3c
       0.09235008 -0.035076164 -0.07284558 0.0189214
000340 ae 7a f9 bc 5f 6e f9 bd d4 da 0e bc 29 69 c1 bd
       -0.030454006 -0.12179255 -0.008719165 -0.09443886
000350 97 74 bc bc 31 4d 6d bd e8 d0 46 bd 75 41 81 3a
       -0.023004813 -0.057934944 -0.048539072 0.0009861427
000360 c5 d7 17 be 19 7e 0e 3e 82 80 8e bd 74 f0 62 bd
       -0.14828403 0.1391529 -0.06958105 -0.055405095
000370 4c 61 53 3d 02 5c c7 3d 67 6a 3d 3d ca 81 45 bb
       0.05160646 0.09734346 0.04624405 -0.0030137175
000380 67 3e 9e 3d 98 6b 0b be 51 f1 75 bd c3 11 d5 bc
       0.07726746 -0.13615263 -0.06004459 -0.026009446
000390 b5 c2 74 3d fc 43 29 be e2 df fe bd 89 b6 a1 3d
       0.059756 -0.1652984 -0.12445046 0.07896144
0003a0 e0 9e 0f bd 54 0c fa bd a0 76 2f 3d f3 07 54 3d
       -0.035063624 -0.12209383 0.04283774 0.051765393
0003b0 89 12 7c 3d da f8 9e 3d 68 bf fa bc 36 9e fd bd
       0.061541114 0.077623084 -0.030608848 -0.12383692
0003c0 6d 28 8b 3d 36 77 83 3d 9e df 18 bd 3e 99 14 bd
       0.0679482 0.06419222 -0.037322633 -0.036278956
0003d0 7d be cb 3d 82 68 f2 3a 9d c2 0f 3e 0f 1b 84 bd
       0.09948442 0.001849428 0.14039083 -0.064504735
0003e0 ef 05 ac bd 51 d1 ff bc 7c f6 32 bd 02 62 32 3c
       -0.08399569 -0.03122774 -0.043692097 0.010887625
0003f0 0e df c9 bd 45 14 68 3d 5f 9a b6 3d 3d 6c 81 3d
       -0.098569974 0.056659956 0.08916163 0.06319473

lstm.bias_ih_l0 f4 [256]
000000 1f 95 0b 3e 94 66 f4 bb 72 30 e3 3b 0a fe c4 bc
       0.13631104 -0.0074585173 0.0069332654 -0.024046917
000010 97 7e 2d 3e db e3 af bd a3 8d 8a bb 42 60 8e 3d
       0.16942821 -0.08588382 -0.00422831 0.069519535
000020 b9 75 42 3d c3 69 a4 bc 23 47 07 3d 83 0b a7 3c
       0.04747555 -0.020069962 0.033026826 0.020391231
000030 64 1a 8d bd 78 8f d5 bd 45 2d 07 3e 1f ba 1a 3d
       -0.06889799 -0.10427755 0.13200863 0.037775155
000040 29 3d 40 bc 53 0b 30 bc 5f b9 7c 3d 79 7c d7 3d
       -0.011733332 -0.010744887 0.06170022 0.10521788
000050 1f f4 9c 3d c0 2e a9 bc 7d e5 fe bd fa a9 8e 3d
       0.0766375 -0.020652175 -0.12446115 0.06966014
000060 cb 82 76 bc f7 eb c7 bd 88 98 8f bd 84 36 c1 3d
       -0.015045832 -0.097618036 -0.07011515 0.09434226
000070 01 85 02 3e 2b 5f c6 3c 56 8c 69 3b 7e c9 bd 3d
       0.1274605 0.024215301 0.0035636625 0.09266947
000080 da 9e 10 3c b5 01 33 bd 40 f5 e1 bc 0e 3c 4d 3e
       0.008826936 -0.0437028 -0.027582765 0.2004244
000090 61 49 b1 bb fb e1 13 bd bf be 1d bd 16 bf 39 bc
       -0.005410359 -0.036104184 -0.038511988 -0.011337062
0000a0 8a 75 08 3e c3 f2 96 bc 2b d0 87 bd 84 c7 e3 3d
       0.13326088 -0.018426305 -0.06631502 0.11122039
0000b0 c4 34 9d 3d 1a 8c 30 3e 59 cb e5 bc 46 9c eb 3c
       0.0767608 0.17240945 -0.028051065 0.02876104
0000c0 f8 5f 93 bd f8 fc 6c 3d 0d b4 61 3c 52 24 38 bd
       -0.07196039 0.057858437 0.013775838 -0.044956513
0000d0 0c c6 af 3d b7 f5 4b bd 0d 44 a6 bd 13 1f 54 bc
       0.08582696 -0.04979488 -0.081184484 -0.012946862
0000e0 7d 7a c6 bd 85 04 05 bd bc b7 b8 bd ff 4d b9 3d
       -0.096913315 -0.032475013 -0.090194196 0.0904808
0000f0 70 7d 66 bd 77 a2 9f bd 56 d7 22 3d 81 36 d4 3d
       -0.05627197 -0.077946596 0.03975614 0.10361958
000100 4f 75 46 3e 41 43 30 3d 6b 62 5d 3c 8e ce 2c 3e
       0.19380687 0.04303289 0.013512234 0.1687567
000110 5d ce 53 3c 3e e7 2c 3c bc 01 7d 3d aa 8c 45 3d
       0.012927619 0.010553179 0.061769232 0.04822985
000120 fe ef d8 bd 93 c2 39 bc c6 69 0f 3d 18 ae 9a 3d
       -0.1059265 -0.011337894 0.035012983 0.07552737
000130 ef 13 3f 3b 46 ad 09 3e 3a ea d6 bd f6 e6 07 3e
       0.0029156168 0.13445005 -0.10493894 0.13271698
000140 7a f3 3f 3b 15 4d 7b bc 0f cd a6 3d ab ca d2 bd
       0.002928941 -0.015338202 0.081445806 -0.10292562
000150 5e f4 4f 3d 1f db aa 3c 1a 97 8f 3d 34 51 7a bd
       0.050770156 0.020856438 0.07011242 -0.061112598
000160 87 7d 02 3e b5 f7 ed 3c cb fc 69 bd a3 14 a3 bd
       0.12743197 0.02904878 -0.057125848 -0.079629205
000170 c1 52 80 bd 7d 6c 3b bc 63 b3 11 3d 54 4a 8c 3c
       -0.06265784 -0.01143944 0.035571467 0.017125286
000180 4f b5 c3 3d 22 a7 76 3d 56 e3 fe 3d 9d a1 4b 3c
       0.09556066 0.060217984 0.12445705 0.012428668
000190 6b b4 d2 3d 04 5a e6 3d 69 bf 00 be a0 85 a8 3d
       0.10288318 0.11247638 -0.12573017 0.08228612
0001a0 f4 ae 02 3e e0 8e 01 bc 63 06 5a bb bb 3f 5e bd
       0.12762052 -0.007907599 -0.0033267967 -0.054259997
0001b0 cf f3 c2 bd fc 86 29 bb 3c fb ae bd 53 d1 ca bc
       -0.09519159 -0.002586781 -0.08544013 -0.024758017
0001c0 fe fe 98 3d c9 93 de 3d 24 3a 81 bd 97 49 c7 bd
       0.07470511 0.108680315 -0.063099176 -0.09730833
0001d0 0d 20 da 3d ed f9 01 bc 73 d7 ef 3d 7b 61 5f bd
       0.106506445 -0.007933122 0.117110156 -0.054536324
0001e0 e2 38 8e bc f0 46 8c 3c ec ba 9b 3d ab 69 75 bd
       -0.017361108 0.01712367 0.07604012 -0.059915226
0001f0 8c 7e fb 3d 26 de 40 bd 77 d3 e1 3d a6 06 f0 bd
       0.12279996 -0.047086857 0.11026662 -0.11720018
000200 cc 66 2d 3d 71 00 f1 3d 46 4c 34 3d 9c 87 9a 3d
       0.042334363 0.11767662 0.044018053 0.07545397
000210 b5 8c 04 be 42 24 74 3b 73 eb 5e 3d b7 28 8a 3d
       -0.129443 0.0037253057 0.05442376 0.06746047
000220 a4 a9 d9 bd 09 0c ef 3d b7 18 cb bb 21 4a bc bd
       -0.106280595 0.116722174 -0.0061980146 -0.091938265
000230 2c 93 b4 3c eb e0 2f bd bb b3 db 3b 28 b0 95 3c
       0.022042833 -0.042939108 0.006704775 0.018272474
000240 33 fd 14 bd b7 2d 6a 3d 06 02 9f bd 27 8a 94 bd
       -0.036374282 0.057172503 -0.07764058 -0.07252913
000250 db f4 e4 3d 3a 85 85 3b 13 bf bd 3b 56 48 bb bd
       0.11179515 0.0040747197 0.0057906 -0.09144656
000260 ca 60 e9 bd 0d 79 de 3d 6c 05 2c bd e4 28 e0 ba
       -0.11395414 0.10862932 -0.04199736 -0.001710203
000270 9f 9d c1 bd b5 19 ac bd a3 2d e4 bd 48 74 b7 3c
       -0.09453892 -0.08403341 -0.11141517 0.022394314
000280 b3 50 20 bc b4 a6 cf 3d e3 11 99 3b 35 07 ca bd
       -0.009784865 0.10139218 0.0046713217 -0.09864656
000290 4c 02 d1 bd 02 a2 d5 bc 9a 36 d2 bd fd 61 0b bd
       -0.10205516 -0.026078228 -0.10264321 -0.034028996
0002a0 79 87 00 3e 85 f4 a3 bd c9 53 3f bd 0a 19 45 bd
       0.12551679 -0.08005623 -0.046710763 -0.048119582
0002b0 4a 2c c9 bc 74 14 ec 3d 57 41 b3 3d a0 ca e8 3d
       -0.024557251 0.115273386 0.08752697 0.11366773
0002c0 9b d0 71 3c f1 33 65 3d cc f3 e2 bd 31 3f e4 bc
       0.014759208 0.05595774 -0.11081657 -0.027862163
0002d0 01 ad a7 3d e2 65 8a 3d ca a2 f3 3d cc 12 62 39
       0.08187295 0.06757714 0.11896284 0.00021560042
0002e0 2b 52 c5 bd cb 8c d9 3d bc 4f 7c 3d 9f f8 2c 3d
       -0.09634813 0.10622557 0.061599478 0.04222929
0002f0 e3 28 f7 3d 0b 5b 08 3d c2 a5 18 3d 34 98 4a 3d
       0.120683454 0.03328995 0.037267454 0.04946156
000300 0d 6e 80 3d f2 a3 d2 bd e6 7b 28 3e 68 f6 a1 3d
       0.062709905 -0.10285176 0.16453514 0.079083264
000310 7c 49 85 3d 07 ac 5d bb 5c fa f0 3c df ba ac bc
       0.06508157 -0.003382446 0.029416256 -0.0210852
000320 dc ba b8 bc 66 7d ee 3d d4 0d fa bd 75 b6 d1 3c
       -0.022550039 0.116450116 -0.12209669 0.025599698
000330 a7 b1 78 3d 60 78 0f bd 38 62 d2 3c 03 32 9d 3d
       0.060716297 -0.035026908 0.0256816 0.076755546
000340 c7 fd c6 bd 33 f0 bc 3c fb 2b bc bc f9 f0 fc 3d
       -0.09716373 0.023063755 -0.02297019 0.123506494
000350 77 bd 03 bc 3a 4d 81 bd a2 9f 2c 3d 71 9c 38 bc
       -0.008040777 -0.06313558 0.042144425 -0.011267767
000360 fb 98 85 bd 37 33 ac 3d 92 f8 64 bd 34 83 97 3d
       -0.06523319 0.08408206 -0.055901118 0.07398072
000370 b7 04 35 3d 6c 9e 7a bd cd 3d 63 bd 06 03 80 bd
       0.04419395 -0.06118624 -0.05547886 -0.06250577
000380 e8 07 c9 3d 9c 67 00 3d 50 75 89 3c 9f d4 09 3e
       0.09815961 0.03134881 0.016779572 0.13460015
000390 8d d4 c7 3c 89 bb 0e 3d aa 4e 99 bd dd 9d d9 bb
       0.024393344 0.034846816 -0.07485707 -0.006641133
0003a0 15 d5 2e 3d 19 7d db 3c df a4 96 3d 30 45 40 3d
       0.04268368 0.02679305 0.073556654 0.046940982
0003b0 1b 67 f7 3c f3 88 35 3e 7d 4e c1 bd fb a3 bd 3d
       0.030200532 0.17728023 -0.094387986 0.092597924
0003c0 41 8a 85 bd 3c ce c8 3d 33 ee 70 3d f6 1e 52 bc
       -0.065205105 0.09804961 0.058820914 -0.0128247645
0003d0 0a 93 27 bd 91 92 2f 3d 30 10 d7 bb ce f6 92 3d
       -0.04091171 0.042864386 -0.006563209 0.071759805
0003e0 03 45 12 3d 98 bc 74 bb b2 f1 ce bd 24 42 78 3d
       0.035710346 -0.0037343856 -0.101046935 0.06060995
0003f0 cf 59 12 3d 3f 3e 1d bd 53 49 ad 3d 73 9e 2a bd
       0.03573018 -0.03838944 0.08461251 -0.041655015

lstm.bias_hh_l0 f4 [256]
000000 ac 09 0c 3c 6b 06 27 3d e5 66 a4 3d a1 af 13 bc
       0.008547228 0.040777605 0.08027438 -0.009014041
000010 2b 4a 6a bd 25 bf f8 ba 09 58 db 3d c8 ea ec bd
       -0.05719964 -0.0018977864 0.10710151 -0.115682185
000020 64 e0 72 bd 9c 81 3c bd cd 90 b2 bd ee 53 7b 3d
       -0.059296027 -0.046022043 -0.08719025 0.06135934
000030 70 0d a2 bd aa 7b dd 3d 13 b1 a8 bb a0 57 35 3d
       -0.07912719 0.10814603 -0.005148062 0.04427302
000040 f4 2d e9 bb 3a 34 b5 3d 99 d3 3b bd cd ea 33 bb
       -0.0071160737 0.08847852 -0.045856092 -0.0027453185
000050 d5 19 ed 3d 21 a8 ea bc 81 4a 96 3d 20 cb b1 3b
       0.11577193 -0.028644623 0.07338429 0.0054258257
000060 e5 d8 63 3c 17 81 aa bd 4c 6f 92 bb f8 62 ac ba
       0.013906692 -0.08325403 -0.004468834 -0.0013152054
000070 5c cb b2 3c 9f 7f a8 bd 14 ce 02 3e 46 b6 ec 3b
       0.021825485 -0.08227467 0.12773925 0.007223877
000080 2f 83 b9 3d cd f7 5e bd c2 f2 37 3e bc 01 08 bc
       0.090582244 -0.05443554 0.17963699 -0.008301195
000090 fb cb 94 bd 7d 5f de bd f6 86 d1 bd 20 da 8c bd
       -0.07265469 -0.10858057 -0.1023082 -0.068775415
0000a0 9d aa 00 3e af 0f a6 bd 64 52 e6 bd e6 cb f7 3d
       0.12565084 -0.0810846 -0.112461835 0.120994374
0000b0 d3 a4 e8 3c 1d 64 d2 3d a1 da a9 bd e8 9a 5b 3c
       0.028398907 0.10273001 -0.08293653 0.013403632
0000c0 f0 d3 00 bd 99 ee 98 3d b6 42 05 3e 06 5b fa 3d
       -0.03145212 0.07467384 0.1301373 0.122243926
0000d0 89 b7 2a 3d 85 61 6d bd 28 2e 08 bd 8a 0e 26 bd
       0.04167894 -0.05795433 -0.033247143 -0.04054121
0000e0 3f 89 d4 3d 0b 6a bf bd 1e 83 f0 bd 8f 33 56 bc
       0.1037774 -0.09346398 -0.117437586 -0.013073816
0000f0 cd de 51 bc 51 90 90 bd 4d d2 13 3a df 3c 08 be
       -0.0128094675 -0.07058776 0.0005638942 -0.1330447
000100 84 45 66 3d a9 08 89 3d 17 b5 1b 3d b1 04 62 3d
       0.05621864 0.06691105 0.038014498 0.055180255
000110 19 09 8f bd 99 14 63 bd 28 f3 ad 3d f0 ee cc bd
       -0.06984157 -0.055439565 0.08493644 -0.10006511
000120 5c 6f be 3c c7 cd 64 3d 9e 3c 45 bd cf c3 07 3d
       0.02324646 0.055860307 -0.048153512 0.033145722
000130 78 58 2f bd 8f ba 2a bc b0 81 a0 bd 80 7f 90 3d
       -0.04280898 -0.010420456 -0.07837236 0.07055569
000140 cc 18 87 bd e6 87 e9 3d 63 e1 a7 bd 07 b3 d7 bd
       -0.065965265 0.11402874 -0.08197286 -0.10532194
000150 c8 0e ef bd 49 53 17 3e 52 7a 88 bc 71 79 c3 3c
       -0.11672741 0.14777865 -0.01665989 0.023861619
000160 62 0a c3 3d 08 c0 75 bd 3c a7 f4 3c e9 38 89 3d
       0.09523465 -0.05999759 0.0298649 0.06700308
000170 b0 55 23 3e 80 26 07 be 8d 24 01 bc 77 95 f8 3d
       0.15950656 -0.1319828 -0.00788225 0.12137883
000180 bf 58 b1 3d 90 b5 ee b9 92 c8 61 3d 54 2d cb 3c
       0.08659505 -0.00045530172 0.05512292 0.024801888
000190 15 92 ab bd b8 1d c0 bd 69 63 a1 3b 60 a1 0e 3c
       -0.08377472 -0.093806684 0.0049251807 0.008705467
0001a0 3a 6c 18 3e a0 e1 63 3d 86 22 8a 3d 14 33 ba 3d
       0.14885035 0.055635095 0.06744866 0.09091774
0001b0 6b a1 fe bc 1d 67 56 3d 04 d5 e7 bd bf 1f 26 bd
       -0.03108283 0.05234443 -0.113199264 -0.04055762
0001c0 f0 d7 d1 bd 0b d0 93 bd 47 b3 0f bd ea 82 38 bd
       -0.10246265 -0.072174154 -0.03508308 -0.045046724
0001d0 dd dd 7c 3c 97 65 ac 3d 14 f6 de 39 60 cc 56 3d
       0.015433756 0.08417814 0.00042526482 0.052441
0001e0 92 92 14 bb 15 05 15 3d 56 49 fe bd 58 d6 a9 bd
       -0.002267037 0.0363818 -0.124163315 -0.08292836
0001f0 b0 25 a5 3d 72 6c 8c 3d dd 5f 52 bd c7 c9 f0 3c
       0.08063829 0.06856622 -0.051360954 0.02939309
000200 56 76 7e bd ab 4d 3f 3d 50 aa c7 bd 2b 1f dc bb
       -0.062124573 0.04670493 -0.097492814 -0.0067175827
000210 a3 ab d8 3d 79 3f b6 3d 15 d0 4a bd f6 8b 5b 3a
       0.10579612 0.08898825 -0.04951485 0.0008375043
000220 8d 8e 83 3d e4 da 1c bd 00 6f f2 bd 9f fb d2 3d
       0.06423674 -0.038294688 -0.11837578 0.10301899
000230 cc a0 ec 3d ba a0 39 bc 5e 1a ea 3c 30 65 b5 3c
       0.11554107 -0.011329824 0.028577026 0.022142977
000240 ad 0e 6d 3d 85 e8 d9 bd 98 87 c5 bd 7b f3 8a 3d
       0.057875324 -0.10640053 -0.09645003 0.067847215
000250 17 b4 4f 3d 65 5e 59 3d 4d 8f c9 3d 52 b3 1b b9
       0.050708856 0.053068537 0.098417856 -0.00014848754
000260 89 4c fc 3c 27 a6 b3 3d 30 7f e1 bd ef 43 93 3d
       0.030798214 0.087719254 -0.11010587 0.07190692
000270 cf 78 de 3d aa 74 11 bd 3b 24 98 3c 66 37 da 3d
       0.10862886 -0.03551165 0.018571964 0.10655098
000280 05 6c 99 bd e6 73 ad bd a3 ca 91 3b cf 2e 1f 3d
       -0.07491306 -0.084693715 0.004449205 0.038863
000290 b0 f7 04 bd 19 54 b9 bd c9 55 77 bd fe f0 36 bc
       -0.032462776 -0.090492435 -0.060384545 -0.011165855
0002a0 bc a6 a8 bd a3 26 c1 3d 2f 1a 7c bd 8e 6a 82 3c
       -0.08234927 0.094311975 -0.061548408 0.01591995
0002b0 b0 2a 5b 3d b6 9a bb bd 90 7d 48 3d c0 b7 9c bd
       0.053507507 -0.09160368 0.04894787 -0.07652235
0002c0 2f eb f5 bd 02 c2 ce bd 42 cf b7 3d 91 eb c5 3d
       -0.12007748 -0.10095598 0.08975078 0.09664071
0002d0 69 40 62 3d fc 90 29 3c 6b d0 e0 3d bc d1 de 3d
       0.055237208 0.010349508 0.109772526 0.108798474
0002e0 72 5e 72 3d 48 e6 40 3d 2b e4 46 3c 5c 75 c8 3d
       0.0591721 0.047094613 0.01213936 0.097880095
0002f0 6b 5e 91 bd 61 12 24 bd 4e d6 59 3d 88 e9 d1 bd
       -0.07098087 -0.04005659 0.053182893 -0.10249621
000300 1b cf c3 3b f7 30 1c bd 8a 67 18 bd 6e fc 19 3d
       0.0059756166 -0.038132634 -0.037208118 0.03759425
000310 1c 4b 17 3e f1 9a c9 3d 5f e5 52 3d 41 09 97 bd
       0.14774746 0.09844006 0.051488277 -0.07374812
000320 14 ad 01 bd e9 b8 51 bd 2a f6 27 bd 0a 8d 81 3d
       -0.0316592 -0.051201735 -0.041006245 0.06325729
000330 47 5e 9e bd 96 bd c1 bd 23 a3 73 bd a2 ff 14 3e
       -0.07732826 -0.09459989 -0.05948175 0.14550641
000340 3f 2a 47 bc ff ce 22 3c 23 d4 aa 3d 14 1a c2 bd
       -0.012156068 0.009937047 0.08341243 -0.0947763
000350 8f da 75 bd cc 44 81 bd ba e8 35 bd 6c 92 c3 bd
       -0.060022887 -0.0631195 -0.0444114 -0.09549412
000360 a9 a5 27 3d 5d 19 9f bd 0c fa 06 be 67 72 48 3c
       0.04092947 -0.077685095 -0.13181323 0.012234307
000370 7e 46 9e 3d b2 cd db 3d b9 45 c9 3d c8 33 ae bc
       0.07728289 0.10732593 0.09827752 -0.021264926
000380 14 36 f4 bd 8e 07 07 3e fe 53 12 3e 11 b5 03 3d
       -0.11924377 0.13186476 0.14289853 0.0321551
000390 cb 0e 8f bd 59 9b 5e bd 00 fb bd bc c9 2b ab 3d
       -0.069852434 -0.05434737 -0.023190975 0.08357961
0003a0 40 d4 e6 3d 8e 42 93 bd 2c 83 44 bc 7d 02 90 bc
       0.11270952 -0.07190429 -0.011994164 -0.017579312
0003b0 a4 1d c1 39 c9 13 eb bc 67 a6 30 bd f4 a7 8b 3c
       0.00036833913 -0.028695958 -0.043127444 0.01704786
0003c0 2b aa f2 3d 52 cb b9 bd fd 1d 0c 3e 12 01 b9 bd
       0.11848863 -0.090719834 0.13683315 -0.09033407
0003d0 06 6c 30 3d da 7a 98 3d c0 9d 9e 3d 38 60 e9 38
       0.04307177 0.07445307 0.07744932 0.00011128228
0003e0 e0 3e 16 bc 14 ec ac 3d 8f 96 e7 bc 47 77 f9 3c
       -0.009170264 0.08443466 -0.028270034 0.030452384
0003f0 2b 87 08 3e 0b bc 06 3e 4e 6f 8a 3c c8 f9 c0 bc
       0.13332812 0.1315767 0.016898777 -0.023556605

lstm.weight_ih_l0_reverse f4 [256, 4]
000000 96 4d d4 bd e3 a3 cf 3d b8 14 66 bd df 73 7b 3d
       -0.10366361 0.10138681 -0.056172103 0.0613898
000010 ac 1f 9c 3d d5 2f 56 bd 4c 8f 60 bc 46 eb 04 3e
       0.076232284 -0.05229171 -0.01370604 0.12980375
000020 69 2d e9 bd ae 81 30 bd 1d 9a 87 3c 33 7e 88 bc
       -0.113856144 -0.043092422 0.01655298 -0.016661739
000030 98 6e c1 bd 15 62 e6 3d 00 42 5d 3c 07 ce 78 bd
       -0.09444922 0.112491764 0.013504505 -0.060743358
000040 3e 44 f5 3c ed b9 e9 bd 5f b0 02 be 37 38 c0 3d
       0.029939767 -0.11412416 -0.12762593 0.09385722
000050 a5 c6 1f 3e 4d d6 31 3c c3 62 09 be 4f 2d 14 bd
       0.1560312 0.010854316 -0.13416581 -0.036176022
000060 1c 5f 19 be 54 79 97 bd 82 cd 4d bd 6e 40 9d bd
       -0.14977688 -0.073961884 -0.050244816 -0.076783046
000070 ed 93 8b bd 24 4b c3 3c 48 59 04 3e 3d 9b 5d bc
       -0.06815324 0.02383954 0.12924683 -0.013525781
000080 10 12 bc bc a7 de 20 b8 ce ff 22 bd 04 71 46 3c
       -0.022957832 -3.8354334e-05 -0.039794736 0.012111906
000090 4b d8 8a bd 81 b9 a9 bc 6f 8d 27 3c 84 39 e0 3d
       -0.06779536 -0.020718338 0.0102265915 0.1094847
0000a0 79 a6 1e be e2 06 a6 3d f0 fc 9d 3d 9c 9f dd 3d
       -0.15493192 0.081067815 0.077142596 0.10821459
0000b0 3c 9c 18 3d 7c af 5a 3d 21 85 ed bd 22 77 e9 3d
       0.03725837 0.05339001 -0.11597658 0.11399676
0000c0 46 89 b0 bd fe b7 ea bd 45 fd 75 bd 86 72 c6 bb
       -0.08619933 -0.11460875 -0.06005599 -0.0060561327
0000d0 a6 8d 93 bd 92 55 1d bb c1 75 74 bc 33 71 09 3e
       -0.07204752 -0.0024007303 -0.014920653 0.13422088
0000e0 f2 64 8e bb 45 71 a7 3d 5e 3b b4 ba 43 78 5a bc
       -0.0043455297 0.08175901 -0.0013750603 -0.013334337
0000f0 21 d6 06 bd f1 53 d6 3d 90 2e 23 bc d3 70 1f 3d
       -0.032919053 0.10465229 -0.009959832 0.038925957
000100 6d 3e e6 bc d2 42 d1 3d 9c cf d2 3c 2b c8 9f 3d
       -0.028105939 0.10217823 0.025733761 0.07801851
000110 45 1c 24 3e dd d4 e6 bd b2 24 fe 3a a3 89 99 bd
       0.16026409 -0.11271069 0.0019389598 -0.07496955
000120 10 42 fc bd 6a fa 11 3e 4d 35 5b bd 7a 16 a1 bb
       -0.12317288 0.14255682 -0.05351763 -0.0049160095
000130 f9 6e fa bd 7d c5 7b bc 0d f3 5e 3d 41 46 4d bd
       -0.122281976 -0.015366909 0.05443101 -0.050115827
000140 f5 1f 5c 3d 49 38 06 be ad fa 19 bd 09 e0 d2 bd
       0.053741414 -0.13107409 -0.03759258 -0.102966376
000150 38 85 92 3d c0 11 b4 bd 2b 0e ab bd 7b cc bb 3d
       0.07154316 -0.08792448 -0.08352312 0.09169861
000160 ee 88 73 3d 66 b4 50 3d 0c 77 19 3e cc 4f 38 bd
       0.05945676 0.05095329 0.14986819 -0.044997975
000170 f3 b7 80 bd 95 04 ab 3d 68 da 2b bd 52 31 eb 3d
       -0.062850855 0.08350483 -0.041956335 0.114840165
000180 2a 1c 87 3d 81 2b 11 3d 4b 40 07 be 00 49 a6 3d
       0.06597169 0.03544188 -0.1320812 0.081193924
000190 3a 7a 66 bb 2d 15 fe bd f4 87 ca 3d 8e ef d6 3c
       -0.0035168068 -0.12406383 0.09889212 0.026237275
0001a0 e4 90 7e bc d5 26 bd bd 49 82 fb bd c0 1d d5 bb
       -0.015537474 -0.09235922 -0.12280709 -0.0065037906
0001b0 11 0f 86 3d d0 b7 cf 3d 67 ba b2 bd b9 ac 08 3d
       0.065458424 0.10142481 -0.0872696 0.033367846
0001c0 23 e3 16 be 05 99 c9 bd e3 4e 6e bd 1f f8 4f 3d
       -0.14735083 -0.09843639 -0.0581807 0.050773736
0001d0 af 00 fe bd 6b b7 0f 3e cf f3 a8 3d db 3e 75 bb
       -0.12402474 0.14034812 0.08249628 -0.0037421498
0001e0 dc 66 04 3e 4a 13 da 3d 7d 89 02 3d c3 bd 67 3d
       0.12929863 0.1064821 0.0318694 0.056577455
0001f0 0b 6a dc bd d7 a9 25 bd c6 ea ee ba 82 ec d3 3d
       -0.107624136 -0.040445175 -0.0018227927 0.10347845
000200 44 70 b3 3c af c8 dc 3d ff 60 19 3d 4a dd 88 bd
       0.021904118 0.10780465 0.03744602 -0.066828325
000210 de cc 8b 3c 5a e2 eb bd dd 3b 02 3e d2 1c fb 3c
       0.017065462 -0.115177825 0.12718149 0.030653391
000220 0e e0 9c 3d 8d 10 7c 3d de db d5 3c 43 3e 6a bd
       0.076599225 0.06153922 0.026105817 -0.057188284
000230 3a ab 96 bc 37 34 43 3e bc d4 d2 3c 9f 84 df 3d
       -0.018392194 0.19062887 0.025736205 0.10913967
000240 41 a3 a7 3d df 65 0e 3e 99 82 09 bd cb 66 c7 3d
       0.08185435 0.13906048 -0.033571813 0.09736403
000250 ca e0 f6 3b 1c 13 2b 3c c8 e8 c6 bd 73 3f 37 3c
       0.007534121 0.010441568 -0.09712368 0.011184561
000260 9b bb 57 3d ad 26 9c 3d 05 96 59 be 29 00 f6 3c
       0.05266915 0.07624564 -0.21248634 0.030029373
000270 14 ac a1 3d c9 54 95 3d df 44 37 3d 49 7c e9 3d
       0.078941494 0.07291562 0.044743415 0.11400659
000280 ff 60 09 be 25 e8 8e 3b e5 d4 8b 3d 6a a5 7b bd
       -0.13415907 0.00436117 0.06827716 -0.061437048
000290 5e 6b 85 bc 4d fc 7c bc 28 59 0a 3e e9 e0 1b bc
       -0.016286548 -0.015441013 0.13510573 -0.009514072
0002a0 90 d9 f5 3b 3d 28 6d bc 42 2b b0 3d ba f9 02 bd
       0.007502742 -0.014474926 0.08602001 -0.03197644
0002b0 b2 a5 d4 bd c5 c9 bd 3d ae 3c 08 bd 44 5f dd 3c
       -0.103831664 0.09267 -0.033260994 0.027022965
0002c0 0e 7b 02 3e 89 1e f6 bd 2a 3f 4f bd 10 69 44 bc
       0.12742254 -0.12017543 -0.050597347 -0.0119879395
0002d0 ba a7 d1 bd 32 d5 be bc 7e f5 1e 3e ba 82 9d bd
       -0.102370694 -0.023295019 0.15523335 -0.0769095
0002e0 5d e6 51 3b 9b 9d ec 3d 76 78 d2 3d e0 d6 f5 bd
       0.0032028176 0.11553498 0.10276882 -0.12003875
0002f0 9f e7 93 bd 8c 88 ad 3d 23 61 09 3d 94 40 05 3e
       -0.072219126 0.0847331 0.033539902 0.13012916
000300 b3 ad 83 3d c0 8f 04 3d 98 45 cd bc 6d 42 9d 3d
       0.06429615 0.032363653 -0.025057599 0.07678685
000310 10 9e f8 bc 6c ec bf 3d 98 7b 1f be 88 da 84 3d
       -0.030348808 0.09371266 -0.15574491 0.06486994
000320 46 67 12 3d 30 84 c6 bb eb 7d 22 bd c7 75 34 3d
       0.03574302 -0.0060582384 -0.039670866 0.044057634
000330 c3 fb a1 ba e8 e5 94 3d a6 db af 3d f1 2d 43 3e
       -0.0012358356 0.07270414 0.085868165 0.19060494
000340 5d 21 4c 3d 42 bc f5 3a 8a d6 9f bd e4 b7 2e 3d
       0.049836505 0.0018748122 -0.07804592 0.04265584
000350 e9 97 85 bd 03 bf de bc 6d 2c 21 be 00 9e 99 3d
       -0.06523115 -0.02719069 -0.15739603 0.07500839
000360 d8 26 31 3d 94 14 02 be 6d f5 27 3d a4 ad 94 3d
       0.043249935 -0.12703162 0.04100554 0.07259682
000370 1c de 88 3d 28 1e f5 3d 9a 1a 15 be a1 6d 22 3e
       0.06682989 0.119686425 -0.14560929 0.15862133
000380 08 15 09 3e 66 9c 1e 3d c6 33 26 bd 30 e3 46 3d
       0.13386929 0.038723372 -0.04057672 0.048556507
000390 8b 5c e9 3d 67 48 c7 bd a2 2a 4a be f6 67 18 3e
       0.11394604 -0.097306065 -0.19742826 0.14883408
0003a0 70 4c 9b 3d 67 e8 85 3d 78 75 5d bd 14 36 02 3e
       0.07582939 0.06538468 -0.054067105 0.12715942
0003b0 b5 6a bf bd b7 b0 8a bc fc 2f d3 3c 7f 3f b0 bd
       -0.093465246 -0.016929967 0.025779717 -0.08605861
0003c0 6c 29 e7 3c 97 f3 92 bd ff 6d 13 3d 3a d1 b5 3c
       0.028217994 -0.07175367 0.035993572 0.022194494
0003d0 2c bc d2 3d 93 f4 51 3d 49 f2 98 bd ad 46 22 3e
       0.10289797 0.051258635 -0.07468087 0.15847273
0003e0 8d 25 32 bd ad ed 09 3e 5d 09 1e 3d 85 7a be 3b
       -0.043492842 0.13469572 0.03858315 0.0058129453
0003f0 57 2b 0f 3c 52 61 90 3c 4b 78 35 be 6a 37 25 3c
       0.00873836 0.017624531 -0.1772167 0.0100840125

lstm.weight_hh_l0_reverse f4 [256, 64]
000000 2e 84 03 3e f4 57 54 3c 53 2d 49 3d 00 06 84 3d
       0.12843391 0.012960423 0.04911549 0.06446457
000010 50 ef b2 3d 8d ea ca bd a2 2e c4 3c b7 00 f0 bd
       0.087370515 -0.09908018 0.023948018 -0.11718886
000020 69 51 61 3d 10 94 ef 3d f9 64 a0 bd 69 07 a4 bc
       0.05500928 0.116981626 -0.07831759 -0.020023065
000030 09 f7 14 bd ae e4 ca 3d 3e e1 f9 ba fa 35 d5 bd
       -0.036368404 0.099068984 -0.001906432 -0.10410686
000040 02 11 9f 3d 19 6b 34 bd f8 82 d8 bd de 1e d0 3d
       0.07766916 -0.04404745 -0.10571855 0.101621374
000050 76 7d f6 bd 81 64 85 bd 72 f0 47 3d 14 4f 7c 3d
       -0.120356485 -0.0651331 0.04881329 0.061598852
000060 da 67 61 bd 62 4a 1b 3d 36 5d a0 3d 03 e2 55 3d
       -0.05503068 0.037912734 0.078302786 0.052217495
000070 5c 61 74 3c 27 ad e4 bd 79 00 ae 3d d2 4c 5e bc
       0.01491579 -0.11165839 0.08496184 -0.01356812
000080 7e f4 d3 3d 0d 69 bb bd 75 6e f7 3c ea 0e b7 bc
       0.103493676 -0.09150896 0.030204037 -0.022345979
000090 8a 78 e1 3d 2d 6f 6b bc a8 7c 77 3d ec 1e 88 bc
       0.11009319 -0.014369768 0.060421616 -0.016616307
0000a0 23 bd 08 3d 9c 51 a3 3d b4 4f 84 bd 0d ce 7d bd
       0.0333835 0.0797455 -0.06460515 -0.061964083
0000b0 92 c3 b2 bd 0f 7c 4b bd cb 26 a9 3d 38 ad dd bd
       -0.08728708 -0.04967886 0.08259352 -0.108240545
0000c0 67 be 46 3d 3c 7b 1f 3c 43 c9 b6 3d 0a 47 07 3e
       0.048521426 0.009733971 0.089251064 0.13210693
0000d0 f4 1d b2 bd 4d 0e 9c 3c fd 2d 9f 3d ee 46 87 bd
       -0.08697119 0.019049788 0.077724434 -0.06605326
0000e0 d3 86 8c 3c 4b 37 43 bd 0e ea c6 bd e0 cf 0f bd
       0.017154133 -0.047660153 -0.09712611 -0.035110354
0000f0 84 4a d0 bd 8b af 16 3d ba a0 01 bd 85 c1 ed bd
       -0.10170463 0.036788505 -0.03164742 -0.116091765
000100 60 be 1a 3d 01 ae 9d bc 3c 28 50 bc f4 e6 21 3d
       0.037779212 -0.01924801 -0.012704905 0.039526895
000110 92 30 a5 bb 6c 6d 9a 3c 7a 9b db bd ab 4e 9c 3c
       -0.0050411904 0.018851005 -0.10723014 0.01908048
000120 7d c5 ec bd 58 dd 79 bd 6e 50 94 bd 64 76 e2 3d
       -0.115611054 -0.061002105 -0.07241903 0.110577375
000130 16 41 cc 3c 0f 2d 7d 3d 1d f1 aa bb e1 88 d8 3d
       0.02493338 0.06181055 -0.005216731 0.105729826
000140 e1 c4 68 bd 3f c9 e3 bd 58 19 1c 3c 5c e1 24 3c
       -0.056828383 -0.11122369 0.009527527 0.0100634955
000150 20 01 ff 3d b3 19 19 bd 57 6b e6 bd 6b b8 6d bd
       0.124513865 -0.037378024 -0.11250942 -0.058037203
000160 e0 1a 9a bd 30 04 43 3d d1 7e e5 3d 1d 2e 47 3d
       -0.07524657 0.047611415 0.11205829 0.04862796
000170 82 e4 c5 3d 4b 55 70 3d 27 6e 67 bd 11 a6 34 bd
       0.09662725 0.05867509 -0.056501534 -0.044103686
000180 97 c4 d8 bd 1e 45 92 bb 3d eb 01 be fc 22 c6 bb
       -0.105843715 -0.004463806 -0.12687393 -0.006046651
000190 95 a2 8c 3b fe c3 03 bd b3 8a 84 3d 2b 58 3f bd
       0.004291842 -0.032169335 0.06471767 -0.046714943
0001a0 18 d8 d8 3d 7e 4b a3 3d 3c 00 84 bd a6 2d a7 bd
       0.105880916 0.07973383 -0.06445357 -0.081630036
0001b0 5b 95 ae 3d b4 a7 96 3c 1f 47 3a bc 09 f6 a1 bd
       0.08524581 0.018390514 -0.011369496 -0.079082556
0001c0 0a 90 be bd 4c 3e b2 3d 52 af 98 bb 9d 58 6d 3c
       -0.09304817 0.087032884 -0.0046595717 0.014486459
0001d0 b1 2c ee bc 3e d8 84 bc 86 1f 85 bd 66 d6 dd bd
       -0.029074045 -0.016216394 -0.06500153 -0.10831909
0001e0 cc 47 e1 bc 15 0d 6c 3d 99 dc 39 3d 14 e7 47 bb
       -0.027500056 0.057629663 0.045376394 -0.0030502724
0001f0 67 e8 ce 3d 7c 2e b8 bc 95 8c de bd 69 89 4f bd
       0.10102921 -0.022483103 -0.10866658 -0.050668154
000200 3c 23 5b 3d 73 b3 f9 3d c0 0a 1a bd 5c ec ac 3c
       0.0535004 0.1219243 -0.03760791 0.021108799
000210 e1 99 59 bc 9f 46 1a 3d f9 c7 52 bd fd ee e2 3d
       -0.0132813165 0.037665006 -0.05146024 0.1108074
000220 26 43 d1 bd 1a 62 ef bd 79 f1 84 bc 47 43 d9 3d
       -0.10217886 -0.11688633 -0.016228424 0.10608535
000230 b1 62 88 bd 3f f7 af 3d 13 dc 9e 3d 6e e1 b8 3d
       -0.06659449 0.0859208 0.077568196 0.09027372
000240 26 57 7c bd 62 2b 6e bd 20 06 4d bd 77 21 de bd
       -0.06160655 -0.05814684 -0.05005467 -0.10846227
000250 1e 87 a7 3d a1 08 63 3d 9f 57 57 bd ff f0 dd bd
       0.081800684 0.05542815 -0.052573796 -0.10836982
000260 ad 1c 05 bc 26 21 18 bd 6d fa a7 3d 6d 4d 98 3d
       -0.008124513 -0.037140988 0.08202062 0.07436643
000270 b5 c3 6e 3d 86 08 80 bd 14 db f3 3d 48 3e 95 3d
       0.05829211 -0.06251626 0.1190702 0.0728727
000280 1e c4 0a bd 9b 9b dd 3c 55 90 a6 bd b8 45 f5 3c
       -0.03387844 0.027051738 -0.08132998 0.029940471
000290 b5 35 b4 bd c0 e9 bd 3d 65 a3 c5 3d bd 67 59 3d
       -0.08799306 0.092731 0.09650306 0.05307745
0002a0 3a 80 e6 3d 33 02 bb 3d c2 e6 b1 bd 72 75 0a bd
       0.11254926 0.09131279 -0.08686592 -0.03380341
0002b0 9f 44 02 bd c2 91 d3 3c e2 5a b1 3d bc 09 06 3d
       -0.031803723 0.025826339 0.08659913 0.032724127
0002c0 4d 08 68 bc 54 91 12 3d bd ef d4 3d 9d 27 cf bd
       -0.014162135 0.035783127 0.10397289 -0.101149775
0002d0 c5 8d 14 bc 8e 58 f8 3d d1 d7 16 bd df de 03 bd
       -0.009067004 0.121262655 -0.036826912 -0.03219497
0002e0 5c 0a 83 3d 96 b7 b7 3c f6 c1 c1 bc d8 97 e1 bd
       0.0639846 0.022426408 -0.023652058 -0.1101529
0002f0 6a 12 5d 3d c3 a5 0a bd c0 cd 8f bd b1 ae 2d 3d
       0.05397264 -0.03384949 -0.070216656 0.042402927
000300 f7 b6 b8 bd 70 17 8d bd b9 51 7c 3d 19 0a c6 bd
       -0.09019273 -0.06889236 0.061601374 -0.09669895
000310 c0 3a 93 3d 3a 03 11 3d 25 38 ce 3c e4 28 87 3d
       0.0718894 0.035403468 0.025173256 0.06599596
000320 83 1d dc 3d 81 91 ea 3d 25 fa c6 3c aa 05 98 3d
       0.107478164 0.11453534 0.0242892 0.07422955
000330 21 3e 66 bc d3 f8 ff 3d a1 26 45 bd 23 e1 fb bd
       -0.014052899 0.12498631 -0.048132543 -0.12298801
000340 42 fd fa 3c 18 c7 29 3d fb b5 ba bd c7 75 b1 3d
       0.03063834 0.041449636 -0.09116741 0.08665042
000350 31 be 8c 3d 90 3d 44 bd c2 a5 c3 bd 41 d3 c6 bd
       0.06872214 -0.047910273 -0.095531 -0.09708262
000360 18 37 d6 bd f0 36 65 3d 60 3c a1 bd f3 cb a4 3d
       -0.10459727 0.055960596 -0.07872844 0.08046713
000370 a3 9b 66 3d 78 7c 1d bc 3b e4 9b 3d cd db 7c bd
       0.05630077 -0.009612195 0.07611891 -0.061733056
000380 aa f9 8a 3c 7e ef a7 bd 21 dd d5 3c b4 0c c2 bd
       0.016964752 -0.081999764 0.026106419 -0.09475079
000390 e8 82 3f bd 55 30 a9 bd e0 71 e6 bc 54 8a ab bd
       -0.0467557 -0.08261172 -0.028130472 -0.08375993
0003a0 e1 16 3a 3d c5 b8 de 3d de ed 85 bc 4a 9f e1 bc
       0.045431975 0.10875086 -0.016348775 -0.027541775
0003b0 fa 7c 20 3d 14 12 ee 3d 6d 0f ee bd ec e4 e6 bd
       0.039181687 0.11624542 -0.11624036 -0.11274132
0003c0 6e 8e ac bd a7 14 bc 3c b7 9a 82 bc 06 ba 73 bd
       -0.08425604 0.022959067 -0.015942914 -0.059503578
0003d0 db 31 88 bd 1d 8a 41 bd 14 bc 8c 3d 14 b0 53 bc
       -0.06650134 -0.047250856 0.068718106 -0.012920398
0003e0 bd 11 0c bd 33 8f e5 3d 16 70 87 3d 57 8e c0 bd
       -0.034196604 0.11208954 0.066131756 -0.09402149
0003f0 fb 5d 8d bd 80 15 07 bd 2f 39 34 bd 56 bb 9a bd
       -0.06902691 -0.03297949 -0.043999847 -0.07555263

lstm.bias_ih_l0_reverse f4 [256]
000000 6f 37 94 bd 88 f7 d2 3d 6c bd c9 bc 90 7c d9 bd
       -0.072371356 0.10301119 -0.024626456 -0.106194615
000010 39 fe fc 3d 8f c0 bc 3d 89 3a 28 bc f8 e1 a3 3d
       0.123531766 0.09216415 -0.010267862 0.080020845
000020 2c b1 7c 3d d1 62 92 3d e1 75 ea bd 4c 64 bd bc
       0.0616924 0.07147754 -0.11448265 -0.023119114
000030 ef 14 e3 3d da ff f1 3d b6 d9 14 3d d1 9c 4d 3c
       0.11087977 0.11816378 0.036340438 0.012549595
000040 b8 2f a1 3d 9c fa c1 bd f1 48 34 3d 91 42 4a 3d
       0.0787043 -0.09471628 0.044014875 0.04937989
000050 ca b3 2e bd e0 40 8f 3d 91 83 a5 bd 83 84 62 3d
       -0.04265193 0.06994796 -0.08081735 0.055302154
000060 4d 48 dc 3d 88 cb d5 bd ac 7a 0c 3b 58 67 d9 3d
       0.10755978 -0.10439211 0.0021435423 0.106154144
000070 95 f2 8f bd 89 6e e2 3c 04 df 25 bc 24 30 3b bd
       -0.07028691 0.027640598 -0.010123972 -0.045700207
000080 59 cc bf bd fe 34 ae bd b6 fb 67 3b 60 cd ef 3d
       -0.09365148 -0.08506201 0.0035397834 0.11709094
000090 63 93 da bc e1 96 b8 3d 52 77 e7 3d da 54 1d 3d
       -0.026681608 0.09013153 0.113020554 0.038411
0000a0 71 71 21 3e a9 71 a0 bd d7 77 d5 bd 1f 6c d9 3d
       0.1576593 -0.07834179 -0.10423248 0.106163256
0000b0 89 d7 79 3d bd 12 97 bd 0b 70 e3 bd 4a 06 10 3d
       0.060996566 -0.07376621 -0.11105355 0.035162248
0000c0 7c f9 61 bd 3c 45 b7 3c 39 25 05 3d 41 86 52 3d
       -0.055169567 0.02237188 0.0325062 0.051397566
0000d0 7f 08 a6 bb e6 a6 dd ba fd d1 c2 bd d4 d4 8e 3d
       -0.005066931 -0.0016910702 -0.09512708 0.069741875
0000e0 3e 34 88 bd 2f ff 01 3e 06 01 23 3e 8e f8 16 3d
       -0.066505894 0.12695001 0.15918359 0.036858134
0000f0 d6 94 da bb 19 64 f8 3d f3 0c 79 bd cf 70 09 3d
       -0.0066705747 0.12128467 -0.060803365 0.03355485
000100 e3 87 ce 3d 3a 17 6f bc d8 76 b3 3d 55 b5 42 3d
       0.10084512 -0.01459294 0.08762902 0.047536213
000110 f9 89 b4 bd b6 27 64 bb 21 ce 3c bd 41 99 36 ba
       -0.08815379 -0.0034813709 -0.046095017 -0.00069655856
000120 34 87 79 39 95 1a 12 3d 31 b8 10 3d 97 10 89 bd
       0.00023796858 0.03566988 0.03533191 -0.066926174
000130 bf d6 a0 3d cc 56 48 3d 52 f2 94 3d 17 fe b3 bc
       0.078534596 0.0489109 0.072727814 -0.021971745
000140 ce 41 0f 3d 9f 11 57 3d 74 b2 ca 3d a0 90 51 bc
       0.034974866 0.05250704 0.098973185 -0.012790829
000150 f8 41 e8 bc 97 2c e8 bc 67 ea 9e bd 01 75 8e bc
       -0.028351769 -0.028341575 -0.077595524 -0.017389776
000160 78 ba f3 3c 07 d6 d0 bd 55 9e 72 bd b5 3c 94 bd
       0.029752001 -0.101970725 -0.05923303 -0.072381414
000170 4d 96 f7 bc 6c 58 be bd 97 eb d1 3d 29 07 8b 3c
       -0.030223036 -0.09294209 0.10250013 0.016971188
000180 a1 a7 a2 3d f1 c8 87 3d f7 da 49 bc bb f9 ea 3b
       0.07942129 0.066301234 -0.012320272 0.0071708835
000190 9a d2 e2 3d 00 51 e8 bc 7a 53 20 3e cc f0 8d 3d
       0.11075325 -0.028358936 0.15656844 0.06930694
0001a0 76 2d 94 ba 00 d7 f8 3d 19 4d bf bd fc 62 bd 3d
       -0.0011305052 0.12150383 -0.09340877 0.092473954
0001b0 f5 d2 f6 3d 41 d8 01 bc 48 2e 96 bd 41 4a a2 3d
       0.120519556 -0.007925094 -0.07333046 0.07924319
0001c0 cd 62 aa 3d 34 8f dc 3c 0f c4 f1 3d 80 6c 91 3d
       0.08319626 0.026923753 0.11804973 0.07100773
0001d0 c7 7e d2 3d b9 94 ff 3d fe a9 97 bd e2 cf 6d 3c
       0.10278087 0.124795385 -0.0740547 0.014514895
0001e0 ae 62 3f 3d 10 81 66 3c 6c 96 56 3e e0 43 07 bd
       0.046724968 0.014068857 0.20955819 -0.033023715
0001f0 bd 62 6c 3d b9 35 81 3d ab 31 1a 3e 10 db 96 3d
       0.05771135 0.06309075 0.1505801 0.073660016
000200 95 ec ca 3d fd f0 9b 3b b6 3f 9e 3d 77 0c c8 bd
       0.09908406 0.0047589527 0.07726996 -0.097680025
000210 27 8d d4 3d 58 bf 55 bd 77 e9 7c 3d 70 94 e1 3d
       0.10378485 -0.052184433 0.061746087 0.1101464
000220 f6 84 f9 3d b4 7c ef 3d 06 da 64 3d 72 30 85 bd
       0.121835634 0.11693707 0.055871986 -0.06503381
000230 0b a7 f5 bc 67 5d 96 3d b4 0d e1 3d a8 85 d2 bc
       -0.029986879 0.07342034 0.10988942 -0.025698498
000240 d0 6b 85 3c d9 3c e7 3d 27 d6 83 bd 23 fd 86 bd
       0.01628676 0.11290903 -0.06437331 -0.06591251
000250 51 4a 0f 3d 8c dd 2d bd 8a 18 72 bb 3b 36 cb bd
       0.034982983 -0.04244761 -0.0036940896 -0.09922453
000260 f3 c2 85 3c 84 21 f8 bc eb fa ba bd bf fc 81 bd
       0.01632831 -0.030289419 -0.0912989 -0.063470356
000270 b8 84 a7 3c c3 91 1e bd e9 b0 53 3d 7b 75 8d 3d
       0.020449027 -0.038713228 0.051682387 0.06907173
000280 78 69 a6 bd a5 09 c4 3d 22 29 f4 bd 76 48 c6 3c
       -0.08125585 0.09572152 -0.11921908 0.024204474
000290 27 3f a1 3d 33 a7 80 3d f8 b7 5a 3d ea a5 db bd
       0.078733735 0.06281891 0.053398103 -0.10725005
0002a0 36 88 a0 3d b1 c7 80 bd 87 56 cf 3d 0d a3 c2 bd
       0.0783848 -0.06288088 0.10123926 -0.09503756
0002b0 d6 41 9d bb 9d 9b e8 bd a2 20 96 bd 9c 06 a6 3d
       -0.004799108 -0.11357806 -0.07330443 0.081067294
0002c0 2c 98 8c bd c9 89 90 bd f6 73 ce bd d2 7e 00 3d
       -0.06864962 -0.070575304 -0.100807115 0.031370945
0002d0 d6 53 4a bd 2b 91 94 3d 48 a9 3d bd 05 43 51 3b
       -0.04939636 0.07254251 -0.046304017 0.0031930816
0002e0 3e 2b a4 3d 40 5a bf bd 27 16 41 bd 73 c9 db bd
       0.0801606 -0.09343386 -0.047140267 -0.10731783
0002f0 aa ab b2 3d 94 bc ee 3d a6 9d b8 bd 86 bf ad bd
       0.087241486 0.11657062 -0.09014444 -0.08483796
000300 d7 9d 85 bd a9 a8 95 bd 27 7a 49 3d d8 96 db bd
       -0.06524246 -0.0730756 0.04918876 -0.107221305
000310 ae 4b ab 3d 4e 2c 5d bd 69 d3 9c bd 72 11 d9 bd
       0.08364044 -0.05399733 -0.07657511 -0.105990306
000320 df 1b 59 bd 94 30 26 3e 61 22 a6 3d 12 83 a9 bc
       -0.053005096 0.16229469 0.08112026 -0.020692382
000330 90 cd a1 3d 75 d5 09 ba 0c 2b 07 3e 2c 92 52 bb
       0.07900536 -0.0005257943 0.13200015 -0.0032130582
000340 48 ef 8f 3d 22 47 65 bd 3d 7e 09 3e c6 a3 3a bd
       0.07028061 -0.05597604 0.13427062 -0.045566343
000350 4f 4f 8c 3d 1e 8d db bd 1f cd ff 3d 75 46 7c bc
       0.068510644 -0.10720275 0.124902956 -0.015397658
000360 b9 bf 8d 3d b9 b4 ef bc e6 63 44 3b e3 98 8b bc
       0.06921334 -0.02926098 0.002996677 -0.017040676
000370 0a a5 e9 bb e6 ca 8c bc 36 8b 2b bd 44 3a 4f 3d
       -0.00713027 -0.017186593 -0.04188081 0.050592676
000380 25 1f 20 3d cb 32 f4 bb 03 fd e7 3d 12 de 63 ba
       0.0390922 -0.007452344 0.11327555 -0.0008692454
000390 f6 42 63 bd bd 94 fa bc a4 e0 66 bd 0f bb 71 3b
       -0.05548378 -0.030588502 -0.056366578 0.0036885177
0003a0 d7 24 b6 3d 96 e5 7e 3d 44 a9 f2 3d 2c 48 8f bd
       0.088937454 0.06223067 0.11848691 -0.069961876
0003b0 d4 d8 a7 bd ef 9c b2 bc 58 51 8b 3d d8 61 33 bd
       -0.081956536 -0.021803347 0.068026245 -0.043794483
0003c0 a9 76 d4 bd 99 76 b4 3d 62 3f 96 3d f3 48 e8 3d
       -0.10374195 0.08811683 0.07336308 0.11342039
0003d0 04 7c d8 3d 30 50 ee 3d a3 bb 3a 3c b2 d2 06 3e
       0.10570529 0.11636388 0.011397275 0.13166311
0003e0 af a6 ad bd 8f 02 32 bd d9 1d 7e 3c 2e f4 b1 3d
       -0.08479058 -0.04345947 0.015510046 0.08689152
0003f0 fb cf cd 3d 4c 4d 0d 3e f2 6a 21 3e 4c 06 99 3b
       0.10049435 0.13799018 0.15763453 0.00466994
