backend/api/ml/models/model_f7062fc1-455d-4659-ba9b-b7daa3a904c4.pth (torch, 949173 bytes, 26 tensors)

lstm.weight_ih_l0 f4 [256, 4]
000000 04 ae 64 bd d6 60 8a 3d 32 f2 e4 3d de 3d c0 bd
       -0.055830017 0.06756751 0.111790076 -0.093868
000010 f0 66 10 3d b4 80 5b bd c6 78 8b 3d 5e f6 c4 bd
       0.03525442 -0.053589538 0.06810145 -0.09617303
000020 d4 88 48 bd 9a d3 d3 3d 38 4b f8 bc 36 8e 8e 3d
       -0.048958614 0.10343094 -0.030309305 0.06960718
000030 d0 7c 9f 3c 06 dc af bd 10 b6 8b bd c2 4a bd 3d
       0.019468695 -0.08586888 -0.06821835 0.092427745
000040 30 d8 68 bc e0 7a 5e bd b0 53 67 3d c8 f3 55 bd
       -0.014211699 -0.0543164 0.056476295 -0.05223444
000050 e8 b9 5d bd d6 9e df 3d fa 87 82 3d 20 c8 12 bc
       -0.054132372 0.109189674 0.06373592 -0.008958846
000060 7c 9c ee bd ca 9b aa 3d 98 c2 be bc 2c 2e f2 3d
       -0.11650941 0.08330496 -0.023286149 0.11825213
000070 1a 56 8d bd 38 ec 86 3d ca c1 f3 3d b8 56 94 bd
       -0.06901188 0.06588024 0.11902197 -0.07243103
000080 de 65 e6 3d e6 da e9 bd a8 17 c2 3c 80 61 09 3b
       0.112498984 -0.11418705 0.02369292 0.0020962656
000090 20 62 21 bc 1c 74 8b bd a8 f0 fb 3c fc b0 38 3d
       -0.009850055 -0.068092555 0.030754402 0.04509066
0000a0 c0 f0 30 3c c8 48 60 bd c8 94 b5 3d e0 6b 79 3d
       0.010799587 -0.05475691 0.088662684 0.060893893
0000b0 54 a9 28 bd 90 9f 72 bc 90 59 d7 bd 70 fa 62 bc
       -0.04117711 -0.0148085505 -0.105151296 -0.013853654
0000c0 f2 ac 82 bd 18 b8 90 3d 3c ba f7 bd 40 8d 14 bb
       -0.06380643 0.07066363 -0.12096068 -0.00226672
0000d0 90 b9 f3 3c e0 b8 a7 bd 4c 05 38 3d d8 55 90 bd
       0.029751569 -0.08189559 0.044926926 -0.070476234
0000e0 70 4c 84 bd 94 eb fd 3d 68 ba 22 bd aa f3 e5 3d
       -0.06459892 0.123984486 -0.039728552 0.11228116
0000f0 f4 ed ac 3d 04 7a b0 3d 80 de 63 bd dc 18 d9 bd
       0.084438235 0.08617023 -0.055632114 -0.10600445
000100 34 18 66 3d b4 05 b0 bd 60 df 38 bc 4e 64 92 bd
       0.056175426 -0.08594838 -0.0112837255 -0.07148038
000110 88 49 e0 bd a0 b2 f3 3d 64 bb 15 bd 94 24 a0 3d
       -0.10951525 0.118993044 -0.036555663 0.07819477
000120 30 ff 19 3c 60 35 10 3c 6c a2 bb bd f0 23 57 3d
       0.00939922 0.008801788 -0.09161839 0.052524507
000130 e8 0c 38 3d 00 8e ac bb be bd 82 3d 80 56 30 bd
       0.044934183 -0.005265951 0.06383847 -0.043051243
000140 78 e8 10 bd 98 46 7f 3d d0 4e 55 3d e8 13 d9 3c
       -0.03537795 0.062323183 0.052077115 0.02649875
000150 c0 66 63 3c 44 fc 4d 3d 9a 97 cb 3d a8 02 2d bd
       0.013879478 0.050289407 0.09941025 -0.04223886
000160 24 20 e9 bd c2 45 da bd dc 60 8f bd 40 c6 61 3c
       -0.113830835 -0.106578365 -0.07000896 0.013780177
000170 b2 5a d6 3d c6 33 fc 3d a0 4f 46 bc fc d9 60 3d
       0.104665175 0.123145625 -0.012103945 0.054895386
000180 56 ae eb bd 84 b3 07 bd fa cb be 3d aa 75 a5 bd
       -0.11507861 -0.033130184 0.09316249 -0.08079083
000190 d8 69 5a bd 9a 5a d7 bd 78 e5 b3 3d a2 72 aa bd
       -0.053323597 -0.10515328 0.08784002 -0.08322646
0001a0 70 c3 b5 3c 56 ca fc 3d 10 7d c6 3c b0 16 7d bd
       0.022187918 0.1234328 0.024229556 -0.061789215
0001b0 6c a2 a2 3d 38 59 8f 3c 40 77 b0 bd 00 40 25 b9
       0.07941136 0.017498598 -0.08616495 -0.00015759468
0001c0 ac 0e a0 bd b8 3d e1 bd c0 71 f5 3b ce 4c eb bd
       -0.078152984 -0.109981 0.0074903667 -0.11489259
0001d0 f8 56 26 bd 7a 1d fd bd 6c 0c c3 bd 18 95 b0 3c
       -0.040610284 -0.12359138 -0.09523854 0.021555468
0001e0 70 f9 6b 3d 9c 75 d7 bd 9c ea 8f bd 74 04 68 3d
       0.05761093 -0.10520479 -0.0702717 0.05664487
0001f0 28 62 da bd 64 45 75 3d b2 c6 e5 bd 04 9f 31 bd
       -0.10663253 0.05988063 -0.11219539 -0.04336454
000200 f0 1a b3 3c 34 92 64 bd 3e f8 91 bd 70 23 18 bd
       0.02186343 -0.055803493 -0.071274266 -0.03714317
000210 1a 2b dd 3d aa 8d b5 3d f6 58 e3 3d 7c a1 46 bd
       0.107992366 0.08864911 0.11100952 -0.048493847
000220 3c 39 56 3d 44 bb 5c bd 1a 11 a2 3d 94 6d b4 bd
       0.052300677 -0.053889528 0.07913418 -0.08809963
000230 48 20 91 bc 28 dc 5f bd c0 1e c2 bc 3c 5a 9f 3d
       -0.017715588 -0.054653317 -0.023696303 0.07780883
000240 f8 ed bb 3d 30 f9 ee 3d 20 2c 13 bd 88 4a 4d 3d
       0.09176248 0.116686225 -0.035930753 0.050119907
000250 94 32 df 3d 60 7c be bc 8e d2 a0 bd 36 32 eb 3d
       0.10898319 -0.023252666 -0.0785266 0.11484186
000260 18 23 af 3c e8 31 d2 3d 88 75 6f 3d 80 78 ad 3b
       0.021379039 0.10263425 0.058461696 0.0052939057
000270 3c 8a 88 bd 6c 2f 29 3d 22 e1 ff bd 94 b6 1a bd
       -0.06666991 0.04130499 -0.124941126 -0.037771776
000280 38 d1 83 bc d8 d2 6c 3d 8a 01 ea 3d a4 55 11 3d
       -0.016090974 0.057818264 0.11426075 0.035482064
000290 48 3c 70 3d 0c 1f 60 3d 88 ef f8 bd 00 5e 8e 3c
       0.05865124 0.05471711 -0.12155062 0.017378807
0002a0 dc d3 45 3d e0 e8 ca 3c 44 f8 0b bd ce 09 d0 bd
       0.048297748 0.024769247 -0.03417231 -0.1015812
0002b0 38 21 84 3d 20 c7 d8 bd d6 22 9b bd 76 48 fd bd
       0.064516485 -0.10584855 -0.07575004 -0.123673365
0002c0 4a 21 b2 bd 4c 4b ea 3d 6a 39 a2 3d 20 6f 37 3d
       -0.08697756 0.11440143 0.07921107 0.04478371
0002d0 c0 79 b1 3d 1c be a7 bd 30 e0 09 bc 3e 30 ff bd
       0.086658 -0.08190557 -0.008415267 -0.12460373
0002e0 80 5b 5f bb ae 16 83 bd cc 56 b6 bd 2c cd 58 3d
       -0.0034081638 -0.0640081 -0.08903274 0.052930042
0002f0 44 dd 93 3d 00 b6 5e 3d a0 6d e7 3b c0 8e 9e 3b
       0.072199374 0.054372787 0.007062629 0.0048387945
000300 80 64 a4 3d 3c 17 f9 3d 76 98 ea bd c6 b5 8e 3d
       0.08026981 0.12162635 -0.11454861 0.06968264
000310 60 bf 80 3b 74 b6 4b 3d f6 07 9d 3d 66 d4 e0 bd
       0.0039290637 0.049734548 0.07667534 -0.10978012
000320 70 86 7e 3d bc 3c 13 3d 72 8f e8 bd 52 b5 cb bd
       0.06213993 0.035946593 -0.11355485 -0.099466935
000330 62 8f e5 bd b0 58 e6 3d 90 9d 04 3c a8 e5 bb bd
       -0.11208989 0.112473845 0.008094206 -0.09174663
000340 e6 5c ef bd 00 a1 d7 3d be 9e d0 bd 2e 27 82 bd
       -0.11687641 0.10528755 -0.10186528 -0.06355129
000350 80 13 75 bb 30 2f 65 bd be e7 d8 bd 40 00 03 bc
       -0.0037395656 -0.055953205 -0.10591076 -0.007995665
000360 28 1d 37 bd b0 78 eb 3c b0 a1 39 3c 92 f8 90 bd
       -0.04470554 0.028744072 0.011330053 -0.07078661
000370 f0 2d 8e bd 48 4a d0 3d 9e d2 ce bd 20 96 82 3d
       -0.06942356 0.10170418 -0.10098766 0.0637629
000380 ce cf f9 3d c0 09 f5 3b e8 7f 0b 3d 20 6f 52 3c
       0.12197839 0.007477969 0.034057528 0.012843877
000390 30 9f e5 bd d6 ff bc bd ce 07 9c bd 80 b1 62 bd
       -0.11212003 -0.09228484 -0.07618676 -0.05534506
0003a0 50 b8 19 3d c8 e5 e0 bd b2 2f c0 bd da 87 d1 3d
       0.03752929 -0.10981327 -0.09384097 0.1023099
0003b0 d4 e0 63 bd b4 d4 13 3d 50 8b 00 bc 3a 4b e7 bd
       -0.055634335 0.03609152 -0.007845715 -0.11293645
0003c0 60 72 e4 3d 18 9c ae bd 00 b2 63 3a 6a 3b 9a 3d
       0.11154628 -0.08525866 0.0008685887 0.075308636
0003d0 b0 19 c1 bc 00 68 f2 3b 20 69 6d 3c c4 08 23 bd
       -0.023571819 0.0073976517 0.014490396 -0.03980328
0003e0 fc 8f 4e 3d 90 11 bc 3c 40 71 9a bc 72 00 f8 3d
       0.050430283 0.022957593 -0.01885283 0.1210946
0003f0 10 64 2e 3c 30 5e 1e 3c 0c 3a 7a 3d c0 89 b3 3d
       0.010643974 0.009666011 0.061090514 0.08766508

lstm.weight_hh_l0 f4 [256, 64]
000000 3c 8b 3e 3d 38 9d 51 3d fc 81 3b bd 44 e8 6f 3d
       0.046519503 0.051175326 -0.04577826 0.058571115
000010 80 46 ac 3c b0 f4 58 bd e8 5c 7e bd 9e 54 98 3d
       0.02102971 -0.052967727 -0.06210032 0.074380144
000020 a4 9d 39 bd 90 d8 32 3d d2 7d c1 bd 70 75 45 bd
       -0.045316353 0.04366356 -0.094478264 -0.0482077
000030 cc 89 e7 3d 68 ee 5c 3d c8 a5 1c 3d 4c 4b 28 3d
       0.113055795 0.0539383 0.03824404 0.041087434
000040 76 a5 99 bd 00 f9 d3 ba c8 b6 8e bd ce b0 d2 3d
       -0.07502262 -0.001617223 -0.069684565 0.10287629
000050 c6 61 d8 bd 60 96 dc 3b 60 86 b8 3d c4 7e 6d bd
       -0.10565524 0.0067317933 0.09010005 -0.05798222
000060 dc 6a 60 bd 64 17 c6 3d 40 c2 56 3b 60 58 4b bd
       -0.05478941 0.0967243 0.003276959 -0.049644828
000070 94 9f 88 3d e8 0c 6e bd 0c 6e c9 3d 58 f7 8d bd
       0.06671062 -0.058117777 0.09835443 -0.06931943
000080 e8 7a 21 bd 00 aa 11 3a f0 ae 7e 3c c2 91 88 bd
       -0.039423853 0.0005556643 0.015544638 -0.06668426
000090 80 c7 a0 ba 70 9b 48 bc b4 82 33 bd e0 39 8c bd
       -0.0012266487 -0.01224409 -0.04382582 -0.06846976
0000a0 72 5b c2 bd b0 63 fe 3c 80 7f b4 bc 24 f5 4e bd
       -0.09490098 0.031053394 -0.022033453 -0.050526753
0000b0 00 ae dc ba b8 c9 21 3d ce 0b 8f bd ba e8 f2 bd
       -0.0016836524 0.039499015 -0.069846734 -0.11860795
0000c0 be 62 b3 bd 56 59 b4 bd c8 a1 13 3d 32 a2 bc 3d
       -0.08759068 -0.08806102 0.03604296 0.09210624
0000d0 98 0c 52 bd 38 ea b6 bc d4 f3 38 3d 8a cf d8 bd
       -0.05128154 -0.022328481 0.045154408 -0.1058646
0000e0 f0 3e ef bd 9c e0 ef bd 78 b3 c7 bd fc 5d 34 3d
       -0.11681926 -0.11712763 -0.09751028 0.044034943
0000f0 f8 29 d0 bd 72 f8 ac bd 00 f0 d5 3a f0 ff 9f bd
       -0.10164255 -0.08445825 0.0016322136 -0.07812488
000100 40 66 ec 3c cc b8 b4 3d 2c b8 5e 3d e0 99 08 3c
       0.02885735 0.0882431 0.05437486 0.008337468
000110 98 fa 48 bd 5c fc b8 bd ac f8 ce 3d 68 43 33 bd
       -0.04906711 -0.09032509 0.10106024 -0.043765455
000120 a8 0b 6c 3d 16 c5 d4 bd 00 c4 50 bb 10 0c 7f bd
       0.057628304 -0.10389154 -0.0031855106 -0.062267363
000130 90 a3 69 3d 80 90 33 3c f8 33 f9 3c 52 ff ff 3d
       0.05704075 0.010959744 0.030420288 0.1249987
000140 e8 91 59 3d e2 48 f8 3d c0 d7 49 3c f4 8c cb 3d
       0.053117663 0.12123276 0.012319505 0.09938994
000150 c2 cb d7 bd 5a 46 8f 3d 00 7e 7b bd a0 65 4b 3d
       -0.105369106 0.0699584 -0.06139946 0.049657464
000160 f8 9d 30 bd 38 d2 d5 bd 20 10 86 bb 6e 9f 99 3d
       -0.0431194 -0.10440487 -0.0040912777 0.07501112
000170 c0 6e 87 3d c0 49 ab 3c 56 85 d8 3d 52 7f 98 3d
       0.06612921 0.02090919 0.10572307 0.074461594
000180 7c f3 03 3d 1c be bd bd 04 14 21 bd f6 b1 a0 3d
       0.032214627 -0.09264776 -0.03932573 0.07846443
000190 dc b8 2b bd 62 ae a8 bd ec 70 5d bd c0 a6 fb bd
       -0.041924343 -0.08236386 -0.05406277 -0.122876644
0001a0 1a 56 b0 bd fe 9f ad bd 80 1b a0 bc d0 0d d1 bd
       -0.086101726 -0.08477782 -0.019544363 -0.10207713
0001b0 f8 22 f0 3d 96 52 cc 3d 74 f9 35 bd 60 61 3d bd
       0.1172542 0.099766895 -0.04442735 -0.046235442
0001c0 d4 1a 8d 3d 60 03 fa bb 78 85 1c 3d 2c 3b 8d 3d
       0.06889883 -0.007629797 0.038213223 0.06896052
0001d0 b0 dd b5 3c 9e a3 ee 3d 0e 9e c6 bd 26 56 9f bd
       0.022200435 0.11652301 -0.09698115 -0.077801034
0001e0 c2 f9 88 bd cc dd d9 3d 3c 84 7b 3d f4 d6 6d bd
       -0.066882625 0.106380075 0.061405405 -0.058066323
0001f0 30 63 ee bc 9c 1c 20 3d 02 1d d3 3d 7e 61 f5 3d
       -0.02910003 0.039089784 0.10308267 0.11981486
000200 b0 03 3c bc 4e 4e 94 bd e8 92 00 bd a0 c6 3c bd
       -0.011475489 -0.07241498 -0.0313901 -0.04608786
000210 c0 9d 9c bd 76 71 b4 3d 90 aa 37 bc b4 23 28 bd
       -0.07647276 0.088107035 -0.011210099 -0.041049674
000220 6c 30 13 bd 8c 93 97 3d 10 3d 97 3d 24 db 68 bd
       -0.03593485 0.07401189 0.073846936 -0.056849614
000230 16 3a ec bd 28 2a 7b bd 2c 9a 73 3d 7c 1d bb bd
       -0.115345165 -0.0613195 0.0594732 -0.09136483
000240 84 34 ba 3d b8 e4 73 3d 0c d5 cd bd 18 ef fe bd
       0.09092048 0.059544295 -0.10050401 -0.12447947
000250 4c f1 9b bd ec 1f 69 bd 4c 7c fe bd ec 17 77 bd
       -0.07614383 -0.05691521 -0.124260515 -0.060325548
000260 d4 f3 8e bd 3e 1f 81 bd 48 9e 99 bc 8c 04 b1 bd
       -0.069801 -0.06304787 -0.018752232 -0.086434454
000270 80 3e 93 3a 56 33 9a bd ce d8 ba bd a8 b3 2d bd
       0.0011233836 -0.07529323 -0.091233835 -0.04240766
000280 76 10 86 bd c4 13 fa bd e4 df fd 3d 50 1d d8 bd
       -0.065461084 -0.12210801 0.123962194 -0.10552466
000290 cc c4 36 bd 62 9b e5 3d 68 5d a1 bd d0 b4 cd bc
       -0.044621274 0.112112775 -0.07879144 -0.025110632
0002a0 b4 1a 87 3d b4 33 dd 3d 10 d2 ae 3d 00 50 28 3c
       0.0659689 0.10800877 0.0853616 0.01027298
0002b0 f4 44 0f 3d 48 a2 ce 3d b0 cf 88 3c 00 d2 3f 3c
       0.03497787 0.100895464 0.016700596 0.011707783
0002c0 30 6c 11 bc 28 e5 d3 3d b8 3e 51 3d 10 6a f6 3d
       -0.008875892 0.103464425 0.051085204 0.120319486
0002d0 22 c6 cd 3d 2c 78 e6 3d 40 92 15 bd f8 b5 69 bd
       0.100475565 0.1125339 -0.036516428 -0.057058305
0002e0 90 23 ec bc 9a 87 d5 3d 48 2a 8d 3d a4 00 59 3d
       -0.028825551 0.104262546 0.0689283 0.052979127
0002f0 32 ca df 3d 5c 29 23 bd 32 7f 9c bd e0 7e 11 bc
       0.109272376 -0.039834365 -0.07641448 -0.008880347
000300 00 85 e4 3d e6 d8 88 bd 2c db 25 3d 82 de 9b bd
       0.1115818 -0.06681995 0.04049222 -0.07610799
000310 ce 1f d4 3d 76 7a 93 3d d0 1c 0b 3d 6c e6 3d 3d
       0.10357629 0.07201092 0.033963025 0.046362326
000320 14 94 fe 3d 30 69 37 3d 5e e6 88 3d fa b7 83 3d
       0.124305874 0.04477805 0.06684564 0.06431575
000330 a0 29 52 3d b4 53 a7 bd a8 a2 97 3d e4 d7 d4 bd
       0.051309228 -0.08170262 0.07404071 -0.1039274
000340 48 1c e4 3c 7a 11 94 3d 94 8f 39 bd 40 c3 92 3d
       0.027845517 0.07229896 -0.045302942 0.07166147
000350 04 ee 14 3d d4 66 63 bd ea 63 d6 bd f0 3e ac 3d
       0.036359802 -0.055517986 -0.10468276 0.08410442
000360 04 87 1f 3d 96 6f ae 3d aa 7d b8 bd 28 43 6c 3d
       0.03894712 0.08517377 -0.090083435 0.057681233
000370 06 ab fe 3d 24 7a 63 3d 60 e6 12 3d c4 43 6c 3d
       0.12434964 0.055536404 0.035864234 0.057681814
000380 70 13 b2 3c de 80 bc 3d 88 e6 db 3d 52 3c 84 3d
       0.021737784 0.09204267 0.1073733 0.06456818
000390 4e 81 e4 bd 60 0d 0c 3c b6 f6 a4 bd 52 3b e4 bd
       -0.111574754 0.008548111 -0.08054869 -0.11144127
0003a0 c4 b9 b3 bd f6 29 d8 3d f8 60 41 3d a0 4b 52 bd
       -0.08775666 0.105548784 0.047211617 -0.051341653
0003b0 ea 1b 99 3d 40 22 ca 3b 20 a7 3a bd ec 9a f9 bd
       0.07476027 0.0061686337 -0.04556954 -0.12187752
0003c0 5a 89 ad bd a0 d8 0a bd 68 cc 6b 3d 20 46 bb 3c
       -0.08473463 -0.033897996 0.057567984 0.022860587
0003d0 80 11 58 bd 88 a5 26 bd 78 76 9a bd 38 4d ef 3d
       -0.052751064 -0.040685207 -0.07542127 0.1168465
0003e0 6c e5 d3 bd 34 b7 bb bd c0 00 8f 3d 30 65 14 bd
       -0.10346493 -0.091658026 0.06982565 -0.036229312
0003f0 04 1b 7f bd 30 c5 13 bc ec ed 5b bd c4 8a a4 bd
       -0.062281623 -0.009019181 -0.053693697 -0.0803428

lstm.bias_ih_l0 f4 [256]
000000 3a ed 8c 3d 1e ec 95 3d 60 6b 84 bd 70 24 65 bc
       0.06881185 0.073204264 -0.06465793 -0.013985738
000010 d0 93 83 3c e6 de fe bd 60 27 c6 bc 4e b7 ff bd
       0.016061693 -0.12444858 -0.024188697 -0.124861345
000020 00 b3 1b 3a 28 db e5 3d 46 b5 87 3d 8e 81 b8 3d
       0.0005939454 0.11223441 0.06626372 0.090090856
000030 28 15 e2 3c 00 50 6a 39 40 6f ac bd 30 69 1f bd
       0.027597979 0.00022345781 -0.08419657 -0.038918674
000040 2c 76 a2 bd 88 25 af 3d 92 9e a8 bd f0 50 a5 bd
       -0.07932696 0.085520804 -0.0823337 -0.08072078
000050 f0 d8 cd 3d f6 09 d0 bd 44 5a 55 bd fc 3e 80 3d
       0.10051143 -0.1015815 -0.052088037 0.06262013
000060 b4 72 76 3d 38 5e 3c bd 20 a4 2e bc f4 07 9c 3d
       0.060167983 -0.04598829 -0.010659248 0.076187044
000070 28 57 c5 3c 82 96 cd bd 50 c5 5d bc 86 81 8d 3d
       0.02408941 -0.10038473 -0.0135358125 0.0690947
000080 54 fb 88 3d 98 b4 a9 3d b2 36 92 bd b8 cc 81 3c
       0.06688562 0.08286399 -0.071393386 0.015844688
000090 24 40 57 3d a4 fc 3c 3d f0 13 a3 bc 5c bd cb 3d
       0.052551404 0.046139374 -0.019906968 0.09948227
0000a0 08 ef 90 bd b0 82 6d bc b4 6e 0e bd a0 b4 a4 bb
       -0.070768416 -0.01449649 -0.034773543 -0.005026415
0000b0 30 39 d8 bc 4e ab bc bd f8 73 ac 3d b4 b7 59 bd
       -0.026394457 -0.09212361 0.08420557 -0.05315371
0000c0 00 f1 0b bc c8 0a 36 bd 52 1f fc 3d 74 a1 1b bd
       -0.008541346 -0.044443876 0.123106614 -0.03799577
0000d0 e0 e5 7a 3c 88 99 8c 3d 2a e3 89 3d 8c 11 3b 3d
       0.0153135955 0.06865221 0.06732781 0.04567103
0000e0 70 3b fc 3c a0 3c 59 3d 60 0f 83 3b c0 4d 31 3b
       0.03079006 0.053036332 0.0039996356 0.00270544
0000f0 c8 c3 d7 bc 40 68 46 bc 5c 28 00 bd 60 20 69 bd
       -0.026338473 -0.012109816 -0.03128849 -0.05691564
000100 38 a3 1b bd 88 6c a6 3d 78 35 3a bd 38 da 8c bc
       -0.037997454 0.081261694 -0.045461148 -0.017193899
000110 c0 7a ef bc c0 ff 18 3b 90 83 cd bd 14 8d 92 3d
       -0.029233336 0.0023345798 -0.10034859 0.07155815
000120 68 99 5b bd 68 75 ad 3c 28 ae ca 3d f6 68 a9 3d
       -0.053613096 0.021174148 0.09896499 0.08271973
000130 60 0c 56 bd c8 55 d5 3c 80 b2 c8 bb ea ef 8d bd
       -0.052257895 0.02604188 -0.0061247945 -0.069305256
000140 c4 e7 84 3d ac 4a 9f 3d 6a 55 ab bd 98 14 93 3c
       0.06489518 0.077779144 -0.08365901 0.017954156
000150 20 31 83 bb 14 3a 08 3d d8 9c c4 3d 84 d0 db bd
       -0.004003659 0.033258513 0.09600228 -0.107331306
000160 00 7c a1 3a 20 90 af bb 90 8f e1 3d 70 70 33 3d
       0.001232028 -0.005357757 0.110137105 0.0438084
000170 58 a8 94 3c 90 4c dc 3d 90 5c 3b bd c0 88 b1 3d
       0.018146679 0.10756791 -0.04574257 0.08668661
000180 56 03 c0 3d 80 9f ba 3b 10 c7 cc bc a4 54 de 3d
       0.09375636 0.0056952834 -0.024997264 0.10855988
000190 a8 1e 2e bd 90 1f c4 3c e0 00 14 bc c8 b2 80 3c
       -0.042509705 0.023940831 -0.009033412 0.01571025
0001a0 e0 19 00 3c fc c8 74 bd b8 40 02 bd dc 16 ef bd
       0.007818669 -0.059761986 -0.0318 -0.11674282
0001b0 72 7a d9 bd 10 27 e6 3c cc cd 61 bd e8 98 8e bd
       -0.10619058 0.028094798 -0.055127904 -0.06962758
0001c0 08 d5 a0 bc 8c 3c 34 3d d4 77 33 bd a0 64 33 bd
       -0.019632831 0.044003054 -0.04381545 -0.043797135
0001d0 b0 56 13 3c b4 7c a1 bd a0 4d 97 bd 40 1d 06 bc
       0.008992836 -0.07885113 -0.07387853 -0.008185685
0001e0 94 c2 86 3d 00 3e 20 ba e4 f6 36 3d 40 06 4e 3c
       0.065800816 -0.00061127543 0.044669047 0.012574732
0001f0 80 7d d3 3d 72 73 ef 3d 18 ef cc 3c c4 47 17 bd
       0.103266716 0.11691941 0.025016353 -0.036933675
000200 a8 ca e6 bd 60 ea 44 bd 4e 56 a8 bd 0c 78 6e bd
       -0.11269122 -0.04807508 -0.08219586 -0.058219954
000210 7a c0 f4 3d e4 e8 9b 3d 0e d8 da 3d 5a 2d f8 bd
       0.119507745 0.0761278 0.106857404 -0.12118025
000220 7a 83 8a 3d d6 02 90 3d 00 68 58 ba b0 8f 92 bc
       0.067633584 0.07031791 -0.00082552433 -0.017890781
000230 94 e9 c2 bd 9e 46 cb bd 44 e1 0b 3d 00 cb 56 3a
       -0.09517208 -0.099255785 0.034150377 0.00081937015
000240 8a 0a ca bd d2 48 b8 bd d0 32 14 3d 48 0c e4 3d
       -0.098652914 -0.08998264 0.03618127 0.11135155
000250 bc 26 10 3d ec 84 86 bd d8 44 dc 3d 34 17 01 3d
       0.03519319 -0.065683216 0.107553184 0.03151627
000260 e0 9a b7 3c 24 5c dc 3d 70 de 27 bd d8 42 d9 3c
       0.022412717 0.10759762 -0.040983617 0.026521131
000270 ea de 9d bd 20 6b b7 3d 48 a0 e6 3c b8 c7 12 3d
       -0.07708533 0.08955979 0.0281526 0.035834998
000280 90 d1 24 bd b6 9a b3 bd 54 5c a4 3d c4 0b 2b 3d
       -0.040238917 -0.08769743 0.08025423 0.041759267
000290 a0 27 52 3c 58 8b 87 3d b4 5b 3c 3d 4a af c0 3d
       0.01282683 0.066183746 0.045985892 0.09408434
0002a0 ba ab 83 3d 16 79 e9 3d 22 69 b3 bd 32 1b f9 3d
       0.064292386 0.114000484 -0.08760287 0.1216339
0002b0 30 0b d9 3d 72 f7 d1 3d 56 c0 d7 bd 84 e5 49 3d
       0.10597837 0.102522746 -0.10534732 0.04929115
0002c0 80 be d0 ba 00 b4 2a 3b a6 6d f7 bd 64 cb 65 bd
       -0.0015925914 0.002604723 -0.12081461 -0.05610217
0002d0 5e b7 98 3d 30 6b f5 3d 40 f9 a7 3b fe 1e a7 bd
       0.074568495 0.11983335 0.0051261485 -0.08160208
0002e0 80 4b 9b 3b 2e 6c c2 bd 10 5a 48 bc 9c c5 2a 3d
       0.004739225 -0.0949329 -0.012228504 0.04169236
0002f0 a6 9e e5 3d 9e b6 99 bd f0 70 be 3c e0 5d 26 bc
       0.112119004 -0.075055346 0.023247212 -0.0101542175
000300 78 bb e2 3d c0 6a bf 3b 58 71 8a 3d dc b0 1e bd
       0.11070913 0.005841583 0.067599 -0.038742885
000310 ac 06 b6 bd fc ef f7 3d 70 68 13 3d 70 1d e6 bd
       -0.08887991 0.1210632 0.03598827 -0.112360835
000320 a0 42 d3 3c 70 82 0a 3d 4a 97 e2 bd e0 93 96 bb
       0.025788605 0.0338158 -0.11064012 -0.004595265
000330 30 5b 99 3d 40 1a b1 bb 10 9c 03 3d 26 e4 af 3d
       0.07488096 -0.0054047406 0.032131255 0.08588438
000340 72 77 bf bd 80 e3 95 bc f4 7e 74 bd c0 cb d0 3d
       -0.09348954 -0.018296957 -0.059691384 0.10195112
000350 58 cf d3 bc 18 39 35 bd 70 e7 af bd fa ce c0 bd
       -0.025855705 -0.044243902 -0.08589065 -0.09414478
000360 7e 9a a7 3d c0 e7 d2 3d 78 0e 7c 3d 4c 38 a1 3d
       0.08183764 0.10298109 0.061537236 0.07872066
000370 f0 85 c8 bd 2e 48 c5 bd b0 14 04 bc 8c 5b 90 bd
       -0.097911716 -0.09632908 -0.008061573 -0.07048711
000380 ec 97 2a bd 20 cf 8d 3d 38 55 f1 bd 00 80 fb 39
       -0.04164879 0.069242716 -0.11783832 0.00047969818
000390 f8 b6 a1 bc 98 80 e5 bc 34 0a 58 3d 5c a2 ca bd
       -0.019740567 -0.02801542 0.052744105 -0.09894249
0003a0 54 0d 42 3d 6c a0 17 3d 30 3b 23 3c c0 a4 ad bb
       0.047375992 0.037018225 0.009962842 -0.0052991807
0003b0 64 94 bd 3d 48 98 cf bc ac 16 b7 3d 08 da 2f bd
       0.09256819 -0.025341168 0.08939871 -0.04293254
0003c0 5e 5a e2 bd cc ba 8a bd 60 a8 4b bd 6c 9e 2d 3d
       -0.110523924 -0.0677391 -0.04972112 0.04238741
0003d0 ac 67 27 3d 46 a8 8c bd 78 10 21 bd 94 16 fb 3d
       0.040870354 -0.06868033 -0.039322346 0.12260166
0003e0 50 f1 bf 3d 4e 2d 8f 3d 96 3c b9 3d 00 6b cb bc
       0.093721986 0.06991063 0.09044759 -0.024831295
0003f0 58 77 cb bd 32 1e e1 bd 02 d6 ed bd 60 6a 5e bc
       -0.099348724 -0.109920874 -0.116130844 -0.013575166

lstm.bias_hh_l0 f4 [256]
000000 c0 75 b7 bd 70 e3 15 bd 24 98 ed 3d 02 ad 92 3d
       -0.08958006 -0.036593854 0.11601284 0.07161905
000010 6a ed d7 3d 50 66 e4 bc cc 32 77 3d 98 c2 9a bd
       0.1054333 -0.027880818 0.060351178 -0.07556647
000020 7c 32 ee bd 10 52 3c 3d b8 69 96 3c 28 41 e2 3c
       -0.11630723 0.0459767 0.018360958 0.02761896
000030 80 44 cf 3a d8 41 86 3c 18 f7 ec bd c8 94 3e 3d
       0.0015813261 0.016388819 -0.11570567 0.046528608
000040 2e 55 f0 3d f0 6e 69 bc cc b3 4f 3d b4 19 a8 bd
       0.11734997 -0.014247641 0.050708577 -0.082080275
000050 48 19 bb bc 60 67 44 3d 44 37 a5 bd 4c 4a 28 bd
       -0.022839203 0.04795015 -0.08067182 -0.04108648
000060 44 a8 34 bd 70 5d 41 bc 06 f2 e1 bd dc 69 01 bd
       -0.044105783 -0.011802062 -0.110324904 -0.031595096
000070 9c e1 18 bd e8 28 d4 bc 00 4f 41 3a 80 9c 58 bc
       -0.037324533 -0.025898412 0.00073741376 -0.013220906
000080 90 e1 c2 3d 5c d9 d5 3d 96 05 9a 3d 9e 46 e0 bd
       0.09515679 0.10441849 0.07520597 -0.10950969
000090 bc 39 b2 bd e0 b6 ef bb b0 36 5f 3c ee ce ea bd
       -0.08702418 -0.0073155016 0.013623878 -0.1146525
0000a0 a0 da e4 bc d0 20 15 bd d2 2c 97 bd e8 3f b0 bd
       -0.02793628 -0.036408246 -0.07381596 -0.08605939
0000b0 2c 2b e2 bd e0 7c ad bb 30 31 16 bc e8 dc 2b 3d
       -0.11043391 -0.0052944273 -0.009167001 0.04195872
0000c0 1e d6 a9 3d 60 2e 8c 3c dc e3 d9 3d c0 f5 e7 bb
       0.08292793 0.017111957 0.10639164 -0.007078856
0000d0 10 ff 53 3c 48 4e ea bd 82 ef fe 3d 96 41 f9 3d
       0.01293923 -0.11440712 0.12448026 0.12170713
0000e0 40 a2 6a bc 40 c7 b0 bb 88 cd 0a bd 9c 19 e2 3d
       -0.01432091 -0.005394846 -0.033887416 0.11040041
0000f0 98 b5 f4 3d a2 57 d6 bd 3c 63 3d 3d 64 c2 53 bd
       0.11948699 -0.104659334 0.046237215 -0.051699057
000100 62 e4 9a bd d4 72 b2 3d d8 cb 8a 3d 1a 0f ec 3d
       -0.07563092 0.08713308 0.06777161 0.11526318
000110 20 4a 98 bb be 7e b9 3d 62 e1 9f 3d 98 a2 20 bd
       -0.0046475083 0.09057377 0.0780666 -0.03921756
000120 f8 84 e7 bd fe 15 84 3d 42 24 ec 3d fe 9d a5 3d
       -0.11304659 0.06449507 0.11530353 0.08086775
000130 ec 5e 0a bd 68 3b 9e 3c ec 9e 9f bd 40 c0 0a bc
       -0.03378193 0.019315436 -0.07793984 -0.0084686875
000140 c6 17 f0 bd dc c0 c3 3d 80 01 f3 bc c0 89 42 3c
       -0.117232844 0.095582694 -0.029663801 0.0118736625
000150 1c a0 06 3d 94 e6 10 bd c8 a1 d9 3c 40 33 9a bc
       0.032867536 -0.035376146 0.026566401 -0.018823266
000160 ac 44 d7 3d 4c 22 2e 3d dc 5c 0e 3d ac 0b 8c bd
       0.10511145 0.042513177 0.034756526 -0.06838164
000170 12 b4 df bd 5c 2b 82 bd 36 f5 b9 3d 58 e3 fa bc
       -0.109230176 -0.063559264 0.090799734 -0.030625984
000180 e0 24 48 bc 60 99 ce 3c 88 5e cd bd de b5 f9 bd
       -0.012215823 0.02521962 -0.10027796 -0.121928915
000190 b4 bc 2d bd e8 eb 30 3d 66 cd df 3d c4 c3 c7 bd
       -0.04241629 0.043193728 0.109278485 -0.09754136
0001a0 10 28 29 3d 28 e4 b9 3d 74 82 da 3d 7c af ae bd
       0.041297972 0.090767205 0.10669413 -0.08529565
0001b0 94 82 df 3d 2c 95 5c bd cc f9 86 bd 9c 8b cb 3d
       0.10913578 -0.0538532 -0.06590614 0.09938738
0001c0 fa ce e6 bd 24 2d 40 3d bc 1c 49 bd c0 53 8e 3c
       -0.112699464 0.04691805 -0.04909967 0.01737392
0001d0 44 b0 3b 3d e0 e1 e1 3d 00 41 67 3d c4 e5 44 3d
       0.045822397 0.1102941 0.056458473 0.048070684
0001e0 b4 78 fa 3d 80 8d c3 bb a2 a0 ed bd 3c 18 b7 3d
       0.122300535 -0.005967796 -0.11602904 0.08940169
0001f0 dc 62 6d 3d ac 2d 76 bd 24 a5 a8 bd a0 7c 0b bc
       0.057955608 -0.06010215 -0.08234623 -0.0085136
000200 20 4a 42 bd 6e 0e a7 3d 02 8e be 3d 54 75 f5 bd
       -0.047433972 0.08157049 0.093044296 -0.11985269
000210 a4 4c f3 3d 48 f1 c7 bd 84 ea dd bd 2a 09 a6 3d
       0.118798524 -0.097628176 -0.10835746 0.08107217
000220 6c 4c 70 bd e0 1f 4c 3d c0 c6 ec bb f0 2c 66 bc
       -0.05866663 0.049835086 -0.0072258413 -0.0140488
000230 10 44 ac bd 4c 7d 5c bd 60 89 8c bc 5a b6 e1 bd
       -0.084114194 -0.05383043 -0.01715535 -0.11021109
000240 66 d7 e3 bd 5c ac 97 3d 30 cb 43 3c 06 01 ec 3d
       -0.11125068 0.07405922 0.011950299 0.11523633
000250 84 49 ed 3d e0 0a 3d bd 34 ba ce 3d 58 20 e6 bc
       0.115862876 -0.04615295 0.10094109 -0.028091595
000260 20 cc 48 3c d4 f7 84 3d 04 1b d8 bd 28 33 85 3c
       0.012255698 0.06492582 -0.10552028 0.016259745
000270 40 1e 05 3d a6 45 be bd 00 ba f4 39 50 63 90 bc
       0.03249955 -0.09290628 0.00046677887 -0.01762548
000280 e0 61 34 bd 98 72 2b bd 56 5a 85 3d c0 eb ec bc
       -0.044038653 -0.041857332 0.06511371 -0.028921008
000290 24 32 50 3d b6 6d 88 bd 5c 7c 84 3d 70 47 ec 3c
       0.050829068 -0.06661551 0.06469032 0.028842658
0002a0 80 0d 39 bd 9e ae d6 bd c0 32 ef 3c ac 01 76 3d
       -0.04517889 -0.10482524 0.029199004 0.06006019
0002b0 c0 1e 20 3b 56 ef 96 3d 80 41 cd bd 40 32 dd 3d
       0.002443239 0.073698685 -0.10022259 0.108006
0002c0 80 21 81 3c 34 58 65 3d 6c f4 0a bd 10 31 1e bd
       0.015763044 0.05599232 -0.033924505 -0.03862101
0002d0 20 27 d3 bd 4c dd 51 bd 60 42 e1 3d 00 e7 fb 3a
       -0.10310197 -0.051236436 0.10998988 0.0019218624
0002e0 5c f6 e1 3d 16 ff bf bd 26 ba f5 3d 98 85 90 3d
       0.110333174 -0.09374826 0.119983956 0.07056731
0002f0 c0 1d 88 3c 30 6c 47 bd 24 3f b8 bd c6 42 db 3d
       0.016615748 -0.04868716 -0.08996418 0.107060954
000300 10 2b 56 3d 70 26 a4 3d 48 ac 3a bd 88 bb 95 3d
       0.05228716 0.08015144 -0.045574456 0.07311159
000310 24 4e eb 3d 74 16 bd 3d 60 ab a4 3d 30 38 e0 3c
       0.114895135 0.09232798 0.080405 0.027370542
000320 28 73 c3 bd f4 a4 07 bd 38 03 af 3d 42 07 92 bd
       -0.09543449 -0.033116296 0.08545536 -0.071302906
000330 4c 7c 03 3d 00 bd 2c 3a 1c 96 a2 bd 14 09 f5 3d
       0.03210096 0.00065894425 -0.07938787 0.11964622
000340 30 c9 99 bd f8 39 d3 3c a0 21 70 3d 80 e2 2b 3d
       -0.075090766 0.025784478 0.058625817 0.041964054
000350 92 06 f7 3d 4c 35 a2 bd 08 22 1a bd 24 14 c6 3d
       0.120618 -0.07920322 -0.03763011 0.0967181
000360 80 f4 b2 bb 90 39 71 bd 48 fe 90 3c 12 bc 9f 3d
       -0.0054612756 -0.058892787 0.017699376 0.077995434
000370 4c ba 2d bd 30 27 9d bc c0 64 85 3d 2c fb e8 3d
       -0.042413995 -0.019183725 0.06513357 0.11376032
000380 80 31 90 bd 52 e6 94 bd ec 0e 13 3d 16 ca d5 3d
       -0.070406914 -0.072704926 0.035902902 0.104389355
000390 6c a2 4a bd 18 06 c9 bd 30 36 c7 3d 66 d8 ca 3d
       -0.049471304 -0.098156154 0.09727132 0.09904556
0003a0 54 fd d0 bd b4 b8 98 bd 7c 24 81 bd e0 15 33 bd
       -0.102045685 -0.07457104 -0.06305787 -0.043722034
0003b0 a0 3f 77 3d 3c de 2a bd 3a bb a5 bd 36 5f dc 3d
       0.060363412 -0.041715845 -0.08092351 0.107603475
0003c0 56 48 ff 3d 28 26 80 3d 0e 80 f7 3d c8 22 4e bd
       0.12464969 0.06257278 0.12084971 -0.05032614
0003d0 7e 1f d6 3d 40 55 2e 3c 90 dd 60 bd 44 27 8c bd
       0.104552254 0.010640442 -0.0548988 -0.06843427
0003e0 f8 81 ff bc 20 e0 e0 3d 5c 85 4c 3d d4 10 67 bd
       -0.031189904 0.109802485 0.04993187 -0.056412533
0003f0 c8 85 fd 3d a8 a1 26 3d ec 2e 5c bd 78 21 d9 bd
       0.123790324 0.04068151 -0.053755686 -0.10602087

lstm.weight_ih_l0_reverse f4 [256, 4]
000000 00 68 8d bc f4 2b 7a 3d b4 21 ed 3d 4c bc 4a 3d
       -0.017261505 0.061077073 0.11578694 0.04949598
000010 74 4a 94 3d 90 c0 06 bd e4 04 a1 3d 58 d3 b2 bc
       0.07240763 -0.032898486 0.07862261 -0.021829292
000020 a0 e5 47 3c 90 88 35 bc d0 66 01 bd 30 c7 b7 bd
       0.012200743 -0.011079922 -0.03159219 -0.08973539
000030 ea a4 93 3d fc 13 00 bd ce 3f 9f 3d a0 21 a8 3d
       0.07209189 -0.03126906 0.07775842 0.082095385
000040 74 98 09 bd 00 be d2 3a 60 26 57 3d 0a 6f ab bd
       -0.033592656 0.0016078353 0.05252683 -0.083707884
000050 d4 ba 85 3d 30 1b af 3c 68 b7 c2 3d 00 7a 24 bd
       0.06529775 0.021375269 0.09507638 -0.04015541
000060 20 90 f4 bb 8a 9a ed 3d 30 43 aa 3d b8 34 cb 3c
       -0.00746347 0.116017416 0.08313596 0.024805412
000070 c8 83 f3 bc 46 a4 f0 3d 68 46 c2 bc d0 c0 e7 bc
       -0.029725924 0.11750083 -0.023715213 -0.028290182
000080 dc fd ba bd 5c b5 4b bd 00 99 d5 bc e8 61 8f bc
       -0.09130451 -0.049733505 -0.026073933 -0.01750274
000090 6e b6 bb 3d 54 d3 3a 3d 90 4d 54 3c e8 19 1f bd
       0.09165655 0.045611694 0.0129579455 -0.038843066
0000a0 80 16 e0 3d 8a 10 8d bd 78 f7 cd bc 74 91 ef 3d
       0.109417915 -0.0688792 -0.025142416 0.11697665
0000b0 6c 14 fd bd de 03 87 bd c2 bd 91 bd 8c e1 22 bd
       -0.12357411 -0.065925345 -0.071162716 -0.03976588
0000c0 a0 f8 77 bd 84 77 0c 3d 5c 9d 84 3d aa b6 f5 3d
       -0.06053984 0.034293666 0.064753264 0.11997731
0000d0 68 f8 d4 bc 30 e9 e3 bd 68 be c4 bc 74 2d b4 3d
       -0.025997356 -0.11128461 -0.024016574 0.08797732
0000e0 b8 9d fe 3c 50 a7 fd 3c 8a dd 9c bd 82 81 91 3d
       0.031081066 0.03096357 -0.07659443 0.0710478
0000f0 10 da 55 3d e8 b3 d8 3c 30 5e 9e 3c 68 9e 81 3c
       0.052209914 0.026452973 0.019332021 0.015822604
000100 40 e9 2a 3c 68 32 da bc 90 2c aa 3d 40 29 d1 bc
       0.010431588 -0.026635364 0.08309281 -0.025532365
000110 9c 05 60 3d 90 db 00 bc a8 c2 b9 3c 90 b4 68 bd
       0.05469285 -0.007864848 0.022675827 -0.056812823
000120 c0 c5 5e bb e8 b7 12 3d 14 bd fa 3d 1a d2 ca bd
       -0.003399238 0.035819918 0.12243095 -0.09903355
000130 00 64 ef bb c8 05 f1 3d 0c 70 98 bd dc b7 01 3d
       -0.007305622 0.11768681 -0.07443246 0.031669483
000140 b0 ed dd bd 36 3d 96 3d d8 d8 ae 3c 08 72 ac 3c
       -0.10836351 0.07335894 0.021343634 0.021050468
000150 48 04 cf bd 80 ca ee 3a d2 e2 be 3d 4c 68 5a 3d
       -0.101082385 0.0018218309 0.09320606 0.05332212
000160 50 b5 db bd c0 32 3b bc 36 c2 88 bd 80 af a0 3b
       -0.10727942 -0.011425674 -0.06677668 0.0049037337
000170 34 32 79 bd 28 9a e0 3d 6c 26 6f bd 80 a2 42 bd
       -0.060838893 0.10966903 -0.05838625 -0.047518253
000180 d8 59 f8 3d 78 74 85 3d 0e ce f8 bd 40 63 88 bd
       0.12126511 0.06516355 -0.12148677 -0.066595554
000190 0c 48 f7 3d a0 9a cb bb 1c ed 0a 3d f0 97 95 bc
       0.12074289 -0.006213501 0.03391753 -0.018260926
0001a0 74 02 4a bd fc 1e fb bd 32 ef 8d bd 88 1d 79 bd
       -0.049318746 -0.12261769 -0.069303885 -0.06081918
0001b0 92 be c8 3d 84 3a 7d bd 00 51 fd 3a 38 60 c7 3d
       0.098019734 -0.061823383 0.0019326508 0.09735149
0001c0 30 c8 0e 3c 6e 5e fb bd 22 22 d9 bd 20 e1 de 3b
       0.008714721 -0.122738704 -0.106022134 0.0068017393
0001d0 f0 f8 02 bd 1a 03 99 bd c0 dc bf bc 94 44 e5 3d
       -0.031975687 -0.07471295 -0.023420691 0.11194721
0001e0 3c 50 ac bd b8 fe 6b bd 46 2a bd bd 74 1c ca bd
       -0.08413741 -0.057615966 -0.09236579 -0.09868708
0001f0 e6 ff da bd b8 7c 9a 3d cc 47 3b bd b4 91 4f 3d
       -0.1069334 0.075433195 -0.045722768 0.050676063
000200 04 11 b1 3d ac 1d 0b 3d a4 40 a6 bd 5c b6 88 bd
       0.086458236 0.033963844 -0.08117798 -0.06675407
000210 50 ee cb bc 40 8b 3c bb 6c 73 5b bd 32 17 a5 bd
       -0.02489391 -0.0028769523 -0.05357687 -0.08061065
000220 f0 4d bb bc f6 11 e1 bd 58 50 e8 bc 04 0b bb 3d
       -0.022864312 -0.10989754 -0.028358623 0.091329604
000230 94 e3 50 3d 50 91 9c bc 70 95 75 3c 44 ed 64 3d
       0.050998285 -0.01911226 0.014989242 0.055890337
000240 f0 b8 91 bd 9e 9f ab 3d 40 e3 54 bd 28 6d 78 bd
       -0.07115352 0.08380054 -0.051974535 -0.060650975
000250 ea d0 fd bd 86 e5 e9 3d 40 3c 26 bc e2 25 a3 bd
       -0.12393363 0.11420731 -0.010146201 -0.0796621
000260 da aa fd 3d 62 40 b0 3d 76 a7 b0 bd 12 b6 91 bd
       0.12386103 0.0860603 -0.08625691 -0.07114805
000270 c0 4b 98 3c 14 09 4f 3d 16 ea a9 3d 60 e7 cd 3c
       0.018590808 0.050545767 0.082966015 0.025134742
000280 20 48 f5 3c 70 e2 60 3c 90 06 42 bc e0 96 aa bc
       0.029941618 0.013725862 -0.011842385 -0.020823896
000290 ce c2 c8 bd b0 01 ff bd a8 64 fc 3c 72 89 9b bd
       -0.09802781 -0.12451494 0.030809715 -0.07594575
0002a0 00 7a 72 3d 3c bc b8 3d 00 d4 e6 39 10 98 a2 bc
       0.05919838 0.09020278 0.0004402697 -0.0198479
0002b0 72 ab a0 3d 64 41 75 3d 50 55 90 3c 38 69 da bd
       0.078452006 0.059876814 0.017618805 -0.106646
0002c0 38 9f 0b bd 30 50 1a bd 64 70 eb bd de 30 93 bd
       -0.03408739 -0.03767413 -0.11496046 -0.07187055
0002d0 5a ef 98 bd a8 ff bd bc d0 a2 48 bd 76 27 ff 3d
       -0.07467528 -0.023193195 -0.048983395 0.124586985
0002e0 0c 44 98 3d 0c 8c de bd 70 b2 02 bc 9e f8 c6 bd
       0.07434854 -0.108665556 -0.007977113 -0.09715389
0002f0 84 c4 27 bd d0 99 84 bc c0 10 c1 bc 8e a9 fc 3d
       -0.040958896 -0.016186625 -0.023567557 0.123370275
000300 5e 4c ee bd 20 8f ba bb 00 96 c3 bc 9a 8d e4 bd
       -0.1163566 -0.0056933314 -0.023875237 -0.11159821
000310 26 9d b0 3d c0 b5 71 bc 70 74 06 3c 44 a4 dc bd
       0.08623724 -0.014752805 0.008206472 -0.10773519
000320 ac f5 11 3d f8 03 b6 3c 90 c4 83 3d 66 e1 fb bd
       0.03563468 0.02221869 0.06433976 -0.12298851
000330 a8 89 c7 3c a4 65 c4 bd ce bf 80 3d 30 24 cc bd
       0.024357632 -0.09589699 0.06286584 -0.0996784
000340 ac 0a b5 bd bc b5 ae 3d 00 ea d2 3a 90 00 ee 3c
       -0.08839926 0.08530757 0.0016091466 0.029053003
000350 ac ac d9 bd c0 54 39 3c 14 7b 72 3d 5e 92 e4 bd
       -0.10628638 0.01131171 0.059199408 -0.1116073
000360 1a b1 db bd 6e b5 8d 3d e0 0a 9e 3c e0 6a 8d 3c
       -0.10727139 0.069193706 0.019292295 0.017262876
000370 6e 09 8a bd e8 99 7f 3d d6 ea 8b bd f8 b2 ec bc
       -0.0674008 0.062402636 -0.06831901 -0.028893933
000380 00 85 2a ba 8e 1c f3 bd 50 f7 b2 3c 74 e9 35 3d
       -0.0006504804 -0.11870681 0.021846443 0.04441209
000390 80 f6 5f 3d da 0c ec 3d f8 0d ae bd c8 7d 8f 3d
       0.05467844 0.11525889 -0.08498758 0.07006413
0003a0 00 19 6f bc 58 3c ad bc 62 5a ed 3d e6 1b f9 bd
       -0.014593363 -0.021146938 0.11589505 -0.12163524
0003b0 68 1a b0 3c cc e2 21 3d 10 ba 1c 3d da 45 ad bd
       0.021496966 0.03952293 0.03826338 -0.08460589
0003c0 68 20 c6 bd 78 78 26 3d d0 c6 da 3d 44 88 43 bd
       -0.0967415 0.04064223 0.10682452 -0.047737375
0003d0 06 f1 fa 3d bc a7 a8 3d d6 aa 9b 3d 78 f9 3b 3d
       0.12253003 0.08235118 0.07600944 0.04589221
0003e0 60 6d 91 bc c0 f4 7d 3c 14 fd b8 3d d4 b1 5b bd
       -0.01775235 0.0155002475 0.09032646 -0.053636387
0003f0 40 07 e2 bd d4 13 5f 3d f4 2e a2 bd 3c 97 70 bd
       -0.11036539 0.05446227 -0.07919112 -0.05873798

lstm.weight_hh_l0_reverse f4 [256, 64]
000000 36 48 f2 3d 06 9d c3 bd 8e 8c 8f bd bc f4 a2 bd
       0.118301794 -0.09551434 -0.070092306 -0.07956836
000010 04 52 f6 bd de 96 ff 3d 2e 9a d9 bd d4 67 01 3d
       -0.12027362 0.124799475 -0.106251106 0.03159316
000020 d0 54 79 3c 2a 5b f2 3d a0 27 47 bd 26 82 9a bd
       0.015217975 0.118337944 -0.048621774 -0.07544355
000030 d4 b4 be 3d 50 0c d1 3d d0 63 42 bd 4a c8 f8 3d
       0.09311834 0.102074265 -0.04745847 0.12147577
000040 02 7e e4 bd 04 be ea bd e8 d4 16 bd 22 3d 95 bd
       -0.111568466 -0.11462024 -0.036824137 -0.07287051
000050 d8 40 2e bd ca 0c 97 bd 90 fa 2a bc 9c 3c 7f bd
       -0.04254231 -0.07375486 -0.010435715 -0.06231366
000060 aa 08 b2 bd 10 46 0b 3c 58 27 21 bd 60 e6 4b 3c
       -0.08693059 0.008500591 -0.03934416 0.012445062
000070 b8 b8 59 3d 52 d1 ce 3d 24 96 4b bd 10 c3 46 bd
       0.053154677 0.100985184 -0.049703732 -0.04852587
000080 88 ad e4 3c cc f8 51 bd 48 89 e1 bd c2 e0 fd bd
       0.027914777 -0.05126266 -0.110125124 -0.12396385
000090 e0 33 6e 3d b0 a0 cd 3d c8 e6 a2 3d b0 13 9f bd
       0.05815494 0.10040414 0.07954174 -0.07767427
0000a0 cc c6 6e bd 10 6c f2 bc 7a bb 95 bd 5a 1e e8 bd
       -0.058295056 -0.029592544 -0.07311149 -0.11333914
0000b0 d4 0c 13 3d a0 70 88 bd 80 4e c1 bc 64 c2 ae 3d
       0.035900906 -0.066621065 -0.023597002 0.08533171
0000c0 b2 3d c6 bd 1c 53 6e 3d 3e e2 e6 bd 06 f3 da 3d
       -0.09679736 0.058184728 -0.11273621 0.10690884
0000d0 f4 df 31 3d fa 90 ae bd 58 86 2a bd 48 ba 2e bd
       0.04342647 -0.08523746 -0.041632026 -0.04265812
0000e0 42 c1 80 bd 78 ad 34 3d 12 5c 91 3d c0 b2 3d bd
       -0.06286861 0.044110745 0.07097639 -0.046313047
0000f0 e8 c7 7e 3d 3c 0b 54 3d 88 29 e3 bd 88 a2 e4 3c
       0.062202364 0.051768526 -0.11091906 0.027909532
000100 40 00 a8 bc 38 a3 36 bd 8a 3b 8c bd b2 4f 8d 3d
       -0.020507932 -0.04458925 -0.06847294 0.06899966
000110 62 a6 c1 bd 3c ef c2 bd 14 24 ca bd 20 1f f0 3b
       -0.09455563 -0.095182866 -0.098701626 0.007327929
000120 70 17 bc 3c 80 c6 93 bb 08 f9 da bc f4 52 8c bd
       0.022960395 -0.004509747 -0.026730075 -0.068517596
000130 0c 7d d6 3d 30 45 e0 bd 10 a6 b1 3c 80 16 c3 3d
       0.104730695 -0.109506965 0.02168563 0.09525776
000140 80 7a 48 bb 62 b0 a4 3d 9c 81 b1 3d f0 1c 6f bd
       -0.0030590594 0.08041455 0.08667299 -0.058377206
000150 20 15 79 bc 34 a7 a8 bd 18 32 87 3c bc 74 d4 3d
       -0.0152027905 -0.082350165 0.016503379 0.10373828
000160 3a 8c a3 bd 52 4b 87 3d 1c dc 2d 3d 90 e7 44 3c
       -0.079857305 0.06606163 0.04244624 0.012018099
000170 be 17 ed bd e8 6d f9 bc 48 b1 88 3d 2c 98 14 3d
       -0.11576794 -0.030447915 0.06674439 0.036277935
000180 98 0f 8b bd b8 57 f2 3c 56 36 f4 bd 3e 22 96 bd
       -0.06790084 0.029582843 -0.11924426 -0.0733075
000190 50 a0 50 3d 88 f1 bf 3d 68 55 47 3d 3e 4f 8f bd
       0.050934136 0.0937224 0.048665434 -0.06997536
0001a0 ec 89 3d 3d 1c 9c ce bd 2a b7 d9 bd 60 30 c1 3d
       0.04627411 -0.10088369 -0.10630639 0.09433055
0001b0 30 a2 8a bd 7e 30 a9 bd b0 27 ed 3c 0e d4 cd bd
       -0.06769216 -0.08261202 0.028949589 -0.10050212
0001c0 5e 4b 8e bd a4 e9 8f 3d aa 4c b1 3d 72 75 cd bd
       -0.06947969 0.07026985 0.08657201 -0.100321665
0001d0 c0 c0 a9 3c d4 96 ff 3d d4 3c 9a bd 2c 55 5d bd
       0.020721793 0.1247994 -0.07531133 -0.054036304
0001e0 fe 06 b5 bd c0 14 77 bc fe f5 c8 bd 58 4d fd bd
       -0.08839224 -0.015080631 -0.09812544 -0.12368268
0001f0 aa ab a1 3d 28 d3 ac 3c 34 17 a1 bd 1e e4 9a bd
       0.078940704 0.02109678 -0.07865754 -0.07563041
000200 f4 91 27 3d 78 10 f7 bd d8 84 d6 bd 98 93 e0 3c
       0.040910676 -0.12063688 -0.10474557 0.027414128
000210 48 14 55 3d 20 d0 3c bd 58 da fa 3d b0 85 d2 bd
       0.052021295 -0.04609692 0.12248677 -0.10279405
000220 aa 99 9d bd 40 e2 b4 3d 54 fc 4f 3d 58 58 1e 3d
       -0.07695325 0.08832216 0.05077775 0.03865847
000230 b0 d8 2a bd 70 68 0f bd d6 26 94 3d 5a c8 f0 3d
       -0.041710556 -0.03501171 0.0723397 0.11756964
000240 5a f0 80 bd 0a f8 8a bd 00 f8 79 3a 24 17 ae bd
       -0.062958434 -0.06785591 0.0009535551 -0.085005075
000250 14 61 07 bd 0c 7c d4 bd b0 e2 a8 3c e4 f1 8e bd
       -0.033051565 -0.103752226 0.020615906 -0.06979731
000260 e0 be 97 3d 44 03 c1 bd 04 b4 bc bd 0c a4 bd bd
       0.074094534 -0.09424451 -0.09214023 -0.09259805
000270 58 dc 54 3d 40 a3 c7 bd 8e 05 84 3d 4e 8a cd 3d
       0.05196795 -0.09747934 0.06446372 0.10036145
000280 d0 54 bb bd 10 9a f8 bc c6 97 ae bd 82 e2 cb 3d
       -0.09147036 -0.0303469 -0.08525042 0.09955312
000290 08 9d c1 3c 22 47 fe 3d 70 be bd 3c d8 8d f7 bc
       0.023634449 0.12415911 0.023162097 -0.030219004
0002a0 20 83 a9 3b c0 01 dd bb 34 64 93 3d a2 4c 9c 3d
       0.005173102 -0.0067445934 0.071968466 0.07631804
0002b0 d0 e9 96 bc 04 5e b6 bd 12 5a 9f bd 74 18 6a bd
       -0.018422037 -0.08904651 -0.077808514 -0.057152227
0002c0 d4 d5 4b bd 24 6d dc bd 42 7d b9 bd 00 f8 87 b9
       -0.04976447 -0.107630044 -0.09057094 -0.0002593398
0002d0 b4 d4 e1 3d 54 35 b9 bd 78 77 ec bc 74 8c 2a bd
       0.11026898 -0.09043375 -0.02886556 -0.041637853
0002e0 c0 26 18 bd 80 fe 9d bb 6a 8b de bd c2 30 c6 3d
       -0.03714633 -0.0048215985 -0.10866435 0.096772686
0002f0 88 b8 5a bd 5e bb 8d bd 24 17 20 bd ce 40 f8 bd
       -0.05339864 -0.06920503 -0.03908457 -0.121217355
000300 ee 31 d7 3d 4c c7 cf 3d 18 33 28 3d 06 dc e1 bd
       0.1050757 0.10145435 0.04106435 -0.11028294
000310 28 62 88 3c e0 4e 89 bd 40 e1 f3 3c f0 f2 28 3d
       0.016648367 -0.06704497 0.029770494 0.04124731
000320 20 b1 59 bc 66 7e ce 3d e4 31 1c 3d 28 a3 b2 bd
       -0.013286859 0.10082702 0.038133517 -0.08722526
000330 00 0f 7e 3a 88 7e f3 3d 3c 51 1c bd 18 15 e4 3c
       0.0009691566 0.11889368 -0.03816341 0.02784209
000340 00 2d f2 bd 86 78 aa 3d 1c 00 57 bd 2c 5a 7b 3d
       -0.11824989 0.08323769 -0.05249034 0.06136529
000350 3c 0d 81 bd 74 39 b6 3d 0e f2 e4 bd 40 24 04 bc
       -0.063013524 0.08897677 -0.11178981 -0.008065283
000360 a4 d4 12 3d ec 37 4f bd 48 a2 d1 bc e8 ce f2 3d
       0.03584732 -0.05059044 -0.025590077 0.118558705
000370 f8 10 7d 3d 10 b4 e0 3c 04 ad 51 bd b0 87 17 3c
       0.06178376 0.02742961 -0.05119039 0.009248659
000380 74 5a f5 3d e0 b7 f3 bc ec 42 44 bd 24 45 35 bd
       0.11980143 -0.029750764 -0.047915384 -0.04425539
000390 2c 29 ff bd 70 49 63 bd d0 84 fc 3d 84 86 f7 3d
       -0.12459025 -0.055489957 0.123300195 0.12086204
0003a0 92 7b 96 bd aa 6c 9c bd 72 a4 f2 bd 80 e5 48 3c
       -0.07347788 -0.076379135 -0.11847772 0.012261748
0003b0 92 74 cf 3d 0c e9 f4 bd de a3 c0 bd c2 b6 ab 3d
       0.10129656 -0.11958513 -0.09406255 0.08384468
0003c0 e0 f4 62 bd e6 df 92 3d 70 e1 a7 bc a0 96 b1 bb
       -0.055409312 0.071716115 -0.02049324 -0.005419567
0003d0 08 b5 45 bd 6c 4d 3c bd a4 21 81 bd 58 6a 5a 3d
       -0.048268348 -0.045972273 -0.063052446 0.053324074
0003e0 50 7a db 3c d0 59 8a bc 80 5c b5 bd 18 a9 a0 3d
       0.026791722 -0.016888529 -0.088555336 0.07844752
0003f0 80 9c fa 3b e6 75 95 bd 4c 23 b3 3d f0 95 1e bc
       0.007648051 -0.07297878 0.08746967 -0.009679303

lstm.bias_ih_l0_reverse f4 [256]
000000 60 49 77 bc e0 d9 82 bc 50 c9 3c bd 00 03 ea bb
       -0.015093178 -0.015973032 -0.046090424 -0.007141471
000010 d8 9c e4 3c cc a4 c0 bd 38 73 17 bd 7c 8d b2 bd
       0.02790682 -0.094064325 -0.036975116 -0.08718392
000020 40 8c 89 bd ca 5e 96 bd 78 47 b7 3c b8 20 db 3c
       -0.06716204 -0.07342298 0.022372946 0.026749
000030 dc 4c 8b bd 7c 3d b8 bd 08 8b b4 bc 32 88 83 bd
       -0.06801769 -0.08996102 -0.022038952 -0.064224616
000040 fc 9a ca bd 08 80 81 3d 88 46 a2 bd f2 5e 9b bd
       -0.09892842 0.06323248 -0.07923609 -0.07586469
000050 a4 6d f8 bd 20 26 dc 3b a8 4e 3a bd 94 c6 07 3d
       -0.12130287 0.006718412 -0.04548517 0.033148363
000060 6c 71 7c bd f8 0c 8a bc 66 a4 c9 3d e0 9c d2 bc
       -0.061631605 -0.016851887 0.0984581 -0.02570957
000070 c0 1a 41 bd fa 78 d7 3d ce 60 90 3d d8 fe 98 bc
       -0.04714465 0.10521121 0.07049714 -0.018676206
000080 72 ff b0 3d 10 4b 58 3c 9e 91 85 bd 86 6d db 3d
       0.08642472 0.01320149 -0.06521915 0.10714249
000090 24 55 ea bd c2 08 91 bd be 32 92 bd d8 75 85 bc
       -0.114420205 -0.070817485 -0.071385846 -0.016291544
0000a0 80 66 b8 bc 80 7c 26 bd 96 c3 83 bd d0 04 2f bc
       -0.022509813 -0.040646076 -0.064337894 -0.0106823
0000b0 c6 16 ca 3d c0 af b7 bc 04 1d 27 bd 40 e8 65 bc
       0.09867625 -0.022422671 -0.040799156 -0.0140324235
0000c0 18 97 b2 bd 56 a9 ff bd 1c b8 36 bd f8 ac b9 bc
       -0.08720225 -0.1248347 -0.044609174 -0.022665486
0000d0 0c 21 84 bd 40 92 32 3d 6c 0f b2 3d 30 f3 57 bd
       -0.06451616 0.043596506 0.08694348 -0.052722156
0000e0 6a 54 d2 3d 00 8a aa bc 84 62 a1 bd 54 d4 67 bd
       0.10270007 -0.020817757 -0.078801185 -0.056598976
0000f0 b4 2e b0 bd 14 76 ac bd 4c f2 c3 bd 90 b5 f7 bc
       -0.08602658 -0.08420959 -0.09567699 -0.030237943
000100 00 01 68 bc e4 b2 62 bd f0 d2 22 bd d4 ef 89 bd
       -0.014160395 -0.055346385 -0.039751947 -0.06735197
000110 e8 6f a7 3d 18 1f 2d 3d 16 32 c1 3d 84 7e b2 bd
       0.08175641 0.04226598 0.09433381 -0.08715537
000120 02 88 fd bd de 60 db bd 18 3c 0b bd 68 e9 f9 bd
       -0.12379457 -0.10711835 -0.033992857 -0.12202722
000130 4c 62 63 bd f8 64 f5 bc c6 d4 b7 bd 96 9a cb bd
       -0.055513665 -0.029955372 -0.0897613 -0.09941594
000140 20 8d aa bc 68 38 8b 3c 20 d6 98 3d 1c e5 d9 3d
       -0.020819247 0.01699467 0.07462716 0.10639402
000150 dc bb 0b 3d e8 19 8e 3c a0 c4 e5 bd 1c ba b0 bd
       0.034114704 0.017346337 -0.11219144 -0.086292475
000160 b8 9b 44 bd 52 c2 81 3d 48 71 9e bd fc 1f 66 3d
       -0.048000067 0.06335892 -0.077364504 0.056182846
000170 b0 07 70 bd e6 d5 d8 3d 74 e3 c6 3d ce 7e 9f bd
       -0.05860108 0.10587673 0.09711352 -0.07787858
000180 cc fd 2c 3d b8 6d a9 bd 6c 28 6b bd 40 30 0d bb
       0.042234227 -0.0827288 -0.057411596 -0.0021543652
000190 d0 ee f2 3d 3c 36 07 bd d8 c8 fa 3c c0 dd 7f 3c
       0.11861956 -0.033010706 0.030613348 0.015616834
0001a0 b0 90 a3 3d f0 49 16 3c 60 7b 96 3b 7c f5 df bd
       0.07986581 0.0091729015 0.004592344 -0.10935494
0001b0 78 a7 a1 bc a2 e8 ef 3d 38 3d 64 3d 10 aa 06 bc
       -0.019733176 0.11714293 0.055722445 -0.008219257
0001c0 a0 b5 29 3d 3c b2 17 3d 7a c0 da bd fa 7e 8a bd
       0.041432977 0.037035212 -0.10681243 -0.067625
0001d0 a0 fc e7 3c 00 3f fd 3b e0 aa d3 3d 0a 99 d2 3d
       0.028318703 0.0077284575 0.10335326 0.10283096
0001e0 e4 b4 b5 3d e0 08 fe 3d 9e 86 d7 bd e0 3d 9a 3b
       0.08872393 0.124040365 -0.10523723 0.004707083
0001f0 0e 6b c2 bd f2 6b dd 3d 50 48 2b 3c 34 2e fa bd
       -0.09493075 0.108116046 0.010454252 -0.12215844
000200 e4 ed 47 3d 1e 49 a1 bd 06 b9 a6 bd 14 d8 f6 3d
       0.048810855 -0.07875274 -0.08140759 0.120529324
000210 8c 8d f5 bd f8 04 a9 bd 34 b0 ca bd c6 ef e0 3d
       -0.119898885 -0.08252901 -0.09896889 0.10983233
000220 5c 24 e4 bd 98 1b 9f bd ec 16 95 bd 60 a2 e6 bc
       -0.111397475 -0.07768935 -0.072797626 -0.028153598
000230 a0 c6 96 bb 00 e4 a2 b9 1e 25 8e bd a2 5e d7 bd
       -0.0046013147 -0.0003106892 -0.06940673 -0.10516097
000240 bc 1b 87 3d 86 29 9c bd 4c f8 1f 3d cc 9f 29 bd
       0.06597087 -0.076251075 0.039055154 -0.04141216
000250 60 35 c2 3c cc 7f eb bd 40 70 ab 3c b4 6b 95 bd
       0.023707092 -0.11498985 0.020927548 -0.07295933
000260 f4 6c 94 3d 0c 1d 70 bd d6 e1 ed bd b0 e5 a0 3c
       0.07247344 -0.05862145 -0.116153404 0.019640774
000270 20 f8 98 bb 00 a2 e7 ba 94 d4 f0 bd b4 6d 6c bd
       -0.0046682507 -0.0017672181 -0.11759296 -0.05772181
000280 36 51 88 bd 6c 8b 2e 3d aa 9b ef 3d 60 4f 43 bd
       -0.06656115 0.04261343 0.116996124 -0.04768312
000290 80 72 bd bc 58 d1 de 3c de e5 9b bd 38 71 84 bc
       -0.023125887 0.027199432 -0.07612203 -0.016167268
0002a0 16 cc d3 3d ac 81 dd bd b8 60 4f 3d c8 1b ed bd
       0.10341661 -0.108157486 0.050629348 -0.115775645
0002b0 d0 4b cb bd 70 e0 97 bd 40 f1 9c 3d 7c a3 db bd
       -0.099265695 -0.07415855 0.07663202 -0.107245415
0002c0 26 6e 8b 3d 50 dd b2 3c 6c ab 62 3d 90 97 e0 3c
       0.068081185 0.021834046 0.055339262 0.02741602
0002d0 78 54 79 3d 20 01 bf bb fc 81 b1 3d 70 34 bd 3d
       0.06087157 -0.0058289915 0.08667371 0.09238517
0002e0 4c db a1 bd 8a 79 f5 3d 66 dd 9e bd 9c d4 8e bd
       -0.07903156 0.11986072 -0.07757072 -0.06974146
0002f0 e0 71 82 bb 30 fe f6 bc a0 88 6b 3d 10 28 46 bd
       -0.00398086 -0.030150503 0.057503343 -0.04837805
000300 20 ec 8a bb b0 63 37 3d 5e 3f d2 bd 9c 08 dd 3d
       -0.004239574 0.044772804 -0.102659926 0.10792658
000310 fc 7c d3 bd 66 bf d1 bd e0 5a 38 3d c8 2b 6f 3d
       -0.10326573 -0.102415845 0.04500854 0.058391362
000320 6c 16 3b 3d 00 3a 90 b9 80 fc a4 bd 4c 62 dd bd
       0.04567568 -0.00027509034 -0.08055973 -0.10809764
000330 c4 1f 8e 3d 44 3b f2 bd c8 e6 91 3c ec ff 3e 3d
       0.069396526 -0.1182771 0.01781024 0.046630785
000340 68 d0 97 3d e0 05 62 3c b0 e0 bc 3d d0 34 12 3c
       0.07412797 0.013795346 0.09222543 0.008923724
000350 cc c0 49 bd 00 f5 b1 bc 40 a0 25 3b 00 42 80 bc
       -0.04925613 -0.02172327 0.0025272518 -0.015656471
000360 dc 38 39 bd 7a e2 eb bd 78 58 a5 3c ec b8 dc bd
       -0.04522024 -0.11517806 0.020183787 -0.107774585
000370 12 bc d8 bd 68 c3 a0 3c 60 74 a1 3c 30 2c 65 bc
       -0.105827466 0.019624427 0.019708812 -0.013987586
000380 c0 25 ba 3b 6c 07 63 3d 0a ef ba bd 80 f1 73 bd
       0.0056807697 0.055427 -0.09127624 -0.059556484
000390 08 c9 b5 3c d0 d0 7b 3c 8e 49 be bd f0 b2 17 3d
       0.022190586 0.015369609 -0.09291373 0.037035882
0003a0 f0 2e d1 3d d0 15 2f bc 9c 95 bf 3d d0 78 4b bd
       0.10214031 -0.010686353 0.093547076 -0.049675763
0003b0 00 af f9 3d 0c 48 25 bd 10 e6 6a bd 14 65 df 3d
       0.12191582 -0.040351912 -0.05734831 0.10907951
0003c0 60 00 f2 3c 5a a2 bb 3d 36 a2 b5 3d 80 7e cf 3d
       0.029541194 0.091618255 0.0886883 0.1013155
0003d0 2c 7e b9 bd 9c 14 8a bd 80 1a 5c 3c 10 75 76 bd
       -0.090572685 -0.06742212 0.0134340525 -0.060170233
0003e0 fa cb e8 bd 56 26 cc 3d d0 31 1a 3d 40 b8 b8 bc
       -0.113670304 0.099682495 0.03764516 -0.022548795
0003f0 b8 fb 6f bd 54 4a 42 3d 0a 85 ed bd e8 2c 0b bd
       -0.058589667 0.047434166 -0.11597641 -0.033978373
