backend/api/ml/models/model_f0f14019-abd3-4317-ac7e-14568158bff1.pth (torch, 949173 bytes, 26 tensors)

lstm.weight_ih_l0 f4 [256, 4]
-0.020444894 0.0347502 -0.06252844 0.076872885 0.022455698 -0.076241665 -0.12239683 -0.12815331
0.09212309 -0.0051983334 0.06865719 0.0010432852 0.011897023 -0.095741995 0.109625764 -0.055584244
0.10924454 0.024675267 0.06182666 0.060983904 0.0525155 -0.12849273 -0.12793638 0.100303285
0.043118406 0.035564512 0.059986293 -0.10239534 0.091725044 0.040230308 -0.045730617 0.110796906
0.013288184 0.06577971 0.08316915 -0.10018598 0.029296987 -0.107731424 -0.051989663 0.07176335
-0.027515963 0.037340723 0.05258238 0.0512029 -0.035055038 -0.02244065 -0.08000428 0.09595803
-0.020637687 0.0740361 0.01768641 -0.054822657 -0.029460585 0.006518529 0.094331786 0.057847258
0.11719806 0.0691232 0.03182324 -0.0058542164 0.072971635 -0.02538751 -0.055029254 -0.11520348
0.009351926 -0.056539103 -0.12344679 0.03393265 -0.053313468 -0.12665664 0.11863632 -0.020504532
0.06825731 -0.08759272 -0.09499497 0.115887396 0.09386975 0.04164447 0.054572456 0.08048662
0.016034583 -0.015534921 0.074221335 0.014198951 0.09911153 -0.08277995 -0.074436404 -0.013250859
-0.026334317 0.09121541 0.08654148 0.07084088 -0.03325531 0.11634024 0.06921282 -0.006242051
0.02379618 0.119178124 -0.03822437 -0.039431658 -0.06649843 0.088298656 0.045772646 0.06984418
0.038628258 -0.10117143 0.11068334 0.07230217 0.05588213 -0.04375188 -0.09367689 0.054264553
0.055434447 -0.12248067 -0.06704863 -0.010100999 -0.09694748 -0.057657488 0.004780068 0.091652624
0.008711166 0.08467063 0.0608646 -0.042338666 -0.11990184 0.11711069 -0.056172647 -0.08292214
-0.13016453 -0.036956515 -0.11298218 0.064153224 0.06421248 0.028669577 -0.05109071 -0.12221532
0.041853618 0.030013243 -0.10113202 0.02768698 0.023322245 0.10946939 -0.025446462 -0.052953415
-0.04526096 0.048772443 -0.023285877 -0.03266241 -0.11023413 0.00042421627 -0.013918478 -0.11548136
-0.088429496 -0.113658495 -0.021863598 0.066487394 0.09980028 0.12827745 -0.06394766 0.051090896
0.014522316 0.047132015 0.026258599 0.069303535 -0.0308614 -0.1195155 -0.064766936 -0.10961055
0.09797512 -0.069555655 -0.04789656 -0.065218076 -0.09705553 0.098749265 -0.011011344 0.08333079
0.10377535 -0.07136259 -0.10473734 0.115449876 -0.05393343 -0.10137337 -0.012969902 0.06429196
-0.120296374 -0.06142912 -0.069737434 -0.06009345 -0.10576128 0.030907517 0.00940638 0.050966028
0.09863998 0.016738437 -0.0883646 -0.058191556 -0.018881552 0.11338921 0.051348977 -0.012083453
0.007216671 0.08221622 0.07828384 -0.07344376 0.07783004 0.12894039 -0.014498145 0.13044378
0.040273834 -0.09015677 0.07890034 0.03421837 0.100353405 0.06800194 0.002039879 0.0860001
-0.031773824 -0.054532655 -0.031212786 -0.044731744 0.055730138 0.11350503 0.069985755 -0.07450164
-0.06329316 0.096026756 0.023718186 0.04800369 0.1209733 -0.015248225 -0.06911118 -0.096313916
-0.11648561 0.071813956 -0.119520135 0.007962341 -0.05563256 0.055650957 0.10125796 0.045685984
0.020991204 0.122882456 0.09722631 -0.06460054 -0.10982417 -0.008846977 -0.113514364 0.02771947
-0.010514698 0.0857772 -0.115692645 -0.065071955 -0.10823217 -0.03515756 -0.0780728 -0.04431221
00000000: 0d7c a7bc 3a56 0e3d e90e 80bd 886f 9d3d
00000010: 03f5 b73c 9724 9cbd 30ab fabd 9f3a 03be
00000020: 08ab bc3d c856 aabb 249c 8c3d d8be 883a
00000030: bbeb 423c 6114 c4bd 7983 e03d 4eac 63bd
00000040: 9abb df3d c923 ca3c f43d 7d3d 42ca 793d
00000050: 7e1a 573d 9993 03be c101 03be cf6b cd3d
00000060: ed9c 303d 18ac 113d 30b4 753d a6b4 d1bd
00000070: 57da bb3d 89c8 243d 0750 3bbd 7de9 e23d
00000080: afb6 593c 83b7 863d 9654 aa3d 4f2e cdbd
00000090: 3c00 f03c 4ba2 dcbd 1df3 54bd aaf8 923d
000000a0: 2869 e1bc 96f2 183d 9f60 573d 22ba 513d
000000b0: df95 0fbd 74d5 b7bc 49d9 a3bd a585 c43d
000000c0: 5e10 a9bc 3da0 973d 17e3 903c b98d 60bd
000000d0: 5357 f1bc 6299 d53b 0631 c13d 3ff1 6c3d
000000e0: 8905 f03d 7790 8d3d 1659 023d bad4 bfbb
000000f0: 2772 953d 78f9 cfbc 5b66 61bd cdef ebbd
00000100: d238 193c 8c95 67bd acd1 fcbd f6fc 0a3d
00000110: 395f 5abd 47b2 01be 99f7 f23d 1ff9 a7bc
00000120: 7dca 8b3d d063 b3bd b98c c2bd 5f56 ed3d
00000130: c93e c03d 6493 2a3d 5e87 5f3d 2bd6 a43d
00000140: f55a 833c 2e86 7ebc 5b01 983d b8a2 683c
00000150: fcfa ca3d 8988 a9bd 1d72 98bd 221a 59bc
00000160: 11bb d7bc 25cf ba3d a93c b13d 0615 913d
00000170: b836 08bd cb43 ee3d 73bf 8d3d 1e8a ccbb
00000180: 35f0 c23c a913 f43d 2891 1cbd 1783 21bd
00000190: 5430 88bd edd5 b43d 197c 3b3d 770a 8f3d
000001a0: aa38 1e3d f732 cfbd f2ad e23d 2913 943d
000001b0: a9e4 643d 2c35 33bd abd9 bfbd 8244 5e3d
000001c0: 3b0f 633d 25d7 fabd cb50 89bd a97e 25bc
000001d0: 678c c6bd 422a 6cbd 1ea2 9c3b 5fb4 bb3d
000001e0: 47b9 0e3c cc67 ad3d 294d 793d 4f6b 2dbd
000001f0: 198f f5bd bbd7 ef3d 4a15 66bd 15d3 a9bd
00000200: da49 05be b75f 17bd 3463 e7bd c462 833d
00000210: d581 833d 76dc ea3c 7e44 51bd 074c fabd
00000220: b36e 2b3d 55de f53c 4e1e cfbd cecf e23c
00000230: 4b0e bf3c 7d31 e03d 1975 d0bc aee5 58bd
00000240: 8e63 39bd 9dc5 473d 06c2 bebc 05c9 05bd
00000250: 6ec2 e1bd 5869 de39 540a 64bc 7e81 ecbd
00000260: 861a b5bd c9c5 e8bd 4a1b b3bc 8b2a 883d
00000270: 1764 cc3d 2a5b 033e fef6 82bd b044 513d
00000280: 02ef 6d3c 800d 413d 461c d73c 03ef 8d3d
00000290: 0cd1 fcbc 8bc4 f4bd 87a4 84bd 7f7b e0bd
000002a0: 2ea7 c83d 3273 8ebd 2f2f 44bd 0e91 85bd
000002b0: 0dc5 c6bd 0e3d ca3d ed68 34bc 55a9 aa3d
000002c0: 2c88 d43d 8d26 92bd 8880 d6bd fc70 ec3d
000002d0: 4de9 5cbd d79c cfbd b67f 54bc 81ab 833d
000002e0: f25d f6bd 1a9d 7bbd 80d2 8ebd 8d24 76bd
000002f0: 5f99 d8bd c331 fd3c 381d 1a3c c1c1 503d
00000300: c203 ca3d 0c1f 893c 80f8 b4bd 455a 6ebd
00000310: 7cad 9abc 9a38 e83d 4e53 523d adf9 45bc
00000320: d379 ec3b fa60 a83d 4753 a03d af69 96bd
00000330: 5b65 9f3d f308 043e a189 6dbc 0e93 053e
00000340: 2df6 243d 1da4 b8bd 8096 a13d 9028 0c3d
00000350: 1686 cd3d 9a44 8b3d 7eaf 053b d220 b03d
00000360: 4525 02bd a25d 5fbd f5b1 ffbc a238 37bd
00000370: 4945 643d 5375 e83d b154 8f3d 5194 98bd
00000380: d89f 81bd ada9 c43d a44c c23c 849f 443d
00000390: d9c0 f73d b1d3 79bc 2a8a 8dbd 3b40 c5bd
000003a0: 0290 eebd 3213 933d f9c6 f4bd 7b74 023c
000003b0: f8de 63bd 42f2 633d 5560 cf3d 3a21 3b3d
000003c0: bff5 ab3c cca9 fb3d 961e c73d 4a4d 84bd
000003d0: 7feb e0bd e9f2 10bc 387a e8bd f113 e33c
000003e0: d745 2cbc f5ab af3d 44f0 ecbd 7244 85bd
000003f0: d4a8 ddbd 6001 10bd a2e4 9fbd b880 35bd

lstm.weight_hh_l0 f4 [256, 64]
-0.004349722 0.10104678 0.10646082 -0.06784425 -0.06868588 -0.090524435 0.12070074 -0.008410506
0.029180888 0.036454402 0.070433736 0.020769605 -0.0007363603 -0.031970426 -0.02823498 0.07605969
0.03978405 -0.104888216 0.007965704 -0.11973919 -0.015358657 0.010780581 0.07010794 -0.041839108
0.10366948 0.068693295 -0.100817524 0.0045671305 -0.026555847 0.002153577 -0.0828726 0.06791726
0.087091565 -0.07447121 -0.109067835 0.084766254 0.101073526 0.015453791 0.11753345 -0.054328024
0.08737554 0.048689906 0.058849555 0.08961357 0.033080135 -0.121270195 0.034542058 -0.023953287
-0.10238281 0.094956204 -0.08298302 0.11915788 0.07026383 -0.11753281 -0.048685554 -0.067545824
-0.05022509 0.111477986 -0.11260856 0.027470643 0.023534374 -0.05710236 -0.052949324 -0.082107455
-0.119063444 -0.014924908 0.0079752 -0.056616515 -0.013762463 0.08372973 -0.04684861 -0.039440595
0.09023764 0.056404714 -0.07060415 -0.008917876 -0.11671146 0.11081215 0.012517019 -0.11937884
0.034484547 0.11714425 -0.07783836 -0.096259646 -0.044702087 -0.09066699 0.08558734 -0.0979288
0.04607714 -0.051945902 -0.11415865 -0.10552451 0.11464467 0.020857306 0.006379732 -0.10142378
-0.10632807 0.110832475 0.03917824 -0.018729175 0.035543453 -0.0858187 0.08490883 0.06883939
-0.096752204 -0.031881057 -0.027643586 0.07414419 -0.023237154 -0.1052202 -0.07836348 -0.004277664
-0.082593255 -0.008161018 -0.026559176 -0.08209561 -0.1033732 -0.10405978 0.111457795 -0.01619254
0.0026813117 0.0046987087 -0.07093409 0.05208851 0.06264757 0.013456459 -0.085178085 -0.032256987
0.073583245 0.049120586 -0.09243004 0.09862936 0.06806805 0.09282339 0.04591005 0.07715112
-0.09590189 -0.047591705 0.07855812 -0.05700448 -0.06276273 0.02484906 -0.097612314 0.032495927
0.09402734 0.08201147 -0.046446536 0.03695127 -0.070076086 -0.02488629 -0.07064072 0.08636507
0.034400202 0.07766921 -0.0041551515 0.08923882 0.02336006 0.076210685 -0.07267268 -0.016683692
0.029360015 0.006167786 -0.06885183 -0.07557496 0.015288344 -0.069650784 -0.07334274 0.07152623
-0.10464621 -0.052267987 -0.061645202 0.077374004 -0.12485706 0.052886628 0.09552876 -0.08166315
-0.07450233 0.09865317 -0.034128718 0.01736153 0.06929065 0.07553835 0.06887955 -0.09776654
-0.05599665 0.031469986 -0.0024107401 -0.066286325 0.10332259 -0.11550806 -0.11842079 0.06895092
0.014603047 0.016665807 0.08475755 -0.0025013795 0.0009971227 -0.059003774 -0.09369813 0.0365834
-0.03331988 0.02275347 -0.09819994 0.08721925 0.11754984 0.0048463247 -0.017661339 -0.1313693
-0.011882023 -0.06296735 0.08528022 0.061414465 -0.08550302 -0.024300957 0.051114514 -0.095359266
-0.06090459 0.028857091 0.12138227 -0.089089505 0.052827343 0.09080901 0.09179734 -0.0072295177
0.004771106 0.05352948 0.10217655 0.047779605 0.02922307 0.031648394 0.067303665 0.09576232
-0.04821495 0.047963396 0.004563566 -0.113203034 -0.07770877 0.07144056 -0.05341276 0.115330555
-0.09855186 -0.07654841 -0.03282107 -0.1024785 -0.041986227 -0.10313371 0.038206384 0.09633618
-0.06629872 -0.10080812 0.107168294 0.028364904 -0.009697103 0.10281689 0.039697357 -0.052288212
00000000: 1d88 8ebb 9df1 ce3d 2108 da3d edf1 8abd
00000010: 2fab 8cbd e064 b9bd f331 f73d 38cc 09bc
00000020: c20c ef3c 3651 153d 903f 903d 0525 aa3c
00000030: 4e08 41ba 6cf3 02bd 0b4d e7bc 2fc5 9b3d
00000040: 9af4 223d a2cf d6bd 9682 023c d239 f5bd
00000050: e0a2 7bbc 09a1 303c c094 8f3d 7c5f 2bbd
00000060: aa50 d43d 12af 8c3d 6b79 cebd dea7 953b
00000070: a68b d9bc 0723 0d3b 1cb9 a9bd 3418 8b3d
00000080: 105d b23d 5d84 98bd f55e dfbd ee99 ad3d
00000090: a3ff ce3d e631 7d3c 61b5 f03d 1087 5ebd
000000a0: f2f1 b23d 116f 473d 3b0c 713d 5287 b73d
000000b0: 097f 073d 825c f8bd f97b 0d3d af39 c4bc
000000c0: 14ae d1bd 6678 c23d 00f3 a9bd 0c09 f43d
000000d0: 7ce6 8f3d 0bb5 f0bd 816a 47bd 7755 8abd
000000e0: d3b8 4dbd 924e e43d 519f e6bd 1d0a e13c
000000f0: 29cb c03c 2ae4 69bd 64e1 58bd f427 a8bd
00000100: 89d7 f3bd 9a87 74bc 6aaa 023c b8e6 67bd
00000110: f47b 61bc 7e7a ab3d 54e4 3fbd 768c 21bd
00000120: 83ce b83d a108 673d e998 90bd 481c 12bc
00000130: 6b06 efbd 7bf1 e23d 2f14 4d3c e57c f4bd
00000140: ab3f 0d3d 53e9 ef3d b869 9fbd c723 c5bd
00000150: 8919 37bd 9daf b9bd 6a48 af3d e58e c8bd
00000160: 62bb 3c3d 3ac5 54bd 03cc e9bd 3c1d d8bd
00000170: d3ca ea3d f1dc aa3c 120d d13b 45b7 cfbd
00000180: 88c2 d9bd 23fc e23d 5d79 203d ed6d 99bc
00000190: 0396 113d b7c1 afbd aee4 ad3d abfb 8c3d
000001a0: 0526 c6bd b695 02bd cd74 e2bc e9d8 973d
000001b0: d85b bebc b07d d7bd 087d a0bd a52b 8cbb
000001c0: a726 a9bd cab5 05bc a192 d9bc be21 a8bd
000001d0: 54b5 d3bd 4b1d d5bd fc43 e43d 38a6 84bc
000001e0: f2b8 2f3b a0f7 993b e445 91bd c35a 553d
000001f0: 5f4d 803d 7b78 5c3c d971 aebd e71f 04bd
00000200: d0b2 963d ab32 493d f64b bdbd 31fe c93d
00000210: 4367 8b3d 311a be3d 2d0c 3c3d 6801 9e3d
00000220: 3668 c4bd 85ef 42bd 14e3 a03d 887d 69bd
00000230: bf89 80bd 4290 cb3c f7e8 c7bd 731a 053d
00000240: 6891 c03d a1f5 a73d b93e 3ebd 375a 173d
00000250: 0d84 8fbd 55de cbbc 15ac 90bd 2be0 b03d
00000260: 3ae7 0c3d 0911 9f3d f027 88bb d8c2 b63d
00000270: 995d bf3c 5914 9c3d 6ad5 94bd 3dac 88bc
00000280: 6a84 f03c 241b ca3b 3002 8dbd 0bc7 9abd
00000290: f67b 7a3c 12a5 8ebd b834 96bd 587c 923d
000002a0: c150 d6bd f516 56bd ae7f 7cbd 4376 9e3d
000002b0: 0fb5 ffbd a69f 583d 95a4 c33d 023f a7bd
000002c0: ad94 98bd ac0a ca3d 8eca 0bbd c439 8e3c
000002d0: 42e8 8d3d dab3 9a3d b910 8d3d d339 c8bd
000002e0: be5c 65bd ace6 003d 82fd 1dbb 20c1 87bd
000002f0: cb9a d33d 7d8f ecbd 9986 f2bd 2436 8d3d
00000300: 9e41 6f3c bb86 883c 5e95 ad3d 2fee 23bb
00000310: e3b1 823a f1ad 71bd cee4 bfbd 7ad8 153d
00000320: 6d7a 08bd 7c65 ba3c 0d1d c9bd 02a0 b23d
00000330: f8bd f03d ebcd 9e3b 83ae 90bc ac85 06be
00000340: d1ac 42bc 07f5 80bd 65a7 ae3d bc8d 7b3d
00000350: 351c afbd cd12 c7bc 745d 513d b84b c3bd
00000360: 1777 79bd b565 ec3c 4497 f83d 8f74 b6bd
00000370: 7c61 583d 13fa b93d 3e00 bc3d 97e5 ecbb
00000380: f056 9c3b ba41 5b3d f041 d13d 8cb4 433d
00000390: 3865 ef3c bfa1 013d 81d6 893d 091f c43d
000003a0: 0a7d 45bd 4475 443d f789 953b fed6 e7bd
000003b0: c725 9fbd 6e4f 923d 57c7 5abd 6d32 ec3d
000003c0: 8fd5 c9bd 6ac5 9cbd 636f 06bd 3fe0 d1bd
000003d0: c0f9 2bbd c437 d3bd 4c7e 1c3d e74b c53d
000003e0: a0c7 87bd 7d74 cebd 0d7b db3d 845d e83c
000003f0: 99e0 1ebc a991 d23d b299 223d 2a2c 56bd

lstm.bias_ih_l0 f4 [256]
0.02647969 -0.11142495 -0.008882434 0.005586814 0.00069605984 0.011523611 -0.043346852 0.099912256
-0.10989744 0.099615835 -0.023347171 -0.03948385 0.03606672 0.03324013 0.0193272 -0.0742458
0.07501045 0.008846927 -0.07793653 -0.10170991 0.0031308015 0.07772649 0.06249537 -0.089357466
0.011195948 0.08310616 -0.07551295 0.024012873 0.06882402 -0.12188883 -0.019709554 0.014746713
0.07069125 0.011636164 0.08933378 0.031702146 0.116944544 -0.07080175 -0.08580922 -0.07336413
0.12794778 0.011415249 -0.0097653745 0.11363827 -0.008961681 0.015505335 0.039139614 -0.046783756
-0.060789537 -0.056100085 -0.028563501 0.10659682 0.11130532 -0.11015901 -0.061586432 0.11526287
0.037562132 0.010344986 -0.08929229 0.038002677 0.018671962 0.011252654 0.066345856 -0.066813044
0.047402203 0.042694356 -0.110375464 -0.03674694 0.06715983 0.043846563 0.12958415 -0.06880766
-0.0704935 0.015142744 0.08624018 0.036343455 -0.039011624 0.114980966 0.06994782 0.09122896
-0.022804435 -0.09941548 -0.077472426 0.052709933 -0.0044356505 0.11872234 0.114491135 -0.016392177
-0.05653855 0.08617505 0.07656705 0.0005133963 0.039759733 0.050613243 -0.016810268 -0.0703269
-0.0428298 0.07678766 -0.026338551 0.023763407 0.0043840543 0.019285679 0.016527979 -0.0695894
-0.06266589 0.021731107 0.0027787022 -0.03713006 -0.059323095 0.05084054 -0.014514766 -0.017029071
-0.09873432 -0.016298866 -0.07597006 0.02383454 -0.027788406 0.088637404 0.025854133 0.1079855
0.07435532 0.05053291 0.07371388 0.10341281 0.015458918 -0.025471862 0.056965843 0.09176701
0.089785635 -0.104138926 -0.006967712 0.052882604 -0.1276927 0.054405037 0.021083063 0.026227655
-0.08017424 0.0898003 0.07700918 -0.100867465 -0.12392752 -0.011266392 -0.062306717 0.010956213
0.13247105 0.11262139 0.04242914 0.008079262 0.10410923 -0.04601027 -0.010788203 0.025888648
-0.042720824 -0.005607803 -0.11480636 0.0109691 0.08884144 0.05849311 0.095459655 0.06933848
-0.02029315 0.029643513 0.07474937 0.083901785 -0.057149522 0.06557354 0.06509409 0.089705214
0.013097527 -0.070975125 0.0011622828 -0.052452136 0.006740771 -0.012071221 -0.03940272 0.04532264
0.107403554 0.014778483 0.07489054 0.043026816 0.058129787 -0.1102734 -0.03268511 0.077255465
0.091501795 0.075098775 0.026056247 -0.019263683 0.022258528 0.03345141 0.077585936 -0.026844755
0.08923186 -0.10496319 0.015444857 -0.083335705 -0.020658068 -0.008499316 0.075878635 -0.019891888
0.0078787105 -0.015421089 -0.012788728 0.0034978152 0.053616483 -0.005144391 -0.111061096 -0.040150277
0.059517555 -0.09615205 -0.04978048 -0.033396155 -0.09841213 0.021511499 -0.017553544 0.0209711
0.08000556 -0.050422955 -0.022229696 -0.030948669 -0.05401669 -0.13220343 0.013669938 -0.063187815
0.0062331297 -0.009819736 0.011469239 0.0659973 0.098946765 -0.02725027 0.018489279 -0.07144081
-0.025836442 0.048023675 0.03779511 0.078316465 0.05350177 -0.06150553 -0.12809026 0.047334615
-0.016657652 0.06755834 -0.0057287076 -0.091738954 -0.070038065 -0.02066074 0.117139265 -0.032267217
0.020723615 -0.022017764 0.10186402 0.12542462 -0.08135911 -0.018728932 -0.056493387 -0.034659833
00000000: efeb d83c c432 e4bd a187 11bc 9811 b73b
00000010: c977 363a 87cd 3c3c 788c 31bd cc9e cc3d
00000020: e911 e1bd 6303 cc3d 9142 bfbc d1b9 21bd
00000030: b2ba 133d cd26 083d 1354 9e3c 2f0e 98bd
00000040: 149f 993d b4f2 103c 309d 9fbd 494d d0bd
00000050: 222e 4d3b 112f 9f3d 25fb 7f3d 0c01 b7bd
00000060: 366f 373c 9033 aa3d 89a6 9abd a5b6 c43c
00000070: 9cf3 8c3d daa0 f9bd ee75 a1bc 339c 713c
00000080: 93c6 903d 9ca5 3e3c a1f4 b63d 1cda 013d
00000090: 9f80 ef3d 8200 91bd bfbc afbd ef3f 96bd
000000a0: be04 033e 0607 3b3c f3fe 1fbc 2ebb e83d
000000b0: 04d4 12bc 170a 7e3c dc50 203d 53a0 3fbd
000000c0: 73fe 78bd 34c9 65bd 01fe e9bc 6f4f da3d
000000d0: 0bf4 e33d 0c9b e1bd 0e42 7cbd f10e ec3d
000000e0: c0da 193d 047e 293c e0de b6bd b2a8 1b3d
000000f0: f1f5 983c 0d5d 383c 56e0 873d 47d5 88bd
00000100: d028 423d 47e0 2e3d 880c e2bd f683 16bd
00000110: 188b 893d 7498 333d b5b1 043e 08eb 8cbd
00000120: e55e 90bd 4619 783c b19e b03d e0dc 143d
00000130: a7ca 1fbd 247b eb3d cd40 8f3d 40d6 ba3d
00000140: 5ed0 babc 589a cbbd dda9 9ebd 5fe6 573d
00000150: ef58 91bb b324 f33d 547a ea3d e348 86bc
00000160: f794 67bd 8b7c b03d 2fcf 9c3d 7195 063a
00000170: 1adb 223d d54f 4f3d b0b5 89bc 8d07 90bd
00000180: 4d6e 2fbd d942 9d3d f2c3 d7bc 7aab c23c
00000190: 1da8 8f3b 00fd 9d3c af65 873c e384 8ebd
000001a0: f956 80bd 6f05 b23c e31a 363b b115 18bd
000001b0: c6fc 72bd 2c3e 503d 57cf 6dbc 8d80 8bbc
000001c0: 3835 cabd 3385 85bc 3196 9bbd a740 c33c
000001d0: 83a4 e3bc 8787 b53d 0ccc d33c 8027 dd3d
000001e0: 9a47 983d 99fb 4e3d 4df7 963d 18ca d33d
000001f0: 6747 7d3c 5eaa d0bc 0455 693d 58f0 bb3d
00000200: 88e1 b73d ca46 d5bd 6851 e4bb 6e9b 583d
00000210: e0c1 02be d1d7 5e3d 63b6 ac3c 61db d63c
00000220: 6432 a4bd 38e9 b73d fdb6 9d3d 9a93 cebd
00000230: b6cd fdbd ac96 38bc 5435 7fbd b081 333c
00000240: 7ea6 073e 0ba6 e63d 2eca 2d3d e25e 043c
00000250: 3837 d53d 4475 3cbd 01c1 30bc 6e14 d43c
00000260: 08fc 2ebd a9c1 b7bb 991f ebbd bdb7 333c
00000270: 80f2 b53d 7996 6f3d 5a80 c33d 5501 8e3d
00000280: d23d a6bc f4d6 f23c 3316 993d b3d4 ab3d
00000290: 9e15 6abd 6c4b 863d 0d50 853d 5eb7 b73d
000002a0: 0397 563c 685b 91bd bd57 983a 0dd8 56bd
000002b0: afe1 dc3b 5fc6 45bc bf64 21bd 3ca4 393d
000002c0: 65f6 db3d 7321 723c 3660 993d e33c 303d
000002d0: 8019 6e3d 05d7 e1bd d2e0 05bd 1d38 9e3d
000002e0: 4b65 bb3d 63cd 993d e973 d53c dfce 9dbc
000002f0: 8457 b63c 5804 093d 60e5 9e3d 88e9 dbbc
00000300: 32bf b63d f1f6 d6bd 6d0c 7d3c e9ab aabd
00000310: 1c3b a9bc b740 0bbc 4266 9b3d 50f4 a2bc
00000320: b515 013c bca8 7cbc d087 51bc 9a3b 653b
00000330: f59c 5b3d 4892 a8bb 0074 e3bd 9e74 24bd
00000340: aec8 733d 5eeb c4bd 9ee6 4bbd 68ca 08bd
00000350: 4c8c c9bd e238 b03c 73cc 8fbc 96cb ab3c
00000360: f4d9 a33d 4d88 4ebd 0d1b b6bc 1088 fdbc
00000370: 9b40 5dbd 5660 07be e0f7 5f3c 9d68 81bd
00000380: 483f cc3b f5e2 20bc 7ae9 3b3c 9829 873d
00000390: 9aa4 ca3d f53b dfbc d476 973c 8f4f 92bd
000003a0: f2a6 d3bc 79b4 443d 0ccf 1a3d 6264 a03d
000003b0: ac24 5b3d 39ed 7bbd 182a 03be f1e1 413d
000003c0: a175 88bc 075c 8a3d e2b7 bbbb a2e1 bbbd
000003d0: 1e70 8fbd b640 a9bc b6e6 ef3d a12a 04bd
000003e0: 92c4 a93c 995e b4bc 159e d03d 506f 003e
000003f0: 9b9f a6bd 6b6d 99bc 9c65 67bd 78f7 0dbd

lstm.bias_hh_l0 f4 [256]
-0.120246336 -0.096740514 -0.1189555 0.1054595 -0.095799044 0.063648164 0.042370304 -0.085709125
0.026051812 0.045399547 -0.08162647 0.025931815 -0.009155225 0.13104515 0.028638326 0.078991555
0.05302888 -0.036006633 -0.024800079 -0.031218432 -0.03358582 0.06863389 -0.033989947 0.07130429
0.04740484 -0.11049835 0.00084249343 -0.051231146 0.107535124 -0.024475882 -0.09937905 -0.07468386
0.028353272 -0.07274913 -0.12876752 -0.088730775 0.06996638 0.07320434 -0.0061420756 0.09380578
-0.059276793 -0.07685896 -0.116800465 0.023353515 0.036564067 -0.1076743 0.011614966 -0.0011813145
0.00751855 0.09209761 0.008299944 -0.053565074 -0.019582 0.0071564685 0.092031494 0.061679862
-0.12838773 -0.023594629 0.10897146 -0.03865064 -0.077096544 -0.10689194 0.05130396 0.1039507
-0.024094725 0.028039528 0.12403083 0.036873378 -0.10448445 -0.095138036 0.005963043 -0.031338383
-0.08003368 0.0037980753 -0.03799024 0.105882496 -0.09351051 -0.014378125 -0.09019109 0.08316863
-0.10687687 0.05047355 -0.05321647 -0.081856966 -0.01657404 0.004745989 -0.022344273 -0.06777563
-0.006758259 0.03132447 0.09819726 0.002188243 -0.1268544 -0.017882647 0.13073516 0.07427714
-0.06526243 0.026358938 0.007980852 0.07550964 0.022638837 0.09393637 -0.07509588 -0.0063385437
-0.11417278 0.106758416 -0.11308746 -0.035712425 -0.05587638 0.04381308 0.09332016 0.08639237
0.045535598 0.068367556 -0.058557108 0.043834586 -0.085391454 -0.026506739 0.047322128 0.033689033
-0.048437353 -0.112774804 0.024162956 0.037601613 -0.1121364 -0.09683347 -0.017390532 0.023192873
-0.033215433 -0.10475221 0.12806253 0.02381267 -0.0014599047 0.11374116 -0.10974638 -0.0040562185
-0.09951781 -0.1113954 0.09314417 -0.089747846 -0.13275774 0.12051964 0.0655197 0.073881544
-0.042871743 0.03480661 -0.09150759 -0.06418726 -0.043063298 -0.08896416 -0.13034676 0.040819697
0.12242159 0.033590775 -0.11232913 0.022218922 -0.07317318 0.033187818 0.014091693 -0.017327208
0.11647277 0.038391937 -0.064598136 -0.11721135 -0.0549727 0.025854388 -0.039176326 0.05253307
-0.11530433 -0.11471905 0.0127220685 -0.061557148 -0.095261306 0.11278922 -0.11158669 -0.017403413
-0.07283318 0.011956321 -0.076987386 0.027819585 0.07223029 -0.058757953 -0.07974571 -0.028389199
0.007228487 -0.13223037 -0.053679172 0.10755738 -0.08807679 -0.04140069 -0.06552343 0.06762939
0.01530658 -0.023271147 0.050054703 0.058129244 -0.08977722 0.110561065 -0.06402022 -0.06244557
0.08917162 0.10243561 -0.07705535 -0.042181477 0.03122122 0.12320624 0.08190757 0.013838111
0.114703804 -0.10677667 -0.09287689 -0.080468476 -0.03936236 -0.10827744 0.07187672 0.09353679
-0.00960318 -0.09363714 -0.082999095 0.0066268137 0.023003146 0.096274525 -0.053305317 -0.10750379
0.10880914 -0.011729365 0.09256535 0.098526284 -0.042641036 -0.07866223 -0.09845969 0.0046891226
0.08859234 -0.033858657 -0.06341336 0.09403078 0.03456521 0.047925625 0.056987755 0.06304924
-0.093705714 -0.04675548 -0.026998542 -0.032466978 0.01704522 -0.09519714 -0.11775726 -0.0029322328
-0.059023794 0.003935063 -0.03406944 -0.037009533 -0.086414866 0.04393032 -0.11978722 0.10589762
00000000: b643 f6bd e41f c6bd f19e f3bd 26fb d73d
00000010: 4a32 c4bd f859 823d 7c8c 2d3d 4488 afbd
00000020: 9c6a d53c e0f4 393d c72b a7bd f56e d43c
00000030: ccff 15bc b330 063e ec9a ea3c 53c6 a13d
00000040: d034 593d b17b 13bd 8929 cbbc ccbd ffbc
00000050: 4991 09bd ed8f 8c3d 0b39 0bbd fc07 923d
00000060: 942b 423d f54c e2bd c7da 5c3a c0d7 51bd
00000070: 603b dc3d a581 c8bc 3e87 cbbd daf3 98bd
00000080: 1f45 e83c 7ffd 94bd a2db 03be 7bb8 b5bd
00000090: 894a 8f3d 28ec 953d 7743 c9bb 3f1d c03d
000000a0: 39cc 72bd 3b68 9dbd 1535 efbd df4f bf3c
000000b0: 34c4 153d 5884 dcbd b34c 3e3c 56d6 9aba
000000c0: 2b5e f63b ac9d bc3d 7dfc 073c 0d67 5bbd
000000d0: 6e6a a0bc cf80 ea3b 027b bc3d 06a4 7c3d
000000e0: 1378 03be 8649 c1bc 6e2c df3d 2250 1ebd
000000f0: cbe4 9dbd 29ea dabd 1a24 523d 1be4 d43d
00000100: 4d62 c5bc 27b3 e53c e003 fe3d 8a08 173d
00000110: f1fb d5bd bbd7 c2bd a165 c33b ad5c 00bd
00000120: b3e8 a3bd 21e9 783b a79b 1bbd ecd8 d83d
00000130: 7082 bfbd 3a92 6bbc 1bb6 b8bd 5154 aa3d
00000140: 43e2 dabd 5abd 4e3d 83f9 59bd a0a4 a7bd
00000150: 48c6 87bc 3e84 9b3b 560b b7bc f3cd 8abd
00000160: 6374 ddbb 164e 003d a51b c93d a068 0f3b
00000170: 1fe6 01be a17e 92bc 70df 053e 9d1e 983d
00000180: 4fa8 85bd b3ee d73c 1fc2 023c cca4 9a3d
00000190: 1575 b93c b661 c03d decb 99bd 8fb3 cfbb
000001a0: 6bd3 e9bd 28a4 da3d 669a e7bd 3147 12bd
000001b0: a2de 64bd 5875 333d a41e bf3d 7cee b03d
000001c0: 8983 3a3d 4a04 8c3d 94d9 6fbd e58b 333d
000001d0: b7e1 aebd a924 d9bc d9d4 413d 83fd 093d
000001e0: 3f66 46bd 7af6 e6bd 64f1 c53c 2604 1a3d
000001f0: c5a7 e5bd a050 c6bd 9776 8ebc fbfe bd3c
00000200: e80c 08bd 5488 d6bd d322 033e ca12 c33c
00000210: 465a bfba 20f1 e83d b6c2 e0bd 07ea 84bb
00000220: fecf cbbd 4523 e4bd 5fc2 be3d b8cd b7bd
00000230: a5f1 07be 00d3 f63d 312f 863d 354f 973d
00000240: 489a 2fbd 6091 0e3d 5568 bbbd 9c74 83bd
00000250: 2463 30bd d732 b6bd 9f79 05be 8e32 273d
00000260: 2cb8 fa3d 7b96 093d d10c e6bd 7504 b63c
00000270: d2db 95bd f3ef 073d d8e0 663c caf1 8dbc
00000280: 4789 ee3d dd40 1d3d 074c 84bd 810c f0bd
00000290: 0e2b 61bd 95cc d33c 5b77 20bd eb2c 573d
000002a0: ad24 ecbd d2f1 eabd 3970 503c 5923 7cbd
000002b0: 5c18 c3bd 09fe e63d 9087 e4bd 9a91 8ebc
000002c0: 9029 95bd 72e4 433c 90ab 9dbd e6e5 e33c
000002d0: 79ed 933d 2eac 70bd b851 a3bd 7790 e8bc
000002e0: f2dc ec3b 6667 07be b1de 5bbd 0b47 dc3d
000002f0: 9b61 b4bd c593 29bd 2631 86bd 4781 8a3d
00000300: 73c8 7a3c 22a3 bebc 2906 4d3d ee18 6e3d
00000310: 1edd b7bd d76d e23d 081d 83bd edc6 7fbd
00000320: 9c9f b63d c3c9 d13d 32cf 9dbd 7cc6 2cbd
00000330: a5c3 ff3c 8e53 fc3d 28bf a73d 3fb9 623c
00000340: d4e9 ea3d baad dabd 3d36 bebd a8cc a4bd
00000350: 6d3a 21bd 90c0 ddbd 1a34 933d 3790 bf3d
00000360: a856 1dbc d4c4 bfbd 6efb a9bd be25 d93b
00000370: 1871 bc3c 942b c53d ad56 5abd f22a dcbd
00000380: 54d7 de3d 862c 40bc e792 bd3d 26c8 c93d
00000390: 5ea8 2ebd aa19 a1bd 3ca5 c9bd 36a7 993b
000003a0: e76f b53d 60af 0abd ddde 81bd 3693 c03d
000003b0: 4094 0d3d a94d 443d fe6b 693d f61f 813d
000003c0: c8e8 bfbd ad82 3fbd 0c2c ddbc 18fc 04bd
000003d0: 6ba2 8b3c b8f6 c2bd b82a f1bd b42a 40bb
000003e0: efc2 71bd b3f1 803b 668c 0bbd 4f97 17bd
000003f0: 47fa b0bd 47f0 333d 0153 f5bd dae0 d83d

lstm.weight_ih_l0_reverse f4 [256, 4]
0.014622774 0.11321559 -0.11224447 0.04767165 0.10528373 0.042035386 0.052634783 0.058471665
0.09217616 0.089216515 -0.053623363 -0.074574634 -0.107535325 -0.088318095 0.09497094 -0.0072560213
0.06108736 0.004949341 -0.007020755 -0.102811985 0.029624404 -0.016324725 0.1109336 -0.019936752
-0.10933462 -0.09295436 -0.10085567 -0.057471763 -0.099155955 -0.051334158 0.026751367 0.026132299
0.0688261 0.10706745 0.019908769 -0.0977729 0.103624545 -8.41275e-05 -0.026268747 0.0014555779
0.072982125 -0.010267417 0.09888909 0.060277104 0.06997591 -0.079763815 -0.0054308646 -0.029656604
0.12464168 0.0093440395 -0.05739663 0.06104902 -0.07748911 -0.057564456 0.018755818 0.08412361
-0.025688728 0.07269769 -0.101530194 0.11071563 0.026820509 0.015161807 0.03372963 -0.020647304
-0.041016486 -0.013322223 -0.056054413 0.011060069 -0.084161855 -0.053948008 0.013349513 0.0045602457
-0.05835437 -0.052667595 -0.11466143 -0.04633726 -0.025776317 -0.019129219 0.063211985 0.044351485
-0.059489433 0.111985505 0.0021854616 0.018934703 -0.09100672 0.0048555485 -0.005786684 0.10792274
0.08738385 0.10265598 -0.083247095 -0.09839904 -0.047249667 0.034437317 -0.009913228 0.04535518
-0.0034647642 -0.06444766 -0.027417652 0.08502079 0.05852506 -0.10727609 0.059679803 -0.064122
-0.09156485 -0.07170257 0.026375648 0.118448384 0.053077053 0.04333653 0.0019671428 0.09803501
0.08130801 -0.010479982 0.10046474 -0.10162287 0.08186519 -0.10523172 -0.0135404365 0.047075942
0.026435645 0.07054224 -0.10169675 -0.001354014 0.064281315 -0.04807324 -0.031001732 0.023891184
0.05064029 -0.08941173 -0.059220567 0.097149566 0.10225721 0.046373393 -0.07332637 0.10518122
-0.05097439 -0.0100184 -0.07115421 0.06348883 0.031569377 0.040012848 -0.009038192 0.017758373
0.043664392 -0.054229535 -0.044866435 -0.11436554 -0.09479215 0.10348598 0.05713916 -0.089274615
-0.08571166 -0.11167976 0.06694965 0.11668117 0.02528063 -0.09054061 -0.10992395 0.010994916
0.015478177 0.0012499781 0.09336497 0.06265097 -0.04628027 -0.07159939 -0.05298769 0.036638793
-0.106078744 0.007480541 0.10631537 -0.056699377 -0.06845573 -0.11281353 -0.029743284 -0.08863029
0.115047716 0.026852319 -0.07247782 0.03305498 -0.002546548 0.008380804 0.11163206 -0.075396724
0.06398122 -0.10324012 -0.04708295 -0.032493457 -0.10142954 0.08012349 0.046943214 -0.055871762
0.035570197 0.033639427 -0.072450414 0.019544827 -4.2150376e-05 0.048906174 -0.12929155 0.015391383
-0.113079846 0.10215561 0.11446083 -0.0509074 -0.09103489 -0.00076596974 0.024357421 0.10631126
0.099149756 0.06731235 0.0851781 -0.04846669 0.031716898 -0.017100357 -0.041210234 0.0937305
-0.0041580806 -0.11592773 -0.043225966 -0.08016152 -0.020501103 -0.008534177 -0.086290054 0.12074335
-0.09732132 -0.030760406 -0.093014635 -0.06926595 -0.11364389 0.10656985 -0.038670026 0.081696935
-0.07073761 -0.071728036 0.057709098 0.11096353 -0.10761412 0.09714494 0.1019797 -0.06185975
-0.0012507731 -0.05750766 0.072078295 -0.012364792 -0.0844754 0.105326444 0.038303092 -0.10053154
0.1020212 0.0011741277 0.061734118 0.08129708 0.037932 0.029473 -0.081263304 0.024112841
00000000: 5c94 6f3c 93dd e73d 6ee0 e5bd 5943 433d
00000010: ff9e d73d 4c2d 2c3d 9297 573d fc7f 6f3d
00000020: dbc6 bc3d 26b7 b63d 2ca4 5bbd 96ba 98bd
00000030: 7b3b dcbd 1ee0 b4bd 2080 c23d ebc3 edbb
00000040: bd36 7a3d 152e a23b 5d0e e6bb 178f d2bd
00000050: e1ae f23c 6ebb 85bc 2831 e33d 6652 a3bc
00000060: d4ea dfbd db5e bebd 6b8d cebd 8367 6bbd
00000070: 4712 cbbd c443 52bd af25 db3c 6713 d63c
00000080: b3f4 8c3d 2e46 db3d b717 a33c 283d c8bd
00000090: 1b39 d43d 9c6d b0b8 8e31 d7bc 17c9 be3a
000000a0: a777 953d ab38 28bc 5d86 ca3d 20e5 763d
000000b0: 884f 8f3d 365b a3bd 65f5 b1bb 68f2 f2bc
000000c0: 2344 ff3d be17 193c bb18 6bbd 8a0e 7a3d
000000d0: 9cb2 9ebd b5c8 6bbd cda5 993c 0049 ac3d
000000e0: 2b71 d2bc 87e2 943d 10ef cfbd e0be e23d
000000f0: afb6 db3c 3a69 783c 1528 0a3d 8924 a9bc
00000100: e700 28bd 7445 5abc 5099 65bd 4b35 353c
00000110: 0d5d acbd 96f8 5cbd eab7 5a3c 1d6e 953b
00000120: fe04 6fbd fab9 57bd 9dd3 eabd 24cc 3dbd
00000130: db28 d3bc e1b4 9cbc 4975 813d e7a9 353d
00000140: 31ab 73bd a858 e53d f639 0f3b f31c 9b3c
00000150: bb61 babd 4b1b 9f3b 399e bdbb 9906 dd3d
00000160: 4ef6 b23d 4c3d d23d 747d aabd 7085 c9bd
00000170: de88 41bd 250e 0d3d 186b 22bc 5ac6 393d
00000180: 1911 63bb 23fd 83bd fc9a e0bc 611f ae3d
00000190: f9b7 6f3d 91b3 dbbd cf72 743d 6552 83bd
000001a0: 5a86 bbbd ccd8 92bd be11 d83c 1195 f23d
000001b0: 5367 593d a581 313d 2eeb 003b 94c6 c83d
000001c0: d084 a63d 3bb4 2bbc 75c0 cd3d a71f d0bd
000001d0: f0a8 a73d ba83 d7bd b5d8 5dbc b4d2 403d
000001e0: 918f d83c 7378 903d 6346 d0bd 2c79 b1ba
000001f0: eca5 833d 72e8 44bd 58f7 fdbc 72b7 c33c
00000200: 316c 4f3d 7f1d b7bd 4491 72bd 5af6 c63d
00000210: 3a6c d13d 07f2 3d3d 232c 96bd 4069 d73d
00000220: 86ca 50bd 3724 24bc 4cb9 91bd 6f06 823d
00000230: e44e 013d 83e4 233d ed14 14bc 027a 913c
00000240: 6fd9 323d ca1f 5ebd dec5 37bd 7b38 eabd
00000250: 6322 c2bd 75f0 d33d c00a 6a3d 9cd5 b6bd
00000260: 9889 afbd 5cb8 e4bd e61c 893d 8af6 ee3d
00000270: 5319 cf3c 5b6d b9bd cf1f e1bd 0524 343c
00000280: 2e98 7d3c 4ed6 a33a 2236 bf3d 274f 803d
00000290: 6190 3dbd b3a2 92bd 9f09 59bd 8f12 163d
000002a0: d03f d9bd 531f f53b dfbb d93d 9b3d 68bd
000002b0: 8532 8cbd c80a e7bd 30a8 f3bc cc83 b5bd
000002c0: 239e eb3d 65f9 db3c 406f 94bd a964 073d
000002d0: fce3 26bb a44f 093c 599f e43d 9969 9abd
000002e0: 9608 833d 8e6f d3bd 0dda 40bd dc17 05bd
000002f0: 4aba cfbd c917 a43d 8747 403d cad9 64bd
00000300: 0eb2 113d 7fc9 093d e260 94bd 791c a03c
00000310: 9fca 30b8 d751 483d 0165 04be 242c 7c3c
00000320: 6896 e7bd f636 d13d 716a ea3d 4784 50bd
00000330: 8070 babd 5ccb 48ba 3789 c73c b8b9 d93d
00000340: 070f cb3d 0fdb 893d db71 ae3d 0285 46bd
00000350: 94e9 013d 0c16 8cbc 10cc 28bd c7f5 bf3d
00000360: 8240 88bb 856b edbd b60d 31bd b92b a4bd
00000370: eef1 a7bc efd2 0bbc d7b8 b0bd 4a48 f73d
00000380: 6650 c7bd 3ffd fbbc 757e bebd 4edb 8dbd
00000390: 21be e8bd 4b41 da3d 7664 1ebd b950 a73d
000003a0: e1de 90bd 26e6 92bd 6060 6c3d d940 e33d
000003b0: cb64 dcbd edf3 c63d bcda d03d a660 7dbd
000003c0: fbf0 a3ba 278d 6bbd c99d 933d b295 4abc
000003d0: 7001 adbd 64b5 d73d b4e3 1c3d 7be3 cdbd
000003e0: 7ef0 d03d 30e5 993a eadc 7c3d 157f a63d
000003f0: 965e 1b3d 5c71 f13c 606d a6bd 4b88 c53c

lstm.weight_hh_l0_reverse f4 [256, 64]
0.025269447 0.037589777 0.03545843 -0.11092603 0.009128012 -0.063790314 -0.084132686 0.07684067
0.024007505 -0.07617008 -0.034124676 -0.060667124 -0.11820371 0.046759162 0.09815582 -0.008043879
-0.08809793 0.035796218 0.09474936 -0.118762545 -0.072250456 0.09458872 -0.04474594 0.072269015
0.028879466 0.10185903 0.105981715 -0.11387081 -0.063671686 0.028528966 0.10957706 -0.026170608
-0.06289276 0.061691824 -0.0869172 0.11014544 0.054632068 -0.04227697 0.0013041671 -0.017565629
0.073616385 -0.08681389 0.07518475 0.014716372 -0.018920725 -0.11186881 0.028237192 0.10905702
0.034698244 -0.006590329 -0.044538785 -0.08386982 -0.013578294 0.114144586 -0.11350364 -0.03800695
0.057231054 -0.09267539 0.025868203 0.058106843 -0.02290815 0.05433 0.07986204 -0.11200661
0.09458011 -0.016901268 0.12350364 -0.0908638 -0.08550161 0.11017052 -0.08294147 0.03444632
-0.10990889 0.0607062 0.10698603 0.07224711 0.014608048 -0.09254012 0.05362634 0.09033834
0.021402571 -0.027680606 -0.0931125 -0.11037113 0.11766188 -0.0638536 0.10374394 -0.03733553
0.110899985 -0.11549665 -0.0027727936 -0.089383736 -0.068152286 0.10696387 -0.12146742 -0.019981144
0.031004013 0.08361565 -0.027277026 0.034927085 -0.016640678 -0.022638785 -0.061400644 -0.063055016
0.025129149 0.02498459 -0.1269413 -0.0718185 0.11355878 0.014485073 -0.020667307 0.08675095
0.08174237 -0.051627018 0.081812136 0.02897201 -0.0008838923 -0.11054867 -0.07534231 -0.104845405
-0.10768865 0.11447699 -0.036220897 -0.016904892 0.021745548 0.008637247 -0.0697342 -0.043439176
0.09294872 -0.0068735154 0.035375826 0.034006126 0.03319589 0.0029840223 -0.053707153 0.0035232238
-0.062186893 -0.105312414 0.0023858815 0.111827984 -0.11997537 -0.09547297 -0.09663157 -0.09519698
-0.05420985 -0.008116045 0.101549335 -0.1047925 0.09770564 0.05171409 0.08736432 0.075960256
-0.011218239 -0.09878023 -0.0252047 0.07121237 -0.0031262278 0.050980646 -0.0895879 -0.08260097
0.12132922 0.12235478 -0.06657468 0.017275434 0.09206303 0.03990553 -0.015302939 0.0040961998
-7.013596e-05 0.008973506 0.0251476 -0.022701822 0.03496157 0.069092736 0.114986256 0.11454324
-0.10736544 0.11637241 -0.02229114 0.056503277 -0.027605332 0.08645746 0.022981118 -0.029707639
0.07673462 0.122861326 0.081489444 -0.057879962 -0.039535616 0.08918055 -0.0612661 -0.121428505
0.05259521 0.08649784 0.11902419 0.059800748 0.072287984 0.06535264 0.074550666 0.032787763
0.0020784969 0.09476651 0.07057082 -0.056718167 0.09515481 -0.034098875 -0.12648547 -0.04027647
-0.11090307 -0.06635267 0.08526672 -0.055793595 0.078175254 0.0795538 0.019017922 -0.0073178606
-0.0034668408 0.06489136 -0.061298598 0.12233018 -0.06463569 -0.056576557 0.031191358 -0.0515352
0.047713514 -0.055575214 0.05261999 0.09467273 0.045551177 -0.0893491 -0.06809996 0.00992869
0.022099014 0.04546137 -0.12788767 0.12716216 0.08956733 0.07403003 -0.11493056 -0.04586843
0.052531857 0.07643601 -0.040878028 -0.04126138 -0.09659853 0.01980237 0.021284586 -0.07763453
0.09663173 -0.0095288325 -0.08953205 0.07041415 -0.08299499 -0.12384174 0.06045147 -0.018627077
00000000: df01 cf3c bdf7 193d dc3c 113d 302d e3bd
00000010: a88d 153c 7fa4 82bd c24d acbd a45e 9d3d
00000020: 63ab c43c 0fff 9bbd 51c6 0bbd 177e 78bd
00000030: c914 f2bd 8986 3f3d eb05 c93d 79ca 03bc
00000040: b06c b4bd 0e9f 123d f40b c23d c739 f3bd
00000050: 0cf8 93bd bbb7 c13d 8547 37bd c701 943d
00000060: a194 ec3c 789b d03d f10c d93d 1935 e9bd
00000070: 4d66 82bd 94b5 e93c f069 e03d be63 d6bc
00000080: ebcd 80bd 91b0 7c3d a501 b2bd ef93 e13d
00000090: e0c5 5f3d 9e2a 2dbd 96f0 aa3a cbe5 8fbc
000000a0: 30c4 963d 7bcb b1bd 76fa 993d f01c 713c
000000b0: a3ff 9abc 7a1b e5bd af51 e73c 4959 df3d
000000c0: bf1f 0e3d b0f3 d7bb 4d6e 36bd f1c3 abbd
000000d0: 7e77 5ebc a3c4 e93d 9974 e8bd 2dad 1bbd
000000e0: 1c6b 6a3d 98cc bdbd 8ee9 d33c 7101 6e3d
000000f0: dfa9 bbbc 2289 5e3d b68e a33d b963 e5bd
00000100: 37b3 c13d 8774 8abc 7aef fc3d cd16 babd
00000110: 781b afbd 15a1 e13d 38dd a9bd 9617 0d3d
00000120: ea17 e1bd 10a7 783d 7e1b db3d 4bf6 933d
00000130: 9856 6f3c ad85 bdbd 4ba7 5b3d 4f03 b93d
00000140: 7254 af3c 70c2 e2bc c4b1 bebd 420a e2bd
00000150: b6f8 f03d adc5 82bd b477 d43d 24ed 18bd
00000160: 881f e33d 8289 ecbd c2b7 35bb d20e b7bd
00000170: 6d93 8bbd e00f db3d e9c3 f8bd 7faf a3bc
00000180: 21fc fd3c af3e ab3d 1274 dfbc b40f 0f3d
00000190: 0852 88bc f974 b9bc 3e7f 7bbd fd22 81bd
000001a0: a5db cd3c 7cac cc3c e6fc 01be 9415 93bd
000001b0: 8191 e83d cd52 6d3c 7c4e a9bc 7baa b13d
000001c0: 8b68 a73d da76 53bd 1f8d a73d b556 ed3c
000001d0: 02b5 67ba 5767 e2bd 124d 9abd 30b9 d6bd
000001e0: de8b dcbd ea72 ea3d 5d5c 14bd 217c 8abc
000001f0: b823 b23c 3d83 0d3c ced0 8ebd 47ed 31bd
00000200: e65b be3d 3a3b e1bb 3ee6 103d 024a 0b3d
00000210: 6af8 073d 968f 433b 08fc 5bbd e3e5 663b
00000220: afb7 7ebd 09ae d7bd 735c 1c3b 1206 e53d
00000230: a6b5 f5bd 5587 c3bd c6e6 c5bd a2f6 c2bd
00000240: 260b 5ebd 29f9 04bc 19f9 cf3d 739d d6bd
00000250: e519 c83d 27d2 533d 11ec b23d 0d91 9b3d
00000260: b4cc 37bc 4a4d cabd 167a cebc cbd7 913d
00000270: 66e1 4cbb 15d1 503d dc79 b7bd b32a a9bd
00000280: 747b f83d 2595 fa3d 4e58 88bd 3685 8d3c
00000290: 8b8b bc3d fb73 233d 2eb9 7abc 6a39 863b
000002a0: f515 93b8 9d05 133c 5702 ce3c 2cf9 b9bc
000002b0: dd33 0f3d 7e80 8d3d ea7d eb3d a595 ea3d
000002c0: 69e2 dbbd a854 ee3d e99b b6bc fb6f 673d
000002d0: 9424 e2bc 9c10 b13d e642 bc3c 6f5d f3bc
000002e0: 0a27 9d3d b89e fb3d f0e3 a63d 8a13 6dbd
000002f0: 19f0 21bd 4ba4 b63d 29f2 7abd 82af f8bd
00000300: 136e 573d c825 b13d f4c2 f33d a1f1 743d
00000310: b90b 943d 9bd7 853d 05ae 983d 764c 063d
00000320: 6437 083b f214 c23d 6f87 903d 4f51 68bd
00000330: 86e0 c23d 43ab 0bbd 6885 01be f1f8 24bd
00000340: 2621 e3bd e9e3 87bd 51a0 ae3d d387 64bd
00000350: 591a a03d 1aed a23d 79cb 9b3c aaca efbb
00000360: f033 63bb c3e5 843d 3d14 7bbd 3f88 fa3d
00000370: b75f 84bd d2bc 67bd 0585 ff3c 9316 53bd
00000380: 3f6f 433d d6a2 63bd 0f88 573d c7e3 c13d
00000390: df93 3a3d a9fc b6bd fe77 8bbd f2ab 223c
000003a0: fe08 b53c b435 3a3d fcf4 02be cc36 023e
000003b0: 146f b73d 0e9d 973d b760 ebbd 89e0 3bbd
000003c0: a52b 573d 7c8a 9c3d b86f 27bd b101 29bd
000003d0: 73d5 c5bd 9438 a23c 035d ae3c dafe 9ebd
000003e0: dbe6 c53d d21e 1cbc 945c b7bd 4b35 903d
000003f0: 47f9 a9bd bda0 fdbd f69b 773d d097 98bc

lstm.bias_ih_l0_reverse f4 [256]
0.09046455 0.06220967 0.02068415 -0.034792908 0.09619548 -0.037050087 0.12537089 -0.059153832
-0.03648559 0.052387588 -0.08342224 0.011726822 0.13280532 -0.08424002 0.09279679 0.009694547
0.071138814 -0.01908768 0.011808693 0.0064559896 0.01690221 -0.113413796 -0.052718047 -0.09180201
-0.045734152 0.0019696383 -0.102784246 -0.110880956 0.09744632 0.021024838 -0.08591013 0.11977452
0.0067904475 -0.0026384601 -0.1138346 0.02962437 -0.06342299 -0.061638843 0.006246066 -0.045636218
0.077486746 -0.03316269 0.10864527 -0.10870918 -0.030039357 0.01232282 -0.06237282 -0.045941707
0.018281762 0.10747243 0.033135112 -0.018519215 -0.07824397 0.04833879 -0.07849021 -0.09437627
-0.04823038 -0.10297121 0.06561256 0.057111386 0.07973255 0.10257384 -0.10708046 -0.03140779
0.0055803843 0.08485779 0.10467088 -0.11721529 -0.078306265 0.05318281 0.031052876 -0.10278928
-0.0231902 0.08175453 -0.04929203 -0.006761757 -0.06560362 0.051110275 -0.043912016 -0.05361641
0.11766287 -0.051845673 -0.052455205 0.0686933 0.046066098 0.052090276 -0.083271086 -0.045439716
-0.09499478 0.048238743 -0.017891683 0.048368018 -0.037419856 0.09112774 -0.105982885 -0.09698108
-0.0473211 -0.017179707 -0.02375636 0.03558344 0.11343504 -0.0016421567 -0.092824645 0.022976877
-0.09247714 -0.073396355 0.019348761 0.13026816 0.119743556 0.012564703 -0.0065110377 0.065426774
-0.028212396 0.09860263 0.09332785 -0.08167973 0.085008286 -0.0028328437 -0.036454424 -0.0997154
0.091674455 0.12027449 0.095976554 -0.07962939 0.08511872 -0.07995773 -0.11268549 0.102917485
-0.018392807 -0.113732286 0.0027644741 0.0438837 0.056816556 0.06900665 0.064788885 0.049548298
0.113140054 -0.019258168 -0.024378527 0.10262279 0.054734636 -0.073608786 -0.11348565 0.07449143
0.0042018592 0.09932638 0.13294555 0.115004756 0.112059824 -0.057706848 0.0648631 -0.04894601
0.050122455 0.08767994 0.12130192 -0.037333865 -0.035080202 0.06805299 0.0074390625 0.022109859
-0.05294301 0.06300705 -0.107476294 0.03879164 0.012728844 -0.04785592 0.04803262 0.055480547
0.009179105 0.09184142 0.106361665 -0.033412956 0.020594824 0.06613348 -0.090902396 0.06903611
0.009411186 -0.064633265 0.06659812 0.13046342 0.112526335 0.037673976 -0.12750894 -0.021564916
-0.0217218 0.09373276 0.07028637 0.08656741 0.00088041497 0.113528416 -0.053474266 -0.031588804
-0.07592686 -0.110049956 0.04700895 0.05959988 0.07180766 -0.0052272077 0.09861362 -0.08649605
-0.07334325 -0.090904154 0.017927114 0.106123745 -0.022351315 0.0036799198 0.015370112 -0.045476306
-0.028537866 -0.027460745 0.095806524 0.0035537102 0.017549017 0.01628701 -0.0828877 0.11293791
0.07982166 -0.11374987 0.0837406 -0.01489238 -0.059759784 -0.1208358 -0.0005502886 0.08993645
-0.019445026 0.09979462 -0.03658867 -0.09668933 0.01577366 -0.0067412728 -0.108765446 0.09401533
-0.07428198 -0.057608854 -0.057593346 0.088204056 -0.029290184 0.06288447 -0.021561127 0.018161522
-0.020364832 -0.04363673 0.06263252 0.0061384495 0.035211615 0.0320274 0.007445255 0.12524937
0.072952956 -0.09996827 -0.015443199 0.06805196 -0.04096588 0.05601159 -0.0828979 -0.0073855957
00000000: 7a45 b93d 91cf 7e3d ce71 a93c 0283 0ebd
00000010: 2302 c53d d5c1 17bd 3a61 003e 4a4b 72bd
00000020: ea71 15bd 5e94 563d 48d9 aabd db21 403c
00000030: 1efe 073e 0886 acbd 3e0c be3d e1d5 1e3c
00000040: 3ab1 913d c45d 9cbc 4079 413c c48c d33b
00000050: 8176 8a3c 7e45 e8bd e1ee 57bd b102 bcbd
00000060: bc53 3bbd 0c15 013b 8c80 d2bd 8e15 e3bd
00000070: f091 c73d 483c ac3c a6f1 afbd 584c f53d
00000080: 6782 de3b 04ea 2cbb 1d22 e9bd cfae f23c
00000090: eae3 81bd 0379 7cbd cdab cc3b 0bed 3abd
000000a0: 5fb1 9e3d 9ad5 07bd 6981 de3d eba2 debd
000000b0: 1915 f6bc a7e5 493c a47a 7fbd 5f2d 3cbd
000000c0: a2c3 953c 811a dc3d afb8 073d 9cb5 97bc
000000d0: 603e a0bd e5fe 453d 7abf a0bd 5948 c1bd
000000e0: 388d 45bd 92e2 d2bd e15f 863d a1ed 693d
000000f0: d24a a33d 3c12 d23d 004d dbbd 74a5 00bd
00000100: a8db b63b ecc9 ad3d b05d d63d 920e f0bd
00000110: 095f a0bd 38d6 593d 9a62 fe3c 3083 d2bd
00000120: 60f9 bdbc eb6e a73d 71e6 49bd bb91 ddbb
00000130: 315b 86bd 0259 513d 16dd 33bd e19c 5bbd
00000140: 3bf9 f03d 215c 54bd 45db 56bd 13af 8c3d
00000150: ceaf 3c3d 9d5c 553d 088a aabd ff1e 3abd
00000160: a08c c2bd fd95 453d 9491 92bc 8b1d 463d
00000170: 9045 19bd 2ea1 ba3d 8e0d d9bd 049e c6bd
00000180: c5d3 41bd 75bc 8cbc b39c c2bc f1bf 113d
00000190: a150 e83d a33d d7ba d91a bebd 013a bc3c
000001a0: a864 bdbd d450 96bd 4b81 9e3c 0465 053e
000001b0: 1c3c f53d 2fdc 4d3c 8b5a d5bb 79fe 853d
000001c0: af1d e7bc 2df0 c93d ac22 bf3d b447 a7bd
000001d0: d318 ae3d 3ba7 39bb 3c51 15bd 9637 ccbd
000001e0: d1bf bb3d 7952 f63d 5b8f c43d bc14 a3bd
000001f0: b952 ae3d e1c0 a3bd a6c7 e6bd 67c6 d23d
00000200: 83ac 96bc 79ec e8bd 2e2c 353b 65bf 333d
00000210: 7ab8 683d 5c53 8d3d 09b0 843d 28f3 4a3d
00000220: f9b5 e73d 4ec3 9dbc 7ab5 c7bc e62b d23d
00000230: 6d31 603d 34c0 96bd 2a6b e8bd f68e 983d
00000240: c0af 893b a16b cb3d e122 083e 9d87 eb3d
00000250: 9f7f e53d 045e 6cbd f2d6 843d 9d7b 48bd
00000260: 344d 4d3d 8a91 b33d 246d f83d 65eb 18bd
00000270: 42b0 0fbd 5e5f 8b3d 61c3 f33b bc1f b53c
00000280: c5da 58bd d709 813d 881c dcbd fce3 1e3d
00000290: a48c 503c 9204 44bd dabd 443d 923f 633d
000002a0: f563 163c 5b17 bc3d 25d4 d93d 06dc 08bd
000002b0: 7ab6 a83c fd70 873d 092b babd ce62 8d3d
000002c0: 6031 1a3c 725e 84bd 9864 883d 3498 053e
000002d0: 3574 e63d 0750 1a3d b491 02be e8a8 b0bc
000002e0: ebf1 b1bc f6f6 bf3d 4df2 8f3d 414a b13d
000002f0: a6cb 663a 9681 e83d d507 5bbd 4363 01bd
00000300: 8b7f 9bbd df61 e1bd 758c 403d 011f 743d
00000310: e50f 933d ff48 abbb f0f5 c93d d724 b1bd
00000320: fc34 96bd f52b babd e2db 923c 6857 d93d
00000330: 1b1a b7bc cf2a 713b ecd2 7b3c 5d45 3abd
00000340: 3ec8 e9bc 5bf5 e0bc 3636 c43d 5de5 683b
00000350: f5c2 8f3c 566c 853c 07c1 a9bd fe4b e73d
00000360: 8a79 a33d b1f5 e8bd 3180 ab3d 2bff 73bc
00000370: adc6 74bd c378 f7bd 3e41 10ba 9a30 b83d
00000380: 2d4b 9fbc 1f61 cc3d 00de 15bd 0e05 c6bd
00000390: c337 813c e5e5 dcbb 6bc0 debd 1c8b c03d
000003a0: 2721 98bd 43f7 6bbd 00e7 6bbd 54a4 b43d
000003b0: f8f1 efbc 93c9 803d f6a0 b0bc 79c7 943c
000003c0: 26d4 a6bc 6ebc 32bd 7b45 803d 0c25 c93b
000003d0: 0e3a 103d 2a2f 033d 53f7 f33b 5f41 003e
000003e0: 5c68 953d 2abc ccbd 7905 7dbc d35e 8b3d
000003f0: d7cb 27bd 696c 653d 60c6 a9bd de02 f2bb
