backend/api/ml/models/model_2a11c221-ed75-4325-b5a9-9838bf92b024.pth (torch, 949173 bytes, 26 tensors)

lstm.weight_ih_l0 f4 [256, 4]
00000000: ed99 fb3c 42a0 563b 099b 35bd 4a68 c8bd
00000010: 7932 b83d 14fd 9abd 6e0d 9c3d bc3e c1bd
00000020: 57e8 be3d f006 31bd d858 c9bd 4e95 58bd
00000030: 18c4 ca3d 3d4a e3bd 9d7f fabd 2e67 b13d
00000040: a67c d1bd d20c b63c fad1 8ebd 0548 b93d
00000050: 7d29 d13d cff8 67bd 4de7 923c 37b4 1b3d
00000060: 3810 a93d 1384 c1bd 4969 35bd 0ab7 1f3c
00000070: cb2e dcbd b3ef 91bd 969e cf3d 807d f83d
00000080: 4d06 00bd e3cb 6b3d 05d3 d4bd 1ff7 753d
00000090: cfda ab3d 33af 00be 4e75 9b3d a504 cabd
000000a0: 15f4 f8bd 659a b83d 5cdd aebd f54c 24bd
000000b0: dfcd 6e3d 1be5 a4bd fb10 c3bd f98f e4bd
000000c0: c486 c0bd a0d4 03bd efc7 8ebd 4c4f 2dbc
000000d0: 1275 f0bc c057 6dbc 7347 893c ee9c aa3d
000000e0: c039 42bd 36ae 1abd a008 0e3d 5990 383c
000000f0: 92db 543c 895d 85bd ddf6 c63c 1f25 cdbd
00000100: 1dfc 503d d2ea 7c3c 4b07 183d 5d2b 99bc
00000110: fff0 7b3c d3ef 92bb 2ea7 83bd 6102 4ebd
00000120: e62f ae3d dac8 813b dc90 a9bd bd5a d7bd
00000130: 232e b3bd a167 803d 4b7e 1b3d 836a c4bd
00000140: 982e 9f3d 7d6b 6dbd 9421 653d 8bbb f93d
00000150: e0eb db3d a93c abbd 1f8c b4bc f22a 1b3d
00000160: b2e1 8ebc 9557 eabd 08fb c03c 987b dfbd
00000170: 7033 4abc eea6 b0bd 42a0 40bd f75e 57bb
00000180: 1a59 e6bc 2a79 8abc 04d7 9fbd 9527 05bd
00000190: 516c 9dbd add2 c03d 5082 0d3d dd02 cd3d
000001a0: 37c1 0b3d e37e bbbd 89df afbd 00fb a93d
000001b0: 951a d73c 6a3c d83d 3080 57bd 3929 01be
000001c0: aae1 813d 98a6 213d 2ebf e4bd 0712 b73c
000001d0: a9dd fabc d51c 7abd b2df cb3d 851e 473d
000001e0: a0f4 ef3d 5958 8b3d f67e f63c cad8 eebd
000001f0: 3573 ebbd cdff aa3d 9718 cd3d b733 28bd
00000200: c9ef 94bd 25c6 ae3d 00ab edbd 7b0c c9bb
00000210: 2a8d 8cbd a1b8 a9bc 0a06 993d 6dd7 7c3d
00000220: 04c2 9f3d ca5b c33d e769 8abd 4433 413d
00000230: b0e0 dabd 1df3 d93c 4661 ce3c 3ddb c13d
00000240: 05dd e6bd 6f97 2cbc f8f9 cfbd 082e c2bd
00000250: deec 203d 25c2 223d 2a6b d53d b98d 693d
00000260: f83f 40bc dcc6 e43d db48 28bd 807e 5c3d
00000270: e7dd 0cbd b31d 943c ee44 cabd a2a9 c4bd
00000280: 4f7c aabd 6bd3 9a3c eb22 65bd 96ea b23d
00000290: 27b7 9ebd 69de 773d 7d23 283d 0b36 ecbd
000002a0: 2de6 5cbc b1e2 9bbd 0c00 f83d 1cc9 ab3d
000002b0: 4d4a d8bd 0812 d3bd 120f ddbb 4dba f1ba
000002c0: 5c2f ce3d eb6c bcbd 668e c3bd bfc4 de3d
000002d0: 664c b6bd 9845 cdbc 489c f2bd c094 9a3d
000002e0: 0f43 e3bd f962 ecbd e543 ea3d d0be 9f3d
000002f0: 401d f2bc 69b3 c93d e5bd a3bd 2dbe 663d
00000300: 6a40 23bd a5d9 e3bd a8ad 3abc 2696 ae3d
00000310: fed0 fabd 1cc4 fd3d 5980 1cbd a11c 2bbd
00000320: a107 a73d 604a 133d 1186 d43d 4d39 ad3d
00000330: eda5 833d 6070 b73c 77df a83c 686b 313d
00000340: 1e08 38bd dbc9 e6bd 84d5 a23d 77d0 93bc
00000350: 58a2 90bd 2b59 85bd 122d 1f3d 7dc7 c9bd
00000360: cb53 b3bd 6f29 483d b244 de3d f0d0 9a3c
00000370: 402c ac3b 07e3 4cbd 2d8d cf3d fa73 863d
00000380: 0202 263d 4115 433c 9fae 39bd 527a 933d
00000390: 5d8e ebbd daf1 483d 4d1f a33d 0a0a 00be
000003a0: 4499 653d a9c7 443c 87bb c83d 0a80 f23d
000003b0: 44f8 e83d 9f90 983d c8c3 663d ae62 543c
000003c0: 8bda 4f3d 4ee9 993c 4bba 0b3d ba46 ec3d
000003d0: ed17 5ebd 4673 34bd 90e5 c9bd 8a00 943d
000003e0: 7802 f73d 9fa9 a83d 3d74 5b3d 6823 5bbd
000003f0: ff87 dbbd bd5c 503d a6e4 99bd 54ce 253d
0.030713046 0.003274933 -0.044337306 -0.097855166 0.08994002 -0.07567802 0.07619749 -0.09435794
0.09321659 -0.043219507 -0.09831399 -0.052876763 0.09900683 -0.11098144 -0.122313716 0.08662258
-0.10228853 0.02222291 -0.069736436 0.0904694 0.102129914 -0.056633767 0.017932558 0.038013663
0.082550466 -0.09449019 -0.04428986 0.00974823 -0.107511126 -0.07125797 0.1013767 0.12133312
-0.03125601 0.05756749 -0.10391811 0.060050126 0.08391344 -0.12566833 0.075907335 -0.09864167
-0.1215593 0.090138234 -0.08538315 -0.040112454 0.058301803 -0.08051511 -0.09524723 -0.11160273
-0.094007045 -0.032185197 -0.06971728 -0.010577988 -0.029352698 -0.014486253 0.016757702 0.08330713
-0.047418356 -0.037763797 0.034676194 0.011264884 0.012991803 -0.06511981 0.024287635 -0.10016846
0.051021684 0.015436845 0.03711633 -0.018697435 0.015377282 -0.0044841557 -0.06428371 -0.050295237
0.0850523 0.003960711 -0.08279583 -0.10515354 -0.08749034 0.06269766 0.03796224 -0.09590628
0.07772559 -0.057963837 0.055940226 0.12193974 0.10738349 -0.083611794 -0.022039471 0.037882753
-0.017441604 -0.11442486 0.023557201 -0.109122455 -0.012341365 -0.08625589 -0.047027834 -0.0032863
-0.028118659 -0.016903479 -0.07804683 -0.03250845 -0.07686675 0.09415183 0.034548104 0.10010312
0.03411981 -0.09155061 -0.08587558 0.082998276 0.026257792 0.10558398 -0.052612484 -0.12613381
0.0634187 0.039465517 -0.11169277 0.022347463 -0.030623274 -0.061062653 0.09954776 0.04861309
0.117165804 0.0680396 0.030089837 -0.11662443 -0.11496583 0.083495714 0.10014456 -0.041064944
-0.07272298 0.08533887 -0.11604881 -0.006135521 -0.068628624 -0.02071792 0.07471855 0.061728884
0.078006774 0.09538992 -0.067584805 0.04716803 -0.10687387 0.026605183 0.025192868 0.094656445
-0.11272625 -0.010534151 -0.101551 -0.09481436 0.039288394 0.039735932 0.104208305 0.057019923
-0.011734001 0.11170742 -0.041085105 0.053831577 -0.03439131 0.018080568 -0.098764285 -0.096026674
-0.08324491 0.01889964 -0.055941503 0.0873615 -0.07749777 0.06051484 0.04104947 -0.115337454
-0.013482613 -0.07611597 0.12109384 0.08387968 -0.10561047 -0.103061736 -0.0067461813 -0.0018442363
0.10067627 -0.09200462 -0.09548645 0.1087737 -0.089012906 -0.025057599 -0.118462145 0.07547903
-0.11096775 -0.11542315 0.11438731 0.078000665 -0.029554963 0.09848673 -0.07995204 0.05633371
-0.039856352 -0.11125497 -0.011393942 0.08524732 -0.12246893 0.123909205 -0.03820834 -0.04177535
0.08155752 0.0359596 0.10377134 0.08458195 0.06428132 0.022392452 0.020614369 0.04331532
-0.044929616 -0.112689696 0.07950881 -0.01804374 -0.070622146 -0.06511148 0.03886134 -0.098525025
-0.087562166 0.04886764 0.10852946 0.018898457 0.0052542984 -0.050021198 0.10134349 0.065650895
0.04052926 0.011906923 -0.045332547 0.07201065 -0.11501763 0.049058773 0.079649545 -0.1250383
0.05605437 0.012010493 0.09801393 0.11840828 0.11375478 0.07449459 0.056339055 0.01296298
0.05074553 0.018788006 0.03411321 0.115369275 -0.054222036 -0.044055246 -0.09858239 0.07226665
0.12061018 0.08235478 0.05357765 -0.053500563 -0.107192986 0.050869692 -0.07514314 0.040479973

lstm.weight_hh_l0 f4 [256, 64]
00000000: d9d6 97bd 6d37 76bd fa13 b03d a0f2 993c
00000010: 7c57 85bd 4c30 15bb 92de a33d a86d 40bc
00000020: 049e 18bd d2a1 c73d a4a5 4b3d 189f 65bd
00000030: 7fa5 783d 550a c53d 4bad 4fbd e5ef 143d
00000040: afda 893d 0f2b de3d e0ac 22bd 8536 be3d
00000050: c254 a03d 1135 87bd 8254 3f3d fda7 7bbd
00000060: 56c3 563d b0f1 d4bc cf6a eaba 3fcd f23d
00000070: 7638 5abd bff9 8ebd 80a9 f7bd 15f4 a73d
00000080: 6e3a 72bd 56ba 05bd d574 20bd 48f1 71bd
00000090: 1608 3a3d 6ee5 fb3c 74df b8bd 41d1 de3d
000000a0: d4df 2e3d f0a8 24bd baa8 c7bd 3714 b0bd
000000b0: 09ee ebbd 1e5b 7abd 1ab1 f33c 0073 94bd
000000c0: e92a c93d 6c4c 63bc a771 bc3d c637 143c
000000d0: e001 f63d fed2 f73d 38a7 81bd 49e1 683d
000000e0: b184 ea3d ce2f 923d 0c09 f83d 0e06 a73d
000000f0: 5d83 553d 2be3 e8bc 53d5 a6bd 15a0 b13d
00000100: 4896 c7bd 9323 9a3d be5b 233c 0edd d3bd
00000110: 5e81 a43c 3e20 b13c a8f0 d73c a49b a83d
00000120: d8fb 4b3d 5f5f e73b 40dd 273d 0758 a23d
00000130: 1fef b93d c0a0 903b 891c 463d c419 6ebd
00000140: 71c3 f83d c94a d8bb 02a1 9dbc a7a5 ad3d
00000150: b79a 203d 5d64 e03c 1404 f1bc 6892 8d3d
00000160: 76c0 bb3d 2153 79bd 29d1 c93d 60ea 33bd
00000170: 67b7 be3d a325 06bd f861 e03d 0463 403d
00000180: 1e44 943d 2bc8 98bd 96bf fbbc 3f90 723d
00000190: c39a b0bd f950 963d 2586 613d e4dd b1bd
000001a0: b550 debb 1299 c23c 1896 893d 1af9 b53d
000001b0: 0464 d6bd 87fe f9bd e56a b63c 453a 223d
000001c0: 8205 4c3d 7897 493d b945 9abc 6b28 013e
000001d0: 1aaf f9bb 3dd4 d0bd ae7f 7f3d 5009 99bd
000001e0: 191c 643d 1ba7 963d 9cd8 013d bc5b 84bb
000001f0: a551 823d 7419 ecbc 221a 8bbd 506c a63d
00000200: 92ad 5d3d 3710 fbbd 5b2d f43d 6928 d63d
00000210: 5daf 13bc 3c9c b4bd ad7b 903d 4978 6cbd
00000220: 90d6 dbbd 1f03 4abd b163 2a3d 3fc2 1dbc
00000230: c29f 933d 45ea d5bd fe4e 413d d5ac 133c
00000240: eadf dbbd f8cf a63d 1c02 e0bd 44d5 8cbd
00000250: ad4e 79bc 4357 283d 90a3 0c3d ccbc e53d
00000260: 36a6 19bd c007 96bd eb69 ec3c 307a debd
00000270: 18e5 73bd 4f63 35bd e35c acbd 6d59 c73d
00000280: 16f4 f3bd f471 5f3b f867 823c 364d eebc
00000290: 0574 3abc 69c9 903d ee73 73bc 3130 a83d
000002a0: 57b8 bdbd 00e1 9dbd cb97 c03d d1b3 a3bd
000002b0: 1a1f d9bd 37cc dbbd 99af 00be 83c1 b4bc
000002c0: 688d 1abd c426 d9bd 91c8 94bc c22a e9bb
000002d0: fde1 b13d 6849 9e3b aaa1 8c3d df28 85bd
000002e0: 7019 28bd 3324 d1bd 1037 463d 44be 64bd
000002f0: eeda 1b3d 2657 883d 0af6 80bd e523 acbd
00000300: 9e11 d1bc 1b9a ce3d 7a9e a53d 4380 2c3d
00000310: 43bb debd 5987 29bd 59d0 f0bc 0cb1 4c3c
00000320: 0d42 b7bd ab92 f2bd cde8 e8bd e8d8 1b3d
00000330: 41be 43bd e7c5 933d 2d01 86bd f47d a13d
00000340: 5fed c53d 6a7c 613d 0587 8a3d 3278 83bd
00000350: cd76 adbd 747e f53c 401c dd3d bb44 78bd
00000360: e075 d93d 4611 a23c 8433 80bd fe63 16bc
00000370: 65e6 563d bc8d a03d 68c5 463d af21 c3bc
00000380: a40f 873c 3863 bdbd bebd f93d 78e7 67bd
00000390: 9c8d b9b6 79b4 dc3d e23d 10bd fc75 02bd
000003a0: 95e0 8c3c 8e4a 03bd 4177 fd3d e45e 503d
000003b0: 0d8e 6a3c 10ca 9bbd 0b23 f03c fb7a c63c
000003c0: 24a5 be3d 2aeb 463c 903e 8ebd 846a 8cbd
000003d0: e098 22bd bd86 90bc eff0 803d 13ea 843d
000003e0: 2415 1f3d d178 57bd 5922 893d d4b9 de3d
000003f0: 5252 953d 5c40 97bd e3de 04bd 246b 34bd
-0.07414026 -0.060111452 0.0859756 0.01879245 -0.06510827 -0.0022764383 0.08001436 -0.011744894
-0.03726007 0.09747662 0.049718514 -0.056059927 0.060704704 0.09621111 -0.050702374 0.036361594
0.06731164 0.108480565 -0.039715648 0.092877425 0.07828666 -0.066019185 0.046711452 -0.061439503
0.05243238 -0.025994152 -0.0017884615 0.11855554 -0.0532765 -0.06981229 -0.120928764 0.08200852
-0.059137754 -0.032648407 -0.03917392 -0.059067994 0.045417868 0.030749049 -0.09026995 0.10879756
0.042693928 -0.040200174 -0.09748979 -0.08597606 -0.11520011 -0.061122052 0.029747535 -0.07248497
0.098226376 -0.013873201 0.09201365 0.009046501 0.120120764 0.121007904 -0.063307226 0.056855474
0.1145109 0.07138024 0.121111006 0.08155452 0.05212723 -0.028428635 -0.08146157 0.08673111
-0.09745461 0.075263165 0.0099706035 -0.10344897 0.020081218 0.02162182 0.026359871 0.08232811
0.049800724 0.0070609297 0.040982485 0.07926946 0.09078812 0.004413694 0.048367057 -0.05813004
0.121466525 -0.006600712 -0.019241814 0.08478861 0.039210048 0.027391607 -0.02942089 0.069126904
0.091675684 -0.060870294 0.09854347 -0.04392469 0.09312325 -0.032750737 0.10956186 0.04696943
0.07239555 -0.07460054 -0.030731004 0.059219595 -0.086232685 0.07339663 0.05505957 -0.086849004
-0.0067845234 0.02375463 0.06718081 0.08885403 -0.10468295 -0.1220675 0.022267768 0.03960635
0.04980994 0.049216717 -0.018832074 0.12613074 -0.0076197507 -0.10196731 0.062377624 -0.07472479
0.05569086 0.073560916 0.031700715 -0.004039256 0.06363229 -0.02882073 -0.06792094 0.08126128
0.054120608 -0.12258952 0.11922713 0.104569264 -0.009013978 -0.08818862 0.07054839 -0.0577319
-0.10734284 -0.049319383 0.04159898 -0.009628831 0.07208206 -0.10445074 0.047194473 0.009013374
-0.107360676 0.08145136 -0.10937902 -0.06876615 -0.015216512 0.041098844 0.034335673 0.11217651
-0.037512027 -0.07325697 0.0288591 -0.10863149 -0.059544653 -0.04428416 -0.08416154 0.097338535
-0.1191179 0.003409502 0.015918717 -0.029089551 -0.0113802 0.07069666 -0.014859183 0.08212317
-0.09263676 -0.07708931 0.09403952 -0.07993282 -0.10601635 -0.1073231 -0.12566985 -0.02206493
-0.03773251 -0.10603097 -0.018162044 -0.007115693 0.08685682 0.004830528 0.068667725 -0.06501936
-0.041039884 -0.102119826 0.048392355 -0.055845514 0.038050584 0.06657247 -0.06296928 -0.08405284
-0.025521096 0.10087987 0.08086868 0.042114507 -0.10875561 -0.041388843 -0.029396223 0.012493383
-0.08948145 -0.11844381 -0.11372528 0.038048655 -0.047788862 0.07215481 -0.06543193 0.07885352
0.096644156 0.05505029 0.06764034 -0.0641941 -0.08469925 0.029967524 0.10796404 -0.06061242
0.10618186 0.019783627 -0.06259826 -0.009179113 0.052465815 0.07839534 0.048528105 -0.023819773
0.01648695 -0.0924744 0.121943936 -0.05661723 -5.529915e-06 0.1077661 -0.035215266 -0.0318508
0.017196933 -0.032053523 0.123762615 0.050871745 0.014316094 -0.076069 0.029313585 0.024228564
0.09308842 0.012141028 -0.069455266 -0.06856254 -0.039696574 -0.017642373 0.062959544 0.064899586
0.03883852 -0.052605454 0.066960044 0.10875288 0.07291092 -0.073853225 -0.032439124 -0.04404749

lstm.bias_ih_l0 f4 [256]
00000000: 4107 e53b 7c4c febd 0d49 b6bd 0198 b33d
00000010: 39dd ac3b ef9a 923d 8167 933d c28e 9a3d
00000020: 451d cd3c 21c3 52bd e447 4cbd 4883 773d
00000030: 9c6f 47bd 2977 c3bd 509a adbd 12ad 4b3d
00000040: 9bd9 95bc d5ca db3d 2a22 e73d e743 733b
00000050: ea70 f2bd 9c6d 493b 846d 973c 2f75 debd
00000060: 8e4f 4c3d 554b fb3b 927c 58bd b4db acbd
00000070: 2e27 7fbd 1622 c83c 0ff7 4abd 0602 8e3d
00000080: f996 b8bd be39 f5bc ba97 fabd 78f7 8c3d
00000090: 14d4 cebd c73e 96bd f0f6 78bc 4358 12bd
000000a0: 2ef0 8b3d 0757 efbd 23ac db3d ba85 58bd
000000b0: c8f4 a43d ee96 debd 10f3 403d 9fe0 a1bd
000000c0: b7b8 d7bc 004d 27bd d88b 4fbc 9e03 403c
000000d0: 0288 083d 9a96 d9bd 100b 9d3d 954d fb3d
000000e0: 46ca f7bc f91c d33c 77c8 913d fc83 c9bb
000000f0: 49dd 983d 1721 c43d e44e 023b d20a f3bc
00000100: 07fc aebd 9f70 01bd 96c4 0cbd 4e83 ed3d
00000110: ebc2 d13d 3dc5 fb3c 16a9 61bd 4f10 16bd
00000120: 0a19 d5bc 4407 1cbd b32d 923c 671e b3bd
00000130: 3e1a a03d 1de3 ce3d 38e2 4a3d 6d03 923d
00000140: 1479 733d 5234 b93d 1366 603d 5705 2f3d
00000150: ee03 aa3d ad61 f0bd bd76 b53d cf75 b5bd
00000160: 82fd 3dbd b2d3 dfbc bd94 ed3d 8935 ac3d
00000170: 1edb eb3d 27bf febd 299e 2e3d 1713 dfbc
00000180: af65 c13c 1724 123d 86a1 43bc 06eb 56bd
00000190: 99e8 49bd 4a57 d6bd 94da e3bc 8994 d9bd
000001a0: 6acb 473d a7ef f73d 94f3 64bd 3ddd b33d
000001b0: fb9d 0fbc c6dc 113d d2d7 753d a165 46bd
000001c0: ffe7 953d 5bfa 313c 9307 c1bd 33cf c03d
000001d0: 4441 f9bd 55cd 19bd e680 023e 2fea 1abd
000001e0: 6e2b 90bd 9318 a1bc e284 e03c 5ded d8bc
000001f0: 89af e63d 6102 353d 6664 e03d d2fe 2ebd
00000200: 441a bebd b752 e2bd 7992 d63d 2f6b 0cbd
00000210: f579 f2bd 6b74 b3bc 9bc8 593d d0e4 d6bc
00000220: 0b3b bfbd aa0c 5ebd 57d2 a43d 898b 1cbd
00000230: 1115 e03d 356c 463d b38e d2bd 0f2a 373d
00000240: a440 4fbd 7395 403d 59c5 80bd e727 f1bd
00000250: 6652 7ebc 0c80 fa3c 76ff a1bc a0d2 c93d
00000260: f4f2 efbd f069 d8bd e21a c3bd d28c 4b3d
00000270: 4d2f b23d 5f7c 003c 5370 fdbc 99a2 f6ba
00000280: 3ea9 543d e2dd 373d 0b62 c53d 94b4 433d
00000290: 01dc a73d 65bf 8fbb 432f 78bd 06a2 273d
000002a0: 3be4 b2bd 52da 1e3d 81b9 713d 2fb6 46bd
000002b0: b6b2 5f3d 3391 0c3d 30f8 b9bd 9e16 eb3b
000002c0: ce02 bfbd a3f5 683d 0a2a 4f3c a277 7cbc
000002d0: c551 fabc fb2f 00be 54d3 d03d 0e40 9ebd
000002e0: cff0 9ebd f23b 35bc 03fa 023d 0c0a 853d
000002f0: 8b20 723d 02bd 9abd cb10 ac3d ef7a 65bc
00000300: 3546 c5bd 7b61 1fbd 8c2e a53d 943e 11bb
00000310: 8891 333d 5a20 f1bd 1588 d4bd 6640 04bd
00000320: dae5 43bd 0ab5 213c 9054 dd3d 0570 d4bd
00000330: 8de1 a0bc a530 9a3d f15f f83c 0524 cdbd
00000340: 8474 fcbd 7dd0 b2bd 8424 bdbd a6b7 f13c
00000350: a9b5 9fbd 63cd 953d 3697 dc3d 961b b23d
00000360: 94c6 10bc 807a 90bd 2bf8 efbd 0ae3 b5bd
00000370: edc8 bebd 8ca0 03be bd74 b93d e083 00bc
00000380: 5b25 c2bd 1364 9cbc 3ae5 133d 8a42 15bd
00000390: 0d54 c63d f704 45ba e604 de3d 1f80 c4bb
000003a0: d3bf cbbd 54dc 75bb 0ae1 c53d c179 503d
000003b0: 680f 873d d4c1 c53d d725 aebd cc85 493c
000003c0: 50e2 c13d 811c 38bd f4f9 a4bd c895 f23c
000003d0: 8aac d03b e86d 3d3c 3692 ef3d 50e6 fabd
000003e0: 6aa4 f03d 77d1 c93d a599 323d 8421 95bd
000003f0: 508a 163d c7f1 d5bd 5721 d9bd 4214 c53d
0.00698939 -0.12416932 -0.08900652 0.08769227 0.0052753952 0.071584575 0.07197476 0.0754676
0.02503837 -0.05145562 -0.049873248 0.060427934 -0.048690423 -0.09544212 -0.084766984 0.0497256
-0.018292239 0.107320465 0.11285813 0.003711933 -0.11837943 0.0030735498 0.018484838 -0.10862195
0.049880557 0.0076688924 -0.052853175 -0.084403425 -0.062293224 0.024430316 -0.04955202 0.0693398
-0.09013171 -0.02993476 -0.12235971 0.068831384 -0.100990444 -0.073361926 -0.015195593 -0.035728704
0.0683292 -0.11686521 0.10726192 -0.052861907 0.08054501 -0.10868631 0.047106802 -0.07904171
-0.026333196 -0.040844917 -0.012667619 0.011719612 0.033332832 -0.10624428 0.07668126 0.12270657
-0.030247819 0.025770651 0.07118314 -0.006149767 0.07464082 0.09576624 0.0019883448 -0.029668245
-0.08544164 -0.031601544 -0.034367166 0.1159731 0.10242256 0.030733699 -0.055092894 -0.036636647
-0.026012916 -0.038092867 0.017844057 -0.08746033 0.07817505 0.10101912 0.049532145 0.0712956
0.05944164 0.090431824 0.054784846 0.0427297 0.08301531 -0.1173738 0.08860538 -0.08860361
-0.046384342 -0.027322624 0.11600635 0.084086485 0.11516403 -0.12438803 0.042631302 -0.027230782
0.023608057 0.03567895 -0.011940366 -0.05247023 -0.049294088 -0.10465868 -0.027814187 -0.10624034
0.048777975 0.12106257 -0.055896357 0.08782432 -0.008765693 0.035610937 0.060020275 -0.048436765
0.0731964 0.010862912 -0.09425273 0.0941452 -0.121706516 -0.037549336 0.12744483 -0.03782099
-0.070395336 -0.019665038 0.027407113 -0.026480371 0.112639494 0.04419172 0.109566495 -0.042723484
-0.092823535 -0.11050933 0.10477156 -0.034281906 -0.11839668 -0.021906098 0.053169828 -0.026232153
-0.093374334 -0.054211296 0.08047932 -0.03821901 0.10941518 0.048443038 -0.10281124 0.044717845
-0.050598755 0.047017526 -0.06287641 -0.11775189 -0.015522575 0.030578636 -0.019775134 0.09854627
-0.117162615 -0.10567081 -0.09526612 0.049694844 0.08700428 0.007842152 -0.03093735 -0.0018816768
0.051919214 0.04488934 0.09637841 0.047779635 0.08196259 -0.0043868297 -0.060591947 0.040926002
-0.08734938 0.038782425 0.0590148 -0.048513588 0.05461379 0.03431816 -0.09080541 0.007174327
-0.09326707 0.056874882 0.0126443 -0.015409382 -0.030556569 -0.12518303 0.10196558 -0.07727061
-0.07760774 -0.011061655 0.03197671 0.06496057 0.059113067 -0.07555582 0.084016405 -0.01400636
-0.096325316 -0.038911324 0.08065519 -0.0022162544 0.04383996 -0.11773749 -0.10377518 -0.032287978
-0.047826625 0.009869823 0.10807145 -0.103729285 -0.019638801 0.075288095 0.030319186 -0.10016636
-0.12326911 -0.08731172 -0.092354804 0.029506516 -0.07798321 0.07314565 0.10771029 0.08696668
-0.008836407 -0.07054615 -0.11717256 -0.08881195 -0.09315667 -0.12854213 0.09055469 -0.007843941
-0.09479781 -0.019090688 0.03610728 -0.03644041 0.09684 -0.00075156934 0.10840778 -0.0059967185
-0.09948697 -0.003751536 0.096620634 0.050897364 0.065947354 0.096561104 -0.08503311 0.012299966
0.09466994 -0.04494906 -0.08055487 0.029612437 0.0063682245 0.011561848 0.116978094 -0.1225096
0.117501095 0.098544054 0.043603558 -0.07281783 0.036753 -0.10446506 -0.10602062 0.096230045

lstm.bias_hh_l0 f4 [256]
00000000: 8c68 cf3c 6283 c23d 2fa9 f9bc b599 be3d
00000010: 40e4 de3d 77d3 c73d 49b1 953d c997 41bd
00000020: bd2a 5ebc 0eac ddbd 5818 303d 2f82 eb3d
00000030: e619 de3b 432a 313c a2f6 83bd 2e13 5c3d
00000040: ff54 babb 02ab 153d 4316 673c eb0d e3bd
00000050: bce7 c5bd 22e0 91bc c58c bcbd d182 ffbc
00000060: 36fe 2ebd f03e 8ebc f1b9 bf3d 4e20 c13d
00000070: bae5 48bd 2395 85bd d562 aebd 1eaa 873d
00000080: 5d04 e2bd aa6f d33d b40f 8d3d e54f a4bc
00000090: c6e2 41bc 9162 133c 15e4 b73d a034 ce3d
000000a0: bad4 6e3d 8bbe bd3d b9cd ee3d 3527 eabd
000000b0: 7d5b 45bd fa67 da3d 8ab8 5abc 5130 e63c
000000c0: a7d8 863d 9de0 e5bd c692 11bd 124f bcbd
000000d0: 5a8d 2bbd 454e e83c a952 8ebc c9a6 553d
000000e0: c484 88bc 2fc9 edbd d5d7 fb3b 5443 09bd
000000f0: bdf9 be3d f59a ea3d 8b29 debd ce97 1a3d
00000100: f723 1fbb 8519 03be 746e e23d 92ce 833d
00000110: 6e10 6b3c 0f92 b03d 0ede eabd 6054 b03c
00000120: 6752 7e3d 3fc4 f9bd b7fe f43b 8c37 f93b
00000130: da02 a03d 45ab f3bd fb47 eb3d 2fb1 fbbd
00000140: 0345 e1bb e6e9 73bd 3f16 82bd 52de aebd
00000150: 226f 9dbd 3318 c8bd c31b bc3d cd62 f9bd
00000160: fb87 c43d f4f9 e2bd ca01 53bd 6570 fbbd
00000170: 560b 3bbd 799d b7bd aaaa c03d 97d7 b1bc
00000180: ba43 563d f5b0 ba3d 3ca1 8ebd 318e d5bc
00000190: c0e4 9cbd 5816 a43d 3ae9 dfbb 51d7 e43d
000001a0: 020c 36bd a148 f03d 803c 24bc 1745 813c
000001b0: c5c9 633c 4904 d6bd 3a75 8dbd 039e 323c
000001c0: ff5d a5bd 1b22 4c3d 60a3 ccbc 7c20 8a3c
000001d0: ab79 6d3d 6b86 82bc 9feb 003e 7259 dbbc
000001e0: 8839 b7bd 3334 a9bc c242 263d f1cc 543d
000001f0: 6b8a c23b d856 acbd 7d6e 083d 94b0 afbd
00000200: 6c91 e3bd 453d 9f3d 9b43 883c 43c2 0dbd
00000210: 0214 80bb bd80 8e3c 3605 a2bc 43c7 5fbd
00000220: 22bb 97bc 75fa b63c 0733 003d 5c76 a6bd
00000230: d5db 08bd 9200 bebd 2a6e 4ebc 7d7a 58bd
00000240: 8de7 d6bd 531b fe3d ad22 cabd cf7d 15bd
00000250: f70c 333d 3c62 863d 45e6 e53d d36a 56bd
00000260: 5e9c 443d eda8 00be 5f89 f73d 5407 bcbd
00000270: 8505 863d 0045 18bd b9b2 b73d 806d ac3d
00000280: 53f2 a63d f89f 98bc c94b 27bd 7fc3 d93d
00000290: 7f33 db3d 47f0 22bd 1168 dabd de4d e13d
000002a0: beb8 d5ba 56c6 cf3c 6d5f c9bd fb91 823d
000002b0: ae98 fabc 81cb ec3d f213 7fbd bc12 de3b
000002c0: 70fb b5bd 07bd 8b3d daef 2ebd 07f9 9fbd
000002d0: d53d 1c3d 516c f1bb 7ac8 11bd 9e66 523c
000002e0: c594 86bc e7db e5bd 5c29 d43c e169 84bc
000002f0: 25bc dabd 1a83 b7bd 83c3 c2bd 323c e43d
00000300: 157a 383c 4d9c 773d 5b13 573d 5f31 d73d
00000310: d4a0 f4bd ca61 bd3d 8938 223d ea15 6fbd
00000320: 0952 f43b c9d3 843c 7284 b23c 318e 90bd
00000330: 9bfa 77bc 49fb e1bd 9815 2c3d 87ee a63d
00000340: 4895 7b3c 1893 c03c aa16 863d c63e b7bd
00000350: 015e 303a 7ae2 44bd 99c0 61bd 1d1e 64bb
00000360: 26ec 6abc b10b cb3b cdf9 9ebd 281d cdbd
00000370: 5e57 3ebd 849c d93d 5bdd bb3d 33e3 70bd
00000380: 09f4 873c e5ec db3c 83b2 193b 635d 7f3d
00000390: f58f a23c b40e c63c 5606 333d 735b 5b3d
000003a0: dcbe cabc 8176 513d d27b e7bd 66c6 9a3d
000003b0: 7ca0 253c 6af5 233d e1ab f73d a6b8 b7bd
000003c0: d35e 01bd 9342 5f3d d004 b0bd 14bc 3bbd
000003d0: d552 403c d122 813c 07e3 95ba 270e d23c
000003e0: 24d6 073d b5a9 e5bd 3f93 4e3c aea1 d7bd
000003f0: 553b 793d 4f8c 4b3d 0ed8 0dbd 0c26 8d3d
0.025318407 0.094977155 -0.03047618 0.09306661 0.10883379 0.097571306 0.07309205 -0.047263894
-0.013559994 -0.108238325 0.042991966 0.1149944 0.0067779897 0.010813299 -0.06443526 0.05372923
-0.005686402 0.03654004 0.014104429 -0.11086639 -0.096633404 -0.01780707 -0.09206537 -0.031190308
-0.042722903 -0.017363995 0.093616374 0.0942999 -0.04904721 -0.06522586 -0.085149445 0.06624244
-0.110359885 0.103240326 0.06887761 -0.020057628 -0.011833852 0.008995668 0.0897905 0.10068631
0.05830834 0.09264859 0.11660332 -0.114332594 -0.048182953 0.10664363 -0.013349662 0.028099211
0.06584292 -0.11224482 -0.035540365 -0.09194769 -0.04188285 0.028357634 -0.0173734 0.05216101
-0.01666487 -0.11610638 0.0076856413 -0.033511475 0.093249775 0.11455337 -0.108477674 0.03774243
-0.0024282911 -0.12802704 0.110562235 0.064358845 0.014347179 0.086216085 -0.11468135 0.021524608
0.062090304 -0.12195634 0.0074766534 0.0076054987 0.07813044 -0.118979014 0.114883386 -0.122896545
-0.006874682 -0.059549235 -0.06351899 -0.08538498 -0.076872125 -0.09770241 0.09184983 -0.12177048
0.09596249 -0.11082831 -0.051515378 -0.12277297 -0.045665108 -0.089655824 0.094075516 -0.021709247
0.052310683 0.09115783 -0.06964347 -0.026068779 -0.07660818 0.08012074 -0.0068332227 0.11173881
-0.044445045 0.11732603 -0.01002419 0.015780015 0.013903086 -0.10450036 -0.06907125 0.010901931
-0.08074569 0.049837213 -0.024980247 0.016861193 0.05797736 -0.015933236 0.12589882 -0.02677605
-0.0894652 -0.020654773 0.04059101 0.05195326 0.005936911 -0.08415002 0.033308495 -0.085786015
-0.111117214 0.07775358 0.0166338 -0.03460909 -0.003908635 0.017395372 -0.019777875 -0.05463339
-0.018521849 0.022336224 0.031298663 -0.08128044 -0.033412773 -0.092774525 -0.012599507 -0.05285119
-0.104933836 0.124075554 -0.09869895 -0.036496934 0.043713536 0.065617055 0.11225561 -0.05234797
0.048000686 -0.1256444 0.12086748 -0.09181085 0.065440215 -0.03717518 0.089696355 0.08419323
0.081516884 -0.018630967 -0.04084376 0.10632991 0.107031815 -0.039779928 -0.1066438 0.1100118
-0.0016305668 0.025363129 -0.09832654 0.063755 -0.030590381 0.11562253 -0.06227488 0.0067771357
-0.088858485 0.068231635 -0.04270921 -0.0781117 0.038144905 -0.0073676486 -0.03559158 0.012841849
-0.01642836 -0.11223584 0.025898628 -0.016163768 -0.10680417 -0.089605525 -0.09509947 0.11144294
0.011259575 0.060451794 0.052508693 0.10507464 -0.11944738 0.092471674 0.039604697 -0.05837051
0.0074560684 0.016214268 0.02179167 -0.07058371 -0.015135433 -0.11034257 0.04201278 0.08150964
0.015355416 0.02350764 0.065472916 -0.0894752 0.0006727875 -0.048067547 -0.055115316 -0.0034807988
-0.014338529 0.006196462 -0.077624895 -0.10015327 -0.04647004 0.10625556 0.091730796 -0.058810424
0.016595857 0.026846359 0.0023452349 0.06234492 0.019844035 0.024176933 0.043707214 0.05355401
-0.024749212 0.051138405 -0.11302914 0.07557373 0.010109063 0.040028967 0.1209333 -0.08970766
-0.031584572 0.05450685 -0.08594668 -0.045833662 0.011738499 0.015763672 -0.0011435457 0.025641514
0.033163205 -0.1121401 0.012608348 -0.10528885 0.0608476 0.049694356 -0.034629874 0.068920225

lstm.weight_ih_l0_reverse f4 [256, 4]
00000000: f0ee 7ebd 0ff3 783d b9b2 873d 0ec0 08bd
00000010: 3848 aabd 0dd5 63bc b362 d03c bd2f d8bd
00000020: 42bb db3d da5a ac3d f72a 1fbd 1046 f23d
00000030: a014 50bc 3489 9abd 607a 8bbd d784 dabc
00000040: d89e e7bd 0c58 1a3d 0e39 8dba 2ec4 d3bc
00000050: 14c7 18bd 94dc 683d b137 7fbd d006 c0bc
00000060: 58d6 813c 95b7 29bd 4ad8 1c3d a8f8 edbd
00000070: 910d fabd a3c2 9d3b 8cb8 b5bd c24c 8f3d
00000080: ffcf 9f3c c240 ee3d bd38 b53d e7c5 993d
00000090: e6f2 83bd 1090 3e3c 485c 27bd 5f09 ffbd
000000a0: 6bce 293d 13fb dcbc 8989 cebd 028c d43d
000000b0: 7993 13bd c96f b9bc 3e96 563c e5ae c0bd
000000c0: e3b6 82bd 3ef2 c7bb dfe8 99bd f1b9 1dbd
000000d0: a421 c73c 52b3 75bd 2a49 90ba 06fd aabd
000000e0: 6c9d 7b3c 8589 45bd 7ea0 e93c 1bd6 74bc
000000f0: ac55 acbd 3e94 80bd 83d0 cbbd e83e dabc
00000100: c9de 603d 7412 253d f96a b6bd 6314 e7bd
00000110: 75d8 4bbd 2b76 2dbc 6695 b0bd 37d5 bfbc
00000120: 0d8c 85ba 2873 1cbd 3346 2abd c96f a23d
00000130: 047b 51bd 2e75 bfbd 47de bebd 25dd 423d
00000140: 53fa 613d ecec 903d 6a38 30bd 023c cb3d
00000150: 9a6d e23d d236 b5bd e0fa a5bd f50b 9d3b
00000160: a7ac b53d 6981 f93c db9f 86bd 1a76 d33d
00000170: 6033 db3b 8364 753b 09a8 763d 3a60 cbbd
00000180: c5d8 b13c b330 cdbd bdf4 2cbc 82e4 6fbd
00000190: 6817 aebc f256 c9bd 0207 7bbd 3729 aa3d
000001a0: 0a38 f7bc 964d 3a3d 4743 683d 0950 223d
000001b0: f68b acbb 1191 d03d 6075 e4bd b4ca 9bbd
000001c0: 02c0 c13d 9dde 0abd 8694 ba3d ff5a 01be
000001d0: f674 bd3d e2eb d63c 3537 babd 3302 16bd
000001e0: 619c cc3d 1cdd 913c 2add cfbd 776a a6bc
000001f0: b21d babd 8bdd dc3d cfd7 98bd 42ba 133d
00000200: e61d 123d a93b 653c eb8b d0bd 0efa a23d
00000210: cedb 973d 1d91 cd3d 4f76 8a3d 6ce0 bfbd
00000220: 9cf3 923d 1ab7 afbc 2ab8 743c d386 373c
00000230: 30c4 71bb d89f 96bc 4eec 993d 71e4 46bc
00000240: b8fa f2bd 9b28 a6bd 2075 b23c 2467 cebc
00000250: 8451 3b3d 7f07 f23d 35de e7bc 147e b63d
00000260: 4018 9e3d e7dc c43d d459 e03d 4096 ce3d
00000270: aebc 96bd b1ec a13d ee61 b03d 79b9 013c
00000280: b829 e7bd 1319 22bd 96e0 ab3d b82c 893d
00000290: 5686 c0bc a782 9fbc c21c c03d b418 83bd
000002a0: b19a aa3d 742f 9a3d b509 d43d 0157 c2bc
000002b0: 066e 6abd ee89 adbb f3a9 d73c ae0a 453d
000002c0: d7f6 f8bd a893 923c 8b0a 58bd ae85 27bd
000002d0: 77d4 b4bd ce87 36bd cb3f 45bb 2f34 59bd
000002e0: acd8 6cbd 6807 26bc 08dd cf3d e4a1 30bc
000002f0: c936 d03b 8490 b2bd d215 cd3c 8401 94bd
00000300: 376a 4d3d eb36 e43d 950e 863c 2628 dcbd
00000310: 4eed 52bd b7c1 253c efbe e3bc 19de d5bd
00000320: ea71 693c fe87 b33d 553b d9bd fb9c 66bd
00000330: 9d1a d0bd e183 d9bc 84bd 42bd 551c 023d
00000340: d476 853c e4c5 a73d bbc6 e4bd 2a43 bdbc
00000350: 5c59 acbb 0316 02be a3a6 c739 7385 d23d
00000360: 1123 dbbd 645b d9bd ee4d fbbd e471 d63d
00000370: ded1 5b3d b0e4 cf3b fc61 e23d 665a abbb
00000380: 5f0c e63d 082e 9fbd 2300 04bd 38ed e33d
00000390: 9fc9 2d3d a50a d33d ba8c ca3d ede4 8ebd
000003a0: 5401 b8bd e7ce f8bd 5228 a23c d825 92bd
000003b0: 6569 693c 7d24 b8bd a529 583d 1a46 7b3d
000003c0: d8d8 e83d d9bf c7bd 3325 bfbd 607f d5bd
000003d0: cf9a 83bc a14d b43d 49da 5ebd a3e4 d1bc
000003e0: 4935 efbd 9b49 54bb 5688 a7bd ac9a 8f3d
000003f0: ea5d 123d bc07 0dbd 4d32 b2bd 8d9d 30bd
-0.062239587 0.060778674 0.066258855 -0.033386283 -0.08314556 -0.013905776 0.025437688 -0.1055598
0.10729076 0.08415766 -0.038859334 0.118297696 -0.01270023 -0.07545701 -0.068104506 -0.026674671
-0.11309594 0.037681624 -0.001077445 -0.025850382 -0.03729923 0.056850985 -0.06230897 -0.023440748
0.015849277 -0.041434843 0.038292207 -0.11619693 -0.12209619 0.0048144623 -0.0887309 0.06997062
0.01950836 0.11633445 0.088487126 0.0750845 -0.064428136 0.011631027 -0.04085949 -0.12452959
0.04145662 -0.02697519 -0.100848265 0.10378267 -0.036029313 -0.022636311 0.013097344 -0.094083585
-0.06382539 -0.0061018756 -0.0751512 -0.038507406 0.024308033 -0.059985466 -0.0011008133 -0.08349042
0.0153573565 -0.048226852 0.028518911 -0.014943625 -0.08414778 -0.06278275 -0.0995188 -0.026641324
0.054899964 0.0403008 -0.08907122 -0.11283185 -0.049766976 -0.0105872555 -0.086222455 -0.023417098
-0.0010188833 -0.03819576 -0.041570853 0.079314776 -0.051142707 -0.09348522 -0.0931974 0.04757418
0.05517037 0.07076439 -0.04302255 0.09923555 0.11056061 -0.08848347 -0.08104491 0.004792685
0.088708214 0.030457215 -0.06573459 0.103252605 0.006689474 0.0037443943 0.060218845 -0.09930463
0.02170981 -0.10019054 -0.010556397 -0.05856753 -0.021251395 -0.098310366 -0.06128598 0.08308642
-0.030178089 0.045484148 0.056704786 0.03962711 -0.005265708 0.10183919 -0.111552 -0.07607022
0.09460451 -0.033903707 0.0911036 -0.12632369 0.09250824 0.026235525 -0.09092561 -0.03662319
0.099907644 0.017805628 -0.101496056 -0.020314438 -0.09087695 0.107844435 -0.07463037 0.0360663
0.035673045 0.013991275 -0.10182937 0.079578504 0.07414971 0.10037444 0.06760847 -0.09368977
0.07175371 -0.021449614 0.014936486 0.011201578 -0.0036890619 -0.018386766 0.07515775 -0.012139426
-0.11864227 -0.08113214 0.021784365 -0.025195666 0.045732036 0.11817836 -0.028304199 0.08910766
0.07719469 0.09612446 0.10954633 0.10087252 -0.073602065 0.079064734 0.086124286 0.007917755
-0.11287254 -0.039574694 0.08392446 0.066979825 -0.023501556 -0.01947148 0.09380485 -0.06401196
0.08330286 0.07528582 0.10353414 -0.023723127 -0.057233833 -0.0052959835 0.026326155 0.048105888
-0.12156456 0.017892674 -0.05274443 -0.04089897 -0.08829587 -0.044563107 -0.0030097838 -0.05302828
-0.057823822 -0.010133602 0.1014958 -0.010780785 0.006354187 -0.087189704 0.025034819 -0.072268516
0.050150122 0.11143287 0.016364375 -0.10749845 -0.051495843 0.010116986 -0.027801005 -0.104427524
0.014248351 0.08766173 -0.1060702 -0.056302052 -0.10161326 -0.026552143 -0.047544017 0.0317653
0.016292013 0.081920415 -0.11170717 -0.023103315 -0.005259676 -0.1270371 0.00038080392 0.1027936
-0.10700048 -0.106131345 -0.12270723 0.10470942 0.05366694 0.0063444003 0.11053845 -0.005229282
0.11232828 -0.07772452 -0.032226693 0.1112923 0.04242861 0.10304765 0.09890123 -0.06977258
-0.08984628 -0.121488385 0.019794617 -0.07136124 0.014246319 -0.089913346 0.05277409 0.06134615
0.11369485 -0.09753389 -0.09333267 -0.104246855 -0.01606503 0.08803869 -0.05440739 -0.025621718
-0.11680085 -0.0032392505 -0.08180301 0.07011923 0.035734095 -0.034431204 -0.08701 -0.043119002

lstm.weight_hh_l0_reverse f4 [256, 64]
00000000: 744e af3d cacc b23d f4a1 47bd 58ca 003d
00000010: a806 933b a289 093d 99a2 523d aa4e 463d
00000020: 3724 e03d 1eb8 6bbd 21e0 ae3b 4620 f73d
00000030: e23f c1bd 9017 323b 1170 923d c115 44bd
00000040: ec7f ecba 8bc8 8cbd c072 fd3d e7d2 f53c
00000050: 09fe db3c 6c21 703d 4a87 e03b a030 953c
00000060: b6db c73c 8a7c b33d f38f c93d 9ca4 5e3d
00000070: 83be 2bbd 8ff0 94bd f835 fa3d 2ad9 c2bd
00000080: 8a17 15bd d0fe e73d a5d6 81bd 0bb1 fcbd
00000090: b041 aa3b 1ad9 353d b6e9 8f3b 2027 3abd
000000a0: 1c5c b33d c36b f8bd df93 c3bd 69d5 c3bc
000000b0: e826 c1bd c192 23bd bd73 513d dc1c f2bd
000000c0: f32f ee3c feb1 8ebd 927a 04bd 3365 d43d
000000d0: b9dd e73c f673 6fbc 071e c3bd 1417 08bd
000000e0: d0fa c33d 7da7 663b 1a00 93bd cb6c 86bd
000000f0: 2584 11bc 31e4 46bd 89ae 5c3d 707f efbd
00000100: bdab 6f3d 3ea7 19bb e346 6abd 1b0c 973d
00000110: 4b00 8c3d a3f9 783d 3478 fc3d f29c 893d
00000120: fd98 d2bd e7c3 7dbc 65c7 3dbc be40 ea3b
00000130: cd1c 233b 104d bf3d 4963 89bb 9d01 bb3b
00000140: 7882 e93c aba2 e6bd 299b 403b f1cb 58bd
00000150: 6872 98bd 6ff4 a7bc d106 f53d ebbd c13d
00000160: e4b4 02bd 59ed 75bc 4d4d d73c 512a 213d
00000170: 8f62 bf3d 0a7a eebd fbf6 91bd d9d3 8e3d
00000180: 00d6 513d b224 973b 0acc 8bbd f859 c73d
00000190: f4d7 483a a889 803d 343a a3bd 3c5f 523d
000001a0: 2970 363c e512 f63d 7f47 f43c 9b78 363d
000001b0: 8245 99bc 2a00 5ebd 3e84 143d 4c56 94bd
000001c0: c697 383d 1d92 8a3d 3cd2 2ebd d9db b83d
000001d0: 0bbb f3bd 0eaa 783d 71b9 fbbd 2293 fd3d
000001e0: 0cdd 8fbc 01d0 0a3d 420f 9ebd 3667 2cbd
000001f0: dae6 993d 19fe bebd 5adc e23d 1bb2 b23d
00000200: bc68 883d 031d 1a3c 64bb c23d 4498 f2bd
00000210: 5f12 ca3d eb2e f7bd d315 853c 3646 e6bc
00000220: 1b14 32bd a6d8 8ebd e03a 9cbc 24fd 22bd
00000230: 5097 073c 20f2 9a3d 5be2 c9bd 6ab6 473d
00000240: 2f0e 7bbd 8785 b9bd 59e1 a4bd 739f 1bbd
00000250: 681c 903d 6ea0 c1bd 6178 0ebb 53b4 eabd
00000260: c925 f93d d425 fabd 1c03 5c3d 4172 663d
00000270: f1b3 4ebd a68d d93d 88b6 a93d c286 ddbd
00000280: 9004 eebd cf7c 853d a083 05bd cfb0 8cbd
00000290: e19b 14bd e7c6 e23d 0eb6 c2bb 8161 4cbb
000002a0: 6f8f 143d 2875 e1bd 3f18 efbd 12e6 d83d
000002b0: 6780 eabd 08c7 c93c d566 753d cdb5 8abd
000002c0: 3622 b63c ac4a f53d 974e 20bd 61e5 35bc
000002d0: 7218 a23c fcad ed3c ecfc ef3d d91a bd3d
000002e0: 7c3f 63bd ebb6 4c3d 6712 c3bb 4b96 453c
000002f0: 3b61 7d3d 1ff5 c13b e97e 55bd 361d ee3c
00000300: 87ae ae3b badd 233c b664 1cbd 9da5 583c
00000310: c96a 37bb 8197 c7bd e68d 4ebd a46b 8d3d
00000320: 15d6 15bd 20f7 a03d 4a19 543c 8117 82bd
00000330: da4e 603d cb2c a73d df23 0c3b fa93 933c
00000340: 84bf 96bd 5a4c aa3d fe4e dd39 8941 ccbb
00000350: f20d c1bc 612e f93d 0302 bdbd 5f34 4b3d
00000360: aece 363d 8ec3 553c 7d49 84bc 7acf a3bc
00000370: cdb9 3abc 2387 75bd 79e9 543c 3550 7dbd
00000380: c6d3 29bd d5fb 323c ee4c 353d 6aed 7cbd
00000390: b471 833c 969e 22bd 2beb 1cbd f95a 6d3d
000003a0: 1c36 18ba d2e7 b3bd 2d00 c8bd 9da8 233d
000003b0: 8e5e efbd 27a7 a33d e88b b4ba eb7b 9e3d
000003c0: ab52 b63d b3b1 abbd 86f7 433c 6f3d 7a3d
000003d0: 04b0 7abd bfb6 013d fb8c 183c 1a39 d33d
000003e0: ae95 ea3d 747b 753d bb9c 7e3d 59f8 ca3d
000003f0: 09bd 81bd e5c7 b4bc 781b 4b3d 6f51 d33c
0.085598856 0.08730467 -0.048738435 0.03144297 0.0044868775 0.033578523 0.051424596 0.048414864
0.109444074 -0.057548635 0.005336777 0.120667025 -0.09436013 0.002717469 0.07150281 -0.04787231
-0.0018043495 -0.06874188 0.123754025 0.030007793 0.026854532 0.058625624 0.006852065 0.018211663
0.024396759 0.08763988 0.09841909 0.054356202 -0.041929733 -0.072724454 0.12217325 -0.09514077
-0.0363994 0.113278985 -0.06339768 -0.12338456 0.005195819 0.044396497 0.004391874 -0.04544747
0.08757803 -0.12129929 -0.095496885 -0.023905473 -0.09431249 -0.039934877 0.051135767 -0.11821911
0.029075598 -0.06967543 -0.032343455 0.10370865 0.028303968 -0.01461505 -0.09527212 -0.033225134
0.09569323 0.0035195046 -0.07177754 -0.06563719 -0.008881603 -0.048557464 0.053877387 -0.11694229
0.05851339 -0.0023445631 -0.05719651 0.07375356 0.068359934 0.060784947 0.123276144 0.06719388
-0.102830864 -0.015488601 -0.011583184 0.007148831 0.0024888993 0.093408704 -0.004192744 0.0057069794
0.028504595 -0.11261495 0.0029389358 -0.05292887 -0.07443696 -0.020502297 0.11964191 0.09460052
-0.031910792 -0.015010201 0.026281977 0.039346997 0.093449704 -0.11644371 -0.07127186 0.069740005
0.051229477 0.0046125287 -0.06826027 0.09733957 0.0007661574 0.06276256 -0.07970086 0.051360354
0.0111351395 0.120153226 0.029819248 0.044548612 -0.018709902 -0.054199375 0.03625893 -0.07243022
0.045066617 0.0676615 -0.042680964 0.090263076 -0.1190091 0.06070905 -0.122912295 0.12381579
-0.017561458 0.033889774 -0.07717754 -0.042090617 0.075147346 -0.09325809 0.11077185 0.08725377
0.066606015 0.009406331 0.09508398 -0.118454486 0.09866785 -0.12069496 0.016245758 -0.028109651
-0.043476205 -0.06974916 -0.019071043 -0.039792195 0.008275822 0.07565713 -0.09857627 0.048757948
-0.061292823 -0.090586714 -0.08050794 -0.03799386 0.07036668 -0.09454428 -0.0021739232 -0.11460175
0.1216541 -0.122142464 0.053713903 0.056261305 -0.050464574 0.106227204 0.08286768 -0.10816719
-0.11621964 0.06517946 -0.03259623 -0.06869661 -0.03628147 0.11073094 -0.0059421128 -0.0031186047
0.0362696 -0.11008674 -0.116745465 0.105907574 -0.11450272 0.024631038 0.05991252 -0.06772957
0.02223311 0.11977133 -0.03913745 -0.0111020515 0.019787047 0.029013626 0.11718163 0.092336364
-0.055480465 0.04997913 -0.0059531215 0.012059758 0.061860304 0.0059191133 -0.052122984 0.029066663
0.005330864 0.010001594 -0.038181983 0.013223079 -0.0027987233 -0.09745694 -0.050428294 0.069052964
-0.036581118 0.07859635 0.0129454825 -0.06352139 0.0547627 0.081628405 0.0021383686 0.018014897
-0.073607475 0.08315344 0.0004221126 -0.0062333983 -0.02356622 0.12167049 -0.09228899 0.04961049
0.0446307 0.013047112 -0.016148323 -0.019996393 -0.011396837 -0.05994333 0.012995117 -0.06184407
-0.04146173 0.010924299 0.04426282 -0.061749853 0.016045429 -0.03970202 -0.03831021 0.057948086
-0.0005806403 -0.087844506 -0.097656585 0.039955724 -0.11687957 0.07990866 -0.0013774605 0.07738479
0.089024864 -0.08383503 0.01196087 0.061093744 -0.061203018 0.03166842 0.009310956 0.10313626
0.114543304 0.059932187 0.06216119 0.0991065 -0.06334884 -0.022067973 0.049586743 0.025795667

lstm.bias_ih_l0_reverse f4 [256]
00000000: eaa7 f43c d806 ccbd f01a 01bd d45d 073c
00000010: 1d7c fd3c 2b1b 74bd b1c5 c43d c3f8 0f3d
00000020: eb63 a73d b919 e5bd 85d6 bc3d ec8b 203d
00000030: ecc7 cebd 102e 9f3c 4255 e83d 5f4c bf3d
00000040: b3fd b63c dc7e 973d 9cd7 debd d877 dcbd
00000050: 968f 8d3d 53ce 813b 9f4e febd d352 d2bd
00000060: 6fed 413d 58ef 303d 5465 aabd 8f62 e83d
00000070: 954c 7d3b 8430 6dbd 685d 8cbd 3f2d 9e3c
00000080: 1a39 773d fd6a 88bd 0f15 36bc 9a14 65bc
00000090: 009a 9cbd d6fd 8bbd 7582 2bbd 712c 58bd
000000a0: fa58 fcbc 4c17 b83d dd6d 9e3d f3d4 35bd
000000b0: 3eff 69bd acd1 a3bc db17 bebd e7d4 053c
000000c0: c62d 88bd d937 a6bd 7c0d 043e 77a2 d4bc
000000d0: 0320 7cbd 9b68 713d e51c ac3c 6eea 2abd
000000e0: bb69 ebbd db9b 923d 7e78 4cbc 04af 49bd
000000f0: 69d0 dc3d 7207 e9bd 64d3 7e3d 682b db3d
00000100: e5d9 a4bd e580 3abd f77c c2bd c183 edbd
00000110: d446 e2bd 2b08 ad3d 8252 e5bd 9fbb 1bbc
00000120: 7034 b63d 998e 98bd b67e f7bd cb1a a5bd
00000130: f149 75bb 1ddd e0bc 231a 18bd f8e3 56bd
00000140: c847 debd 5a6b b03d 6bcf 633c d92a 9c3d
00000150: a888 a03d 5aba 113d d92c d23d ab25 ab3c
00000160: c606 da3d 4a7d f63d 1b7c febd c6fc d4bd
00000170: 168b 24bd d837 c73c 0aae eebd 48d0 f6bd
00000180: c513 093d 4931 7e3d 81c7 1f3b c487 163d
00000190: 4789 31bc f879 edbd 2b9c bf3d d7c3 c83c
000001a0: 9879 d6bc d1b2 6abc b042 833d 95ab 18bd
000001b0: 62b0 58bd d42f 25bd e17a be3c cd92 b03d
000001c0: 1745 7b3d ed25 e63d b67c 93bc 7ec0 33bd
000001d0: edc1 733b 5e4e b33b fff5 0fbb 8354 db3c
000001e0: d7c9 adbd d86d 29bd 47e6 e4bc 6581 2d3d
000001f0: 8be7 a7bd 7ce2 ba3d 930a babd 2cdc ea3c
00000200: cfb1 e43c b8c0 ebbd d544 e53d efa9 af3d
00000210: 7565 bdbd c78e ad3c 69c3 843d f52f 093d
00000220: 8941 9fbd 5dc9 88bd 8a7c 563d 75dc bf3c
00000230: 56eb bebd df9b ecbd a672 dabc 4d8e 633d
00000240: c8d6 d9bb 8cfa e83c 5447 293d 61b9 943d
00000250: 99e9 443d 51f0 e5bd 63ac eebd d866 01bd
00000260: 7864 003e 4302 6e3d ed20 b6bd 1d2f d5bd
00000270: 8ab5 aa3c e3e3 453d 4fcf 833d b7a0 b33d
00000280: 2c20 a9bd 0945 c53d 930a 2ebd c65c 903d
00000290: 3482 4bbc 8106 ac3d 2357 96bb c185 c63c
000002a0: f0fb 6dbc d1f5 e43d 89cd 013c 83ea b6bd
000002b0: 6a7d aebd 6c24 5fbd 67ac b2bd 56b8 b5bd
000002c0: 7c48 a9bd ab32 043d 9ca5 5abd fc32 d3bd
000002d0: b99f ce3d c10c 98bd ca77 d4bd 909f bbbd
000002e0: c689 22bb 588a bfbc c46e 913d 3299 ea3d
000002f0: 0d04 e0bc 3c59 c7bc f00e 4a3d 2f76 acbd
00000300: 369b 593d 7a77 e93d fcfa 393c e062 12bd
00000310: 1d25 b33d 36f6 ac3d c5f2 e4bc 7be6 6fbd
00000320: f49a d73d 4327 0d3d 511f 41bd 7d70 e3bd
00000330: ecf5 f6bd 06ba ec3d d3a2 efbb 6d04 713d
00000340: 5d68 5cbc 46bb a73d b851 a83c 9e91 e8bd
00000350: d67b a5bd 64ad 243d 8d01 383c e799 d83d
00000360: 073e 88bd bc48 c1bd 1a19 f03c f01f b03d
00000370: 2f17 b5bd 1431 a13d ac05 903c f5a6 c0bd
00000380: 889c ecbc 711c 03be 0ecd de3c 65ac 603a
00000390: 0ae3 8b3c 62f0 f93d b7c7 c8bd 3fd3 5abd
000003a0: 5b72 a5bc 1a33 28bd 130e 6cbd 1f07 d6bd
000003b0: 44eb 74bd 140a f53d f892 f6bd 651e ec3c
000003c0: 3eaa 753d 9114 99bd 9bbf 28bd 02f4 883d
000003d0: 8e22 4e3d 5032 c53d da18 b7bc 9d54 ba3d
000003e0: d402 7dbd 8a1e 7cbc 35b0 923d 1e43 0ebc
000003f0: d428 a83d 47a0 8a3d c2cc 683d 8181 f8bd
0.029865224 -0.09962243 -0.03151983 0.008262116 0.03094297 -0.059596222 0.09608019 0.035149347
0.08173355 -0.11186547 0.09220604 0.03919594 -0.10096726 0.019431144 0.11344387 0.093407385
0.02233777 0.073972434 -0.10880968 -0.10765046 0.069121525 0.0039613633 -0.124173395 -0.10269704
0.047345575 0.043197006 -0.08320108 0.113469236 0.0038650383 -0.057907596 -0.06853753 0.019308684
0.06035719 -0.066610314 -0.011113419 -0.013981963 -0.07646561 -0.06835525 -0.04187246 -0.052776758
-0.030804146 0.089888185 0.077357985 -0.044392537 -0.057128184 -0.01999744 -0.09281894 0.008168436
-0.066493556 -0.08116121 0.12895769 -0.025956376 -0.061553966 0.05893765 0.021009872 -0.041727476
-0.11494776 0.07158633 -0.012479899 -0.049239174 0.107819386 -0.11378373 0.062213317 0.107016385
-0.080493726 -0.04553308 -0.094964914 -0.11597396 -0.11048666 0.084488235 -0.11197378 -0.009505182
0.088967204 -0.07449073 -0.12084715 -0.08061751 -0.0037428106 -0.027449185 -0.0371343 -0.0524635
-0.10853535 0.08614226 0.013904433 0.0762536 0.07838565 0.03557811 0.1026246 0.020891985
0.10645823 0.12035616 -0.12426015 -0.10399775 -0.040171705 0.02431862 -0.11654289 -0.12051445
0.03346612 0.06205872 0.0024380388 0.03675057 -0.010835952 -0.11595529 0.093559586 0.024507446
-0.026181027 -0.01432486 0.06409204 -0.03727301 -0.052902587 -0.040328816 0.023251953 0.0862175
0.061345186 0.112377025 -0.018003803 -0.043884747 0.0037194446 0.0054719886 -0.0021966693 0.026773697
-0.084857635 -0.04136452 -0.027941836 0.04235973 -0.0819846 0.0912523 -0.09084048 0.02866944
0.027916817 -0.115113676 0.11194769 0.08577334 -0.09247867 0.021186246 0.06482584 0.033493
-0.07776172 -0.06679032 0.052364863 0.023420552 -0.093222305 -0.115531676 -0.026665997 0.05555563
-0.0066479184 0.028439783 0.04132779 0.07261921 0.04807434 -0.11227477 -0.11653974 -0.03159222
0.12538326 0.058107626 -0.08892999 -0.10409377 0.020838518 0.048313033 0.06436025 0.08770888
-0.082580894 0.09632308 -0.042490553 0.07048945 -0.01242118 0.08399678 -0.004588024 0.0242337
-0.014525399 0.11179698 0.007922539 -0.08931448 -0.085200146 -0.054478094 -0.087242894 -0.0887305
-0.082657784 0.032274883 -0.053380594 -0.10312459 0.100890584 -0.074243076 -0.103744105 -0.091612935
-0.0024801358 -0.023381397 0.07101205 0.11455001 -0.027345682 -0.024334542 0.04933065 -0.08420979
0.053126536 0.113997415 0.011351343 -0.035738826 0.08747313 0.084453985 -0.027947793 -0.058569413
0.10527602 0.03446127 -0.047149006 -0.1110544 -0.120586246 0.11558919 -0.0073131113 0.05884211
-0.0134526165 0.081900164 0.020546779 -0.11355899 -0.080802605 0.04020442 0.0112308385 0.105762295
-0.06652456 -0.09437701 0.029308844 0.085998416 -0.088423125 0.07870689 0.01758083 -0.094068445
-0.028883234 -0.12803818 0.027197387 0.00085706107 0.017076034 0.122040525 -0.098037176 -0.053424116
-0.02019613 -0.04106436 -0.05763061 -0.10450577 -0.05979468 0.11964813 -0.12039751 0.028823087
0.05997681 -0.07474626 -0.041198354 0.06687166 0.050325923 0.09628737 -0.022350717 0.0909817
-0.061770275 -0.01538814 0.07162515 -0.008682994 0.08210912 0.06768852 0.056835897 -0.12134076
