backend/api/ml/models/model_3af5b7bd-3658-4b3c-bdcb-f8daa7a5b4fd.pth (torch, 949173 bytes, 26 tensors)

lstm.weight_ih_l0 f4 [256, 4]
00000000: be40 8ebc 7e54 81bd fffc 94bd cb9d adbd
00000010: 67ad 133d e4d0 d0bd 6a64 8ebd 0898 b53d
00000020: a43b d53d 0479 3cbd 1d16 3ebd a895 f93d
00000030: ed78 353e 1a74 5e3d adc8 813d e21c 803c
00000040: 46d0 fa3d 0e2c 523d 3c6f ce3d 4239 d43c
00000050: e766 dabd 0f1e 033b fa1b 353e 0d8b c0bc
00000060: 0a5d b33d f32f 203d b8ac a8bd 5224 8fbb
00000070: d908 4fbd ef63 79bd 2f5a b33c 0f35 de3c
00000080: bd81 493c 423e e93d c67f 7fba 8299 f23c
00000090: 90f6 f43c b2fc 8dbc fcd6 0a3d 4221 9ebb
000000a0: 9273 a03d 00b4 dd3d 8a17 193e e8e5 3abd
000000b0: 28f7 83bd 6df7 183b ad62 e53c 4115 703c
000000c0: 81e3 193e cabb f93c 41c1 c83d 5919 d7bd
000000d0: e3b2 93bd 41f9 22bd ca0e 943d ebfe cf3b
000000e0: 60d1 0d3e 9d55 6b3d 4fea 8c3d 05d1 5d3c
000000f0: 7baa 793d 3c82 d63d 59dd aa3d 3c6c 023b
00000100: a1f4 153d 0331 1b3e ca76 1b3e 722c 243c
00000110: e0d3 343e 15e2 64bd d0a1 7cbc 48fe 813d
00000120: 3d4d ef3d b416 f53d b726 113e eabd d73d
00000130: 9dd6 b83d 82c6 a53c e5fc 43bc 9a16 913d
00000140: 912e 823d 51ec b83d cb92 613d dd8c bb3d
00000150: a4e5 c93d b351 d33d b7e6 163e 0c57 d73d
00000160: 5f19 e03d 5e92 19bd d930 72bc c53d 903d
00000170: e80f 32bd 94f0 65bb 272b 083e 0d72 f23d
00000180: f732 033e 097a 063e e31f 123e 7d83 643d
00000190: 0b11 9c3d f429 6dbd cbd9 75bd 15de 99bd
000001a0: 326f c63d 6af0 9c3d 6a65 cb3d 28e9 163d
000001b0: 5de8 d2bd facf 8a3d 8d4a b8bd 1718 a0bc
000001c0: 9082 913d 8d64 b83d 5dae 01bd daab 833c
000001d0: c344 093d 9391 593d 73f3 26bd ddd9 083e
000001e0: 7672 0bbd 5b92 0b3e 2724 b93d 8cfb 22bd
000001f0: bfc7 493d f7e7 7b3c 5f7f 2e3d bf27 dcbd
00000200: aa49 053e 80d7 78bd 5310 d63d 9e7a 053e
00000210: c825 243c f4db bbbd 3348 05bc f915 a83d
00000220: a0f2 98bc 1e88 c2bd 5c5e d5bd 6d9d 8a3d
00000230: b4f1 56bd 1154 123d 8d60 043d 3ebc d63d
00000240: 170c 4c3d 5abd 183d c90b 53bc d931 ea3d
00000250: f616 0c3d 439c f53d 9870 86bc 0706 dc3d
00000260: 5191 c4bd eecb e03d a6e7 833d 0640 553d
00000270: cb00 13bc 4b4e 103e 3da7 2e3e 9747 b53c
00000280: dbde ab3d 9205 5abd 35f0 d5bc ba65 99bc
00000290: fc21 31bd 150b b83d 45a0 3a3c 8b0d 50bd
000002a0: 99cd 78bd d014 bb3d 5fcd 783d 3acd b93d
000002b0: 4c81 383c 0ed3 793d 318b 7dbd 6730 383d
000002c0: 8ec2 bf3d e850 c3bd 4955 973d 08cb ebbd
000002d0: 9488 9cbd f204 a73d 2bf9 0b3d c3a6 c3bd
000002e0: 80f1 08bd d2ac 91bd 6c8d b63c bfa8 08be
000002f0: 04f4 5f3c 40bd 1ebd 54a9 a43d 81d8 8cbd
00000300: 4cf7 2f3d a0ba 0cba 61e8 5a3d 0c99 bb3d
00000310: 0705 673d 1a8a 82bd 567c a6bd 59ac db3c
00000320: 7498 9fbc 5afc 403d 21de 933d dc8b e33d
00000330: dfc9 e13d 2bc8 86bd 4c2b 0fbe c0e9 9f3d
00000340: 4aa0 fd3b 5a25 1b3d e159 4fbc e23d a8bd
00000350: 01b5 29bd e1e1 523c b0ad 863d c1b1 e33d
00000360: d8ab 9cbc 5671 5ebd 2c67 04bd b45b ecbc
00000370: c572 babd ca49 103e e523 dc3d e882 6ebd
00000380: 6083 50bd dba2 dc3d 9193 403c b7df 783d
00000390: 1c4f 91bd 542b 143c c84e 5cbd f522 cd3d
000003a0: 91dd 083d 9bf3 14bd 1d61 943d eabd f73c
000003b0: 23fe 6ebc 9a3e 993d 7910 1dbd ebe7 d8bd
000003c0: 1f0d f13d 23d8 b4bd f537 d1bd 2fc5 cc3d
000003d0: 624a ec3d 17f5 f83d e9ab 8fbc 2004 f33b
000003e0: 6bc3 d33d 7127 f5bd fda6 33be 286e 873c
000003f0: 9fd3 023d 8a3e 05bd b270 13bd 81e7 c1bd
-0.017364856 -0.06314944 -0.07274818 -0.08477362 0.03605404 -0.10196093 -0.06952746 0.08866888
0.10411766 -0.046013847 -0.046407808 0.12186748 0.17721911 0.05430994 0.06337104 0.015638772
0.12246756 0.051311545 0.1007981 0.025906209 -0.10664158 0.002000693 0.17686453 -0.023503805
0.0875798 0.039108228 -0.082360685 -0.0043683434 -0.050545547 -0.06088632 0.021893589 0.02712491
0.012298998 0.11388828 -0.0009746518 0.029614214 0.029902726 -0.017332409 0.03389643 -0.004825742
0.07834543 0.10825348 0.14950386 -0.045629412 -0.06443626 0.0023340837 0.028001154 0.014653505
0.15028192 0.030485053 0.09802485 -0.105028816 -0.07211854 -0.03978849 0.07229383 0.0063475273
0.13849401 0.057454694 0.06880628 0.013538604 0.0609536 0.10474059 0.08343 0.0019900938
0.03661025 0.15155415 0.15182033 0.010020362 0.17658949 -0.05587967 -0.0154194385 0.063473284
0.11684654 0.11967221 0.14174925 0.1053427 0.09025309 0.020236257 -0.01196215 0.07084389
0.06356538 0.09029449 0.055071633 0.09157727 0.098582536 0.10318317 0.14736448 0.1051465
0.10942339 -0.037493102 -0.014782154 0.070430316 -0.0434722 -0.0035086023 0.13297711 0.1183816
0.1281241 0.1313249 0.14269976 0.05578946 0.07620438 -0.057901338 -0.060022157 -0.07513062
0.096891776 0.07663043 0.099314526 0.03684345 -0.10298226 0.0677795 -0.089985944 -0.019542737
0.07104981 0.090035535 -0.031660426 0.016073156 0.033512842 0.053117346 -0.040759515 0.13364358
-0.034044705 0.13630049 0.09040099 -0.039790675 0.04926276 0.015375129 0.04260194 -0.107497685
0.13016382 -0.06075239 0.10452332 0.13035056 0.010018773 -0.09172812 -0.008134889 0.08207316
-0.01867038 -0.094986185 -0.10418388 0.06768308 -0.0524766 0.035724703 0.03231864 0.10485123
0.049816217 0.037289955 -0.012881228 0.11435289 0.034201585 0.11992695 -0.01641111 0.10743337
-0.095980294 0.109763965 0.06440668 0.05206301 -0.008972357 0.14092366 0.17055984 0.022128863
0.08392116 -0.05322797 -0.026115516 -0.018725265 -0.0432453 0.08986489 0.01139075 -0.050794166
-0.06074295 0.09134829 0.060742732 0.09072347 0.0112612955 0.060992293 -0.06190032 0.044968035
0.0936328 -0.09536916 0.07389314 -0.115133345 -0.07643238 0.0815524 0.034173172 -0.09553292
-0.033433437 -0.07113041 0.022284232 -0.13345622 0.013669018 -0.0387547 0.08040109 -0.06877232
0.04296045 -0.00053683855 0.05344427 0.09160051 0.05640128 -0.06373997 -0.08129184 0.02681558
-0.019481875 0.04711566 0.07220102 0.111106604 0.11024832 -0.06581148 -0.1398136 0.07808256
0.007740055 0.037877418 -0.012655706 -0.08214928 -0.041432384 0.012871237 0.06576097 0.11117888
-0.01912491 -0.054307304 -0.032324955 -0.028852321 -0.09103922 0.14090648 0.10749034 -0.05823031
-0.05090654 0.1077325 0.011753933 0.060760226 -0.07095167 0.009043533 -0.05378607 0.10016433
0.033414427 -0.036365133 0.072450854 0.030241925 -0.014586958 0.074826434 -0.038345788 -0.1059111
0.11770081 -0.08830287 -0.10215751 0.09998547 0.11537625 0.12156122 -0.017538028 0.007416263
0.103400074 -0.119704135 -0.1754417 0.016532019 0.0319401 -0.032530345 -0.035996147 -0.09467984

lstm.weight_hh_l0 f4 [256, 64]
00000000: e37e c93c 8065 21bc 26a0 2c3d a04a 54bd
00000010: 2862 b33c 9e4e 3c3d 9d8c cabc ddf5 9a3c
00000020: 1db5 f93d 8801 0d3c e96c e3bd 3b88 e13d
00000030: 4ad4 9ebc 37ac c4bd e613 cfbd df77 2dbd
00000040: 71df b83d 55f8 b5bd f0c8 45bd c28b aabb
00000050: 3866 813d 0fe6 dabd 361a afbd 020b ad3d
00000060: b5b1 1abd 3f64 eabd 9b37 c63d 506c e63b
00000070: 617b e3bd 64bb 80bd 81fb 22bd e56b fc3d
00000080: 855a a03d fa09 e63a 28d0 703d d3b6 8f3c
00000090: f733 87bb 69e6 35bd 28ba ed3d 4b7c e9bd
000000a0: cdf9 983d e9d0 3d3a dce1 7eb8 24e4 ea3d
000000b0: 0c91 dc3d effe 023e a903 5ebd 843f 71bd
000000c0: 21a1 8abc 62b8 f4b9 9b7c 233c 8ce1 9c3d
000000d0: 4521 9e3d 40f0 e6bd 1023 acbd c5a1 7d3d
000000e0: 9e3a a5bc 2de9 a13d 663e a63c c801 fc3c
000000f0: 6e8c fb3d dda2 a13d c4e0 b83d 8d1a 933d
00000100: e09b 883d f57b 913d 81ae bfbb f7f7 22be
00000110: 98e2 02bc f878 54bb 85f6 d33d 4932 cebd
00000120: 24ca 923d add5 943c 7881 a43d 1402 93bb
00000130: 5e06 3cbc 0546 a6bd cad3 53bd dce3 e03d
00000140: 970b a33d 4519 3cbd a52b 34bd 05c7 dabd
00000150: 8f03 aabd 278f 2c3d 38a2 f8bb 72d7 55bd
00000160: 7f07 b23d 4e02 02be 9b9c 97bd 0d8b 22bd
00000170: dfad 9abd eab6 153d b134 85bd fd43 a4bd
00000180: c752 563d ee5e 813d f881 a6bd 34a0 58bd
00000190: b2e8 873c e2c7 a2bd 7da2 003e 820e 8d3d
000001a0: 3bf0 793d d8ca 993d 93b4 b33d 265b d63d
000001b0: ec74 3c3d 3bb7 253d 77d5 0ebe b977 2d3d
000001c0: cc51 bdbd dcc7 63bc 9adb 8f3c 4ef9 9c3c
000001d0: baf4 88bd 7b21 ce3d 752e 053e d61d 5dbd
000001e0: ff0f dd3d 1525 3c3d 409f b63d 0363 3e3c
000001f0: f730 52bd 2d37 a0bd 24ea 933b 3530 bcbd
00000200: 1543 8e3d 1573 693d a02e 813d bb93 553d
00000210: 9d84 bfbd cbc0 94bd 7645 b1bd d92f 05bd
00000220: 9c95 81bd 0d62 6e3d 6eb9 fd3b c7e4 42bd
00000230: 8d34 8d3d cfb8 06be e429 8c3d 1b08 663c
00000240: 4071 dd3d 0d5d 0c3e bb4f d23d ec99 20bc
00000250: 36a7 c03d 7594 893a 81c6 063d 3bd5 0a3e
00000260: 3c3a b83d 2047 173c dda5 1abd 0b79 be3c
00000270: 198f 053e d593 863d 59f5 5b3d fc8f 173d
00000280: 15db d5bd e448 62bd 525f f4bd a07b 89bd
00000290: e8e4 f43d 515b 003d 16d2 683c 92df 3d3c
000002a0: ee80 803c 9be9 6dbd 76e4 b93d 922c 053e
000002b0: 7d07 a53d 7710 073c 9ed8 a03d 338b 99bd
000002c0: 50f1 bb3d c32f 1dbd 5f10 efbd a839 4f3d
000002d0: b860 9ebc 4539 ee3d 7411 933d b0bb 0f3c
000002e0: 6fdb cfbc 7530 893d 328f 093e ba1b ec3d
000002f0: 7223 14bd f9e4 6e3d a25c 5bbd 03fd 0ebd
00000300: 1418 d63c 58da 033d 37ec cfbd 208c a1bd
00000310: ae3c 773d a1e5 a13d bbe1 05bd b427 a8bd
00000320: f81f 92bd ac94 12be 0b5c 8fbd cf40 95bd
00000330: 2ca6 7e3d 2fdf f9bd 1edc fe3d fc61 0cbe
00000340: c698 80bd e95a f93d 13df 7d3d 1693 3bbc
00000350: 36f6 80bc 309f 5dbd aee7 d43b a404 4f3d
00000360: 27fc 11be 86c5 d93d 158b c7bd ea19 0abe
00000370: 824b 013e 5bea ce3d eef2 2e3e 7a31 a2bb
00000380: 8181 dbbc c8d5 333c b284 483c 0b79 86bd
00000390: f316 7bbd b005 d13d 2467 97bd 91e7 b63c
000003a0: 7d7e 203e e106 eabd 468d 7fbd 6582 50bd
000003b0: 0040 4dbd 6533 0b3e 9375 b83d db89 a93d
000003c0: daec bbbc 7167 0b3d 0fc9 0ebd fe12 98bc
000003d0: cf33 b1bd 4f47 083e 51a5 84bd abdb 14be
000003e0: e709 0c3e b6b5 afbd 7a82 36bc 004a ad3d
000003f0: 6350 70bd ffab a43d e051 e4bc a042 12be
0.024596637 -0.00985086 0.042144917 -0.05182898 0.02189739 0.045973413 -0.024725253 0.018916065
0.12192748 0.008606322 -0.11104757 0.11012312 -0.019388337 -0.0960316 -0.10111217 -0.042350646
0.09026993 -0.08885256 -0.048287332 -0.0052046487 0.06318325 -0.106884114 -0.08549921 0.08449365
-0.03776713 -0.11444902 0.09678575 0.007031955 -0.11107517 -0.06285742 -0.039790634 0.12325267
0.07829765 0.0017550581 0.058792263 0.017543232 -0.0041260677 -0.04440919 0.11607772 -0.1140066
0.07469521 0.0007240908 -6.0768667e-05 0.114692956 0.10769853 0.12792562 -0.05420271 -0.058898464
-0.016922535 -0.00046676683 0.009978439 0.07660207 0.077211894 -0.11276293 -0.08405125 0.061921854
-0.020169552 0.07905803 0.020293426 0.030762568 0.12282644 0.07892392 0.09027246 0.071827985
0.06670356 0.07103721 -0.00584966 -0.15914904 -0.0079885945 -0.0032420736 0.10349754 -0.10068185
0.071674615 0.018168295 0.08032507 -0.0044863317 -0.011476127 -0.08118824 -0.05171565 0.10980961
0.07961195 -0.045922536 -0.043986935 -0.10682491 -0.0830146 0.04212871 -0.0075876974 -0.052207418
0.08692836 -0.12696192 -0.07402917 -0.03968339 -0.075526945 0.036551394 -0.06504191 -0.0802078
0.052325036 0.063169345 -0.08130258 -0.052887157 0.01659045 -0.07948281 0.12561984 0.06887533
0.061020117 0.075093925 0.08774676 0.10466604 0.046009943 0.040457945 -0.13948618 0.042350505
-0.09244117 -0.013902631 0.017560769 0.019161846 -0.06687303 0.1006498 0.13006003 -0.053983532
0.10794067 0.0459338 0.08917093 0.011620286 -0.051316228 -0.07823024 0.0045139957 -0.09188882
0.06946389 0.056994516 0.06307721 0.05214284 -0.09351466 -0.07263335 -0.08655827 -0.032516334
-0.06327364 0.058198977 0.007743052 -0.04758146 0.06894789 -0.13156436 0.068439275 0.014040018
0.10812616 0.13707371 0.10269114 -0.009802323 0.09406893 0.0010496514 0.03290415 0.13557903
0.08995482 0.009233266 -0.037755836 0.023251077 0.13042869 0.065711655 0.05370078 0.03700255
-0.10442177 -0.055245295 -0.119322434 -0.06713033 0.11957723 0.031337086 0.014210245 0.011588948
0.015686478 -0.05808411 0.090767786 0.13005283 0.08058069 0.008243672 0.078538164 -0.07497253
0.09176886 -0.038375627 -0.116730444 0.050592095 -0.019333228 0.11632017 0.07181063 0.0087727755
-0.025373189 0.066986956 0.13433531 0.11528726 -0.036166616 0.058323834 -0.05355514 -0.03490926
0.026134528 0.03219065 -0.10152476 -0.07888055 0.060360603 0.07905126 -0.032685976 -0.08210698
-0.07135004 -0.14314526 -0.06999978 -0.07287752 0.062170193 -0.12200772 0.12444328 -0.13709253
-0.06279139 0.12175543 0.06198032 -0.011448642 -0.015742403 -0.05410689 0.006497345 0.050541535
-0.14256345 0.10633378 -0.09743325 -0.13486448 0.1262646 0.101032935 0.17084858 -0.0049497457
-0.02679515 0.010976262 0.012238668 -0.06566056 -0.061301183 0.10206163 -0.073927194 0.022327216
0.15673251 -0.11427093 -0.06239059 -0.050905604 -0.050109863 0.13593824 0.090068005 0.08278247
-0.022940088 0.034034196 -0.034859713 -0.018563744 -0.0865246 0.13308452 -0.06476844 -0.14536922
0.13675652 -0.085795805 -0.0111395065 0.0846138 -0.058670413 0.08040618 -0.027871072 -0.14283228

lstm.bias_ih_l0 f4 [256]
00000000: d479 01bd f8dd 5fbd a5a1 bc3d 4672 403d
00000010: a661 133e f051 e13d 7a69 a1bc 06ad 9c3d
00000020: 4d85 933d f2c2 a7bb bbfe 843d 8eb2 72bc
00000030: 153e 04bd 83d4 e93d 4ac0 763c e564 983c
00000040: 190a 2f3d 75c1 da3d b6e2 b5bd dc8c 883d
00000050: 5cbd 4c3d 0a93 af3c 2ca5 b2bb e826 1dbc
00000060: 994f aabd bf3d d2bc 3664 68bd f23b 3f3d
00000070: b21c 4fbd 484e 063d e566 c43d 368e 8cbd
00000080: 5fa2 0d3d 1560 88bc 73f2 d43d c7a4 79bd
00000090: cda7 a5bd cf06 603d cce4 69ba ead1 f33c
000000a0: fa78 61bd 0a3d 02be c5cb afbd 952f f43d
000000b0: f1cb c2bd 8624 483c 7c8f eebd 17cc eebb
000000c0: 1568 833b 66b8 d93d ac12 bd3d efcf 473d
000000d0: 9efb 6f3b e0c6 e9bd 5acc d0bd 0b37 7a3d
000000e0: 44a1 5b3c 60b2 66bc 91a3 12bd a0a5 b73d
000000f0: 1ee4 1c3b 0ee3 7a3d 7c30 d3bd 5ae7 10be
00000100: 1db4 6c3d 5245 a4bd f021 883d 71be e03d
00000110: 83a1 cfbd 46ad 8d3d 6f13 a53d e684 b9bd
00000120: ca8a 82bc 6e9d 48bd 9634 f53d 646c 47bd
00000130: 228b 94bb a0bd ab3d 04e5 7bbd d5e0 2fbd
00000140: 2253 8f3d 85a0 5cbd 8bb5 90bc 97a7 b3bd
00000150: 86d2 f8bc e987 903d 47f1 a73d d367 89bd
00000160: 3e5f bcbc 2392 19bc c769 f83d 5b36 0c3d
00000170: efd7 9c3d 1d96 d63d 73c6 1f3e 01b8 be3d
00000180: 9207 423d ad1f cd3c f62c 7cbd 8188 8abd
00000190: 8e6e 8d3d b642 03be 948a b53d 6cd0 123e
000001a0: 9c4e b1b7 7408 6a3c 3827 56bd ad0e 223e
000001b0: 946d 62bd 758a da3c d41a 94bb af92 f63d
000001c0: 5834 10bc fe8c 0e3d 56ea 7cbd 771d f9bd
000001d0: 8a94 a33d 1483 693d ebf6 2f3c f202 c0bd
000001e0: 9099 f1bd ae5e 84bd 80a5 8c3d e8cc 0fbd
000001f0: dc25 de3d 5425 063d 4cd7 073d e661 9f3d
00000200: e14a c0bd 1f99 dabd 50b0 f4b8 493a 923c
00000210: 5daf c83d 5a07 293d c629 d3bd 66c4 2e3d
00000220: bf72 0a3d a6b7 3bbd d064 e03d 7aba ebbd
00000230: ed5b 0bbd a669 943d 82b1 123c 7947 92bc
00000240: 21af 3abd 96f6 4dbd beb1 5c3d 84e7 e9bc
00000250: 0a53 ee3c 4668 9fbd c7a9 ea3c f197 1abd
00000260: 1385 a43d b12b 6d3d 4817 a1bd 663a 49bd
00000270: 48d4 613d affe 6ebd 321f 9bba 5532 b73d
00000280: 913c b13d acec f0bd b0d2 fabd 25c1 253d
00000290: 3a71 2fbb 4697 963d 147d ab3d be7e c03d
000002a0: 4092 cf3d 268c 8d3d 4ee5 513c 6a1d b8bc
000002b0: fd6f 45bd df9c ec3d a890 bdbd 3d69 bebb
000002c0: beb9 acbd 9cd6 cd3d a68e c6bc 1148 b53d
000002d0: 4aba ba3d f295 b63d 5ff9 dcbd 2ef2 7abd
000002e0: 71d6 9b3d c762 733d ab89 f03d 53b8 5f3d
000002f0: a18d c13d 1468 debc 001a 01be 7a34 b2bd
00000300: 4a72 bfbc ccf3 e13d f2d9 7bbc a73c a83d
00000310: 9121 7d3d d520 b3bd b7ae 34bd 3c73 afbc
00000320: f967 95bd 3085 37bd 8a20 a83d 4f07 833d
00000330: d10f e23d ed27 c4bd 5cfa 6dbc 6615 16bd
00000340: b067 993d 5eda 1b3d c9fb 9dbd 440c c7ba
00000350: f392 e33d 113a 183c 7a2a 7ebd d9d8 84bd
00000360: c82e e33d 1908 87bd 3c85 d8bd b0b8 5bbd
00000370: 4205 cd3d 1feb 0b3e eb36 08bd 1048 75bd
00000380: 9f27 f1bc cbe3 6fbc aa57 b73c 35b6 a3bd
00000390: b1d3 8b3d cd20 67bd 518f f4bd a33e 983d
000003a0: b0ed 07bd 49d9 03be f150 513d dda8 b03d
000003b0: 1179 af3c fd1a 843d e721 e5bd 56a5 89bd
000003c0: 8292 a3bd f3d6 013e 0290 9dbd 02e3 e83c
000003d0: 940d 85bd 67cb 7e3d 00fc 28bc 4a47 a73d
000003e0: 1f84 2c3c 53a3 d43d 7b22 5ebb e4a8 c23d
000003f0: 195d 933c 1b7a fe3d 2f4e c63d cc8d c13b
-0.031610325 -0.054655045 0.09210519 0.04698398 0.14392719 0.110019565 -0.019703615 0.07650189
0.072031595 -0.005119675 0.064938985 -0.014813079 -0.03228577 0.114174865 0.015060494 0.018602798
0.04273424 0.1068143 -0.08881132 0.06667492 0.049985275 0.021432418 -0.005451819 -0.0095917955
-0.08315963 -0.025664208 -0.056736194 0.046688028 -0.050564475 0.0327895 0.09589938 -0.06863062
0.034578677 -0.016647378 0.10397806 -0.06094816 -0.08088646 0.054693993 -0.0008922338 0.02976318
-0.055047013 -0.12718597 -0.08583788 0.11923138 -0.09511555 0.012215739 -0.11648461 -0.007287513
0.0040102103 0.10630874 0.09232077 0.048782285 0.0036618481 -0.114148855 -0.10195227 0.06108765
0.013405148 -0.014080614 -0.03580052 0.08967137 0.002393968 0.061251692 -0.10311982 -0.14150754
0.057788957 -0.08021034 0.06647098 0.10973824 -0.10138228 0.06917815 0.08060347 -0.090585515
-0.01593532 -0.04897826 0.119729206 -0.048687354 -0.0045331875 0.083857775 -0.061497703 -0.042939026
0.06998278 -0.05386402 -0.017664691 -0.087721996 -0.030373823 0.07057173 0.08200317 -0.06709256
-0.022994634 -0.009373221 0.121295504 0.034231525 0.076583736 0.104778506 0.15603046 0.0931244
0.0473705 0.025039518 -0.061566316 -0.06764317 0.06905852 -0.12818417 0.08864322 0.14337319
-2.113665e-05 0.014284242 -0.052283496 0.15825911 -0.055280283 0.02667735 -0.0045197997 0.120396964
-0.008801542 0.03480243 -0.061746918 -0.12163823 0.07987316 0.05700977 0.010740022 -0.09375562
-0.11796868 -0.06463371 0.06867504 -0.035107523 0.10847065 0.032750443 0.033164307 0.077823445
-0.09389282 -0.10673737 -0.000116676674 0.017850058 0.09799073 0.041266777 -0.10310702 0.04266777
0.033800837 -0.045829438 0.109567285 -0.11510177 -0.034023214 0.07246713 0.008953454 -0.017856346
-0.045577172 -0.05028399 0.053880446 -0.028552778 0.02909233 -0.077835605 0.02864541 -0.03774256
0.080331944 0.057902995 -0.07865769 -0.04912796 0.055134088 -0.058348354 -0.0011834858 0.08945147
0.0865413 -0.117638916 -0.12247217 0.0404674 -0.002677037 0.07353072 0.08373466 0.09399174
0.10135317 0.06911497 0.012811018 -0.022474963 -0.048202503 0.11553358 -0.092561066 -0.005810885
-0.08433865 0.10050699 -0.024237942 0.08851636 0.09117563 0.089153185 -0.10789751 -0.061266117
0.07609261 0.059420373 0.11745008 0.054619145 0.09450842 -0.027149238 -0.12607574 -0.08701415
-0.023369927 0.11032829 -0.015371786 0.082146935 0.06179959 -0.087464966 -0.044111934 -0.021417253
-0.07295222 -0.044804752 0.08209331 0.063978784 0.11038173 -0.09577928 -0.014525022 -0.0366415
0.0749048 0.038050048 -0.0771404 -0.001518615 0.11112013 0.009291188 -0.062052228 -0.06486673
0.11092907 -0.065933414 -0.105722874 -0.05364293 0.100107685 0.1366391 -0.0332555 -0.059883177
-0.029437838 -0.014641712 0.022380669 -0.079937376 0.06827486 -0.056427766 -0.11941398 0.07433822
-0.03318566 -0.12875856 0.051102582 0.08625958 0.021420034 0.0645046 -0.11188107 -0.067209885
-0.079869285 0.12679653 -0.07693483 0.028428558 -0.064967304 0.0622057 -0.010313988 0.08167894
0.010529547 0.10382714 -0.0033895064 0.095048696 0.017988728 0.124256335 0.09682881 0.005906796

lstm.bias_hh_l0 f4 [256]
00000000: 87de dd3d f8e5 49bd cea1 0d3d 0244 393d
00000010: 342e 4d3d 5639 5cbd 8241 d4bc 84dc 17bd
00000020: 0fef da3d 5f68 a03d 39cf 96bc 2b2f 773c
00000030: b84d ab3d c68f acbc 3064 75bc 3464 a8ba
00000040: 9a7e 833d 71f9 073d f10f 47bd ea34 40bd
00000050: 82fb 8c3d 7150 29bd d07e 223d 2044 b73d
00000060: b34f 20bd b731 b93c afe5 fcbd 103e e0bd
00000070: 189e 30bd d555 d23d 90de 073e 3065 9f3d
00000080: 55d1 3f3d a9e8 dd3d 0bb9 263d 2088 863d
00000090: 670a 833d 936c 163d 52f9 b23c cc8e 273e
000000a0: 8f73 d4bd 3f81 b93d fee7 36bd bfc7 a1bd
000000b0: c5c0 e2bd 7544 fdbb 1b45 453d a717 dcbc
000000c0: a215 ef3d a3e0 b03c 11ae dfbc d479 f2bd
000000d0: bd08 4fbd 8225 8f3d daef b63d 14bd 003c
000000e0: d953 c73d 4aaa d53d 80b2 9f3d 7e9e f83a
000000f0: f10f ea3d 0525 103c e0f1 a5bd b528 533d
00000100: 8c3d 29bd 1a52 8c3d a299 813d e006 483c
00000110: 4ff7 a73d 77da 78bd 492c 3cbd 809d f13d
00000120: eb33 b73c 3269 99bd 42e2 33bc 4528 ea3d
00000130: 2552 933d baaf d53d 3efe df3d cfe7 f4bc
00000140: de6a 3bbd 606c 8a3d 20f0 d3bd 0c10 493d
00000150: a311 d03c 87f6 ecbd 0701 883d a582 e1bd
00000160: c7b8 82bd d05c f1bd f588 7a3d d74f 573d
00000170: 6770 aabc c8e5 9c3d b1a0 ee3d b9ac 903d
00000180: 6fe9 913d 67ad 73bd 4647 70bd f23d bbbd
00000190: 8ed5 a13d 6cda d8bd e13a 03be 7540 f8bc
000001a0: e57c 463c 4443 a0bd cf3d 00be c2a1 4abd
000001b0: 7ae5 c33d d86d 2ebd 3e24 a93c f67f 023e
000001c0: ab81 d53d 2aab bfbc 3581 94bd 8366 833d
000001d0: 276d 113c 7daa 823c bf60 203d 91f9 53bd
000001e0: 9eda 90bd 6e40 59bd 9291 6dbc fc1d 6b3d
000001f0: 2e79 03be 2197 4cbc 62f9 413d e572 d73c
00000200: edbb b0bc 6f26 b6bd 55b4 0a3d 655c b83d
00000210: 8cd7 d1bc 2243 c43d a0ef d7bd 08f6 d13d
00000220: 6ce3 c83d 7d73 e73d c637 24bd e2a8 b1bc
00000230: d78c e73d be83 da3d 68a0 f6bc 4d91 953d
00000240: 356d 543c 3285 40bd 660b e5bd 3cfd 8cbd
00000250: ea7d 4cbc 9292 963d 2ca8 f8bb 9556 35bd
00000260: fc8e a0bc 3772 dcbd 45a6 9c3c 1a8f cfbd
00000270: c592 8bbd 268d 6a3b afe4 89bd eb51 373d
00000280: d1b7 dabd 0717 03bd 11ab 503c 3e93 b03b
00000290: ed60 0e3d 5bff b4bc 546b d9bd 03da a53c
000002a0: 4906 51bd 7975 603c 34c0 a7bb 0d6f d7bd
000002b0: a10a f9bd 0fbc ae3d 609a af3d 1f89 cebd
000002c0: ee15 3b3c 6291 ef3d da5b 9e3c b8c4 4e3c
000002d0: 4241 2abd 1c84 cc3d 5fd7 d9bd 5151 60bc
000002e0: 393c 6abb 3253 cd3d b734 ae3d b789 393d
000002f0: d70d 12bc b9cb ccbd e8e0 24b8 a6af ce3d
00000300: 7ee2 e6bd 0cc4 b03d 5de9 d53d 6ce9 e23d
00000310: 0694 163d ee5f 323d 0a93 0cbd 3c19 1c3d
00000320: 0856 06be 19e1 683a 7686 f43d caee dcbd
00000330: 034b ee3d 41db 333d 6828 6c3c 4a00 423d
00000340: 30ff b83d 8dc4 8f3d 9276 f4bb beec 023e
00000350: 053f 03be 6a27 40bc c42f 23bc f0c5 723d
00000360: 4887 723d bd19 963d ca43 963d 8830 343d
00000370: e6b2 4cbc 1807 d03d 5715 ce3d ddae ccbc
00000380: 4ecd 783d e164 c63d 9956 e5bb 4b24 803d
00000390: 01e0 2dbd 90c9 83bd fde1 bebd 1b68 ac3d
000003a0: 5655 ad3d aa84 d0ba 0b18 d03c 638c 9a3d
000003b0: 6744 c1bc 849c 453d 07c2 afbd 5174 1a3e
000003c0: 96ac 01be 90b7 34bc 98fa 943d c941 573c
000003d0: fa77 bb3d e960 d83d a6ac 80bd 9aea 3dbb
000003e0: 68d2 d1bc bc9c 8e3c 7c49 a1bd b367 7b3d
000003f0: a1e4 af3d 1c00 95bd 87a5 d2bd 9107 c1bd
0.10833459 -0.04929158 0.034578137 0.045230873 0.05009289 -0.053765617 -0.025910143 -0.037075534
0.10690128 0.07832407 -0.018409358 0.015086929 0.08364433 -0.02106465 -0.0149775 -0.0012847246
0.06420632 0.03319687 -0.048599187 -0.046925463 0.06883909 -0.04133648 0.03967172 0.08948541
-0.039138507 0.022606714 -0.12348496 -0.109493375 -0.04311952 0.102702774 0.13268495 0.07782972
0.046830494 0.10835392 0.040703814 0.065689325 0.063984685 0.03672464 0.0218474 0.16363066
-0.103736036 0.09057855 -0.04465484 -0.07899427 -0.11071924 -0.007729108 0.048161607 -0.026866747
0.11674048 0.02159149 -0.027304681 -0.11839643 -0.050545443 0.06989576 0.08932467 0.00785758
0.097327895 0.10432871 0.07797718 0.0018968133 0.11428822 0.008797889 -0.081027746 0.051552493
-0.04131846 0.06851597 0.06328131 0.01220867 0.08201467 -0.06075522 -0.04594067 0.11797619
0.022363624 -0.074907675 -0.010979237 0.11433462 0.07193402 0.10433908 0.10937165 -0.029895691
-0.045756213 0.06758952 -0.103485346 0.04908757 0.025399035 -0.11570459 0.06640821 -0.110112466
-0.063829 -0.11785281 0.06116577 0.052566376 -0.02080555 0.07661015 0.11651743 0.07064194
0.07124602 -0.05949154 -0.05866172 -0.091426745 0.079020604 -0.10588536 -0.1281543 -0.030304173
0.012114738 -0.0782533 -0.12523578 -0.04947067 0.095652536 -0.042585224 0.020647164 0.12744126
0.10425123 -0.023397047 -0.07251207 0.06416037 0.008876122 0.015950436 0.039154764 -0.051751677
-0.07072948 -0.05303996 -0.014500039 0.057401642 -0.12839195 -0.012487204 0.04735697 0.026299903
-0.021573985 -0.088940494 0.033863384 0.09001998 -0.025615476 0.09583117 -0.10543752 0.10252005
0.09809002 0.113013245 -0.040092252 -0.021686975 0.1130616 0.10669659 -0.030105785 0.073031045
0.01296549 -0.047002025 -0.11183815 -0.06884238 -0.012481192 0.07352175 -0.007588407 -0.044272024
-0.01959943 -0.10763972 0.019122252 -0.10134716 -0.068151034 0.0035789697 -0.06733071 0.044755857
-0.106795914 -0.032004382 0.012736098 0.0053886464 0.034760404 -0.02209442 -0.10616174 0.020245558
-0.051031385 0.013699883 -0.005119348 -0.10519228 -0.121602304 0.08531963 0.085743666 -0.100847475
0.011418803 0.116976514 0.019330908 0.012620144 -0.04156614 0.09986135 -0.10636782 -0.013691262
-0.0035741462 0.10025634 0.08506148 0.04529735 -0.0089144325 -0.099997945 -3.9310107e-05 0.10092096
-0.11273669 0.08631143 0.10444901 0.11079678 0.03676226 0.043548517 -0.034319915 0.038110003
-0.13118756 0.000888364 0.11939709 -0.10787733 0.11635401 0.04391027 0.0144139305 0.047363557
0.09033048 0.07019911 -0.0074604237 0.12785622 -0.12817009 -0.011728147 -0.009960119 0.0592708
0.059211046 0.07329128 0.073371485 0.043991596 -0.012493825 0.10157603 0.10062664 -0.024985725
0.06074267 0.0968721 -0.0069988486 0.06256922 -0.042449955 -0.06434929 -0.093204476 0.08418294
0.08463542 -0.0015908678 0.02540209 0.07546308 -0.023592187 0.048244968 -0.0858193 0.15083434
-0.12663493 -0.011030093 0.072743595 0.013138243 0.09153743 0.10565359 -0.0628293 -0.0028978945
-0.025613025 0.017408721 -0.07875344 0.061378192 0.085885294 -0.072754115 -0.10285478 -0.09425271

lstm.weight_ih_l0_reverse f4 [256, 4]
00000000: 30ac ac3c 492e a33c c9ea b9b9 48e8 fcbd
00000010: f31b 9abd e6f6 1cbd 2abe debd 3e33 c23d
00000020: a9ec a73d 1b7e 123c 23b2 2f3d 8f7f 92bd
00000030: 686a 6c3c f461 c33d 9fcf 88bd 2bd1 8fbd
00000040: 2dcd a93d e36a 273e 76fc c03d d469 0f3e
00000050: 9652 9dbb 4f9e 063e 284d d33d 94d0 843d
00000060: a6c7 ebbd 0353 37bd 4c45 a13d 9d62 8abd
00000070: be5d 9e3c b242 9b3c 2ef2 053d 9e13 e93d
00000080: b503 563d 496f 813d 4f28 883d e30f b7bd
00000090: b1ae 18bd 775c abbd 5813 42bd 7406 dfbc
000000a0: 1ecf bb3c 8900 b0bd 540b 82bd 1eb0 313d
000000b0: ecf9 b6bd ab40 4b3d 349b 37bd 7ed6 b53d
000000c0: 0e1e 713c 1243 44bd b5e3 a43c be59 553d
000000d0: 5b78 84bd ebca c73d 58db f7b8 95f5 f03d
000000e0: 58e4 27bd c9a6 833d 3176 d23c 81ee c63d
000000f0: 1fe0 833d fc55 1abd 535d 263e 87cd 043e
00000100: 04aa d03c a577 aebd 6b88 6e3d d202 943d
00000110: 3810 a63d fddf 0a3e c593 183d 35cb c8bd
00000120: ea66 d4bd 91be 3b3d 3652 e93d 7698 cd3d
00000130: 5a39 9cbd 5641 173e d88c 04bd e22b 243d
00000140: a6a0 073e 9656 e13d 4207 6e3c b3a7 f9bd
00000150: 73b9 043d 9037 dfbd 187e 213c 2480 1b3d
00000160: 11f4 b73d 8d23 02be e4ac 09be 8401 5fbc
00000170: dc56 ca3d d8e1 a63d 0faf 983d ed26 41bc
00000180: 788f cc3c 7def a13d 86e4 afbd 4b89 86bd
00000190: dad3 6abd f177 9cbd e3ec 113e d619 7a3c
000001a0: 1908 d43b 3e2b 43bd 502d b83d f911 9abd
000001b0: bb26 60bd 5904 fabc acdc 5cbd 83a7 a4bd
000001c0: 843c 0bbd cb72 fcbc 0466 873b 5b92 eebd
000001d0: cb2c 153c a634 acbd ae86 0ebe c395 a0bc
000001e0: c98a 463e 2cf9 193e 2622 db3d 40c3 4cb7
000001f0: 2420 c2bd 52e9 633d cba4 403d 5e21 cf3d
00000200: 6659 ab3d 17f4 063d 970e b33d 731f 45bd
00000210: ba5c e43c 0718 d93c 0d16 243d b1a4 8abd
00000220: 08c1 493d 98e9 a4bc 58bb 823d 7e29 9eba
00000230: fb41 bbbd 6276 7c3d b950 e6bd 8afd 15be
00000240: 2af3 72bd b4a0 fabd c613 bfbd 628e 70bd
00000250: b938 b93d f388 573d c68e afb9 9adb 423d
00000260: 16ef 2c3c 5913 213e 0347 273c 5ec4 b93d
00000270: 1689 973d 3f1b 923d 2e4e e23d 6013 d53d
00000280: a35f b43d 9438 ddbc 398a 013e 7cf1 b4bd
00000290: 19eb a13d 8acc 8b3c c321 08be 2ada 7c3d
000002a0: 2da0 1e3d e49f c13d bb42 223d 92af 493d
000002b0: 4244 f53c c7f2 85bd 7299 ba3d 1a92 333d
000002c0: befa 073e 4f1b 31bc c3a9 91bd 5924 9ebd
000002d0: 31be 5cbd 3f64 52bd a45d 2d3d 439c 96bd
000002e0: 2a24 d53d d3cc 50bb 4102 6bbd 4796 0ebd
000002f0: 773e de3d 3fb2 863d 07fa 5e3d 273e 113d
00000300: 37f4 713d 868b 643d 380f 6dbd b6cd 3cbd
00000310: b5e2 153d 9a8b 253d 2b52 4f3d d643 d53d
00000320: 21ee c33d 2338 2cbd 2fad 013e 1b18 fe3d
00000330: 8f7c b3bd 6eff e13c 8e3c babd 532b be3d
00000340: d513 53bd 872a 2ebd f122 a43d ac52 34bd
00000350: 5dcf 763c 0977 333c dc84 80bb e4b3 ed3a
00000360: 75ea b5bd fadb 99bd 375b 05be 7ae0 023e
00000370: b33e abbc c4e1 8e3d b305 93bc 5caf 913d
00000380: f1f5 e5bc 93e2 433c 6712 37be feed 17bd
00000390: 733e 9fbd 6853 d3bc 7209 823d 0bd2 6e3d
000003a0: 2362 e5bd 0733 a23d 0416 87bd 006d 06be
000003b0: f8c6 cf3c 0ebe 933c ac65 d9bd 41d6 c1bb
000003c0: cff2 06bb 861d cb3d e215 0b3e 15e1 fe3c
000003d0: aed9 39bb 2e9f 0b3e 707b c83d 50e5 833d
000003e0: 332b 20bd e02e 083e 1f41 283d 15c7 303e
000003f0: 8d28 f03d 1db9 163d b9ae f93c 04d7 62bd
0.0210782 0.019919531 -0.00035460878 -0.12348992 -0.07524862 -0.0383214 -0.10876115 0.0948243
0.08199436 0.008941199 0.042894494 -0.07153236 0.014429666 0.095401675 -0.066802256 -0.070223175
0.08291087 0.16349368 0.09423153 0.14005214 -0.004801105 0.13146327 0.10317451 0.064850956
-0.11512689 -0.0447569 0.078745455 -0.0675709 0.01933181 0.018952701 0.032701664 0.11380695
0.05224963 0.06320054 0.06648313 -0.08938577 -0.037275974 -0.08367246 -0.04738173 -0.027224757
0.02292591 -0.08593852 -0.06349817 0.04338085 -0.089343876 0.04962222 -0.044825748 0.08878802
0.014716638 -0.047915526 0.02012811 0.052087538 -0.064682685 0.097555004 -0.00011818734 0.11765591
-0.04098925 0.06428296 0.025691124 0.0971346 0.06439232 -0.037679657 0.16246538 0.12969027
0.025471695 -0.08518914 0.058235567 0.072271004 0.08108562 0.13562007 0.0372503 -0.09804384
-0.10371192 0.045836035 0.113926336 0.10038845 -0.076281264 0.14771017 -0.03236088 0.040080912
0.13244876 0.11002843 0.014528098 -0.12190189 0.03240342 -0.108992696 0.009856723 0.037964
0.08982099 -0.12708874 -0.13444859 -0.013611201 0.09879848 0.08148545 0.07455265 -0.011789066
0.024970755 0.07907007 -0.08588509 -0.06569155 -0.057330944 -0.076400645 0.14250521 0.015264949
0.006470692 -0.04764866 0.08993018 -0.07522959 -0.054724436 -0.030519651 -0.053921387 -0.08039763
-0.03399326 -0.030816456 0.0041320343 -0.11649009 0.009104918 -0.084084794 -0.13918564 -0.019602662
0.1938888 0.15036458 0.10699873 -1.2204808e-05 -0.094787866 0.055642433 0.04703216 0.10113786
0.08366661 0.032947626 0.08743017 -0.048125695 0.027876247 0.026500715 0.04006009 -0.06769694
0.049256355 -0.020130917 0.06383389 -0.0012066809 -0.09143444 0.061636336 -0.112458654 -0.14647499
-0.05931393 -0.12237683 -0.09329943 -0.058729537 0.09044022 0.05262084 -0.00033484976 0.04757271
0.010555049 0.15730037 0.010209802 0.09070657 0.07399194 0.07134103 0.11050068 0.10404086
0.08807304 -0.027004518 0.12650384 -0.08835122 0.079061694 0.017065305 -0.13294129 0.061731495
0.038726974 0.09454325 0.03961442 0.049239703 0.029939774 -0.06540447 0.091112986 0.043840505
0.13279244 -0.0108097335 -0.071124576 -0.077217765 -0.05389232 -0.051365133 0.04232563 -0.07354023
0.10407288 -0.0031860366 -0.057375196 -0.034811284 0.10851758 0.065769665 0.054437663 0.035459664
0.059070792 0.055797122 -0.05787584 -0.04609462 0.036593158 0.040416338 0.05061547 0.10413329
0.09566904 -0.042045724 0.1266372 0.124069415 -0.08763992 0.027587619 -0.09093581 0.09285607
-0.051532585 -0.042521026 0.08014477 -0.044024155 0.015064088 0.010953673 -0.003922088 0.0018135277
-0.0888261 -0.0751266 -0.13023077 0.12780944 -0.02090392 0.06976655 -0.017947054 0.07113525
-0.028071376 0.011955875 -0.17878114 -0.0370922 -0.07775583 -0.025796607 0.06349458 0.05830578
-0.11200359 0.07919889 -0.06595996 -0.13127518 0.02536343 0.018034961 -0.106150955 -0.0059154336
-0.0020591503 0.099177405 0.13582566 0.031113187 -0.0028358507 0.13634941 0.09789169 0.06440222
-0.039103698 0.13299131 0.04107773 0.17263444 0.117264844 0.03679763 0.030478822 -0.055380836

lstm.weight_hh_l0_reverse f4 [256, 64]
00000000: fbc1 9d3d 36ac b4bd 23c2 ab3d 90cd 14bd
00000010: ca0e 603d 4d16 a33d 1e56 a63d 088c cfbd
00000020: 122b ff3c 0189 053e 146e 3abc 3e00 c63b
00000030: d123 063e 6525 8f3c 4686 b4bd 1867 68bc
00000040: cede 9cbd 0483 983d 8f56 ee3d ab62 583d
00000050: 9736 38bd 73e0 c0bd 50c3 1fbd 59d3 e13d
00000060: b8ae d13d c2ed 2ebd 08bc 51bd 554b 80bd
00000070: a740 dd3d ab0d f7bb ad20 3dbd 7b6c 05bd
00000080: 8a46 853d 1148 b6bd 0adf 763d c05f 9e3c
00000090: e105 df3d 2085 0dbe c31a e2bd 9c59 5bbd
000000a0: 88c8 22bd 55f7 81bd 265f 6a3d 39da a0bc
000000b0: dbcc b2bb 5df3 103e 91bb 11bc 5a74 b7bd
000000c0: 15c3 f7bd 3857 29bd 8477 9fbc ec92 a4bd
000000d0: d731 fabc ded7 673d ad06 b8bb 0143 42bd
000000e0: db0b 8f3d ea3a 2a3d f54e f13c a6b7 543d
000000f0: 33ea eebd 1014 febd fcd7 16be 9a9b c0bd
00000100: 65cd be3c 69d3 89bd 7717 8c3c e7ad 443d
00000110: a413 d6bd ef9d 803d fbd2 b93d 0732 bc3d
00000120: 2904 9dbd 1d4a 913c 9fcb ddbd 5c7b d5bd
00000130: b28d f53c e620 3a3d 384e d9bd f373 50bc
00000140: 9316 cf3c b0a2 cebd 005f b03d bbe9 6dbd
00000150: 3512 33bd ad51 d0bc 18ae 5ebc 48f8 6fbd
00000160: 833f 1cbb 279c a6bd e45c 633d 0ddc 893d
00000170: 1ad1 1fbd 3e28 50bd 2c1d babc e69d 483d
00000180: f929 433d 6993 18be a923 eebc 6aef e9bd
00000190: aa50 a43c d998 f8bc c4ce 8dbc d724 efbd
000001a0: 3c06 99bd 593f 91bd 799a 813d 7f6e 0d3e
000001b0: 82c6 2e3b b4bf 8c3d b6ad edbd 2d84 9abd
000001c0: efd5 6ebc f907 e6bc d43a 1cbd 3f16 19bd
000001d0: d043 6bbd 4374 8c3d 5e30 9f3c 9112 813d
000001e0: 68ec 9e3d 9cef c13d 5e0c 47bd 1898 7ebd
000001f0: acfe a5bd 8289 a43c 24a2 2e3d d2b5 e4bd
00000200: 4a64 ba3d 774b bf3c b2d6 dabd 6215 883d
00000210: 0754 8b3d 4021 cb3d 23d3 c33d ac86 4abd
00000220: 4a7c dcbd 9c88 83bd bf11 033d 613e ddbc
00000230: 2eda 8fbd 8fb8 20bd a341 303d 5d93 fd3d
00000240: 1d3f 6cbd beb5 dcbd 9bb7 623d e411 903d
00000250: ad4f 9dbd 8649 b63d d9fd d03d d892 de3d
00000260: 046d 03bd 5319 b33d 74fd 123b eaea 80bd
00000270: 8662 913c 58c5 92bd db0c 03bd 86be b6bc
00000280: 8107 5bbc d2a6 183d 2353 cebd 3ffe df3b
00000290: 9587 b73b b5e8 4cbd 5a34 ba3d 363e ab3d
000002a0: 2b8f 64bd 3871 bebd d1d6 fbbc 95ab ee3d
000002b0: baf1 063e c910 083d 7e97 d0bb 048d 23bd
000002c0: d6c5 12bd 89d4 b7bd 24a1 283d 077a f1bd
000002d0: 0b49 71bd 1efd 883d 8c4c f9bd 8fbf e83d
000002e0: af32 e43d 5a88 b2bd acfc 313d 3f09 95bb
000002f0: 72b0 8d3d b57b 293d 9e55 263d 6a41 c93d
00000300: 0277 3a3d 33e1 a4bd 6364 553d 5548 c5bd
00000310: 88e1 adbd 3079 883d 1cdf 4ebd d69f cdbd
00000320: 29a2 2ebd 8a20 843d 7129 d6bd 28dc 7e3d
00000330: 934d d4bd 55a7 f5bc 27e9 a1bc 545d 4d3d
00000340: 9999 81bc 4bea ee3d a623 c4bc 77c4 3f3d
00000350: 62b6 e23d 478d ad3d bc5e 96bd ed7c d23d
00000360: 39f6 f53d 5de8 aebc e61f d0bd 9575 92bd
00000370: 7c76 51bd a215 7bbd b4ef b13c 778f bf3d
00000380: 0eea 67bc 125b 603c 1054 973c 22f5 9a3d
00000390: 0f38 f03d 1b26 99bd b70d 003e eb6a be3c
000003a0: d522 363d b5f1 b33d 2f4c 6dbc 9bb4 8cbc
000003b0: 670e 3e3d 5195 883c 6015 d93d 5387 ff3b
000003c0: bbee 5ebd 8614 d1bd 771b 36bd e600 ed3d
000003d0: 5a4e 45bd 6118 d6bb 1b9b c03d a8ce 983d
000003e0: b82c f63d 3eef bd3d 32b5 d33d 945a 473d
000003f0: 1309 8abc 13b3 94bc 7e7a e2bd 7ccb 253d
0.077030145 -0.08821909 0.08386638 -0.036328852 0.054701604 0.07963238 0.08121894 -0.10134131
0.031148467 0.13040544 -0.011378784 0.0060425093 0.130996 0.017473886 -0.08814673 -0.014184736
-0.07659684 0.07446864 0.116376035 0.052828472 -0.044973936 -0.0941781 -0.039004624 0.110266395
0.10238403 -0.042707212 -0.05120471 -0.062643684 0.10803347 -0.007539471 -0.04617374 -0.03257416
0.06507595 -0.08900464 0.0602713 0.019332767 0.10889793 -0.13820314 -0.11040261 -0.053552255
-0.039742023 -0.06346003 0.057219647 -0.019635307 -0.0054565496 0.14155336 -0.008894817 -0.08957739
-0.12097756 -0.041342944 -0.01946617 -0.080358356 -0.030541344 0.05660235 -0.00561603 -0.04742718
0.06984683 0.04156009 0.029456595 0.051932953 -0.11665764 -0.1240617 -0.14730829 -0.09404679
0.0232913 -0.067297764 0.017101033 0.04801741 -0.10452965 0.062801234 0.090734445 0.091892295
-0.07666809 0.017735535 -0.10829853 -0.104239196 0.029974792 0.04544153 -0.10610622 -0.012722957
0.025279319 -0.10089624 0.0861187 -0.05808423 -0.043718535 -0.025429571 -0.013591312 -0.05858639
-0.0023841567 -0.081352524 0.05550851 0.067314245 -0.039017774 -0.050819628 -0.022718988 0.04897871
0.04764745 -0.14899983 -0.029069738 -0.11422618 0.020057995 -0.030346321 -0.017310508 -0.116769485
-0.07471892 -0.07092161 0.063282914 0.13811682 0.0026668613 0.06872502 -0.11605398 -0.07544742
-0.014577373 -0.028079974 -0.03814204 -0.03737473 -0.057437718 0.06858113 0.019432243 0.063023694
0.07759935 0.0946953 -0.04859578 -0.062156767 -0.081052154 0.0200851 0.042635098 -0.11167492
0.0910116 0.023351414 -0.10685481 0.066447034 0.06803136 0.09918451 0.095617555 -0.04944484
-0.10765894 -0.064225405 0.031999346 -0.027007284 -0.07024036 -0.03923851 0.043031346 0.12381623
-0.057677377 -0.10776852 0.05535088 0.07034662 -0.076812126 0.08900742 0.102046676 0.10867852
-0.032086387 0.087450646 0.0022428902 -0.06294806 0.017747175 -0.071665466 -0.03199468 -0.022307646
-0.013368488 0.037268467 -0.10074451 0.0068357284 0.0056008794 -0.050026614 0.090920165 0.08361475
-0.055800598 -0.092989385 -0.03074208 0.116538204 0.13178149 0.033219133 -0.0063657155 -0.039929405
-0.035833202 -0.08976085 0.0411693 -0.11790853 -0.05890755 0.06688903 -0.12172803 0.11364662
0.1114248 -0.08717413 0.043453857 -0.0045482214 0.0691842 0.04137774 0.040608995 0.0982693
0.04552365 -0.08050766 0.05209769 -0.09632937 -0.08490282 0.0666374 -0.050505742 -0.10040252
-0.042635117 0.06451519 -0.10457123 0.062221676 -0.103663586 -0.029987017 -0.019764496 0.050137833
-0.015820311 0.116657816 -0.02394278 0.046818223 0.11069943 0.08474212 -0.07342288 0.10277734
0.12009854 -0.021351034 -0.10162334 -0.07151333 -0.051138386 -0.061299928 0.021720745 0.093535356
-0.014154924 0.013693588 0.018472701 0.075662866 0.11729442 -0.07477971 0.12505232 0.023244342
0.044466812 0.08786336 -0.014483496 -0.017175963 0.046400454 0.016672762 0.1059978 0.0077981143
-0.05442689 -0.10208993 -0.044459786 0.11572437 -0.048170425 -0.006533668 0.09404584 0.074612916
0.12020248 0.092741475 0.10337295 0.048670366 -0.01685003 -0.018151795 -0.1105852 0.04047726

lstm.bias_ih_l0_reverse f4 [256]
00000000: 717e bb3d e619 0abc cb8d 7bbb 104e 94ba
00000010: 2ba1 973d eb89 0d3d 00ca 7ebd 9013 0dbc
00000020: 4e64 84bd b947 c93d affd abbd 3d32 5ebd
00000030: 50fc 0b3d a500 583d 7249 193e 3651 d43d
00000040: 7b1c 97bd fead eebd bc17 223d 00f1 bcbc
00000050: 5963 c8bd 3d2e 073e d897 c2bd fcc9 7c3d
00000060: ed18 7dbd 36e6 5bbd dbfd 1d3d 16ac 8b3d
00000070: 8463 633d 32eb 89bd cab1 9b3d 936a 9cbd
00000080: 1ba1 ad3d 72d5 5e3c 459c e53d 1015 c8bd
00000090: 8e70 debc c139 343e 106b 073e 8260 a8bc
000000a0: 6b11 b5bd 96d0 1cbd c407 b13c c179 bebb
000000b0: 5247 74bc cfba cd3d 52ac 7f3d 9fa2 aebd
000000c0: 61ea 78bc 9195 ca3d ffaa 7cbd 247c bc3d
000000d0: 89c5 883d 1d59 e33c 258b 7d3c f4f3 383d
000000e0: d772 d33d 1ebb 45bd a136 a93d 87fa 86bb
000000f0: 1949 e0bc 6257 d53d 875d 3dbd 4a28 c73d
00000100: 22e8 783d d9d6 ea3d a43b 8d3a e548 09be
00000110: 5f2d 80bc d07e 95bd 2a52 ed3d 1c34 d83d
00000120: aaab cebd da90 e0bb f58f d43c 379b fd3d
00000130: 88c4 2f3d 1217 28bd c575 943d 4ddd 24bd
00000140: b749 9dbc 0cb1 73bd 5914 5e3d 1e30 ea3d
00000150: 5b12 01bd 3e46 df3d 0709 c33d 44cb 793d
00000160: bb20 71bd 3993 3ebc 129d 5b3d e5ed d9bd
00000170: 142e 83bd e81f f93c dc60 203e c7cd 8f3d
00000180: 5404 493c 5971 9f3d 07ab 1dbd e842 983d
00000190: 04b5 873d ffb0 38bd 82a5 beba 00a4 e03d
000001a0: 2358 31bd b444 87bd 3d10 183e d1c8 1a3e
000001b0: 4562 123e 11f0 2abd 88a9 4c3e 610b f9bd
000001c0: b74b d93d 4b46 293e ed2f e33d 3003 82bd
000001d0: 2e99 a23c 249a a23d 7ed1 e8bd 52f5 833d
000001e0: bb37 1e3e c51d 33bd 8287 c4bd 092b 273e
000001f0: 7112 cd3c d84a 8dbd af69 713d 1656 5abd
00000200: ccba b53d f6ce 2c3d 8688 223d 30f4 c73c
00000210: 23a9 7e3d 997f 27bd 153b a6bd 85e3 173d
00000220: d55a 653d 2ddb cbbd 52e4 98bd 7ffb 0fbd
00000230: 3e05 123d 017a fb3c 3fe0 263d 9a56 87bd
00000240: 7cec 5a3b fa10 213d 5fa5 303d 896e a5bc
00000250: 38eb 2dbd f964 803c 9308 a03d b684 c03b
00000260: 3ffc 2bbd 5101 8abc b343 29bc 51d2 5f3d
00000270: 2256 1cbd 4a73 d2bd a0d8 a2bd b151 af3a
00000280: 87d3 c5bc e4a2 18bd 07b1 383d 2e54 f63d
00000290: 4c49 1f3d ed7a 42bb f923 cabd 9af9 ffbd
000002a0: 5b0d fd3c d6de 9a3d f7ea 86bc 6785 86bc
000002b0: 8959 93bd e047 563d 3a2f 01bd 59d8 28bd
000002c0: f338 10bd 5a38 9f3d 2e16 963c 44ea e03d
000002d0: 1626 aa3d 5321 61bd 7304 9ebd ec73 b43d
000002e0: 3b25 de3b d2a9 5fbc 3497 133d 5459 153d
000002f0: 7f20 89bc 0e23 69bc 3104 a5bd 36b2 10bd
00000300: 6348 83bb a598 e23c 8e4b 473d bb75 dfbd
00000310: 592d cbbd 79d0 5e3d b91b d53d 8a2e 64bc
00000320: 8b96 783d 8ad4 a3bd a4bc 2b3d 3ec5 0f3e
00000330: de3a d9bc 1722 0bbd c06d 283a 133e 89bd
00000340: 0419 0a3e 2730 c5bb b4ff d5bd a22c 75bd
00000350: 3cae db3d 797e 853b 318a 19bd de57 c03d
00000360: 3bc3 20bd d5fa 863a 5c37 abbd a45b e53d
00000370: 4817 cdbd 4529 3c3d 8f54 14bc b3ff 4d3d
00000380: e068 e23a 314e cc3d e7cd be3d bf6f f7bd
00000390: d341 863b a6ec 173d 5344 253d 9f50 48bd
000003a0: ea77 583d 3036 293d 4a95 fe3d d3b7 b23d
000003b0: 5f15 503d b483 25bd 4700 0c3e c747 28bd
000003c0: 0ae5 c1bd fa36 efbb 2476 c0bc 8e7c ec3d
000003d0: 73a9 d4bd 9ae1 6b3b b1f8 133c 8f8b 073d
000003e0: 81cd e43d ee80 20bd e82c 813d 889d c63b
000003f0: b91b 2f3d 5aa5 e0bc f267 153e 79b2 febd
0.09154976 -0.008429026 -0.0038384076 -0.0011314768 0.07403787 0.034555357 -0.06220436 -0.008610621
-0.06464444 0.09828133 -0.08397996 -0.05424713 0.03417617 0.05273499 0.14969423 0.10367052
-0.07378479 -0.1165428 0.039573416 -0.023064137 -0.09784574 0.13201232 -0.09501618 0.061716065
-0.06179135 -0.053686343 0.038572174 0.06819932 0.055514827 -0.06734313 0.0760227 -0.07637515
0.08477994 0.013600694 0.11211447 -0.09769642 -0.02715328 0.17600156 0.13224435 -0.020553831
-0.08841213 -0.03828486 0.021610148 -0.005812854 -0.014909582 0.100453965 0.062420197 -0.08527111
-0.015192599 0.09891809 -0.061686512 0.092033654 0.06678302 0.027752453 0.015475069 0.045154527
0.10324638 -0.048274152 0.08262373 -0.0041192207 -0.027378606 0.104170576 -0.046231773 0.097244814
0.060768254 0.1146676 0.001077522 -0.13406713 -0.015646635 -0.07299578 0.11587937 0.10556814
-0.10091336 -0.006853205 0.02594755 0.123831205 0.042912036 -0.041037627 0.07249025 -0.04025011
-0.019200189 -0.059495017 0.054218624 0.11434959 -0.031511646 0.109020695 0.09523206 0.060984865
-0.058869105 -0.01163178 0.05361659 -0.10641078 -0.06405273 0.030410722 0.15661949 0.07021671
0.012269098 0.07785291 -0.038493183 0.07434636 0.06626323 -0.04509067 -0.0014545175 0.109687805
-0.043296944 -0.06604901 0.14849944 0.15115668 0.142953 -0.04173285 0.19986546 -0.121603735
0.106101446 0.16530721 0.110931255 -0.06348264 0.019848432 0.07939556 -0.113680825 0.064432755
0.15450947 -0.043729562 -0.095961586 0.1632501 0.025033208 -0.06899041 0.05893868 -0.053304754
0.08873519 0.04218956 0.03968098 0.02440843 0.06217302 -0.04089317 -0.08116738 0.037082214
0.055994827 -0.09953914 -0.07465424 -0.035151955 0.03564953 0.030697824 0.0407412 -0.06608315
0.0033405116 0.03932283 0.04312646 -0.020194309 -0.04246065 0.015673148 0.078141354 0.0058751954
-0.041988607 -0.01684633 -0.010331082 0.054643933 -0.03816808 -0.10275896 -0.07951474 0.0013375786
-0.024148716 -0.03726472 0.0450907 0.12027775 0.03888826 -0.002967532 -0.098701425 -0.124987796
0.030890157 0.07562034 -0.016469462 -0.016421033 -0.07194812 0.05231464 -0.03153918 -0.04122195
-0.03521056 0.0777442 0.018321123 0.109821826 0.083080456 -0.05496342 -0.07715692 0.08811173
0.0067793406 -0.013651328 0.03603287 0.036462143 -0.016739128 -0.014229549 -0.0805744 -0.035326205
-0.004006432 0.027660677 0.04865604 -0.10911127 -0.09920759 0.054398034 0.10405678 -0.013927111
0.060690444 -0.07999523 0.04192795 0.14040086 -0.026517328 -0.033968057 0.00064250454 -0.06701293
0.13486105 -0.006017703 -0.10449162 -0.05985702 0.10726592 0.0040739146 -0.037485305 0.09391759
-0.039248686 0.0010298142 -0.08360168 0.1119912 -0.10014206 0.045937795 -0.009053363 0.050292682
0.0017273687 0.09975851 0.093166165 -0.12081861 0.0040972023 0.03709092 0.040348362 -0.04890501
0.052848734 0.041311443 0.124308184 0.08726468 0.05080163 -0.040408805 0.13671981 -0.041084077
-0.09467514 -0.007300255 -0.023493834 0.115471944 -0.103838824 0.0035992623 0.009031461 0.033092078
0.11172009 -0.039185457 0.06307393 0.0060612597 0.042751048 -0.027422596 0.14590433 -0.12436385
